cde/model/eps/1.ckpt (torch, 596943 bytes, 8 tensors)

func.linear1.weight f4 [128, 230]
0.06466366 -0.0276231 0.038156893 -0.039681856 -0.040269382 0.020339973 0.008484261 0.02745356
-0.025010921 0.059430942 0.06613402 -0.02641 0.04541585 -0.04473255 0.020387186 0.02555164
0.032577563 0.0044336086 0.051559944 -0.022393487 0.021072492 0.05933107 0.05609484 -0.066057906
-0.0071184644 0.014552772 -0.04629787 -0.0089273285 0.042034835 -0.058269944 -0.00031381752 -0.0362494
-0.0361936 -0.04208099 -0.052091587 0.039425623 0.04667222 0.04761258 0.02489703 -0.054599915
-0.0031171774 0.0064287954 -0.013445777 -0.009156553 0.049477026 0.0011966374 -0.04752708 -0.037407406
0.044365916 0.02791661 -0.044633787 0.041961696 -0.006968289 -0.060370956 -0.04109333 -0.05059031
-0.029621538 0.056596544 -0.03713914 0.0393953 0.035489284 0.02883396 -0.058520615 0.018668467
0.04421016 -0.05593345 0.054326702 0.014604595 -0.050848227 -0.029370243 -0.03322577 0.013707127
-0.06463403 0.020785607 -0.037716277 -0.061958555 0.0533997 -0.06267898 -0.030159933 -0.046827786
-0.026624937 0.05890583 0.038726162 -0.025509909 0.065412454 -0.035686407 0.06249143 -0.0570626
-0.003459383 0.043947555 0.0041667847 -0.043970153 -0.05771475 0.0143158 -0.026092984 -0.04357886
0.02275175 -0.02309881 -0.026496625 0.0111383125 -0.03095871 0.048091356 -0.06434149 -0.05898439
-0.03114784 0.021073746 0.028175363 -0.06152795 0.04040066 -0.0272801 0.04273633 -0.024475493
-0.02275252 -0.05219487 0.047763634 0.033310562 -0.03423341 -0.05403709 0.0009984786 -0.03756884
-0.0574271 0.008606857 0.04982175 0.02886372 -0.013355407 -0.006238419 0.04388119 -0.06418119
-0.00020858497 -0.022485912 0.05046679 -0.036195636 0.025782865 -0.040924206 0.040883303 -0.004233813
0.007945012 0.06461949 -0.021140644 -0.008440119 0.020496076 -0.009089785 0.05447265 -0.032049976
-0.050929956 -0.0103216525 0.05735917 0.051331345 -0.057954997 0.06529519 -0.052371744 0.04846913
-0.012802409 -0.0611728 0.017144041 -0.061197106 -0.016855145 0.002954904 0.04008645 -0.0052141817
-0.011312132 0.059542783 0.06538077 -0.049291033 0.01673261 0.014518928 0.04421843 -0.014593565
-0.03082537 -0.058483172 0.003212564 -0.026719378 -0.0011834153 -0.009190693 -0.041115575 0.035262536
-0.010684115 -0.058631252 -0.0036157693 -0.023029147 0.04707385 0.054579794 -0.05499662 0.027156902
-0.046584047 -0.025074173 -0.04940366 0.026469916 -0.061756637 0.0054878676 -0.015732247 0.0118587
-0.01056311 -0.060717672 -0.06320258 0.026136842 -0.0010372184 0.044196513 0.012804025 -0.029779827
-0.050264254 0.044166587 -0.023121126 -0.044300426 -0.03869394 0.038609218 0.0060692 -0.040937707
0.06109629 0.017375505 -0.033877403 -0.03788678 -0.06226525 0.06013768 0.047538806 0.053658094
0.043658815 -0.008127453 0.028472388 0.006726643 -0.04978862 -0.007097028 -0.054762952 0.020494143
-0.04250294 0.040282022 0.033248764 0.020717062 0.040631298 -0.0015116829 -0.0027819881 -0.03003159
0.018210933 0.0137535 -0.04053107 -0.036443356 0.0026942815 -0.010696202 0.02091559 0.05328466
0.057444427 -0.022741674 -0.024931721 0.03890662 -0.04595735 -0.029939061 0.016145233 -0.016353201
-0.031170528 0.050947096 0.061145235 -0.0016632284 -0.02653109 -0.046066564 -0.04798968 -0.03026513
00000000: 626e 843d d749 e2bc 674a 1c3d 7189 22bd
00000010: 82f1 24bd 04a0 a63c 9201 0b3c 4ae6 e03c
00000020: b4e3 ccbc dc6d 733d 4671 873d c959 d8bc
00000030: f805 3a3d 7a39 37bd 0703 a73c ac51 d13c
00000040: 0d70 053d ce47 913b 8530 533d 8c72 b7bc
00000050: 38a0 ac3c 2305 733d b4c3 653d 5e49 87bd
00000060: 0242 e9bb c06e 6e3c d6a2 3dbd ee43 12bc
00000070: b82c 2c3d 77ac 6ebd e087 a4b9 407a 14bd
00000080: be3f 14bd 1e5d 2cbd fd5d 55bd c37c 213d
00000090: 5f2b 3f3d 6905 433d dbf4 cb3c 29a4 5fbd
000000a0: 8f49 4cbb a5a8 d23b ad4b 5cbc 5e05 16bc
000000b0: 6ca8 4a3d 7dd8 9c3a c1ab 42bd 8238 19bd
000000c0: 09b9 353d 60b1 e43c ebd1 36bd 07e0 2b3d
000000d0: 3f56 e4bb 8947 77bd 7b51 28bd c937 4fbd
000000e0: dea8 f2bc c7d1 673d 361f 18bd f75c 213d
000000f0: 365d 113d 3235 ec3c 50b3 6fbd 9dee 983c
00000100: b615 353d 791a 65bd ad85 5e3d 1c48 6f3c
00000110: 3b46 50bd dd99 f0bc bf17 08bd dc93 603c
00000120: d95e 84bd 9446 aa3c 627c 1abd 41c8 7dbd
00000130: a5b9 5a3d d65d 80bd f711 f7bc 7ece 3fbd
00000140: 8a1c dabc 3d47 713d 539f 1e3d 28fa d0bc
00000150: f7f6 853d e92b 12bd 04f7 7f3d 79ba 69bd
00000160: d1b6 62bb 5a02 343d 8689 883b 0c1a 34bd
00000170: 4d66 6cbd d18c 6a3c f4c0 d5bc bf7f 32bd
00000180: e161 ba3c b739 bdbc 730f d9bc 787d 363c
00000190: 1f9d fdbc 71fb 443d 79c5 83bd 9e99 71bd
000001a0: c129 ffbc d9a2 ac3c 05d0 e63c bb04 7cbd
000001b0: 2a7b 253d 847a dfbc 4a0c 2f3d d480 c8bc
000001c0: 7e63 babc 4aca 55bd cda3 433d a870 083d
000001d0: 5538 0cbd ff55 5dbd 62df 823a c9e1 19bd
000001e0: ae38 6bbd c603 0d3c e411 4c3d 9c73 ec3c
000001f0: a3d0 5abc a76b ccbb c3bc 333d 6e71 83bd
00000200: 9ab7 5ab9 6034 b8bc 44b6 4e3d e041 14bd
00000210: 9636 d33c 24a0 27bd 4075 273d ccbb 8abb
00000220: cc2b 023c 3957 843d 252f adbc 6d48 0abc
00000230: 63e7 a73c 52ed 14bc b71e 5f3d d646 03bd
00000240: ee9b 50bd 261c 29bc 73f1 6a3d d140 523d
00000250: 3862 6dbd 7cb9 853d c183 56bd 9187 463d
00000260: 32c1 51bc 5490 7abd a971 8c3c d1a9 7abd
00000270: cd13 8abc 10a7 413b b031 243d badb aabb
00000280: 8556 39bc 22e3 733d 5ae6 853d 65e5 49bd
00000290: d412 893c cce0 6d3c 621e 353d d919 6fbc
000002a0: 7d85 fcbc 0d8c 6fbd e189 523b 99e2 dabc
000002b0: d41c 9bba 8f94 16bc ce68 28bd 736f 103d
000002c0: 6d0c 2fbc 5327 70bd 8bf6 6cbb 9fa7 bcbc
000002d0: 82d0 403d 108f 5f3d 2344 61bd 2778 de3c
000002e0: eace 3ebd 5a68 cdbc 7e5b 4abd 70d7 d83c
000002f0: 87f4 7cbd 92d3 b33b eae0 80bc fe4a 423c
00000300: e510 2dbc 18b3 78bd 5b70 81bd ee1c d63c
00000310: 46f3 87ba 6707 353d f9c7 513c d3f4 f3bc
00000320: e4e1 4dbd 06e8 343d 8468 bdbc 5d74 35bd
00000330: 897d 1ebd b324 1e3d 24e0 c63b 4cae 27bd
00000340: 1a40 7a3d 1357 8e3c 08c3 0abd 2b2f 1bbd
00000350: d909 7fbd ee52 763d 0db8 423d 97c8 5b3d
00000360: 96d3 323d 0229 05bc ed3e e93c 2c6b dc3b
00000370: 27ef 4bbd 308e e8bb 1e4f 60bd 55e3 a73c
00000380: 9017 2ebd c3fe 243d db2f 083d d4b6 a93c
00000390: 016d 263d a923 c6ba 0452 36bb cf04 f6bc
000003a0: 182f 953c 5c56 613c e803 26bd a145 15bd
000003b0: 8b92 303b 1f3f 2fbc 2c57 ab3c 0441 5a3d
000003c0: d94a 6b3d bf4c babc 9c3d ccbc 8c5c 1f3d
000003d0: c63d 3cbd c342 f5bc 0243 843c 26f7 85bc
000003e0: 5659 ffbc e7ad 503d 6d73 7a3d af00 daba
000003f0: ba57 d9bc 4bb0 3cbd d490 44bd 94ee f7bc

func.linear1.bias f4 [128]
0.044695303 -0.017319376 -0.055091787 0.0096932575 0.0052825226 -0.04900199 -0.014351741 -0.055525783
0.032789238 -0.036831193 0.04934373 0.012357644 0.04554834 -0.043691173 0.0039364384 -0.04863849
0.002180563 0.050369393 -0.060378995 0.026563177 -0.0078860875 0.05652277 -0.04401282 -0.009846509
0.003402037 -0.0008012242 0.031792223 -0.030205877 0.051160183 0.063923724 -0.05628397 0.021065203
0.02167474 -0.028513942 0.013876795 -0.021586481 -0.016996948 -0.044366006 -0.012026469 0.05407715
-0.05470325 -0.0041677025 0.05609272 0.049682952 0.0354859 -0.0037246826 -0.06050525 0.024858953
-0.05463514 -0.017532155 -0.009162157 -0.058086645 -0.03409014 0.002640595 0.034791723 0.0068194717
0.00649017 -0.03650595 -0.010695494 0.056767665 -0.03656577 -0.06008976 0.023284942 -0.0106130885
0.04453524 0.008923001 -0.0150436545 -0.01790588 -0.028770862 0.029269833 0.037781563 -0.040083155
-0.02190426 0.050274875 0.021825392 0.05400595 -0.062437747 -0.015760368 -0.015479978 -0.062764496
-0.016715774 -0.053694304 -0.016291428 0.018610902 -0.012652962 0.011876291 0.0432536 0.029759876
-0.053011224 0.040677242 0.012159967 -0.038526412 -0.04393838 -0.02108306 -0.03644739 -0.05584315
-0.043099333 -0.013939127 -0.028177096 0.039556712 0.05671176 -0.018880244 -0.054267507 -0.047604106
0.066116445 -0.017765755 0.048564665 0.0065090675 -0.02097428 -0.0018717556 0.06289252 0.04485146
0.03773991 -0.020015085 -0.04438873 0.04345743 -0.024425251 0.0020069478 0.057625778 0.013204717
-0.0017654783 0.035545293 -0.045375038 -0.020102454 0.008374086 -0.057522714 0.042540308 -0.03339474
00000000: 6c12 373d 5de1 8dbc eda7 61bd 78d0 1e3c
00000010: 0319 ad3b 50b6 48bd 9123 6bbc 016f 63bd
00000020: 024e 063d 4edc 16bd a71c 4a3d b777 4a3c
00000030: e590 3a3d 84f5 32bd 3dfd 803b 2739 47bd
00000040: c7e7 0e3b 2350 4e3d f74f 77bd 059b d93c
00000050: a634 01bc 6c84 673d c946 34bd 4153 21bc
00000060: b6f4 5e3b 3f09 52ba 9038 023d 5172 f7bc
00000070: 578d 513d 71ea 823d 058a 66bd ef90 ac3c
00000080: 398f b13c 1296 e9bc 7f5b 633c 22d6 b0bc
00000090: 2f3d 8bbc 21b9 35bd ab0a 45bc 0080 5d3d
000000a0: 8410 60bd 3991 88bb 7bc1 653d 5a80 4b3d
000000b0: aa59 113d ce19 74bb 5ad4 77bd 01a5 cb3c
000000c0: 19c9 5fbd 989f 8fbc df1c 16bc 43ec 6dbd
000000d0: 1aa2 0bbd d50d 2d3b c481 0e3d e075 df3b
000000e0: 7eab d43b 4387 15bd 273c 2fbc 3685 683d
000000f0: fdc5 15bd ae20 76bd 10c0 be3c 85e2 2dbc
00000100: 956a 363d c731 123c a979 76bc 5aaf 92bc
00000110: dfb0 ebbc 4ac7 ef3c d7c0 1a3d 3c2e 24bd
00000120: 9070 b3bc 07ed 4d3d 2acb b23c 5835 5d3d
00000130: b9be 7fbd e31b 81bc bc9f 7dbc ac8a 80bd
00000140: 85ef 88bc 8fee 5bbd 9a75 85bc e475 983c
00000150: 5e4e 4fbc c694 423c b02a 313d fcca f33c
00000160: 4c22 59bd 2e9d 263d 993a 473c dfcd 1dbd
00000170: bbf8 33bd 62b6 acbc dc49 15bd c9bb 64bd
00000180: ed88 30bd f060 64bc a7d3 e6bc 3806 223d
00000190: 974a 683d beaa 9abc 9b47 5ebd 86fc 42bd
000001a0: 0f68 873d 7d89 91bc beeb 463d 044a d53b
000001b0: 41d2 abbc b255 f5ba cbcd 803d 2ab6 373d
000001c0: 2a95 1a3d adf6 a3bc f5d0 35bd 6b00 323d
000001d0: 7717 c8bc ff86 033b 0209 6c3d 9958 583c
000001e0: 9f67 e7ba f197 113d 2ddb 39bd e7ad a4bc
000001f0: 7633 093c f09c 6bbd bf3e 2e3d ecc8 08bd

func.linear2.weight f4 [690, 128]
0.025878938 -0.017988129 -0.084577724 0.04977646 0.0018842849 -0.081691064 -0.0500138 -0.02538367
-0.06289047 -0.0039009033 0.019065589 0.0062288363 -0.022862526 -0.08327315 -0.008223287 -0.020747684
-0.041848533 -0.02793697 0.014523888 -0.07703178 -0.07565193 0.050402317 -0.02730474 0.07383724
-0.08671709 0.041647017 0.035686668 0.020408679 0.015653746 -0.061935842 0.085288115 -0.028641604
-0.07217786 0.082113035 0.019057963 -0.05988354 0.040253498 -0.029903563 0.04808851 -0.016716328
0.019832054 -0.018735353 0.054947834 -0.022995539 -0.058913786 -0.055856805 -0.054130368 0.0844604
-0.021339087 0.081883125 -0.048029248 -0.07275264 -0.07590713 0.08094529 0.03970181 0.024588829
0.065049805 0.062778495 0.006004441 0.080013156 0.004232091 0.061636616 -0.02761705 0.087307416
0.08407193 0.0032161921 -0.037730895 0.007977385 -0.017902639 -0.043850455 -0.055580795 0.015816048
0.008848613 -0.013809306 0.027548907 -0.031643532 -0.03491226 0.063100055 0.017651912 0.054535344
-0.084381334 0.04017544 0.07844453 0.043574534 -0.08779047 0.033081096 -0.033677008 -0.07743546
0.072853394 -0.034466956 -0.0651455 -0.041694995 0.07879585 -0.04500116 -0.081689075 -0.014057392
0.077765666 0.0012088177 0.07948271 -0.032831546 -0.06976829 0.067119226 -0.017105969 0.051176567
0.03715621 -0.041385233 -0.029142492 -0.039205458 0.0061869523 0.0732488 0.02979643 -0.022302264
0.05463326 -0.03724859 -0.039764497 -0.021095 -0.08390431 0.05616429 -0.03179325 -0.044398267
0.019722322 -0.00011613086 0.059735816 0.009923148 0.0664706 -0.013940558 -0.06248531 0.07012422
-0.031350512 -0.061491888 -0.015565719 0.0038144656 -0.046799455 -0.058108367 0.00067063863 0.034335036
-0.039839733 0.030131552 0.07090161 -0.016021715 0.08540073 -0.048425674 0.02918837 -0.029726699
-0.04673259 -0.06493442 -0.016405705 -0.083083086 0.038538605 -0.08338139 -0.027735574 0.03766068
-0.0056661493 0.037401725 0.019918492 -0.056408536 0.02929795 -0.08297868 0.04511991 0.0834851
0.03610517 -0.024721848 -0.050013386 -0.046863962 0.02302294 0.05296849 -0.008885165 -0.07431876
0.07285813 -0.028540978 0.06743806 -0.013473372 0.03316041 0.07827478 0.0038984825 -0.028758902
0.06611865 0.03411232 0.04325252 0.02003019 0.048911236 -0.057084017 0.045990903 -0.0008169723
0.061917145 0.02187295 0.029008267 0.029268771 0.047698237 -0.06778418 0.073343225 0.038620766
-0.08141562 0.047167204 0.03499917 -0.026581667 -0.049053635 0.070875585 -0.012541516 -0.026643723
-0.031498585 0.07411588 -0.06093457 -0.0048349313 0.016116932 -0.041638423 0.018017694 -0.022780268
0.07862213 0.050999705 -0.0049734437 -0.061236534 0.044998363 0.030906398 -0.033915028 -0.058859378
-0.02635076 -0.07438189 -0.05754631 -0.07450953 0.08483478 -0.016643334 0.026371336 -0.082109824
-0.08197941 -0.02683443 0.007087513 0.036967404 -0.0021720284 -0.02513366 0.00487812 -0.010930568
0.01671358 0.055501774 -0.08096165 0.07294413 -0.08546489 0.060754847 -0.041168444 -0.06978611
0.063988976 0.006925588 0.06735552 0.054548725 0.07421322 0.001562114 0.0033490404 0.031949744
0.013886435 -0.08308998 -0.06752752 0.020625368 0.004375214 -0.07532471 0.003940049 -0.035857588
00000000: 1100 d43c d75b 93bc 1637 adbd 67e2 4b3d
00000010: 1cfa f63a a54d a7bd 45db 4cbd 6af1 cfbc
00000020: b8cc 80bd 4ca6 7fbb 702f 9c3c 441b cc3b
00000030: 314a bbbc 1d8b aabd f7ba 06bc 0cf7 a9bc
00000040: 5e69 2bbd 13dc e4bc 9af5 6d3c d6c2 9dbd
00000050: 66ef 9abd a972 4e3d 31ae dfbc fb37 973d
00000060: bb98 b1bd 1096 2a3d 2f2c 123d 1a30 a73c
00000070: 493c 803c 70b0 7dbd 89ab ae3d cca1 eabc
00000080: fcd1 93bd e12a a83d 721f 9c3c 7148 75bd
00000090: dae0 243d 51f8 f4bc 75f8 443d aef0 88bc
000000a0: d576 a23c e27a 99bc fb10 613d 2461 bcbc
000000b0: 954f 71bd 1bca 64bd ceb7 5dbd 93f9 ac3d
000000c0: 4fcf aebc 57b2 a73d 51ba 44bd 56ff 94bd
000000d0: 3375 9bbd a5c6 a53d 5d9e 223d 836e c93c
000000e0: d538 853d 0392 803d e7c0 c43b f0dd a33d
000000f0: 5aad 8a3b ad76 7c3d 273d e2bc 3bce b23d
00000100: e72d ac3d c0c6 523b b68b 1abd 94b3 023c
00000110: 8ea8 92bc 899c 33bd b0a8 63bd a890 813c
00000120: c6f9 103c 6d40 62bc 3fae e13c a69c 01bd
00000130: 2800 0fbd 9a3a 813d be9a 903c 7460 5f3d
00000140: 1fd0 acbd 018f 243d 87a7 a03d 367b 323d
00000150: 7dcb b3bd 0b80 073d e7f0 09bd 7c96 9ebd
00000160: 2934 953d 392d 0dbd 016b 85bd 5fc8 2abd
00000170: b85f a13d 2353 38bd 9a4c a7bd fa50 66bc
00000180: 9b43 9f3d 3171 9e3a d5c7 a23d 5f7a 06bd
00000190: ade2 8ebd ce75 893d d121 8cbc 859e 513d
000001a0: 1c31 183d 9083 29bd 3cbc eebc e795 20bd
000001b0: ebbb ca3b 7803 963d a517 f43c 3db3 b6bc
000001c0: 20c7 5f3d fa91 18bd 19e0 22bd 6ccf acbc
000001d0: 06d6 abbd 870c 663d a439 02bd f5da 35bd
000001e0: b590 a13c 488b f3b8 8bad 743d b394 223c
000001f0: bd21 883d f066 64bc 99f0 7fbd 499d 8f3d
00000200: 6569 00bd ebde 7bbd 5c07 7fbc 1dfc 793b
00000210: c9b0 3fbd 0a03 6ebd cccd 2f3a e5a2 0c3d
00000220: fd2e 23bd 72d6 f63c dd34 913d f93f 83bc
00000230: 94e6 ae3d 005a 46bd 731c ef3c 6885 f3bc
00000240: ac6a 3fbd 56fc 84bd 4265 86bc 7727 aabd
00000250: a8da 1d3d ddc3 aabd b735 e3bc 1642 1a3d
00000260: 1bab b9bb 8d32 193d 1b2c a33c a30c 67bd
00000270: 4102 f03c baf0 a9bd a8cf 383d 3cfa aa3d
00000280: 04e3 133d 7985 cabc d6da 4cbd 6df4 3fbd
00000290: 9b9a bc3c 7df5 583d 1593 11bc 6f34 98bd
000002a0: a536 953d c5ce e9bc f71c 8a3d 6bbf 5cbc
000002b0: 36d3 073d 874e a03d af7d 7f3b ca97 ebbc
000002c0: 3769 873d 5cb9 0b3d 8e29 313d 5a16 a43c
000002d0: 2657 483d eed0 69bd f560 3c3d 152a 56ba
000002e0: d59c 7d3d e72e b33c bfa2 ed3c 10c5 ef3c
000002f0: 3a5f 433d 6fd2 8abd f934 963d cf30 1e3d
00000300: 3cbd a6bd 6632 413d 4a5b 0f3d ccc1 d9bc
00000310: 77ec 48bd 3827 913d ee7a 4dbc f043 dabc
00000320: a904 01bd 11ca 973d 8796 79bd 586e 9ebb
00000330: a807 843c 0d8d 2abd d899 933c af9d babc
00000340: a404 a13d 11e5 503d 45f8 a2bb 29d3 7abd
00000350: 3450 383d 6a2f fd3c 7cea 0abd 8816 71bd
00000360: 8ddd d7bc 8855 98bd aeb5 6bbd 7498 98bd
00000370: dbbd ad3d 9a57 88bc b308 d83c 3229 a8bd
00000380: d2e4 a7bd e1d3 dbbc 5e3e e83b 226b 173d
00000390: 9758 0ebb 1be5 cdbc a3d8 9f3b 2016 33bc
000003a0: ebea 883c d455 633d 39cf a5bd bb63 953d
000003b0: 3708 afbd 13da 783d 3ea0 28bd 05ec 8ebd
000003c0: a70c 833d 0bf0 e23b b1f1 893d 7c6e 5f3d
000003d0: 1afd 973d d9bf cc3a 937b 5b3b bcdd 023d
000003e0: ee83 633c 142b aabd de4b 8abd 88f6 a83c
000003f0: f55d 8f3b d743 9abd 871b 813b 68df 12bd

func.linear2.bias f4 [690]
0.015174784 -0.06032114 -0.034366228 0.0069252267 -0.048047744 -0.036201295 -0.0039501307 0.051263224
-0.040598344 -0.03713513 0.037171893 -0.07419333 -0.062379222 0.05042548 -0.045316413 -0.038340103
0.07455999 -0.00071281526 0.018374836 0.061231934 -0.066553794 0.01025108 -0.05537716 0.021975808
-0.050701693 0.07110637 -0.05297971 0.06017675 0.009610836 -0.06469135 -0.045555957 -0.07641551
-0.019977191 0.059545837 0.005349905 0.075963125 -0.052989352 -0.08694867 0.08226909 0.06541463
0.079980135 -0.06222196 -0.050222725 0.014594683 0.0651642 -4.898009e-05 0.07083959 0.05984885
0.00088875025 0.07581448 -0.038845006 0.07386603 -0.03233926 -0.012774132 -0.06971862 -0.042442255
0.08338582 0.0442994 -0.080073275 -0.069731064 -0.000703981 -0.059693012 0.0035300192 0.021959737
0.036704287 0.0037592263 -0.07383247 0.065864235 0.07031787 -0.0096457675 0.030808164 -0.058607437
-0.06271007 0.07097315 0.012324894 0.049120847 -0.032709308 -0.023613108 -0.009696523 -0.006377323
-0.060108546 0.011666406 0.021160878 -0.054287277 -0.07659281 -0.038215224 -0.035059463 0.043562356
-0.015263305 0.043467756 0.05319817 0.081968725 0.076302245 0.01348851 0.08004702 0.038171668
-0.029552033 0.08746709 -0.05633891 0.022107309 0.0038761795 -0.035795666 -0.023624126 0.0022053618
-0.08525571 -0.037847854 0.06396733 -0.03463775 0.03670049 -0.066344425 0.0847976 -0.042833235
-0.036286376 -0.060373686 -0.058420774 -0.05157243 0.037436694 -0.0054975096 -0.05900572 0.071518764
-0.0047670873 -0.010100907 -0.07864116 0.023347804 0.058862936 0.029371278 0.03232461 -0.010994914
0.02626291 -0.06824791 0.044328503 0.03893439 -0.025325503 0.0740822 -0.055601068 -0.039218865
0.07649393 -0.07645687 -0.018355083 -0.01660926 -0.048476413 0.006401737 -0.016329113 -0.048153564
0.05218052 -0.01678589 -0.062425952 -0.071868494 0.04986179 0.048401553 0.07080985 -0.0701909
-0.00042991422 -0.052438732 -0.08138802 -0.047081307 -0.060609903 0.0210883 -0.08721927 0.06907163
0.04018042 0.0059393235 -0.086698405 0.08627722 -0.038002517 0.0626436 0.06402582 -0.05178319
0.073630944 -0.032893665 0.0044880286 -0.06162931 -0.053503387 0.07509333 0.0038875863 0.02733592
0.037973315 -0.03568829 -0.086155675 -0.07503794 0.079488635 -0.062310144 0.04417988 0.059434578
0.02189803 0.07247491 -0.06747429 -0.008004561 0.021372912 0.06344591 -0.00457495 0.06265539
-0.05184475 -0.025201213 -0.041748505 0.044105463 0.031002957 0.0009790332 0.075426795 0.058775976
-0.040164165 0.028341094 -0.05349285 -0.07173549 0.061602883 0.004644688 0.082032904 0.08864066
-0.023996368 -0.086734705 -0.06679961 -0.07573076 0.06379293 0.058448404 0.076734714 0.046778634
0.08248789 0.07780516 -0.08519445 -0.016309448 -0.0056960722 0.007877266 -0.036077313 0.0115402695
0.03753104 -0.06625043 -0.0037909662 -0.006052238 0.04038502 -0.058340516 -0.04301814 -0.025760697
-0.046054933 0.032330953 0.01734659 -0.0065968595 -0.06463746 -0.07244499 0.020395651 -0.057223096
0.028778814 0.04583012 -0.002840842 -0.08459407 -0.065074265 -0.02476258 -0.05195707 -0.028371671
0.038576044 -0.00458718 0.0015021564 -0.06865741 0.02584812 -0.0008469662 0.0678083 -0.041375365
00000000: a89f 783c 4d13 77bd 9ac3 0cbd 03ed e23b
00000010: b6cd 44bd cf47 14bd 1970 81bb 63f9 513d
00000020: 734a 26bd 021b 18bd 8e41 183d acf2 97bd
00000030: 5b81 7fbd f38a 4e3d b49d 39bd 830a 1dbd
00000040: e8b2 983d 39dc 3aba d386 963c 56ce 7a3d
00000050: 5b4d 88bd 25f4 273c 29d3 62bd 9c06 b43c
00000060: 94ac 4fbd 37a0 913d 4101 59bd e57b 763d
00000070: c576 1d3c e67c 84bd e298 3abd bc7f 9cbd
00000080: 35a7 a3bc 56e6 733d 424e af3b 8e92 9b3d
00000090: 5d0b 59bd 2512 b2bd b27c a83d 1bf8 853d
000000a0: a0cc a33d 74dc 7ebd 58b6 4dbd 8a1e 6f3c
000000b0: cf74 853d f96f 4db8 5914 913d 1124 753d
000000c0: 05fb 683a 9f44 9b3d f11b 1fbd 1347 973d
000000d0: 2c76 04bd 984a 51bc a3c8 8ebd eed7 2dbd
000000e0: 2fc6 aa3d 4a73 353d 75fd a3bd 29cf 8ebd
000000f0: 5d8b 38ba a980 74bd e557 673b e8e4 b33c
00000100: 3c57 163d 5a5d 763b 7a35 97bd d4e3 863d
00000110: d102 903d 4809 1ebc 6761 fc3c 5a0e 70bd
00000120: 236e 80bd 5f5a 913d 5aee 493c f132 493d
00000130: 32fa 05bd 4770 c1bc 2ade 1ebc ddf8 d0bb
00000140: 6134 76bd 7424 3f3c 9459 ad3c 565c 5ebd
00000150: b1dc 9cbd 9187 1cbd 839a 0fbd 716e 323d
00000160: f112 7abc 3f0b 323d 53e6 593d 38df a73d
00000170: 5a44 9c3d e9fe 5c3c b1ef a33d e559 1c3d
00000180: 1b17 f2bc f221 b33d a1c3 66bd 631a b53c
00000190: 8007 7e3b 7a9e 12bd 6287 c1bc d587 103b
000001a0: 8c9a aebd 5a06 1bbd 4e01 833d 50e0 0dbd
000001b0: 4153 163d 96df 87bd 5daa ad3d e771 2fbd
000001c0: 06a1 14bd 664a 77bd 9f4a 6fbd 9d3d 53bd
000001d0: 3857 193d 7424 b4bb fbaf 71bd 6e78 923d
000001e0: 3a35 9cbb 467e 25bc 9e0e a1bd e543 bf3c
000001f0: 431a 713d 099c f03c cf66 043d 0324 34bc
00000200: 5025 d73c 8fc5 8bbd ce91 353d ab79 1f3d
00000210: 6e77 cfbc 69b8 973d f2bd 63bd f6a3 20bd
00000220: d9a8 9c3d 6b95 9cbd 665d 96bc 2510 88bc
00000230: 348f 46bd aac5 d13b a2c4 85bc ac3c 45bd
00000240: 3ebb 553d 9082 89bc 5bb2 7fbd ca2f 93bd
00000250: e03b 4c3d b540 463d c104 913d 3fc0 8fbd
00000260: 1c66 e1b9 ffc9 56bd c3ae a6bd 54d8 40bd
00000270: 1742 78bd 5fc1 ac3c 04a0 b2bd 6d75 8d3d
00000280: 3994 243d a89e c23b ef8e b1bd 1cb2 b03d
00000290: 87a8 1bbd 4a4b 803d f81f 833d 9c1a 54bd
000002a0: d2cb 963d 82bb 06bd 5010 933b 046f 7cbd
000002b0: 5e26 5bbd 88ca 993d e0c6 7e3b 94ef df3c
000002c0: e889 1b3d e22d 12bd 6372 b0bd 7ead 99bd
000002d0: f0ca a23d ec38 7fbd f6f5 343d ac71 733d
000002e0: 7f63 b33c ba6d 943d f62f 8abd 9025 03bc
000002f0: 3f16 af3c eeef 813d 76e9 95bb 7851 803d
00000300: 295b 54bd c672 cebc 7b00 2bbd eea7 343d
00000310: eaf9 fd3c e752 803a 5d79 9a3d 14bf 703d
00000320: 2e83 24bd 952b e83c 521b 5bbd 0eea 92bd
00000330: 4e53 7c3d 7832 983b de00 a83d 3c89 b53d
00000340: 0894 c4bc f7a1 b1bd 3cce 88bd bb18 9bbd
00000350: dea5 823d 9867 6f3d 1727 9d3d f49a 3f3d
00000360: 69ef a83d 5058 9f3d 6e7a aebd 649b 85bc
00000370: 1ea6 babb a60f 013c cec5 13bd 6613 3d3c
00000380: 26ba 193d 4eae 87bd dc71 78bb da51 c6bb
00000390: c36a 253d 77f6 6ebd ca33 30bd 1908 d3bc
000003a0: 19a4 3cbd 766d 043d 701a 8e3c 782a d8bb
000003b0: a560 84bd 0a5e 94bd c814 a73c c462 6abd
000003c0: 8cc1 eb3c 5db8 3b3d 6b2d 3abb a83f adbd
000003d0: a845 85bd e5da cabc f0d0 54bd b56b e8bc
000003e0: ea01 1e3d 0e50 96bb 01e4 c43a 429c 8cbd
000003f0: 70bf d33c f106 5eba 14df 8a3d 3779 29bd

initial.weight f4 [230, 3]
-0.1486195 0.08306076 0.4774036 -0.058464233 0.19481276 -0.35780114 0.29186207 -0.07359406
-0.4836998 -0.066163056 0.008621756 -0.5131478 -0.11545137 0.543807 -0.41247264 0.28813833
0.2954189 0.3870076 0.54082793 -0.0067145983 -0.1038899 -0.41731828 -0.0010213726 -0.40522963
0.07666043 -0.122721024 -0.30645466 0.5772749 -0.26414105 -0.5059739 -0.31047532 0.08730114
0.24226573 0.17126907 -0.05135884 -0.12729256 -0.2011643 0.5723529 -0.36316663 -0.18576168
-0.20348352 0.18734314 -0.32659695 0.35245633 -0.37159133 -0.0803526 -0.095074125 0.17496555
0.39592862 -0.24817714 -0.44711804 -0.10974382 0.5375764 -0.14077567 0.4159887 -0.08295194
-0.50288826 0.18688716 0.28190285 0.05337933 0.25332043 -0.083059676 0.40744096 -0.56355816
-0.18123582 0.03757814 -0.011425138 0.24062899 0.2718404 -0.0130948 -0.47815743 -0.31007066
-0.020511404 0.51439995 -0.113816544 0.38413575 0.5036554 -0.18373887 -0.011005997 0.41149792
-0.5440086 0.33544585 0.013626217 -0.23617552 0.22695932 -0.47214836 0.29202908 -0.34494337
0.30983463 0.16212319 0.23230281 -0.3089376 -0.26017156 -0.10679578 -0.092755266 0.15544237
0.081779964 0.036483686 -0.2852723 0.045180943 -0.38615593 -0.14609107 0.12273693 0.57306546
-0.4048747 0.32096645 0.16859367 -0.54965985 0.47061437 -0.09996887 0.5495525 0.5393266
-0.13673717 -0.41875872 0.17067005 0.079671174 0.21330027 -0.01856415 0.04197993 -0.48520476
0.05589094 -0.123648874 -0.20823261 -0.31792277 -0.5416097 -0.39991707 -0.24411319 0.5293641
0.09588999 0.35378835 0.34085858 -0.4297041 0.2487332 0.44778642 0.26334375 0.55471027
0.16410902 0.0016804439 0.54431945 -0.103306554 -0.115028605 0.014681457 0.42254272 0.19829954
-0.15121837 -0.0022210923 -0.5487311 0.07615469 -0.46675614 -0.16396683 -0.06988757 -0.45123288
0.38820252 -0.48252544 -0.48061484 0.47854713 0.37896016 0.27696332 0.44161394 0.5416273
0.2894122 -0.42388988 0.38220492 -0.32037926 -0.17356758 -0.15129083 0.19226323 -0.2633102
0.37112576 -0.22504278 8.485e-06 -0.36632827 -0.4073367 -0.11059639 -0.48291972 -0.5549107
0.44854257 -0.05539115 -0.26495662 -0.13746805 0.27264526 -0.4760762 0.30542782 -0.52231205
-0.45772466 0.118554115 0.10409906 0.33402783 -0.4541001 0.24593608 -0.52626264 0.55672425
0.31127688 0.23246956 0.10448671 -0.09749176 -0.3180779 -0.29761305 0.19866289 -0.12609336
0.24951205 -0.3160926 -0.032769877 0.48857477 0.5115461 -0.571967 -0.4046231 -0.20922083
-0.22601779 -0.20210496 0.54551715 0.11730138 -0.20751958 0.57026 -0.011653534 -0.35167906
-0.50535554 -0.4371921 0.07446005 -0.35004333 0.39512873 -0.38799623 -0.025765443 -0.17772536
-0.23812573 0.45720205 -0.11812193 -0.34052554 -0.3726444 0.24316725 -0.3941717 0.30922508
0.17134589 -0.062436704 -0.2229194 0.02799583 -0.3002206 0.1722208 -0.47744766 -0.4475284
-0.42392448 -0.29367828 -0.5605432 -0.5490608 0.5607917 -0.46140203 -0.5365199 -0.17314667
-0.071225554 -0.10955926 -0.48786837 0.116648026 -0.3626267 -0.5387834 -0.11685858 0.17646243
00000000: b62f 18be c21b aa3d 3f6e f43e 3178 6fbd
00000010: ff7c 473e b631 b7be f26e 953e 7cb8 96bd
00000020: 80a7 f7be 7f80 87bd 4442 0d3c a75d 03bf
00000030: c571 ecbd f036 0b3f 9d2f d3be de86 933e
00000040: 2541 973e dc25 c63e b373 0a3f 2206 dcbb
00000050: 3ac4 d4bd beaa d5be 94df 85ba 427a cfbe
00000060: 2500 9d3d 2955 fbbd a0e7 9cbe 4ac8 133f
00000070: 7f3d 87be 8187 01bf 9ff6 9ebe f1ca b23d
00000080: 8214 783e 2961 2f3e a65d 52bd fb58 02be
00000090: 04fe 4dbe b885 123f faf0 b9be 4f38 3ebe
000000a0: fc5d 50be e1d6 3f3e b737 a7be 2875 b43e
000000b0: 3841 bebe e78f a4bd 39b6 c2bd 2b2a 333e
000000c0: 28b7 ca3e 2622 7ebe a8ec e4be 5ec1 e0bd
000000d0: 9b9e 093f 7f27 10be 79fc d43e b5e2 a9bd
000000e0: 49bd 00bf 595f 3f3e 9255 903e 49a4 5a3d
000000f0: 37b3 813e 311b aabd 1a9c d03e 5945 10bf
00000100: e295 39be 89eb 193d 8130 3bbc 7267 763e
00000110: aa2e 8b3e 928b 56bc 0dd1 f4be 95c1 9ebe
00000120: 8807 a8bc b7af 033f a618 e9bd 71ad c43e
00000130: 8fef 003f 0b26 3cbe 7f52 34bc dbaf d23e
00000140: 2644 0bbf 8fbf ab3e 7f40 5f3c ffd7 71be
00000150: 0668 683e 6ebd f1be d684 953e 6b9c b0be
00000160: a5a2 9e3e 9f03 263e cae0 6d3e 122d 9ebe
00000170: 3535 85be bfb7 dabd 79f6 bdbd 492c 1f3e
00000180: 417c a73d eb6f 153d 360f 92be a70f 393d
00000190: 3bb6 c5be e698 15be 805d fb3d 6bb4 123f
000001a0: bd4b cfbe b755 a43e d2a3 2c3e 82b6 0cbf
000001b0: 5ef4 f03e 7bbc ccbd 79af 0c3f 4f11 0a3f
000001c0: d404 0cbe 8b67 d6be 21c4 2e3e a42a a33d
000001d0: 636b 5a3e d813 98bc 26f3 2b3d c26c f8be
000001e0: e6ed 643d 9f3b fdbd ee3a 55be c6c6 a2be
000001f0: efa6 0abf eec1 ccbe cff8 79be 6884 073f
00000200: f961 c43d bf23 b53e 0485 ae3e 2d02 dcbe
00000210: eab3 7e3e 4344 e53e fed4 863e 7e01 0e3f
00000220: 320c 283e 5742 dc3a 8558 0b3f 6392 d3bd
00000230: 1e94 ebbd 7e8a 703c 8557 d83e 090f 4b3e
00000240: fdd8 1abe bf8f 11bb a479 0cbf fdf6 9b3d
00000250: a9fa eebe ece6 27be 3721 8fbd ff07 e7be
00000260: 7bc2 c63e 930d f7be 2613 f6be 2104 f53e
00000270: 1107 c23e 23ce 8d3e 391b e23e 16a8 0a3f
00000280: d62d 943e 1808 d9be 5db0 c33e c008 a4be
00000290: b3bb 31be fceb 1abe a7e0 443e 98d0 86be
000002a0: 3204 be3e 9d71 66be cc5a 0e37 618f bbbe
000002b0: 708e d0be 5c80 e2bd 4141 f7be a10e 0ebf
000002c0: 5fa7 e53e d5e1 62bd 65a8 87be 6dc4 0cbe
000002d0: 2998 8b3e 42c0 f3be 0961 9c3e 3eb6 05bf
000002e0: e35a eabe 80cc f23d e331 d53d b205 ab3e
000002f0: cf7f e8be abd6 7b3e 26b9 06bf 7b85 0e3f
00000300: af5f 9f3e 800c 6e3e 21fd d53d c3a9 c7bd
00000310: 1bdb a2be bd60 98be 496e 4b3e 9e1e 01be
00000320: 1680 7f3e e4d6 a1be b539 06bd 7926 fa3e
00000330: aff4 023f 6e6c 12bf c22a cfbe fc3d 56be
00000340: 3571 67be 9af4 4ebe 03a7 0b3f b53b f03d
00000350: 0380 54be 8ffc 113f 77ee 3ebc 470f b4be
00000360: fb5e 01bf a5d7 dfbe 837e 983d e138 b3be
00000370: 504e ca3e 71a7 c6be 0d12 d3bc a3fd 35be
00000380: 3bd7 73be 6316 ea3e e9e9 f1bd 5d59 aebe
00000390: 3fcb bebe d600 793e e0d0 c9be c052 9e3e
000003a0: 4c75 2f3e a1bd 7fbd fc44 64be 8357 e53c
000003b0: 84b6 99be a65a 303e 0574 f4be 7122 e5be
000003c0: a10c d9be 005d 96be c27f 0fbf 408f 0cbf
000003d0: 0b90 0f3f e33c ecbe 5e59 09bf 5c4d 31be
000003e0: b4de 91bd 9b60 e0bd e2c9 f9be 29e5 ee3d
000003f0: 35aa b9be b5ed 09bf 8d53 efbd 91b2 343e

initial.bias f4 [230]
-0.40160942 0.27620962 -0.3592095 -0.52334034 0.43874148 0.102770366 0.15861572 0.45082983
0.17611268 -0.20042163 -0.034511533 -0.57093453 0.14375828 -0.44207457 -0.12595454 -0.57526654
-0.026635755 -0.20870525 -0.027780667 -0.3611638 0.09965574 0.41280493 0.51126325 -0.16482346
-0.07456058 0.18077676 0.5682906 0.16358039 -0.26579058 0.19135495 0.37010705 0.38822597
0.33419973 0.35303956 0.39194325 0.4966154 0.48303813 -0.11531125 -0.50440055 -0.392152
-0.43747604 0.3885163 -0.41802275 0.34415495 0.14110568 -0.31703734 0.5281779 -0.46794644
0.010714782 0.46089163 0.38642567 -0.5738597 -0.54412854 -0.2010089 -0.25920358 -0.46949276
0.25463623 -0.4944596 -0.5440476 -0.12864436 0.2822533 -0.5486239 -0.19121996 0.18353273
0.0364775 -0.3339025 0.3906277 0.52807647 0.402087 0.4173461 0.21723127 -0.075502835
0.25617546 -0.21192558 0.277784 -0.25917658 0.2326043 -0.1019934 0.29544377 -0.41648275
-0.065749034 0.47999996 0.11782078 0.35886914 -0.35995018 -0.03346745 -0.22618261 -0.10826008
0.0002643192 -0.009619383 0.05060368 0.36006507 -0.08115433 0.05291531 -0.29365358 -0.44873208
0.22575033 -0.18100458 -0.06066028 0.4613116 0.14423285 -0.36245412 -0.41266996 -0.37631497
-0.11734424 -0.20081936 -0.3421092 0.21138616 0.18843395 0.4734971 -0.17160821 0.22575268
0.07535153 0.20172982 -0.3591607 0.5613606 0.41323686 0.00070880086 0.056018356 0.5599429
-0.10375803 0.22750431 -0.19020556 0.30078912 -0.11893482 -0.042922236 0.480691 -0.101777926
-0.1339342 0.48210594 -0.55731 -0.3111246 -0.5608428 -0.46662647 -0.41106796 0.091746524
-0.2506513 0.38898572 0.5698781 -0.37340775 0.015049396 0.14634122 -0.09027602 -0.31826192
-0.08252966 -0.46620274 0.2140279 -0.4333995 -0.32079473 -0.19993968 0.05201336 -0.0698377
0.38696933 -0.30298024 0.21069409 -0.0021411655 0.17542922 0.040122557 0.25028422 0.3934723
0.11596579 -0.47551262 0.48491934 -0.13331759 -0.42801926 0.15328346 -0.48285103 -0.19002992
0.07834317 -0.2585781 -0.49112016 0.34076583 -0.43042764 0.06218032 0.03997737 0.3976005
0.36345413 0.40915483 0.4665836 0.010712101 0.5205523 0.0071712052 -0.49719307 0.23697026
0.0940314 -0.22664577 0.26770008 0.2545974 0.14579813 0.5551413 -0.40459248 -0.0057686227
0.52386403 0.060661886 0.36336946 -0.27957553 -0.25373185 -0.15946142 -0.042254366 0.48213375
0.3667577 0.51628894 -0.45441386 0.43950546 0.57180196 0.212339 -0.48971468 -0.2171921
-0.25537232 -0.47762424 0.47545648 0.34680977 -0.5517031 0.20993991 0.47948137 0.48515046
-0.25377035 -0.30594283 0.20433295 -0.5190527 -0.37296942 -0.2138896 0.27392966 0.19546558
-0.56147677 -0.54078764 -0.34577382 0.233062 -0.11623649 -0.4040681
00000000: c09f cdbe 596b 8d3e 4fea b7be a2f9 05bf
00000010: b9a2 e03e 4579 d23d 296c 223e 2bd3 e63e
00000020: e256 343e 543b 4dbe f75b 0dbd c428 12bf
00000030: 5f35 133e 9957 e2be 3afa 00be ab44 13bf
00000040: 3a33 dabc d4b6 55be 4894 e3bc 76ea b8be
00000050: 4f18 cc3d 2b5b d33e 26e2 023f 7bc7 28be
00000060: 38b3 98bd 8b1d 393e 7e7b 113f 9e81 273e
00000070: b415 88be 8df2 433e ac7e bd3e 8ec5 c63e
00000080: 3a1c ab3e 9ac1 b43e c9ac c83e 6044 fe3e
00000090: c650 f73e 4e28 ecbd 6520 01bf 26c8 c8be
000000a0: dcfc dfbe 9ceb c63e 1407 d6be 1435 b03e
000000b0: 027e 103e b852 a2be ab36 073f ad96 efbe
000000c0: 0e8d 2f3c fdf9 eb3e 96d9 c53e 78e8 12bf
000000d0: 024c 0bbf 47d5 4dbe 55b6 84be 5b61 f0be
000000e0: ae5f 823e cf29 fdbe b446 0bbf 59bb 03be
000000f0: 8183 903e 9e72 0cbf 2acf 43be 01f0 3b3e
00000100: 6e69 153d 45f5 aabe 5b00 c83e 0530 073f
00000110: 59de cd3e 63ae d53e e071 5e3e 3ba1 9abd
00000120: 6e29 833e 0503 59be b439 8e3e cbb2 84be
00000130: d22f 6e3e eae1 d0bd 6844 973e 3a3d d5be
00000140: 6ea7 86bd 8ec2 f53e 054c f13d b2bd b73e
00000150: 644b b8be 2a15 09bd 6a9c 67be 76b7 ddbd
00000160: 5394 8a39 9e9a 1dbc ce45 4f3d 735a b83e
00000170: 3e34 a6bd b9bd 583d c359 96be 36c0 e5be
00000180: 182b 673e 4459 39be ea76 78bd 0931 ec3e
00000190: c7b1 133e 9693 b9be 7a49 d3be 5bac c0be
000001a0: 2d52 f0bd 97a3 4dbe f028 afbe 9d75 583e
000001b0: d4f4 403e 366e f23e 10ba 2fbe b62b 673e
000001c0: e751 9a3d 4392 4e3e e9e3 b7be 54b5 0f3f
000001d0: c893 d33e d2ce 393a 8173 653d 6b58 0f3f
000001e0: 177f d4bd e4f6 683e 3fc5 42be 0801 9a3e
000001f0: 1994 f3bd 3acf 2fbd 211d f63e f270 d0bd
00000200: 0c26 09be 97d6 f63e deab 0ebf b94b 9fbe
00000210: 6593 0fbf aae9 eebe 8077 d2be 9ae5 bb3d
00000220: 5e55 80be 2329 c73e 88e3 113f 4d2f bfbe
00000230: be91 763c 79da 153e a2e2 b8bd 3af3 a2be
00000240: 4f05 a9bd 20b2 eebe 212a 5b3e 8ae6 ddbe
00000250: 353f a4be fdbc 4cbe f60b 553d 1107 8fbd
00000260: d820 c63e 3a20 9bbe 31c0 573e cc52 0cbb
00000270: b8a3 333e 8d57 243d 4125 803e 3475 c93e
00000280: 797f ed3d 6476 f3be 5947 f83e 6884 08be
00000290: 5725 dbbe 57f6 1c3e 4038 f7be 3497 42be
000002a0: 6272 a03d 5964 84be 1a74 fbbe dc78 ae3e
000002b0: 0361 dcbe cbb0 7e3d 50bf 233d 4b92 cb3e
000002c0: a916 ba3e be7c d13e 0ce4 ee3e cf81 2f3c
000002d0: ea42 053f 6efc ea3b 1790 febe 55a8 723e
000002e0: 8993 c03d d415 68be fc0f 893e 975a 823e
000002f0: 1b4c 153e be1d 0e3f bf26 cfbe b706 bdbb
00000300: f41b 063f 9978 783d 900b ba3e 8624 8fbe
00000310: 24e9 81be db49 23be ea12 2dbd 3cda f63e
00000320: aac7 bb3e 832b 043f efa8 e8be dc06 e13e
00000330: 9d61 123f 656f 593e e2bb fabe 9b67 5ebe
00000340: 29c0 82be 2a8b f4be 086f f33e 0d91 b13e
00000350: 6a3c 0dbf 7dfa 563e 957e f53e a465 f83e
00000360: 30ee 81be 8aa4 9cbe a83c 513e a3e0 04bf
00000370: d9f5 bebe e005 5bbe 8240 8c3e 2128 483e
00000380: f1bc 0fbf 0f71 0abf 4409 b1be cea7 6e3e
00000390: 660d eebd 04e2 cebe

readout.weight f4 [126, 230]
-0.04289793 0.041382026 -0.064735465 0.046770643 0.029717634 0.05373109 0.008254849 -0.047318332
-0.018678682 0.03303434 -0.0041505564 -0.015922006 0.057644743 -0.05038565 0.0033019604 0.03140622
-0.012589687 0.018806495 -0.02490293 -0.014652423 -0.04168165 0.0544072 0.0030496889 -0.0042373016
-0.028154641 0.06308468 -0.04469554 0.023894506 -0.06144663 -0.04878061 -0.042484086 0.059259683
-0.043810967 -0.00850592 0.06366702 -0.023364313 0.046959825 -0.033109453 0.0509763 0.03092907
0.02733683 -0.039718006 0.0073540066 0.026099898 -0.004773332 -0.016896961 -0.041154087 0.043133438
0.030353919 0.046692964 0.022005165 0.010392059 0.035920154 0.038614918 -0.025578335 0.01149047
0.040645536 0.04704076 -0.063996606 0.03504761 -0.042730972 -0.052941285 -0.043915182 0.031850033
-0.02283768 -0.004452123 -0.04297429 -0.015148342 0.0021733702 0.004478494 0.055250946 -0.023804871
-0.03021942 -0.028363427 -0.013901336 -0.019326877 -0.05023175 -0.024683947 0.030139701 -0.006401395
-0.009627963 -0.050993223 0.0053765355 0.04517459 0.042983964 0.017199608 0.031120043 0.021745194
-0.015108892 0.05767908 -0.008681404 0.046963748 0.04083229 0.03850566 0.023836555 -0.0031935659
-0.0025197426 0.024519077 -0.036981504 -0.044621233 -0.056870062 -0.05149095 0.017034814 -0.01367471
-0.047898438 -0.011852526 -0.0043634195 0.03964882 -0.036411032 -0.053490106 0.036100987 -0.031611558
-0.04948396 0.0042625777 0.035961837 0.059091747 -0.061509896 0.016217362 -0.039542854 0.0009880943
0.015641266 0.033770535 0.024262784 -0.009763735 -0.02360031 0.026742373 -0.02729389 -0.05681799
-0.052322008 0.055886146 0.02884802 0.0012427771 -0.0037270242 -0.002577526 -0.03580219 -0.063207746
-0.056592606 0.044296794 0.039175004 0.024844505 0.03163433 0.01758 -0.039409306 0.048171505
-0.042841405 -0.020546345 -0.0009025558 -0.004182781 -0.048759606 -0.058967233 -0.034267593 0.03519887
0.040577542 -0.04334262 0.026554082 0.040752348 -0.06578943 0.030262085 0.018392032 0.0502221
-0.00567424 -0.049994398 -0.0038482328 -0.0068778917 -0.011046558 -0.025657276 0.010711688 -0.056039322
0.0052316054 -0.037772097 0.061958775 -0.03160384 0.035419747 0.037632436 0.037866525 0.032792784
-0.02955446 -0.03853193 0.012917315 0.06309756 -0.05433381 -0.047565844 0.01321422 -0.046910085
-0.048480388 -0.010543176 -0.038241666 -0.04400569 0.044830915 -0.05294611 -0.0455447 -0.011586574
-0.010620749 -0.0019876254 -0.05677846 -0.023191217 -0.036182698 -0.0507028 0.06629816 -0.013800313
0.009554181 -0.05251106 0.031352993 -0.003834415 -0.0011848201 0.013569094 0.044707626 -0.021209173
-0.039466582 0.06265277 -0.056398857 -0.0017307695 -0.02009683 -0.034418214 0.05610714 0.023476942
0.020042192 0.026458206 0.04491398 0.043730807 0.04246669 -0.04617599 0.015330601 0.047412876
0.05332857 0.025346676 0.0074529294 0.05775657 0.021571686 -0.050556332 -0.062419493 0.027060915
0.0005111758 0.04745461 0.024031762 -0.0073691495 -0.056339696 0.014535062 0.004975876 -0.01589119
0.03602954 0.06315487 0.04954547 0.041471064 -0.04996451 -0.02104704 -0.03297533 0.037270557
0.029642029 -0.020128869 -0.037044927 0.0506497 0.020130206 -0.033541225 -0.043518096 -0.04964129
00000000: bdb5 2fbd 3380 293d 0794 84bd 9392 3f3d
00000010: 6572 f33c 2215 5c3d 593f 073c ded0 41bd
00000020: 0904 99bc 044f 073d 6401 88bb de6e 82bc
00000030: e51c 6c3d 2f61 4ebd b465 583b cfa3 003d
00000040: f944 4ebc 1410 9a3c 3b01 ccbc b710 70bc
00000050: 61ba 2abd 16da 5e3d 4add 473b 10d9 8abb
00000060: 90a4 e6bc 8a32 813d ac12 37bd 69be c33c
00000070: 76af 7bbd 2dce 47bd cb03 2ebd 48ba 723d
00000080: 2173 33bd 6a5c 0bbc db63 823d 8466 bfbc
00000090: f258 403d c79d 07bd 86cc 503d f65e fd3c
000000a0: 7df1 df3c 59af 22bd e1f9 f03b 74cf d53c
000000b0: 9c69 9cbb 7f6b 8abc 3091 28bd b0ac 303d
000000c0: c8a8 f83c 1f41 3f3d 2d44 b43c 7443 2a3c
000000d0: 0321 133d ad2a 1e3d a889 d1bc 8642 3c3c
000000e0: ef7b 263d d0ad 403d a710 83bd 158e 0f3d
000000f0: ac06 2fbd f6d8 58bd 68e0 33bd 2e75 023d
00000100: 1616 bbbc 1de3 91bb cf05 30bd c030 78bc
00000110: 1a6f 0e3b 55c0 923b d14e 623d 6f02 c3bc
00000120: b88e f7bc 6b5a e8bc 6ec2 63bc 6653 9ebc
00000130: cfbf 4dbd fd35 cabc 89e7 f63c cbc2 d1bb
00000140: 9bbe 1dbc 45de 50bd a62d b03b fe08 393d
00000150: f40f 303d 31e6 8c3c 76ef fe3c fa22 b23c
00000160: 498b 77bc e640 6c3d 733c 0ebc 0f5d 403d
00000170: c23f 273d 1cb8 1d3d e144 c33c 254b 51bb
00000180: 4422 25bb 3bdc c83c eb79 17bd c1c4 36bd
00000190: 95f0 68bd 2de8 52bd 988c 8b3c e40b 60bc
000001a0: 2731 44bd 1931 42bc 04fb 8ebb cd66 223d
000001b0: bc23 15bd 7118 5bbd a1de 133d 1f7b 01bd
000001c0: b1af 4abd 18ad 8b3b b84c 133d 300a 723d
000001d0: cdf1 7bbd 46da 843c b0f7 21bd f182 813a
000001e0: 1d22 803c f952 0a3d bfc2 c63c 13f8 1fbc
000001f0: 7055 c1bc d212 db3c 7097 dfbc fbb9 68bd
00000200: 9a4f 56bd dfe8 643d af52 ec3c aee4 a23a
00000210: 1741 74bb b6eb 28bb 51a5 12bd 1073 81bd
00000220: a6cd 67bd 8e70 353d f875 203d b486 cb3c
00000230: 0093 013d ef03 903c a76b 21bd 7c4f 453d
00000240: 787a 2fbd cf50 a8bc 7f99 6cba b60f 89bb
00000250: 27b8 47bd a087 71bd 2d5c 0cbd b12c 103d
00000260: a334 263d 0888 31bd f287 d93c efeb 263d
00000270: 9cbc 86bd 31e8 f73c e3aa 963c b0b5 4d3d
00000280: faee b9bb edc6 4cbd a232 7cbb f05f e1bb
00000290: 9ffc 34bc 352f d2bc 1380 2f3c 7d89 65bd
000002a0: e36d ab3b eab6 1abd 7cc8 7d3d 0773 01bd
000002b0: 4c14 113d 7824 1a3d ee19 1b3d ba51 063d
000002c0: 321c f2bc a8d3 1dbd 25a3 533c 4b39 813d
000002d0: 218d 5ebd 67d4 42bd 7580 583c ca24 40bd
000002e0: 5f93 46bd 49bd 2cbc 4ba3 1cbd 4f3f 34bd
000002f0: 9fa0 373d 05de 58bd 148d 3abd 9dd5 3dbc
00000300: a602 2ebc d242 02bb 8890 68bd 82fb bdbc
00000310: 4f34 14bd bdad 4fbd 54c7 873d b51a 62bc
00000320: 2489 1c3c d615 57bd ff6b 003d cf4a 7bbb
00000330: f74b 9bba e850 5e3c 581f 373d dcbe adbc
00000340: b6a7 21bd 1850 803d 7d02 67bd fdda e2ba
00000350: 1ba2 a4bc 1dfa 0cbd 9ad0 653d b752 c03c
00000360: 862f a43c e1be d83c b9f7 373d 131f 333d
00000370: 8df1 2d3d 0923 3dbd 332d 7b3c 0134 423d
00000380: 0f6f 5a3d d5a3 cf3c b437 f43b 2792 6c3d
00000390: 1bb7 b03c 2814 4fbd 95ab 7fbd daae dd3c
000003a0: 6d00 063a c45f 423d 42de c43c e878 f1bb
000003b0: 74c4 66bd 7824 6e3c ac0c a33b 3e2e 82bc
000003c0: b693 133d 5757 813d 31f0 4a3d 90dd 293d
000003d0: 96a7 4cbd d86a acbc 2411 07bd 03a9 183d
000003e0: d7d3 f23c 4ce5 a4bc 6cbc 17bd 0f76 4f3d
000003f0: 1ae8 a43c 8662 09bd 0840 32bd aa54 4bbd

readout.bias f4 [126]
-0.045742977 0.024277516 -0.018748611 -0.0039037415 0.013863217 0.035245184 -0.04156095 -0.06179979
0.045652382 0.063860044 0.012883591 0.044784505 0.016126378 0.04822036 0.007706502 0.06352015
-0.008553471 0.02913774 -0.035618745 0.032693394 -0.013921561 -0.035546355 0.04706824 0.013171992
-0.0014578891 -0.05183074 -0.00031085478 -0.017767241 -0.035695247 -0.020527547 -0.06597371 -0.010216421
0.013860972 0.061924208 -0.05103777 -0.0010779664 0.003840831 -0.013180924 -0.022055963 -0.010651035
0.04120558 -0.012005509 0.03744238 -0.034734536 -0.05810638 -0.013465109 -0.031496435 -0.05172912
0.0153188985 0.031117741 0.044698566 0.044185903 0.044371795 -0.009103493 -0.025657797 0.018000519
0.026843777 0.0019909826 -0.028003694 0.0034448954 -0.0032958307 -0.00050083455 0.012835853 0.011217867
0.03014903 -0.03273367 0.014030461 -0.02173806 -0.0015196723 0.011207557 0.027210638 -0.06352352
-0.02393213 -0.020785782 0.032503195 -0.014351437 0.03445023 0.02636967 0.04040674 0.04271184
0.061277818 0.06351733 0.014315949 0.019250201 0.033445664 -0.034102686 -0.020416273 -0.0020303715
-0.059433844 0.016680531 -0.018824171 0.0574231 0.0058664023 -0.03624833 -0.03241438 -0.032647297
-0.056477595 -0.034735255 -0.021175103 0.029889451 0.041475583 -0.048256606 0.03262132 -0.053574678
-0.0066243857 0.0023987223 0.05875186 0.06449628 -0.02643642 -0.013610838 -0.009798345 -0.054598488
0.02925071 -0.045507815 -0.040646523 0.013613231 -0.012626848 -0.054182004 -0.024872495 -0.056030322
-0.04390999 -0.019870257 0.032367002 -0.04190192 -0.033562616 0.03073962
00000000: fd5c 3bbd a4e1 c63c b096 99bc ead5 7fbb
00000010: 8c22 633c 415d 103d d13b 2abd c721 7dbd
00000020: fefd 3a3d 0ec9 823d b315 533c f56f 373d
00000030: 771b 843c b682 453d d386 fc3b da16 823d
00000040: dc23 0cbc 45b2 ee3c f6e4 11bd 82e9 053d
00000050: 4217 64bc 0e99 11bd a0ca 403d 57cf 573c
00000060: a416 bfba 784c 54bd 39fa a2b9 9b8c 91bc
00000070: 2e35 12bd 6329 a8bc 391d 87bd c762 27bc
00000080: 2119 633c 3da4 7d3d fb0c 51bd 8d4a 8dba
00000090: 74b6 7b3b cdf4 57bc b5ae b4bc ae81 2ebc
000000a0: 2fc7 283d c1b2 44bc 2e5d 193d cd45 0ebd
000000b0: f500 6ebd c39c 5cbc 6802 01bd eae1 53bd
000000c0: 1efc 7a3c a2ea fe3c d815 373d 47fc 343d
000000d0: 33bf 353d d126 15bc 4d30 d2bc d375 933c
000000e0: 7be7 db3c 257b 023b 0168 e5bc c1c3 613b
000000f0: ddfe 57bb 704a 03ba 784d 523c 25cb 373c
00000100: 19fb f63c be13 06bd 05e0 653c 0414 b2bc
00000110: be2f c7ba e79f 373c d8e8 de3c 9f18 82bd
00000120: 500d c4bc f246 aabc 1222 053d 4a22 6bbc
00000130: af1b 0d3d 3505 d83c 8a81 253d 9cf2 2e3d
00000140: 73fe 7a3d 6015 823d 718d 6a3c 99b2 9d3c
00000150: 52fe 083d 42af 0bbd 0740 a7bc fb0f 05bb
00000160: e770 73bd 9ca5 883c 2635 9abc 7c34 6b3d
00000170: f33a c03b 2179 14bd f1c4 04bd 2cb9 05bd
00000180: 0d55 67bd 8e46 0ebd 6977 adbc b9da f43c
00000190: 4de2 293d b8a8 45bd ef9d 053d 1f71 5bbd
000001a0: 6011 d9bb e233 1d3b caa5 703d a016 843d
000001b0: 3191 d8bc feff 5ebc 3d89 20bc aaa2 5fbd
000001c0: 2f9f ef3c 6766 3abd f87c 26bd 070a 5f3c
000001d0: d7e0 4ebc f3ed 5dbd 67c1 cbbc 0d80 65bd
000001e0: f6da 33bd f3c6 a2bc 4393 043d 59a1 2bbd
000001f0: f478 09bd a8d1 fb3c
