cde/model/eps/2.ckpt (torch, 596943 bytes, 8 tensors)

func.linear1.weight f4 [128, 230]
000000 ac 82 84 3d 86 ee e1 bc 4d 8a 1c 3d 02 bd 22 bd
       0.06470236 -0.027579557 0.03821783 -0.039731033
000010 6b c5 24 bd d5 01 a7 3c 96 d4 0b 3c 97 91 e0 3c
       -0.040227335 0.020386616 0.008534571 0.027413173
000020 ee 7d cc bc 5f 97 73 3d 39 88 87 3d 38 06 d9 bc
       -0.024962392 0.05947053 0.06617779 -0.026492223
000030 73 da 39 3d 85 71 37 bd ed 4b a7 3c cd aa d1 3c
       0.045374345 -0.044785995 0.020421946 0.02559414
000040 73 9d 05 3d 2f 7a 92 3b 2f 0c 53 3d aa 68 b7 bc
       0.03262086 0.004470132 0.05152529 -0.022388775
000050 dc 5f ac 3c d6 e3 72 3d 70 bd 65 3d 52 5e 87 bd
       0.021041803 0.059299313 0.056088865 -0.06609787
000060 82 7c ea bb 86 ad 6d 3c 37 94 3d bd 4a 90 11 bc
       -0.007155956 0.014506703 -0.046283927 -0.008884499
000070 86 74 2c 3d 28 df 6e bd e5 85 8e b9 c7 46 14 bd
       0.042103313 -0.058318287 -0.0002718411 -0.03620031
000080 1a 71 14 bd ba 2d 2c bd e1 2e 55 bd 97 3d 21 3d
       -0.036240675 -0.042035796 -0.05204666 0.039365377
000090 26 7b 3f 3d 5b 35 43 3d 7b 4d cc 3c f9 af 5f bd
       0.046748303 0.047658306 0.02493929 -0.05461118
0000a0 47 fa 4f bb de a4 d0 3b f4 09 5d bc f8 b8 16 bc
       -0.003173487 0.00636731 -0.013491143 -0.009199373
0000b0 db c5 4a 3d b6 7c 97 3a 50 d7 42 bd f2 05 19 bd
       0.049505096 0.0011557552 -0.04756862 -0.037359186
0000c0 22 ff 35 3d 25 3b e4 3c 6f 84 36 bd 37 15 2c 3d
       0.044432767 0.027860234 -0.044559892 0.04201242
0000d0 d0 8a e5 bb 1b 06 77 bd 55 88 28 bd 37 03 4f bd
       -0.007005073 -0.060308557 -0.04114564 -0.050540175
0000e0 45 55 f2 bc 13 01 68 3d 87 ed 17 bd 48 94 21 3d
       -0.029581675 0.05664165 -0.037091758 0.039448053
0000f0 1e 6e 11 3d 47 17 ec 3c 8c a4 6f bd f0 53 99 3c
       0.035505407 0.028819693 -0.058506534 0.018716782
000100 e4 da 34 3d 1f ea 64 bd 20 a9 5e 3d 9b 0a 70 3c
       0.044154063 -0.055887338 0.05436051 0.014650966
000110 7d 0a 50 bd c0 c6 f0 bc a7 d6 07 bd a1 ce 5f 3c
       -0.050791252 -0.029391646 -0.033163693 0.013660104
000120 6d 7a 84 bd ca ab aa 3c 3b ae 1a bd b8 9b 7d bd
       -0.06468663 0.020833869 -0.037763815 -0.061916083
000130 d4 a9 5a 3d 20 75 80 bd 90 aa f6 bc c9 f4 3f bd
       0.053384617 -0.0627234 -0.030110627 -0.046864305
000140 67 98 d9 bc 3c 22 71 3d 66 6c 1e 3d db 6b d1 bc
       -0.026561929 0.05887054 0.038677596 -0.025564125
000150 bb 0b 86 3d b6 2d 12 bd cd 1a 80 3d 91 e1 69 bd
       0.06545206 -0.035688125 0.06255112 -0.057099883
000160 6e e5 64 bb 8d 2c 34 3d 76 af 89 3b f8 4a 34 bd
       -0.003492679 0.0439878 0.004201825 -0.04401681
000170 c8 99 6c bd 9b c5 69 3c 1e 46 d5 bc 16 b5 32 bd
       -0.057763845 0.014268304 -0.026034411 -0.04362973
000180 dc 11 ba 3c 12 f4 bc bc a2 38 d9 bc b7 7f 35 3c
       0.022713594 -0.0230656 -0.026516262 0.011077813
000190 ff e7 fc bc 3a 43 45 3d a3 a9 83 bd a6 6d 71 bd
       -0.030872343 0.048159815 -0.0642884 -0.05894246
0001a0 c0 6a ff bc b3 f4 ac 3c 13 d8 e6 3c c8 d6 7b bd
       -0.031178832 0.021112775 0.028179204 -0.06148413
0001b0 45 54 25 3d 1b de df bc b6 cd 2e 3d d4 11 c8 bc
       0.04036357 -0.027327588 0.04267665 -0.024422564
0001c0 5d ec ba bc c1 de 55 bd 92 dc 43 3d ab 5e 08 3d
       -0.022817785 -0.052214388 0.047817774 0.033293407
0001d0 17 08 0c bd 17 81 5d bd 4b a2 83 3a 44 c4 19 bd
       -0.034187403 -0.054078188 0.0010042874 -0.03754069
0001e0 ea 66 6b bd b3 bf 0d 3c d2 4c 4c 3d 24 d1 ec 3c
       -0.057471193 0.008651662 0.04987795 0.02890832
0001f0 f6 f7 59 bc 67 57 ca bb dd d5 33 3d 5f 66 83 bd
       -0.013303747 -0.00617497 0.043905128 -0.0641601
000200 42 f4 86 b9 25 96 b7 bc a2 e0 4e 3d 75 72 14 bd
       -0.00025740458 -0.022410462 0.050507195 -0.036241967
000210 c7 fe d2 3c 82 dc 27 bd ce 4b 27 3d 0a 15 8c bb
       0.025756253 -0.040981777 0.040843777 -0.004274969
000220 d0 5b 01 3c 77 6a 84 3d 11 69 ad bc 15 00 0b bc
       0.007895425 0.06465619 -0.021168264 -0.008483906
000230 19 84 a7 3c f0 ed 13 bc c9 f8 5e 3d 6b 65 03 bd
       0.020448731 -0.009028897 0.05443648 -0.03207914
000240 15 d9 50 bd e7 34 2a bc f3 1e 6b 3d 8f 70 52 3d
       -0.050988276 -0.010388589 0.057402562 0.051376875
000250 62 6f 6d bd df b9 85 3d df 61 56 bd 74 50 46 3d
       -0.05796755 0.06529593 -0.05233943 0.04841657
000260 d7 57 52 bc df a7 7a bd 5e 27 8c 3c 8e e0 7a bd
       -0.012838325 -0.06119525 0.017108615 -0.06124931
000270 0b 96 8a bc f9 f9 44 3b ef 6e 24 3d 20 e2 ab bb
       -0.01691725 0.0030056222 0.040144857 -0.005245462
000280 05 dd 39 bc 4c 13 74 3d ee 07 86 3d 6c 1d 4a bd
       -0.011344199 0.059588715 0.06544481 -0.049344465
000290 8a 8d 88 3c 1a 7e 6e 3c 7f 4f 35 3d 9a d2 6d bc
       0.016669054 0.014556432 0.044265267 -0.014515543
0002a0 1e 0f fc bc a7 28 6f bd 3a dc 54 3b fa a7 db bc
       -0.030768927 -0.05838838 0.0032479898 -0.026813496
0002b0 5f 63 95 ba b6 4f 15 bc 17 ba 28 bd 07 ab 10 3d
       -0.0011397413 -0.009113243 -0.041193094 0.035319354
0002c0 4d ef 2f bc 14 ef 6f bd 24 55 69 bb 17 3c bc bc
       -0.010738206 -0.058577612 -0.0035603726 -0.022977872
0002d0 98 15 41 3d 69 b8 5f 3d 9b 71 61 bd 17 6d de 3c
       0.047139734 0.054619227 -0.055039983 0.027151627
0002e0 cf 9b 3e bd 39 1e cd bc 91 8c 4a bd a1 44 d9 3c
       -0.04653531 -0.025038825 -0.04945046 0.026521983
0002f0 a9 c0 7c bd 13 21 b5 3b 29 1a 81 bc 27 03 43 3c
       -0.061707173 0.0055276244 -0.015759544 0.011902607
000300 19 67 2e bc a0 db 78 bd bb 80 81 bd 74 c1 d5 3c
       -0.010644698 -0.060756326 -0.063233815 0.026093222
000310 18 34 87 ba 6f 02 35 3d 57 11 53 3c 4d a5 f3 bc
       -0.0010315208 0.044191774 0.012882552 -0.029741907
000320 94 0b 4e bd 3d ca 34 3d 0a c1 bc bc 66 54 35 bd
       -0.05030401 0.044138182 -0.023041267 -0.04426994
000330 e1 c0 1e bd d1 49 1e 3d 8d b0 c6 3b ad de 27 bd
       -0.038758162 0.038644616 0.006063527 -0.040983845
000340 33 64 7a 3d eb b3 8e 3c 48 8c 0a bd 86 f4 1a bd
       0.061130714 0.017419776 -0.03382519 -0.037830852
000350 7c 4f 7f bd 38 8d 76 3d b4 e1 42 3d 66 7a 5b 3d
       -0.06233166 0.06019327 0.04757853 0.053583525
000360 54 e8 32 3d 8f c6 05 bc 07 a0 e9 3c 7a 15 de 3b
       0.043678597 -0.008165016 0.02851869 0.0067774625
000370 42 b8 4b bd 6d df e5 bb ce 7d 60 bd b4 24 a8 3c
       -0.04973627 -0.00701516 -0.054807477 0.020525314
000380 80 d3 2d bd b2 2d 25 3d 96 52 08 3d 02 54 a9 3c
       -0.04243803 0.04032678 0.033281885 0.02066994
000390 81 4b 26 3d a0 15 cb ba ad af 36 bb dc be f5 bc
       0.04059935 -0.0015494116 -0.0027875707 -0.029998235
0003a0 7a 99 95 3c fe 63 60 3c 1d 1e 26 bd bb 04 15 bd
       0.01826166 0.013695715 -0.040556062 -0.036381464
0003b0 7a a7 2c 3b 1f 8a 2f bc 65 1d ab 3c b1 3d 5a 3d
       0.002634494 -0.010714083 0.02088804 0.05328149
0003c0 27 9d 6b 3d 71 b9 ba bc eb e7 cb bc 6b ab 1f 3d
       0.05752292 -0.022793503 -0.02489086 0.038981836
0003d0 f7 52 3c bd e1 db f5 bc 63 d2 83 3c fe 47 86 bc
       -0.04597756 -0.030012073 0.016091531 -0.01639175
0003e0 44 01 ff bc d8 d9 50 3d a1 b4 7a 3d 52 f0 d5 ba
       -0.031128533 0.050989002 0.061207417 -0.0016322231
0003f0 c5 4e d9 bc 48 e5 3c bd a3 d5 44 bd 62 a7 f8 bc
       -0.026526818 -0.046117097 -0.048055302 -0.030353252

func.linear1.bias f4 [128]
000000 32 d1 36 3d 44 9a 8e bc 33 fe 61 bd dd 65 1d 3c
       0.044633098 -0.017407544 -0.055174064 0.009606806
000010 c5 f6 ab 3b 04 04 49 bd 81 8c 69 bc a3 d6 63 bd
       0.005247923 -0.049076095 -0.01425469 -0.055624615
000020 b3 ed 05 3d 3a b0 16 bd 5e ef 49 3d ce 09 4c 3c
       0.03269739 -0.036789156 0.049300544 0.0124535095
000030 a5 f5 3a 3d 5a f8 32 bd 7c 2a 84 3b 8f 9d 47 bd
       0.04564442 -0.043693878 0.004033385 -0.048734244
000040 4b 23 09 3b de a8 4e 3d bb af 77 bd dd cf d8 3c
       0.0020925577 0.050454013 -0.060470324 0.026466304
000050 ef 8c 00 bc 2a d2 67 3d 86 ef 33 bd 73 71 21 bc
       -0.007846101 0.056596912 -0.0439296 -0.009853709
000060 59 5d 59 3b b1 e0 41 ba a0 9e 02 3d 8b c4 f6 bc
       0.0033167212 -0.00073958474 0.031889558 -0.030123016
000070 0e 25 51 3d c1 b6 82 3d 70 28 66 bd 0c b8 ac 3c
       0.05106073 0.06382514 -0.056190908 0.021083854
000080 3c 38 b2 3c 80 ec e8 bc 27 c3 61 3c 2f 3d b0 bc
       0.02175533 -0.028433084 0.013779438 -0.02151355
000090 6c 06 8c bc 6a 1e 36 bd 91 73 43 bc 88 2d 5d 3d
       -0.017092906 -0.0444626 -0.011929409 0.0539985
0000a0 59 af 5f bd 40 b5 8b bb b8 57 65 3d 6c ea 4b 3d
       -0.054610584 -0.00426355 0.05599186 0.04978411
0000b0 aa 9a 11 3d 5b 5d 7a bb 25 3b 78 bd b0 f6 ca 3c
       0.03554789 -0.0038202617 -0.06060328 0.024775833
0000c0 44 65 5f bd 3d f1 8f bc b0 9c 14 bc 77 e9 6d bd
       -0.054539934 -0.017571086 -0.00907056 -0.058083978
0000d0 ab 3b 0b bd df 7f 27 3b fb 68 0e 3d 36 8d e0 3b
       -0.03399245 0.0025558395 0.034768086 0.006852771
0000e0 92 be d7 3b 90 30 15 bd ef 57 30 bc c7 3a 68 3d
       0.006583997 -0.036423266 -0.0107631525 0.05669668
0000f0 8c 80 15 bd 3d 66 76 bd 33 77 bf 3c 8a 76 2f bc
       -0.036499545 -0.060156096 0.023372268 -0.010709414
000100 9f 77 36 3d 5d c9 13 3c 7e 06 78 bc f9 76 93 bc
       0.044547673 0.009020177 -0.015138267 -0.018001067
000110 fc f5 ea bc e8 5b f0 3c 45 5f 1a 3d 86 c8 23 bd
       -0.028681748 0.0293407 0.037688512 -0.039986156
000120 46 ba b2 bc fd b2 4d 3d 91 75 b3 3c 0e 6a 5d 3d
       -0.021817338 0.050219525 0.021906646 0.05405622
000130 5e fc 7f bd 40 e5 81 bc d5 29 7f bc ba a7 80 bd
       -0.062496535 -0.015856385 -0.015573938 -0.06281991
000140 30 72 88 bc a4 4e 5c bd af 2a 86 bc 79 11 99 3c
       -0.016656011 -0.053785935 -0.016377775 0.01868509
000150 bb 78 4e bc 0a 37 41 3c e7 12 31 3d 0b 29 f3 3c
       -0.012602027 0.0117929075 0.043230917 0.029682657
000160 66 f4 58 bd 12 35 26 3d 12 8a 48 3c be cd 1d bd
       -0.05296745 0.040577956 0.01223995 -0.03852629
000170 0c 59 34 bd 54 82 ad bc db e0 14 bd 09 56 64 bd
       -0.044030234 -0.02118031 -0.03634725 -0.055746112
000180 2a 1f 30 bd 23 de 65 bc a7 8d e7 bc 43 24 22 3d
       -0.04299847 -0.014030012 -0.028265787 0.039585363
000190 c7 e6 67 3d 7c ff 99 bc 5f f5 5d bd de 58 43 bd
       0.05661657 -0.018798582 -0.054189082 -0.047692172
0001a0 32 9a 87 3d 06 18 91 bc 61 4f 47 3d 9b 2a d7 3b
       0.06621207 -0.01771165 0.048659686 0.0065663583
0001b0 91 13 ac bc 40 61 ec ba 0e 9b 80 3d f0 02 38 3d
       -0.021005424 -0.0018034354 0.06279574 0.044924676
0001c0 01 ad 1a 3d d6 c9 a3 bc 54 be 35 bd 85 60 32 3d
       0.037762646 -0.019993704 -0.044370964 0.04354908
0001d0 7f d3 c8 bc 41 81 fc 3a 0d 63 6c 3d 49 b7 58 3c
       -0.024514912 0.0019264595 0.05771165 0.013227292
0001e0 2a bf da ba bb f9 11 3d dd 77 39 bd 9c 6b a5 bc
       -0.0016689051 0.035638552 -0.045280326 -0.020192914
0001f0 e1 70 0a 3c 52 4b 6b bd 1f 7d 2e 3d 4e 2d 09 bd
       0.008449764 -0.057444878 0.042599794 -0.03349047

func.linear2.weight f4 [690, 128]
000000 b4 bc d4 3c 24 90 92 bc fd 24 ad bd 07 25 4c 3d
       0.025968887 -0.017890997 -0.084543206 0.04984
000010 b3 5e 00 3b 49 1c a7 bd 3e cb 4c bd b0 49 cf bc
       0.0019587695 -0.08159692 -0.049998514 -0.025303692
000020 81 d9 80 bd 7c 70 7c bb ef 05 9c 3c 20 f6 cd 3b
       -0.062914856 -0.0038519194 0.019045798 0.006285444
000030 49 7e bb bc ab a8 aa bd a7 cf 06 bc 22 fb a9 bc
       -0.022887366 -0.08332952 -0.008228219 -0.020749632
000040 7d 9f 2b bd 7f e8 e4 bc f5 38 6f 3c 69 d6 9d bd
       -0.041900147 -0.027942894 0.014600982 -0.07706911
000050 69 fe 9a bd e0 a9 4e 3d 2f 0d df bc 93 55 97 3d
       -0.07568056 0.050454974 -0.027227966 0.07389369
000060 e6 87 b1 bd 30 ca 2a 3d 18 69 12 3d 39 24 a7 3c
       -0.08668499 0.041696727 0.035744756 0.020403014
000070 e1 e7 80 3c 50 7d 7d bd bb 81 ae 3d 22 5a ea bc
       0.015735568 -0.061887085 0.08520838 -0.028607432
000080 3c 9e 93 bd 6c 4f a8 3d 86 da 9c 3c d0 ec 74 bd
       -0.07207915 0.082182735 0.019147169 -0.059796154
000090 ec 9b 24 3d 19 2b f4 bc fd 5e 45 3d c4 75 88 bc
       0.04018776 -0.029805707 0.04818629 -0.016657718
0000a0 ab dc a2 3c 13 32 99 bc c2 7c 61 3d 73 a2 bb bc
       0.019880613 -0.018700635 0.05505062 -0.02290461
0000b0 c1 28 71 bd a7 68 64 bd b5 6e 5d bd 4a f9 ac 3d
       -0.058876757 -0.055763867 -0.054060657 0.084459856
0000c0 15 b7 ae bc 29 ce a7 3d 10 5a 44 bd b3 ed 94 bd
       -0.021327535 0.08193619 -0.047937453 -0.072719
0000d0 fe 46 9b bd dc eb a5 3d de 88 22 3d f2 d8 c9 3c
       -0.075819 0.08101627 0.039681308 0.02463958
0000e0 d1 26 85 3d 38 a5 80 3d b7 16 c4 3b 37 f1 a3 3d
       0.06501544 0.06281513 0.005984153 0.080049925
0000f0 8d 32 8c 3b 0f 88 7c 3d 1b 66 e2 bc e2 bb b2 3d
       0.004278487 0.061653193 -0.027636578 0.08727242
000100 06 23 ac 3d 33 9c 52 3b 37 42 1a bd 1e 33 03 3c
       0.08405118 0.003213656 -0.037660804 0.008007793
000110 5a 9f 92 bc 5b bd 33 bd aa b9 63 bd 7a 41 82 3c
       -0.01789825 -0.043881755 -0.055596985 0.015900362
000120 85 2a 12 3c 79 f7 62 bc e5 82 e1 3c 54 48 01 bd
       0.00892127 -0.013852947 0.027528236 -0.031563118
000130 e9 c7 0e bd b6 6e 81 3d 43 3b 91 3c 7e 26 5f 3d
       -0.034858618 0.063199446 0.017728454 0.05448007
000140 c5 e0 ac bd 07 a2 24 3d 87 d4 a0 3d d3 a7 32 3d
       -0.08441309 0.040193584 0.078530364 0.04361708
000150 3d a5 b3 bd bf d5 07 3d 52 8e 09 bd ef 7c 9e bd
       -0.08771751 0.03316283 -0.033582993 -0.07738673
000160 65 15 95 3d 19 c4 0c bd 9e 50 85 bd 3d 72 2a bd
       0.07279471 -0.0343667 -0.06509517 -0.041612852
000170 26 8a a1 3d 2c 64 38 bd 0a 41 a7 bd 46 b3 65 bc
       0.07887678 -0.045017406 -0.08166702 -0.014019793
000180 19 4f 9f 3d b3 80 9e 3a ed dd a2 3d 8c 24 06 bd
       0.077787586 0.0012092799 0.07952485 -0.032749698
000190 8d c2 8e bd 84 85 89 3d ab a7 8c bc b0 d1 51 3d
       -0.06970701 0.06714919 -0.017169794 0.051225364
0001a0 ff 40 18 3d 50 44 29 bd 7a 00 ee bc 7d bc 20 bd
       0.03717136 -0.041324914 -0.029052962 -0.039242256
0001b0 0f 4e cc 3b 6e 28 96 3d 8a d0 f4 3c 4e 5e b7 bc
       0.0062348912 0.0733193 0.029884595 -0.022383835
0001c0 d2 e9 5f 3d 78 2c 18 bd 67 b6 22 bd bb 15 ac bc
       0.054666348 -0.037151784 -0.039724734 -0.021006456
0001d0 fa 9f ab bd 62 71 66 3d ff 1d 02 bd 57 85 35 bd
       -0.083801225 0.056260474 -0.031766888 -0.044316616
0001e0 59 a1 a1 3c 84 2b 01 b9 f5 67 74 3d d4 47 22 3c
       0.019730257 -0.0001231861 0.059669454 0.0099048205
0001f0 69 28 88 3d be 4e 64 bc 72 07 80 bd 5b c8 8f 3d
       0.066483326 -0.013934789 -0.0625142 0.07020637
000200 4d 89 00 bd 70 fc 7b bd 1b ba 7f bc e6 ab 78 3b
       -0.03138094 -0.06152004 -0.015608336 0.0037944256
000210 fc c9 3f bd dc 25 6e bd 76 4e 29 3a f0 87 0c 3d
       -0.046823487 -0.058141574 0.000645853 0.034309328
000220 5e 19 23 bd e5 65 f6 3c f6 37 91 3d 37 45 83 bc
       -0.039819114 0.030077884 0.07090752 -0.016024215
000230 1d bd ae 3d 46 6d 46 bd 65 09 ef 3c db ce f3 bc
       0.08532164 -0.048444055 0.029179284 -0.029761722
000240 dd 72 3f bd e3 0a 85 bd 19 b9 86 bc ed 2a aa bd
       -0.0467404 -0.06496217 -0.016445683 -0.08308969
000250 b3 d0 1d 3d a6 da aa bd 92 14 e3 bc 19 13 1a 3d
       0.03852911 -0.08342485 -0.02771977 0.03761587
000260 66 e3 ba bb bf 06 19 3d 09 cc a2 3c 9c 26 67 bd
       -0.0057033775 0.03735995 0.019872682 -0.056433305
000270 50 bc ef 3c a5 01 aa bd fc af 38 3d 40 e2 aa 3d
       0.0292646 -0.08301095 0.045089707 0.08343935
000280 36 86 13 3d 17 d5 ca bc 46 ff 4c bd b5 04 40 bd
       0.036016665 -0.024759812 -0.050048135 -0.04687949
000290 c9 66 bc 3c 86 ca 58 3d 2e 37 12 bc 13 4a 98 bd
       0.02299823 0.052927516 -0.008924289 -0.074360035
0002a0 46 22 95 3d ec d1 e9 bc 32 00 8a 3d 01 a0 5c bc
       0.07281928 -0.028542481 0.067383185 -0.013465882
0002b0 c4 cc 07 3d e2 4e a0 3d a0 13 7e 3b e6 c7 eb bc
       0.033154264 0.07827546 0.0038769022 -0.028781842
0002c0 31 61 87 3d 31 95 0b 3d 0e 14 31 3d ed c9 a3 3c
       0.06610335 0.034077827 0.043232016 0.019993747
0002d0 11 3a 48 3d 74 e6 69 bd 32 41 3c 3d 9e 11 60 ba
       0.0488835 -0.057104543 0.045960613 -0.0008547547
0002e0 9a 8c 7d 3d e5 bd b2 3c b3 53 ed 3c ef 8b ef 3c
       0.061901666 0.021819064 0.028970575 0.02924153
0002f0 52 32 43 3d 1b e5 8a bd c6 29 96 3d e0 14 1e 3d
       0.04765541 -0.0678198 0.073321864 0.038594127
000300 5e d4 a6 bd 1e 38 41 3d 05 5b 0f 3d b0 ac d9 bc
       -0.081459746 0.04717266 0.034998912 -0.026571602
000310 f6 0e 49 bd 6e 19 91 3d 83 c3 4d bc aa 74 da bc
       -0.049086533 0.070849285 -0.012558821 -0.026666958
000320 b2 25 01 bd 10 b7 97 3d b3 b2 79 bd 31 0c a0 bb
       -0.03153009 0.07407963 -0.060961436 -0.004884266
000330 9d b7 83 3c 7f 82 2a bd 2e 8f 93 3c 29 ce ba bc
       0.016078765 -0.041628357 0.01801261 -0.022803383
000340 10 e9 a0 3d 76 af 50 3d 20 99 a3 bb c1 f5 7a bd
       0.07856953 0.050948583 -0.004992619 -0.061269525
000350 e3 3c 38 3d e9 0e fd 3c 07 f7 0a bd 4c 4f 71 bd
       0.04497994 0.030890899 -0.03392699 -0.058913514
000360 e1 f1 d7 bc 4b 67 98 bd ae ce 6b bd 75 92 98 bd
       -0.026360454 -0.074415766 -0.057570152 -0.074498095
000370 b0 b9 ad 3d fd a7 88 bc 11 08 d8 3c f5 4c a8 bd
       0.08482683 -0.016681666 0.026371034 -0.082178034
000380 0d e5 a7 bd f8 ff db bc af 9b e7 3b fa 2e 17 3d
       -0.08197985 -0.026855454 0.0070681195 0.036910035
000390 60 ee 0f bb 9c 3f ce bc e8 56 9e 3b f5 91 33 bc
       -0.002196215 -0.025176816 0.0048321374 -0.010960092
0003a0 b4 9d 88 3c 98 2b 63 3d 1e ca a5 bd 45 66 95 3d
       0.016676761 0.055461496 -0.080951914 0.07294897
0003b0 a0 16 af bd c8 cd 78 3d 0c e3 28 bd 13 ff 8e bd
       -0.08549237 0.060743123 -0.041232154 -0.06982245
0003c0 8e f4 82 3d 82 27 e3 3b d4 da 89 3d ed 55 5f 3d
       0.06394301 0.0069322 0.06731191 0.054525305
0003d0 63 df 97 3d 46 d6 cb 3a 5b d5 59 3b 37 ca 02 3d
       0.074156545 0.0015551529 0.0033238742 0.03193113
0003e0 ed 91 62 3c 59 3e aa bd 26 47 8a bd 2f 80 a8 3c
       0.013828737 -0.08312673 -0.06751852 0.020568935
0003f0 c0 c5 8d 3b b1 50 9a bd 9a 26 80 3b c3 01 13 bd
       0.004326552 -0.07534922 0.0039108517 -0.035890352

func.linear2.bias f4 [690]
000000 3e 49 7a 3c 8d 45 77 bd 18 e5 0c bd 33 9e df 3b
       0.015276251 -0.060369063 -0.03439817 0.0068242787
000010 bb 6d 44 bd e0 fa 13 bd a0 df 7c bb 35 b7 51 3d
       -0.04795621 -0.036127925 -0.003858544 0.05120011
000020 3b 01 26 bd c8 b7 17 bd f1 a1 18 3d 10 bf 97 bd
       -0.040528517 -0.0370405 0.037263814 -0.07409489
000030 05 e6 7f bd 83 33 4e 3d b3 ff 39 bd 32 73 1d bd
       -0.062475223 0.050342094 -0.04540987 -0.038439937
000040 e7 82 98 3d 38 e6 53 ba 96 ac 96 3c b6 34 7b 3d
       0.07446843 -0.00080833165 0.018392842 0.061329566
000050 e9 7b 88 bd ab 46 26 3c cd 37 63 bd fc cf b4 3c
       -0.06664259 0.0101486845 -0.055473138 0.02207183
000060 16 16 50 bd 05 c9 91 3d b8 4b 59 bd 93 e1 76 3d
       -0.050802313 0.071184196 -0.053050727 0.060273718
000070 f3 10 1f 3c 46 4a 84 bd ce fc 3a bd c7 5b 9c bd
       0.009708631 -0.06459479 -0.04565125 -0.07634693
000080 10 6d a4 bc fd 7c 73 3d 77 76 ac 3b 25 ab 9b 3d
       -0.020071536 0.05944537 0.0052631455 0.076010026
000090 eb 61 59 bd b8 fa b1 bd 74 62 a8 3d b2 c2 85 3d
       -0.053071897 -0.08690399 0.082219034 0.06531276
0000a0 17 9b a3 3d ca 3e 7f bd b1 1e 4e bd 27 ce 6d 3c
       0.079885654 -0.06231574 -0.05032224 0.014514483
0000b0 58 98 85 3d 07 27 52 38 2d 47 91 3d f1 88 75 3d
       0.06523198 5.010425e-05 0.07093654 0.05994505
0000c0 f0 62 81 3a 8f 77 9b 3d ff b2 1e bd fe 13 97 3d
       0.0009871405 0.07591163 -0.038744923 0.0737686
0000d0 1a d2 04 bd c2 ca 52 bc 8e d8 8e bd 91 3c 2e bd
       -0.03242693 -0.012865724 -0.06974898 -0.04253823
0000e0 d5 91 aa 3d 92 df 35 3d 16 2b a4 bd 4b a3 8e bd
       0.083285965 0.044402666 -0.080160305 -0.069647394
0000f0 22 d0 1e ba 89 2f 74 bd db ce 6d 3b 3a 14 b3 3c
       -0.0006058236 -0.059615646 0.0036286626 0.02186023
000100 25 fb 15 3d 58 1b 70 3b cb 69 97 bd 40 ea 86 3d
       0.036616463 0.0036637392 -0.07393225 0.065876484
000110 e1 ce 8f 3d ce 6e 1c bc c4 02 fd 3c c2 ac 6f bd
       0.07021881 -0.009547902 0.030885108 -0.058514364
000120 64 3a 80 bd d7 8a 91 3d 24 84 4b 3c fb ca 48 3d
       -0.06261137 0.0710656 0.0124216415 0.049021702
000130 fd 97 05 bd 20 20 c2 bc b8 4b 1d bc 7c ca cd bb
       -0.03261565 -0.023696959 -0.009600572 -0.0062802415
000140 72 da 75 bd f0 83 3d 3c 49 d0 ac 3c c2 a1 5e bd
       -0.06002278 0.011567101 0.021095412 -0.054353483
000150 b5 a8 9c bd bb 20 1c bd 13 c2 0f bd 89 1c 32 3d
       -0.07649366 -0.03811715 -0.035097193 0.043484244
000160 a2 aa 7b bc f4 a5 31 3d 19 4b 5a 3d 34 0b a8 3d
       -0.015360506 0.043371156 0.053294275 0.08205262
000170 6c 73 9c 3d 43 65 5b 3c f5 bd a3 3d f6 70 1c 3d
       0.076392025 0.013390842 0.07995216 0.038193665
000180 52 4d f1 bc 53 3b b3 3d 1b 60 66 bd f9 4d b4 3c
       -0.029455815 0.087515496 -0.056243997 0.022009837
000190 09 3d 78 3b 87 05 13 bd 82 53 c2 bc 25 7a 0b 3b
       0.0037878177 -0.035893943 -0.02372146 0.002128252
0001a0 00 c9 ae bd 72 a4 1a bd 4c 31 83 3d 58 38 0e bd
       -0.085344315 -0.037754484 0.06405887 -0.034721702
0001b0 8e f2 15 3d 14 0d 88 bd 3c 7e ad 3d 0a 9e 2f bd
       0.03660827 -0.066431195 0.08471343 -0.042875327
0001c0 3d c3 14 bd bc 05 77 bd 2a ae 6f bd 5a 58 53 bd
       -0.036319006 -0.060308203 -0.058515705 -0.05159793
0001d0 dc a5 19 3d 92 7b b7 bb 4c 12 72 bd 0d 48 92 3d
       0.03751169 -0.0055994475 -0.05909948 0.07142649
0001e0 e0 08 99 bb 3d c4 25 bc b1 dd a0 bd ef 09 c0 3c
       -0.0046702474 -0.010117588 -0.07854784 0.023442237
0001f0 dc 42 71 3d 06 05 f1 3c ce d0 04 3d 46 93 32 bc
       0.058901653 0.02942134 0.032425694 -0.010899371
000200 09 f1 d7 3c 7c a2 8b bd b8 49 35 3d ab 29 1f 3d
       0.026360052 -0.06818101 0.044259757 0.038858097
000210 7b 28 d0 bc b3 8c 97 3d 1f 55 63 bd 2b 08 21 bd
       -0.025409928 0.07399883 -0.0555011 -0.03931443
000220 e6 92 9c 3d 78 c6 9c bd e5 2b 97 bc 33 d8 88 bc
       0.07645206 -0.076550424 -0.018453548 -0.016704654
000230 97 f2 46 bd 9f b7 ce 3b f3 5f 86 bc ba 98 45 bd
       -0.048571195 0.0063085104 -0.016403174 -0.048241355
000240 b6 1b 56 3d 50 1f 89 bc 95 52 7f bd 25 65 93 bd
       0.05227252 -0.016738564 -0.062334616 -0.07197026
000250 8f f8 4b 3d a7 df 45 3d 87 d5 90 3d b0 91 8f bd
       0.04979759 0.048308995 0.07071977 -0.070102096
000260 3e 6e 09 ba 41 31 57 bd 01 dc a6 bd 2f 3b 41 bd
       -0.00052425626 -0.052537207 -0.08147431 -0.047175582
000270 4a 9c 78 bd f8 4c ac 3c 0b d2 b2 bd 4b 42 8d 3d
       -0.060695924 0.021032795 -0.08731469 0.0689741
000280 f7 d3 24 3d 68 59 bf 3b b1 5e b1 bd 66 8a b0 3d
       0.040241208 0.0058395155 -0.08660639 0.086201474
000290 33 7d 1b bd 91 7c 80 3d 32 51 83 3d b6 b9 53 bd
       -0.037961196 0.06273759 0.06411971 -0.05169078
0002a0 4a 97 96 3d 45 c8 06 bd 56 dc 8f 3b b2 07 7c bd
       0.07353075 -0.032905836 0.0043902798 -0.061530776
0002b0 9d be 5a bd fc fc 99 3d 2f 79 78 3b 26 a1 e0 3c
       -0.05340444 0.07518956 0.0037914028 0.027420592
0002c0 45 25 1b 3d 93 c9 11 bd ff 46 b0 bd 10 d7 99 bd
       0.03787734 -0.035592627 -0.086072914 -0.07511723
0002d0 b2 fd a2 3d 32 98 7f bd df 40 35 3d 05 0f 73 3d
       0.07958545 -0.062401004 0.04425132 0.059340496
0002e0 0e f2 b2 3c 8c 99 94 3d d2 fc 89 bd ed a8 01 bc
       0.021843936 0.07255849 -0.06737675 -0.00791381
0002f0 aa db af 3c 93 bc 81 3d f2 90 93 bb 96 81 80 3d
       0.021467049 0.06334796 -0.004503363 0.062747166
000300 a1 f5 53 bd ae 43 cf bc 6f 98 2a bd 8a 0b 35 3d
       -0.05174792 -0.025300827 -0.04164928 0.044200458
000310 64 b6 fe 3c 03 80 7c 3a 7a ac 9a 3d 74 27 71 3d
       0.03109283 0.00096321123 0.075524285 0.058875516
000320 c7 1f 24 bd f8 71 e7 3c 21 15 5b bd ed d0 92 bd
       -0.040069368 0.028252587 -0.053486947 -0.07168756
000330 87 ba 7c 3d 77 55 97 3b b6 d4 a7 3d b4 b5 b5 3d
       0.061701324 0.0046183425 0.08194868 0.08872548
000340 e8 40 c4 bc ce 7a b1 bd 7f 9c 88 bd ce e9 9a bd
       -0.023956731 -0.08666001 -0.06670474 -0.07564126
000350 69 d6 82 3d 4f 00 6f 3d 6e 16 9d 3d 2b db 3f 3d
       0.06388552 0.058349904 0.07670294 0.046839874
000360 31 21 a9 3d 41 71 9f 3d c4 60 ae bd 55 6a 86 bc
       0.08258284 0.07785273 -0.0851455 -0.016408125
000370 d5 bd bd bb c8 fa fe 3b d5 5e 13 bd d8 24 3e 3c
       -0.005790452 0.0077813603 -0.03597911 0.011605464
000380 e6 14 1a 3d fc 7a 87 bd ae 69 72 bb 12 43 c5 bb
       0.037617587 -0.06615254 -0.003698926 -0.0060199583
000390 13 d4 25 3d 66 91 6e bd 7f d3 2f bd 95 d3 d3 bc
       0.040485453 -0.05824413 -0.042926308 -0.025857726
0003a0 0b 06 3d bd b8 8f 04 3d 71 57 8d 3c 63 8a d9 bb
       -0.04614834 0.032363623 0.01725361 -0.0066388114
0003b0 ad 94 84 bd fb 2a 94 bd cc e2 a7 3c 28 cd 6a bd
       -0.0647367 -0.072347604 0.020493887 -0.05732456
0003c0 93 83 ec 3c 5c 12 3c 3d bf a8 35 bb 8f 72 ad bd
       0.028871333 0.045915946 -0.0027718989 -0.08469116
0003d0 64 77 85 bd 45 a7 cb bc 28 3d 55 bd c3 38 e9 bc
       -0.065169126 -0.024860034 -0.052060276 -0.028469449
0003e0 e1 59 1e 3d 94 28 93 bb 8b ce b9 3a ba 97 8c bd
       0.038659934 -0.0044909213 0.0014175934 -0.06864877
0003f0 74 e8 d2 3c 1f 3b 45 ba 16 0a 8b 3d b2 df 29 bd
       0.025745608 -0.00075237633 0.06789033 -0.041473098

initial.weight f4 [230, 3]
000000 76 47 18 be 2d 01 aa 3d 86 67 f4 3e d5 d4 6f bd
       -0.1487101 0.083010055 0.47735232 -0.05855258
000010 56 62 47 3e f1 3e b7 be a9 7a 95 3e 68 86 96 bd
       0.19471106 -0.35790208 0.29195145 -0.07349855
000020 ee 9a f7 be be 50 87 bd 3d d1 0e 3c 5f 57 03 bf
       -0.4836039 -0.06607197 0.0087168785 -0.5130519
000030 12 a4 ec bd 8d 30 0b 3f 43 3c d3 be 0f 7a 93 3e
       -0.115547314 0.5437096 -0.41256914 0.2880406
000040 33 34 97 3e e7 18 c6 3e 48 6e 0a 3f cb 5c dd bb
       0.29532012 0.38690874 0.54074526 -0.0067554465
000050 e7 c5 d4 bd a0 b5 d5 be 79 33 91 ba 1a 86 cf be
       -0.103893094 -0.4174013 -0.0011077962 -0.40532
000060 cd d0 9c 3d 01 89 fb bd 8a f4 9c be 1f ce 13 3f
       0.07657013 -0.12281991 -0.30655318 0.5773639
000070 0e 31 87 be 40 81 01 bf 0c 02 9f be 11 98 b2 3d
       -0.26404613 -0.50587845 -0.3105625 0.087204106
000080 0b fb 77 3e b3 46 2f 3e be c7 52 bd 6f 73 02 be
       0.24216859 0.17116813 -0.05146002 -0.12739347
000090 6b e4 4d be 2a 8a 12 3f e1 e8 b9 be 1e 52 3e be
       -0.20106666 0.5724207 -0.36310485 -0.18586013
0000a0 a5 78 50 be 16 bc 3f 3e 59 44 a7 be 07 68 b4 3e
       -0.20358522 0.18724093 -0.32669333 0.35235617
0000b0 4f 4e be be 32 60 a4 bd 2e 82 c2 bd 1f 44 33 3e
       -0.3716912 -0.0802616 -0.09497486 0.17506455
0000c0 9c c3 ca 3e f3 07 7e be 85 df e4 be 1f f3 e0 bd
       0.39602363 -0.2480772 -0.44701782 -0.10983872
0000d0 34 98 09 3f e8 40 10 be fe f0 d4 3e db f4 a9 bd
       0.5374787 -0.1408726 0.41590112 -0.082986556
0000e0 b8 c0 00 bf a9 52 3f 3e c7 62 90 3e 0b 0f 5b 3d
       -0.50294065 0.18683876 0.2820036 0.053481143
0000f0 2d c0 81 3e a4 e6 a9 bd 2a a9 d0 3e df 4b 10 bf
       0.2534193 -0.08295944 0.40754062 -0.5636577
000100 f4 af 39 be 27 83 19 3d 39 b2 3c bc 15 4e 76 3e
       -0.18133527 0.037478592 -0.011517101 0.24053223
000110 fa 21 8b 3e d0 f3 54 bc 19 c4 f4 be a8 b4 9e be
       0.2717436 -0.012997583 -0.4780586 -0.30997205
000120 a3 38 a7 bc 2d b6 03 3f a6 e4 e8 bd bc a0 c4 3e
       -0.020412749 0.51449853 -0.11371736 0.3840388
000130 2d e9 00 3f 5f 3f 3c be e4 f7 32 bc 9b bc d2 3e
       0.503558 -0.18383549 -0.01092336 0.4115952
000140 b8 3d 0b bf 5a b2 ab 3e fd 9b 5d 3c 2b f2 71 be
       -0.5439105 0.3353451 0.01352596 -0.23627536
000150 83 80 68 3e 65 b0 f1 be c8 91 95 3e 7a a7 b0 be
       0.22705273 -0.4720489 0.29212785 -0.34502774
000160 aa 96 9e 3e 90 eb 25 3e f4 f9 6d 3e 4b 20 9e be
       0.30974323 0.16203141 0.23239881 -0.30884013
000170 71 28 85 be 8e eb da bd 7a 2a be bd 3b 12 1f 3e
       -0.26007417 -0.1068946 -0.092854455 0.15534298
000180 4e ab a7 3d cc d5 15 3d 6d 02 92 be 47 aa 38 3d
       0.08186971 0.036580846 -0.28517476 0.045084264
000190 ea c2 c5 be 49 b2 15 be 3a 2a fb 3d ea ad 12 3f
       -0.3862527 -0.14618792 0.122639135 0.5729662
0001a0 9d 58 cf be 23 62 a4 3e a0 bc 2c 3e 44 b0 0c bf
       -0.40497294 0.32106122 0.1686883 -0.5495646
0001b0 b6 ea f0 3e 93 ef cc bd 0f a9 0c 3f 57 16 0a 3f
       0.4705407 -0.10006633 0.5494546 0.5394034
0001c0 b4 f3 0b be d5 5e d6 be b3 aa 2e 3e ec f8 a2 3d
       -0.13667184 -0.41869226 0.17057304 0.07957634
0001d0 88 52 5a 3e dd c4 97 bc e9 88 2b 3d 05 7a f8 be
       0.21320546 -0.018526489 0.041878615 -0.48530594
0001e0 8a 4e 65 3d 57 09 fd bd c2 21 55 be 9b ba a2 be
       0.055983104 -0.12355297 -0.20813659 -0.31782994
0001f0 79 a0 0a bf 05 b5 cc be 58 de 79 be ee 8a 07 3f
       -0.5415111 -0.39981857 -0.24401224 0.52946365
000200 3c 96 c4 3d cc 24 b5 3e 03 91 ae 3e f4 f5 db be
       0.095989674 0.35379636 0.3409501 -0.42961085
000210 d5 9b 7e 3e b8 37 e5 3e 7b c8 86 3e 76 fb 0d 3f
       0.24864133 0.44769073 0.2632483 0.55461824
000220 1d f3 27 3e 50 bf cf 3a 47 52 0b 3f d1 c6 d3 bd
       0.16401334 0.0015849862 0.5442242 -0.103406556
000230 89 c8 eb bd 16 1f 6f 3c 53 4b d8 3e 97 f6 4a 3e
       -0.115128584 0.014594814 0.42244968 0.19820629
000240 eb c0 1a be 4e 63 0b bb 6e 73 0c bf 00 c4 9b 3d
       -0.15112655 -0.0021268907 -0.5486363 0.076057434
000250 db 07 ef be 6d 01 28 be 97 51 8f bd a2 14 e7 be
       -0.4668568 -0.16406794 -0.06997984 -0.4513293
000260 c8 b5 c6 3e 63 1a f7 be 0d 20 f6 be 18 f7 f4 3e
       0.38810563 -0.4826232 -0.48071328 0.47844768
000270 f7 fa c1 3e 68 c2 8d 3e 9c 0f e2 3e a0 a1 0a 3f
       0.37886783 0.27687383 0.44152534 0.5415287
000280 e2 20 94 3e ed 14 d9 be 2c bb c3 3e 8b fc a3 be
       0.28931338 -0.42398778 0.38228738 -0.32028612
000290 48 a3 31 be 5d d3 1a be e0 f9 44 3e e9 c3 86 be
       -0.17347443 -0.15119691 0.19235945 -0.26321343
0002a0 65 f7 bd 3e 7e 8b 66 be 0c ca bd b8 9b 82 bb be
       0.3710281 -0.2251415 -9.0498565e-05 -0.36623082
0002b0 82 81 d0 be cd 4c e2 bd 06 4e f7 be d1 14 0e bf
       -0.40723807 -0.11049805 -0.48301715 -0.55500513
0002c0 e4 9a e5 3e 40 7e 62 bd bb 9b 87 be 24 ab 0c be
       0.44844735 -0.055296183 -0.26486 -0.1373716
0002d0 3e 9e 8b 3e a2 b3 f3 be 8b 6d 9c 3e 38 b8 05 bf
       0.27269167 -0.47597986 0.30552325 -0.5223422
0002e0 dd 65 ea be ae 9d f2 3d 6d 5c d5 3d 61 12 ab 3e
       -0.4578084 0.11846481 0.104180194 0.3341246
0002f0 01 73 e8 be eb bd 7b 3e 82 bf 06 bf 1a 7f 0e 3f
       -0.4540024 0.24584167 -0.5263597 0.5566269
000300 33 6c 9f 3e 22 26 6e 3e 52 30 d6 3d 6f 78 c7 bd
       0.31137237 0.23256734 0.10458435 -0.09739768
000310 52 ce a2 be f5 53 98 be c8 87 4b 3e 9c 04 01 be
       -0.31798035 -0.29751554 0.19876015 -0.12599415
000320 fd 99 7f 3e e1 e0 a1 be e3 95 06 bd e0 1a fa 3e
       0.24961086 -0.3161688 -0.032857787 0.4884863
000330 5f fa 02 3f 07 66 12 bf f0 1d cf be cc 25 56 be
       0.51163286 -0.5718693 -0.40452528 -0.20912856
000340 6a 58 67 be c7 db 4e be 16 ad 0b 3f c9 6e f0 3d
       -0.22592321 -0.20201026 0.54560983 0.117398806
000350 63 66 54 be 7a f6 11 3f 5b 89 40 bc 0c 1c b4 be
       -0.20742182 0.5701672 -0.011751498 -0.35177648
000360 8a 58 01 bf c0 ca df be 9c b1 98 3d d0 45 b3 be
       -0.50525725 -0.43709373 0.07455751 -0.350142
000370 45 41 ca 3e 60 b4 c6 be eb 43 d2 bc 9f e3 35 be
       0.39502922 -0.3880949 -0.025667151 -0.17762612
000380 38 bd 73 be cf 22 ea 3e 0f b7 f1 bd 9e 4c ae be
       -0.2380265 0.45729682 -0.11802494 -0.3404283
000390 4a c0 be be 24 1b 79 3e a1 c3 c9 be 24 46 9e 3e
       -0.3725608 0.2432676 -0.39407066 0.30912888
0003a0 e1 5b 2f 3e 77 11 80 bd a4 54 64 be ca 54 e5 3c
       0.17124893 -0.06253331 -0.22297913 0.027994532
0003b0 16 b5 99 be 29 74 30 3e fa 66 f4 be 67 15 e5 be
       -0.3002097 0.17231812 -0.47734815 -0.4474289
0003c0 42 00 d9 be fd 50 96 be ba 79 0f bf 00 95 0c bf
       -0.4238301 -0.29358664 -0.56045115 -0.54914856
0003d0 9c 89 0f 3f 8c 49 ec be 68 5e 09 bf 37 67 31 be
       0.5606935 -0.46149862 -0.5365968 -0.1732453
0003e0 1e 13 92 bd ec 2f e0 bd 1d bd f9 be f4 17 ef 3d
       -0.071325526 -0.1094664 -0.48777094 0.116744906
0003f0 e7 b6 b9 be 6b f4 09 bf 53 89 ef bd 73 99 34 3e
       -0.36272356 -0.5388858 -0.116961144 0.17636661

initial.bias f4 [230]
000000 ea a9 cd be 0b 5e 8d 3e e4 dd b7 be 5d f3 05 bf
       -0.40168697 0.27610812 -0.35911477 -0.5232447
000010 f6 95 e0 3e 8c 45 d2 3d 51 55 22 3e a7 c7 e6 3e
       0.4386441 0.10267171 0.15852858 0.45074198
000020 0f 3d 34 3e 69 22 4d be 58 c0 0d bd 5b 2f 12 bf
       0.17601417 -0.20032658 -0.03460726 -0.5710351
000030 3e 4b 13 3e d7 64 e2 be a1 14 01 be 21 3e 13 bf
       0.14384171 -0.4421756 -0.12605526 -0.57516676
000040 43 62 d9 bc 4a d0 55 be 3f ff e3 bc 76 dd b8 be
       -0.026536113 -0.20880237 -0.027831672 -0.3610646
000050 b4 4c cc 3d ec 4d d3 3e c9 db 02 3f aa ad 28 be
       0.099755675 0.41270387 0.51116616 -0.16472498
000060 20 7f 98 bd 0b 04 39 3e de 81 11 3f 30 67 27 3e
       -0.07446122 0.18067949 0.56838787 0.16347957
000070 b4 08 88 be 37 da 43 3e 61 8b bd 3e 77 b8 c6 3e
       -0.2656914 0.19126211 0.370204 0.3881261
000080 cc 28 ab 3e d2 b4 b4 3e ca 9f c8 3e 8a 50 fe 3e
       0.33429563 0.35294205 0.3918441 0.4967082
000090 07 44 f7 3e 9a 02 ec bd 8d 26 01 bf 0c d5 c8 be
       0.48294088 -0.11523934 -0.5044945 -0.39225042
0000a0 40 f0 df be 5c f8 c6 3e dd f9 d5 be 83 3e b0 3e
       -0.43737984 0.38861358 -0.41792193 0.34422693
0000b0 d2 64 10 3e 2d 5f a2 be 14 30 07 3f b3 a2 ef be
       0.1410096 -0.31713238 0.52807736 -0.46803817
0000c0 7c 18 31 3c b3 ec eb 3e c0 cc c5 3e ed ee 12 bf
       0.01080906 0.46079025 0.38632774 -0.5739582
0000d0 ef 51 0b bf 2d ef 4d be 47 aa 84 be b5 54 f0 be
       -0.54421896 -0.2011077 -0.2591116 -0.46939626
0000e0 a4 52 82 3e d7 1c fd be fc 4c 0b bf 08 a2 03 be
       0.25453675 -0.49436066 -0.54414344 -0.12854779
0000f0 68 8f 90 3e 0c 78 0c bf ea b5 43 be e6 d5 3b 3e
       0.2823441 -0.54870677 -0.19112363 0.18343315
000100 eb d0 15 3d 8d e8 aa be 4b 0d c8 3e 37 2a 07 3f
       0.036576193 -0.33380547 0.39072642 0.5279879
000110 ee ea cd 3e d8 ba d5 3e 2f 8b 5e 3e 3f d4 9a bd
       0.402183 0.41744113 0.21732782 -0.07560014
000120 44 36 83 3e fa 1c 59 be 9f 46 8e 3e 13 a6 84 be
       0.2562734 -0.2120246 0.27788255 -0.25907955
000130 06 4a 6e 3e b8 14 d1 bd df 3d 97 3e 3b 30 d5 be
       0.23270425 -0.1020903 0.2953939 -0.4163836
000140 01 77 86 bd b5 b5 f5 3e 96 1b f1 3d 5b ca b7 3e
       -0.06565667 0.47990194 0.1177284 0.35896572
000150 ca 58 b8 be a9 7b 09 bd f2 82 67 be 45 88 dd bd
       -0.3600524 -0.033565197 -0.22608545 -0.10817007
000160 51 24 3a 39 2c 27 1f bc c8 3c 4f 3d fc 4d b8 3e
       0.00017751871 -0.009713929 0.050595075 0.35996997
000170 72 63 a6 bd eb 22 59 3d 9b 66 96 be 2c b3 e5 be
       -0.081244364 0.053011816 -0.29375157 -0.4486326
000180 27 45 67 3e 56 71 39 be 8d e0 78 bd 4f 24 ec 3e
       0.22584973 -0.1810964 -0.060761023 0.4612145
000190 44 98 13 3e 33 88 b9 be cc 3c d3 be ff b8 c0 be
       0.14413553 -0.36236724 -0.41257322 -0.3764114
0001a0 87 84 f0 bd 7e bd 4d be 87 35 af be 1a 5c 58 3e
       -0.117440276 -0.20091817 -0.34220526 0.21128884
0001b0 a2 fa 40 3e 81 7a f2 3e 02 d4 2f be 44 12 67 3e
       0.18845609 0.47359088 -0.17170718 0.22565562
0001c0 09 1f 9a 3d 4b 78 4e 3e 74 f0 b7 be af bb 0f 3f
       0.07525451 0.20163076 -0.3592564 0.5614576
0001d0 a2 a0 d3 3e 65 cd 25 3a b9 0b 65 3d 04 52 0f 3f
       0.4133349 0.00063248567 0.055919383 0.5598452
0001e0 cd 4a d4 bd 7a 10 69 3e 5f df 42 be c9 f3 99 3e
       -0.103658296 0.22760192 -0.19030522 0.30068806
0001f0 73 61 f3 bd 74 69 2f bd 96 29 f6 3e 9f 3d d0 bd
       -0.11883821 -0.042825177 0.48078603 -0.10168003
000200 15 0d 09 be 8a e3 f6 3e 38 b2 0e bf 08 59 9f be
       -0.13383897 0.48220474 -0.5574069 -0.31122613
000210 f3 99 0f bf 93 dc ee be 5a 84 d2 be 72 10 bc 3d
       -0.5609428 -0.4665266 -0.411166 0.09182824
000220 68 62 80 be 05 1c c7 3e b5 e9 11 3f 36 3c bf be
       -0.25075078 0.38888565 0.56997234 -0.37350625
000230 d3 f6 74 3c 37 f4 15 3e a0 d5 b8 bd 57 fe a2 be
       0.014951426 0.14643942 -0.09025121 -0.3183467
000240 4e d3 a8 bd ec bc ee be bf 3a 5b 3e c3 e0 dd be
       -0.08243428 -0.4662851 0.21409129 -0.43335542
000250 f6 32 a4 be 02 d6 4c be 1e a9 54 3d 9a 26 8f bd
       -0.3207013 -0.20003513 0.051919095 -0.069897845
000260 44 14 c6 3e 80 13 9b be 0c a6 57 3e cc 03 06 bb
       0.38687336 -0.30288315 0.21059436 -0.002044904
000270 ff 89 33 3e 4b be 24 3d e5 17 80 3e 61 68 c9 3e
       0.1753311 0.04022054 0.2501823 0.39337447
000280 0a 4d ed 3d 50 83 f3 be 14 54 f8 3e b6 6a 08 be
       0.1158696 -0.4756112 0.48501647 -0.13321957
000290 87 18 db be 75 e4 1c 3e 96 2b f7 be 46 7d 42 be
       -0.4279215 0.15321524 -0.4827544 -0.189931
0002a0 33 a3 a0 3d 89 57 84 be df 7f fb be 7f 85 ae 3e
       0.07843628 -0.25848034 -0.49120995 0.34086224
0002b0 18 6e dc be 3b 18 7f 3d 63 de 23 3d 1d 85 cb 3e
       -0.43052745 0.062278967 0.040007006 0.39749995
0002c0 71 0a ba 3e 8d 6f d1 3e 02 ee ee 3e e2 d3 2d 3c
       0.3633609 0.4090542 0.4666596 0.010609599
0002d0 f0 47 05 3f a3 3d ee 3b cc 83 fe be 26 8f 72 3e
       0.5206289 0.0072705313 -0.49709928 0.2368742
0002e0 07 c7 c0 3d 44 30 68 be 8a 1c 89 3e d2 4e 82 3e
       0.094129615 -0.22674662 0.26779586 0.2545076
0002f0 5e 64 15 3e 6e 17 0e 3f 20 33 cf be fc 53 c0 bb
       0.14589068 0.555045 -0.40468693 -0.0058693867
000300 5b 22 06 3f 59 da 78 3d e3 17 ba 3e bb 30 8f be
       0.5239617 0.060755108 0.3634635 -0.27966866
000310 d8 f5 81 be ee 47 23 be 7d 7c 2d bd d0 cf f6 3e
       -0.25382876 -0.15945408 -0.04235505 0.48205423
000320 e0 d4 bb 3e d5 31 04 3f a1 b5 e8 be b2 f9 e0 3e
       0.36685848 0.5163854 -0.45451072 0.43940502
000330 06 68 12 3f 0c 56 59 3e f4 c8 fa be 58 4e 5e be
       0.5718998 0.2122423 -0.4898144 -0.21709573
000340 bb b2 82 be 97 83 f4 be 06 7c f3 3e a4 86 b1 3e
       -0.25526986 -0.47756645 0.4755556 0.34673035
000350 ed 35 0d bf 0b e3 56 3e 1f 89 f5 3e c4 58 f8 3e
       -0.5516041 0.20985048 0.47956178 0.48505223
000360 6b f9 81 be 4c b1 9c be dd 53 51 3e 08 da 04 bf
       -0.25385603 -0.30604017 0.20442148 -0.5189519
000370 20 eb be be 34 ec 5a be e0 32 8c 3e 0f 3e 48 3e
       -0.3728876 -0.21379167 0.27382565 0.19554923
000380 4b c3 0f bf 51 77 0a bf b6 15 b1 be 4e c1 6e 3e
       -0.5615737 -0.5408831 -0.34586877 0.23315927
000390 f8 d8 ed bd d5 d4 ce be
       -0.11613649 -0.40396753

readout.weight f4 [126, 230]
000000 57 1b 30 bd ee 38 29 3d 3d 60 84 bd c3 f8 3f 3d
       -0.042994823 0.041314058 -0.064636685 0.046868097
000010 e4 a2 f2 3c 92 ad 5b 3d a4 65 08 3c 0d 6a 41 bd
       0.029618688 0.053632326 0.008325014 -0.04722028
000020 da 35 98 bc a2 b5 07 3d 68 19 8b bb cf a1 81 bc
       -0.018580366 0.033132203 -0.004244972 -0.015824227
000030 ea b7 6b 3d 5f 01 4e bd 01 ce 5d 3b 3f 43 00 3d
       0.05754844 -0.050294276 0.0033844712 0.03131413
000040 1a aa 4c bc 09 42 99 3c 83 31 cb bc 67 a7 71 bc
       -0.012491727 0.018708246 -0.024803882 -0.0147493845
000050 0c 22 2b bd 17 2c 5f 3d 86 6b 41 3b c5 9a 87 bb
       -0.041780517 0.054485407 0.0029513552 -0.004138323
000060 30 74 e7 bc 8a fe 80 3d 06 13 37 bd a1 83 c4 3c
       -0.028253645 0.062985495 -0.044695877 0.023988547
000070 52 4b 7b bd 09 35 48 bd ac 9d 2d bd d0 59 72 3d
       -0.061351128 -0.048878703 -0.042386696 0.059167683
000080 75 11 33 bd fd bc 09 bc 5a 32 82 3d 7f 96 be bc
       -0.04371782 -0.008406875 0.0635726 -0.023265122
000090 ce f0 3f 3d a3 36 07 bd b0 66 50 3d b2 2f fe 3c
       0.04686051 -0.03301109 0.05087918 0.031028602
0000a0 b0 bb e0 3c 64 48 22 bd f2 bc ed 3b 9e 63 d6 3c
       0.027433246 -0.03961982 0.00725519 0.026170548
0000b0 ba a6 9f bb 04 2e 8b bc 53 2a 28 bd 62 45 30 3d
       -0.0048721703 -0.016989715 -0.04105599 0.04303492
0000c0 40 74 f9 3c a9 a8 3f 3d 1f 0b b4 3c bc 91 2b 3c
       0.03045094 0.046791706 0.02197796 0.0104717575
0000d0 6a ba 12 3d 52 8b 1e 3d bc bc d0 bc 04 9a 3d 3c
       0.03582231 0.038707085 -0.02548062 0.011572365
0000e0 e5 c6 26 3d 86 14 41 3d 3d e2 82 bd 03 f5 0f 3d
       0.040717024 0.047138713 -0.06390808 0.03514577
0000f0 38 a0 2e bd ea 70 58 bd c0 7c 33 bd 86 b7 02 3d
       -0.042633265 -0.05284206 -0.043820143 0.031913303
000100 6e e0 bb bc 4f a9 8e bb 38 6d 30 bd 05 d0 79 bc
       -0.022934165 -0.0043536793 -0.04307291 -0.01524735
000110 9f e4 14 3b b5 fc 95 3b 16 ed 61 3d ff 31 c2 bc
       0.0022719277 0.004577244 0.055157743 -0.02370548
000120 88 bf f6 bc 86 d3 e7 bc e4 24 62 bc 28 87 9d bc
       -0.030120626 -0.028299104 -0.013802741 -0.019229487
000130 57 5b 4d bd e1 5b ca bc 46 89 f7 3c 17 84 ce bb
       -0.050135937 -0.024702014 0.030216824 -0.0063023674
000140 fb 1f 1c bc 0d 44 51 bd 26 72 b3 3b 25 6d 39 3d
       -0.009529109 -0.05109029 0.005476254 0.045270104
000150 49 78 30 3d a3 b3 8d 3c 57 31 fe 3c 3d f2 b2 3c
       0.043083463 0.017297572 0.031029386 0.021844024
000160 44 27 79 bc 91 d9 6b 3d ee 9d 0c bc 57 8c 40 3d
       -0.015207116 0.057580534 -0.008582575 0.04700884
000170 92 d8 26 3d 5d 1c 1e 3d 5d 7e c2 3c 77 b2 57 bb
       0.04073388 0.038601268 0.023741895 -0.003291277
000180 7c a9 1e bb b5 1b c8 3c ce 13 17 bd c4 2b 37 bd
       -0.0024209907 0.024427274 -0.03688412 -0.044719473
000190 c0 1d 69 bd 50 50 53 bd 2a 57 8c 3c 26 ab 61 bc
       -0.056913137 -0.051590264 0.017131407 -0.013773715
0001a0 b8 97 44 bd 1a 9b 40 bc 61 38 92 bb ce fe 21 3d
       -0.047996253 -0.011755729 -0.0044622873 0.03954964
0001b0 42 be 14 bd cd b1 5a bd f6 32 14 3d 21 13 01 bd
       -0.036314256 -0.05339222 0.036181413 -0.031512383
0001c0 7f 10 4b bd 35 7f 88 3b 01 e7 12 3d d8 a1 71 3d
       -0.04957628 0.004165555 0.035864834 0.058992237
0001d0 5b a7 7b bd fd 0d 84 3c cf 8f 21 bd aa 42 69 3a
       -0.0614389 0.016119951 -0.039443787 0.00088981783
0001e0 00 a5 7e 3c 8a 03 0a 3d 52 8c c7 3c 0c b9 1e bc
       0.015542269 0.03369478 0.024358902 -0.009687673
0001f0 04 a5 c0 bc 44 d3 db 3c 89 c8 de bc 8a 03 69 bd
       -0.023516186 0.026834138 -0.027195232 -0.05688814
000200 52 e9 55 bd 0f 82 64 3d 08 90 eb 3c 6f e8 af 3a
       -0.052224465 0.055788096 0.028755203 0.0013420711
000210 d9 c1 6d bb d0 55 2f bb 12 3d 12 bd 0a 3f 81 bd
       -0.0036278872 -0.002675403 -0.035702772 -0.06310852
000220 87 66 67 bd 2a d6 35 3d 66 b3 20 3d 6e c6 ca 3c
       -0.056494262 0.044393696 0.039233588 0.024752822
000230 2a 2c 01 3d 5f 37 8f 3c e7 07 21 bd 2b 8f 45 3d
       0.03153626 0.017482458 -0.039314177 0.04823224
000240 5c 13 2f bd 9e 1f a9 bc 61 ae 52 ba 1f db 85 bb
       -0.042743072 -0.020644959 -0.0008036849 -0.004084959
000250 7a 51 47 bd 81 ef 71 bd b9 c3 0c bd b6 c6 0f 3d
       -0.048661686 -0.0590663 -0.034366343 0.035101615
000260 72 d1 25 3d 32 25 31 bd 0b 55 da 3c e6 53 27 3d
       0.040482946 -0.043248363 0.02665188 0.040851496
000270 dd ef 86 bd bb b4 f8 3c ca 7a 97 3c a5 4e 4d 3d
       -0.06588719 0.030359617 0.018491168 0.05012383
000280 51 21 bd bb 21 81 4c bd f6 18 78 bb 77 1f de bb
       -0.005771794 -0.049927834 -0.0037856675 -0.0067786532
000290 3a 5d 33 bc bc fd d2 bc 1e 1f 31 3c 0a 23 65 bd
       -0.01094752 -0.025755756 0.010810642 -0.05594162
0002a0 48 9f ae 3b 83 18 1b bd 30 64 7d 3d 6f d5 01 bd
       0.0053290464 -0.037865173 0.061863124 -0.031697687
0002b0 98 45 11 3d 5a bd 19 3d 1c 79 1b 3d 13 b8 06 3d
       0.03546676 0.037534095 0.037957296 0.03289039
0002c0 92 e1 f2 bc 4a 73 1d bd de 41 55 3c a0 6c 81 3d
       -0.029648576 -0.038440026 0.013016192 0.06319547
0002d0 91 f4 5e bd 89 6c 42 bd 7c 1e 5a 3c 53 8c 40 bd
       -0.054432455 -0.04746679 0.013312932 -0.047008824
0002e0 2d 86 46 bd 7a 1e 2b bc 7b 3b 1c bd 16 dc 33 bd
       -0.048467804 -0.010444278 -0.038142662 -0.043911062
0002f0 89 07 38 3d 24 43 59 bd f6 24 3a bd 3d 3b 3c bc
       0.04492906 -0.053042546 -0.045445405 -0.011488733
000300 e1 61 2c bc 07 d2 f7 ba 80 36 68 bd 17 2d bd bc
       -0.010521383 -0.0018907198 -0.0566926 -0.02309279
000310 9b 9b 14 bd 2a 46 4f bd f6 fa 87 3d 49 83 60 bc
       -0.03628121 -0.050604023 0.06639664 -0.013703176
000320 a1 ec 1a 3c 96 af 56 bd de c6 00 3d 80 ea 74 bb
       0.009455831 -0.052413546 0.031439655 -0.0037371218
000330 6c ad a7 ba 78 d3 5c 3c bd 86 37 3d 93 ef ac bc
       -0.0012792773 0.013478152 0.04480623 -0.021110332
000340 bf 09 22 bd 11 83 80 3d 1e 6a 67 bd 45 1d d6 ba
       -0.039560076 0.06274999 -0.056497686 -0.0016335627
000350 3d 6f a5 bc 16 61 0d bd bf 33 66 3d 27 87 bf 3c
       -0.020194644 -0.034516416 0.056201693 0.023379875
000360 bd 63 a3 3c 7b 37 d9 3c 32 5f 38 3d 2b b8 32 3d
       0.01994502 0.026515713 0.04501266 0.043632668
000370 77 9b 2d 3d b1 bb 3c bd 68 ce 7c 3c 11 cd 41 3d
       0.04238459 -0.046077434 0.01543007 0.047314707
000380 cd d4 5a 3d 3a d4 ce 3c 40 11 f1 3b f5 f1 6c 3d
       0.0534256 0.025247682 0.0073567927 0.057847936
000390 84 eb af 3c 18 7b 4f bd 31 0a 80 bd 9b 7b de 3c
       0.021474607 -0.0506545 -0.06251944 0.027158549
0003a0 f5 e2 1f 3a a6 c6 42 3d b0 10 c4 3c e8 ac f4 bb
       0.0006099188 0.047552727 0.023933738 -0.007466901
0003b0 70 5c 66 bd 63 c8 6f 3c 1b 46 a6 3b f4 61 81 bc
       -0.0562405 0.014635178 0.005074275 -0.015793778
0003c0 ad 2b 13 3d bc 89 81 3d 80 90 4a 3d 78 7b 29 3d
       0.035930324 0.06325099 0.049454212 0.041377515
0003d0 eb b4 4c bd 56 2d ad bc ab aa 06 bd ba 42 18 3d
       -0.049977224 -0.021139782 -0.032877605 0.03717301
0003e0 25 a3 f3 3c 1e b2 a5 bc b5 23 18 bd cb dc 4f 3d
       0.02974088 -0.020226534 -0.037143428 0.050747674
0003f0 ec 19 a4 3c 32 fb 08 bd b1 a8 32 bd 1b bc 4b bd
       0.020031892 -0.033442684 -0.043617908 -0.04973994

readout.bias f4 [126]
000000 91 c4 3b bd 0e 12 c6 3c 3a fc 98 bc f8 2d 83 bb
       -0.045841757 0.024178531 -0.018674958 -0.0040032826
000010 75 84 61 3c c1 f6 0f 3d 60 a3 2a bd 56 7e 7d bd
       0.01376449 0.035147432 -0.041659713 -0.06188806
000020 d2 98 3a 3d e3 98 82 3d b3 14 52 3c 87 d3 37 3d
       0.045555897 0.06376817 0.012822318 0.044879463
000030 fd 57 83 3c fe 1d 45 3d b1 5f f9 3b 60 e4 81 3d
       0.016033167 0.048124306 0.0076102843 0.06342387
000040 c3 c4 0d bc 8b e9 ed 3c fd 4a 12 bd 49 83 05 3d
       -0.008652869 0.029042026 -0.035716046 0.032595906
000050 df a8 65 bc aa 00 12 bd 38 66 40 3d 94 37 56 3c
       -0.014017313 -0.035645165 0.046972483 0.013074774
000060 69 e6 cb ba b7 b1 54 bd b2 ef d5 b9 23 54 92 bc
       -0.0015556338 -0.051927295 -0.00040805113 -0.017862385
000070 04 9b 12 bd ba f4 a8 bc 43 51 87 bd 2c 00 29 bc
       -0.035792366 -0.020624507 -0.06607296 -0.010314982
000080 d8 86 61 3c 41 3c 7d 3d 84 74 51 bd 16 f8 99 ba
       0.013765059 0.06182504 -0.05113651 -0.0011746909
000090 ab 35 75 3b d5 8e 59 bc 37 78 b5 bc 5b 1b 30 bc
       0.0037416022 -0.013278683 -0.02215205 -0.01074871
0000a0 e5 61 28 3d ae 4e 46 bc 3a f8 18 3d a3 ad 0e bd
       0.041108985 -0.01210372 0.037346102 -0.03483356
0000b0 d8 67 6e bd 9e 35 5e bc 73 68 01 bd a5 48 54 bd
       -0.058204502 -0.013562588 -0.03159375 -0.05182709
0000c0 30 64 79 3c 81 21 fe 3c 57 af 36 3d db 96 34 3d
       0.0152216405 0.031021835 0.04460081 0.04408918
0000d0 28 59 35 3d bb bb 16 bc 65 fa d2 bc ea ab 92 3c
       0.04427448 -0.009200032 -0.025754163 0.01790424
0000e0 2e a3 dc 3c 6c 3a f8 3a 36 35 e6 bc 84 60 5b 3b
       0.026933279 0.001893831 -0.028101545 0.0033474276
0000f0 77 7c 5e bb a3 d7 1c ba 4a ac 50 3c 52 41 36 3c
       -0.0033948699 -0.000598306 0.012736389 0.011123972
000100 30 2f f6 3c e0 79 06 bd db 3d 64 3c 4b e2 b2 bc
       0.030051798 -0.032831073 0.013930763 -0.02183642
000110 71 0d d4 ba 4c fd 35 3c 7b 1f de 3c 50 4c 82 bd
       -0.0016178322 0.011107754 0.02711462 -0.06362212
000120 3b d5 c4 bc 7a 13 ab bc 06 bc 04 3d 8f bb 6c bc
       -0.024027457 -0.02088331 0.032405876 -0.014449014
000130 b1 b3 0c 3d 2f 3a d7 3c 36 1b 25 3d c8 8a 2e 3d
       0.034351055 0.026272861 0.040309153 0.04261282
000140 18 96 7a 3d 7e e2 81 3d b6 f4 68 3c f9 e6 9c 3c
       0.061178297 0.06342028 0.0142185 0.019153105
000150 e4 95 08 3d 6d 14 0c bd 13 0a a8 bc f9 1d 0b bb
       0.03334607 -0.034199167 -0.020512616 -0.0021227582
000160 f4 d5 73 bd 49 d8 87 3c 19 77 99 bc 71 d0 6a 3d
       -0.059530213 0.016582625 -0.018733548 0.05732769
000170 d4 08 bd 3b 0d de 14 bd be 2a 05 bd b8 60 05 bd
       0.0057688747 -0.036344577 -0.032511465 -0.03256294
000180 9d bd 67 bd bd a8 0e bd ab 3e ae bc 38 16 f4 3c
       -0.056577314 -0.03482889 -0.021270117 0.029795751
000190 88 7c 29 3d f4 0d 46 bd a9 39 05 3d fd d5 5b bd
       0.041378528 -0.04835315 0.032525692 -0.053670872
0001a0 06 3c dc bb 17 cc 16 3b c8 3d 70 3d 43 e2 83 3d
       -0.0067210225 0.002300983 0.05865267 0.064396404
0001b0 1a 5b d9 bc 6d 8e 60 bc d0 11 22 bc df 0a 60 bd
       -0.026532698 -0.013705832 -0.009891942 -0.054697867
0001c0 38 d5 ee 3c e6 cd 3a bd b3 e1 26 bd dd 71 5d 3c
       0.029154405 -0.045606516 -0.040742587 0.013515917
0001d0 8e 80 50 bc 11 54 5e bd e5 8b cc bc 31 e8 65 bd
       -0.012725962 -0.05427939 -0.02496905 -0.056129638
0001e0 3b 30 34 bd f2 93 a3 bc 39 2f 04 3d cd 3d 2b bd
       -0.04399131 -0.019968007 0.032271598 -0.041806985
0001f0 92 e0 09 bd cf 95 fc 3c
       -0.033661433 0.030833153
