cde/model/eps/3.ckpt (torch, 596943 bytes, 8 tensors)

func.linear1.weight f4 [128, 230]
0.06473806 -0.027539419 0.03827255 -0.03977766 -0.040189713 0.02043026 0.00858103 0.027379652
-0.024916185 0.059503503 0.06621618 -0.026572758 0.045339357 -0.044835825 0.020450799 0.025634704
0.032658078 0.004503984 0.051497027 -0.022374246 0.021003915 0.0592719 0.056086373 -0.06613403
-0.0071905437 0.014461518 -0.046281833 -0.008846531 0.04216547 -0.058361985 -0.00023481654 -0.036157873
-0.03628223 -0.04199458 -0.05200791 0.0393139 0.046820015 0.047702294 0.02497692 -0.05462402
-0.0032282257 0.0063074445 -0.013534572 -0.0092380475 0.049527936 0.0011203022 -0.04760561 -0.037315443
0.044494763 0.02780929 -0.044490553 0.0420597 -0.0070345975 -0.06024919 -0.04119589 -0.05049115
-0.029546589 0.05668152 -0.037050016 0.03949797 0.03551786 0.028813042 -0.0584941 0.01875915
0.04409994 -0.055843174 0.05439062 0.014694695 -0.05073346 -0.02940837 -0.033098307 0.013618751
-0.06473491 0.02087518 -0.037810076 -0.061876576 0.053369854 -0.06276116 -0.030057505 -0.04689453
-0.026493972 0.05884848 0.038632266 -0.02561704 0.06549174 -0.03568689 0.06260792 -0.057131626
-0.0035390619 0.044024926 0.0042264145 -0.0440595 -0.05781149 0.01422401 -0.025979755 -0.04368049
0.022680331 -0.023032146 -0.026534915 0.011016114 -0.030787082 0.048226207 -0.06424046 -0.058907453
-0.031208169 0.021146225 0.028179381 -0.061445493 0.040328432 -0.027370673 0.042621292 -0.024370195
-0.02288833 -0.05222709 0.047865562 0.033279423 -0.034146037 -0.054114733 0.0010149308 -0.03751018
-0.05751535 0.008693435 0.049929354 0.028950414 -0.013255756 -0.0061151134 0.043925446 -0.06414632
-0.00030314262 -0.022334568 0.050541487 -0.036285125 0.025731945 -0.041036528 0.04080733 -0.0043113497
0.007847818 0.064688206 -0.021189505 -0.008521619 0.020407073 -0.008967546 0.0544049 -0.03210381
-0.051042862 -0.010459115 0.0574415 0.051416602 -0.057970934 0.06529003 -0.052312333 0.04836927
-0.012868107 -0.06120528 0.017075032 -0.06129559 -0.016975923 0.0030497988 0.040192597 -0.005274176
-0.011371442 0.059628494 0.06550429 -0.049392432 0.016611421 0.014590736 0.04430755 -0.014440508
-0.030713854 -0.058297172 0.003281738 -0.026898567 -0.0011012476 -0.009033092 -0.041270185 0.035374645
-0.010795805 -0.058528546 -0.0035117774 -0.022931568 0.04720258 0.054644596 -0.05507675 0.027146455
-0.046485443 -0.025002152 -0.04949243 0.026570773 -0.061660673 0.0055589858 -0.015780447 0.011944845
-0.0107236905 -0.060791317 -0.0632595 0.026053999 -0.0010107791 0.044190507 0.012958668 -0.0297083
-0.050339982 0.04411206 -0.022960033 -0.04424443 -0.038818378 0.03867475 0.0060641156 -0.041024476
0.061159912 0.01745749 -0.03377546 -0.037775222 -0.06239093 0.060246322 0.047613114 0.053508807
0.04369258 -0.0081977965 0.028554743 0.006828759 -0.049684122 -0.0069353557 -0.05484867 0.02056863
-0.042375673 0.040367745 0.03330992 0.020627351 0.04056916 -0.0015694262 -0.0028121537 -0.029963488
0.018313097 0.013641027 -0.04057322 -0.03632827 0.0025858288 -0.0107278535 0.02087109 0.053271856
0.0575889 -0.022841979 -0.024854142 0.039026678 -0.045999337 -0.030080264 0.016043074 -0.016431315
-0.031088322 0.051017262 0.061252695 -0.0015998216 -0.02651505 -0.046160772 -0.04810909 -0.03043439
00000000: 6395 843d 599a e1bc adc3 1c3d e6ed 22bd
00000010: f89d 24bd 5c5d a73c 7397 0c3c 4b4b e03c
00000020: 071d ccbc f2b9 733d 599c 873d 1daf d9bc
00000030: c3b5 393d c5a5 37bd 6f88 a73c dfff d13c
00000040: 7ac4 053d 2896 933b 8cee 523d 324a b7bc
00000050: 6710 ac3c 18c7 723d d3ba 653d 4771 87bd
00000060: a79e ebbb 01f0 6c3c 0592 3dbd 0af1 10bc
00000070: b3b5 2c3d fa0c 6fbd 1639 76b9 471a 14bd
00000080: ad9c 14bd 8202 2cbd 3f06 55bd 9d07 213d
00000090: 58c6 3f3d 7b63 433d 669c cc3c 70bd 5fbd
000000a0: a490 53bb aeae ce3b 1cc0 5dbc 2e5b 17bc
000000b0: cedd 4a3d 1bd7 923a 1afe 42bd 14d8 18bd
000000c0: 2440 363d 4fd0 e33c ba3b 36bd cb46 2c3d
000000d0: 7b82 e6bb dbc7 76bd 06bd 28bd cfcf 4ebd
000000e0: b00b f2bc e22a 683d c2c1 17bd a0c8 213d
000000f0: 2d7b 113d 5409 ec3c 8297 6fbd caac 993c
00000100: 24a2 343d d0bb 64bd b3c8 5e3d 05c2 703c
00000110: e3cd 4fbd d2e9 f0bc 1792 07bd 2f21 5f3c
00000120: bd93 84bd 6d02 ab3c bdde 1abd 4b72 7dbd
00000130: 599a 5a3d ec88 80bd 283b f6bc 7b14 40bd
00000140: e309 d9bc 1b0b 713d de3c 1e3d d4da d1bc
00000150: 8920 863d 6b2c 12bd 9538 803d da02 6abd
00000160: 9bef 67bb 7b53 343d bc7d 8a3b bc77 34bd
00000170: becb 6cbd d20b 693c 7fd3 d4bc 50ea 32bd
00000180: 1acc b93c e9ad bcbc c05f d9bc ee7c 343c
00000190: 3135 fcbc d888 453d 8190 83bd f148 71bd
000001a0: 46a8 ffbc d93a ad3c 72d8 e63c 45ae 7bbd
000001b0: 6d2f 253d 7638 e0bc aa93 2e3d 01a4 c7bc
000001c0: 4f80 bbbc 13ec 55bd ae0e 443d 0150 083d
000001d0: b7dc 0bbd 69a7 5dbd 6d07 853a 46a4 19bd
000001e0: 3795 6bbd e96e 0e3c b982 4c3d 6b29 ed3c
000001f0: ac2e 59bc 4a61 c8bb 2beb 333d 255f 83bd
00000200: 1def 9eb9 fcf6 b6bc 9704 4f3d b69f 14bd
00000210: cdcb d23c eb15 28bd 9625 273d 3946 8dbb
00000220: 2294 003c 407b 843d 9d95 adbc 439e 0bbc
00000230: bc2c a73c 9dec 12bc acd7 5e3d 497f 03bd
00000240: 5212 51bd b55c 2bbc c747 6b3d 379a 523d
00000250: ee72 6dbd c7b6 853d 7545 56bd db1e 463d
00000260: c1d4 52bc 63b2 7abd f0e0 8b3c 1611 7bbd
00000270: 1711 8bbc 22df 473b fea0 243d ffd2 acbb
00000280: 494f 3abc 023d 743d 1d27 863d b84f 4abd
00000290: ad14 883c fb0d 6f3c d57b 353d e197 6cbc
000002a0: 9f9b fbbc 04c9 6ebd 6d12 573b 625a dcbc
000002b0: bd57 90ba 89ff 13bc ed0a 29bd 01e5 103d
000002c0: e3e0 30bc a1bb 6fbd d925 66bb fcda bbbc
000002d0: 7e57 413d 03d3 5f3d 2998 61bd 3e62 de3c
000002e0: 8567 3ebd 50d1 ccbc 93b8 4abd f3aa d93c
000002f0: e78f 7cbd 2728 b63b ff45 81bc 50b4 433c
00000300: 6bb2 2fbc 5100 79bd 328e 81bd 326f d53c
00000310: 1e7c 84ba 1b01 353d 9850 543c d25e f3bc
00000320: 4c31 4ebd d9ae 343d ae16 bcbc a639 35bd
00000330: 0500 1fbd 6a69 1e3d 7db5 c63b 4809 28bd
00000340: d182 7a3d 0303 8f3c 2358 0abd 31ba 1abd
00000350: a28d 7fbd d9c4 763d f805 433d 0d2c 5b3d
00000360: fef6 323d 0d50 06bc a3eb e93c c8c3 df3b
00000370: 9481 4bbd fb41 e3bb 00a9 60bd 8b7f a83c
00000380: 1d92 2dbd a658 253d fc6f 083d b1fa a83c
00000390: d92b 263d 34b5 cdba 1c4c 38bb fd75 f5bc
000003a0: 5905 963c 9d7e 5f3c 1b30 26bd f4cc 14bd
000003b0: 0277 293b e1c3 2fbc d9f9 aa3c 9733 5a3d
000003c0: 57e2 6b3d 1a1f bbbc ea9a cbbc 70da 1f3d
000003d0: cd69 3cbd e36a f6bc c46c 833c f79a 86bc
000003e0: f0ac febc 7af7 503d 1be4 7a3d 1bb1 d1ba
000003f0: 1736 d9bc 1413 3dbd 0a0e 45bd 8b51 f9bc

func.linear1.bias f4 [128]
0.044569712 -0.017494354 -0.055259943 0.009525179 0.005205848 -0.049128484 -0.014156286 -0.055722058
0.032606322 -0.036734104 0.049240407 0.012547682 0.045740373 -0.043685846 0.004131138 -0.04883103
0.0020050164 0.05053647 -0.060563106 0.02636912 -0.0077988487 0.056670748 -0.043861773 -0.00987285
0.0032379506 -0.00067294296 0.03198601 -0.03003761 0.05096383 0.063728325 -0.056094747 0.021095574
0.021819357 -0.028353646 0.013688195 -0.021446835 -0.017188268 -0.04455824 -0.01183363 0.053915504
-0.054517113 -0.00435869 0.055891708 0.04988501 0.035611976 -0.0039110286 -0.06070228 0.024695138
-0.05444366 -0.017609447 -0.00898126 -0.058063883 -0.033894494 0.0024702025 0.034751114 0.0068988632
0.0066769724 -0.036338523 -0.010830489 0.05663885 -0.03642624 -0.060202003 0.023452539 -0.01080138
0.0445553 0.009118522 -0.015229854 -0.018091412 -0.028594716 0.029413648 0.03759511 -0.039889514
-0.021731086 0.05016549 0.021987 0.054118402 -0.062564716 -0.015953913 -0.01566968 -0.06287449
-0.01658417 -0.053879157 -0.016462827 0.01876038 -0.012548934 0.011715484 0.043206207 0.029604757
-0.05292314 0.040481325 0.01232166 -0.038523868 -0.044117432 -0.021276928 -0.03625458 -0.05565243
-0.042896334 -0.014116311 -0.02834745 0.039616954 0.056523766 -0.018715162 -0.054107446 -0.04777895
0.06630802 -0.017650407 0.048752084 0.0066260076 -0.021046212 -0.0017340909 0.0626992 0.044993646
0.037786618 -0.019994177 -0.044351216 0.043639224 -0.024594748 0.0018397771 0.05780031 0.013235326
-0.0015716286 0.035725906 -0.0451837 -0.020282935 0.008518556 -0.05737494 0.04265752 -0.03358645
00000000: bb8e 363d 5250 8fbc 4058 62bd 7f0f 1c3c
00000010: d195 aa3b f33a 49bd c4ef 67bc d03c 64bd
00000020: 358e 053d 8076 16bd 4fb0 493d cb94 4d3c
00000030: 425a 3b3d eeef 32bd 7f5e 873b 0c03 48bd
00000040: 9866 033b 54ff 4e3d 0511 78bd 0e04 d83c
00000050: 7c8d ffbb 961f 683d 67a8 33bd bcc1 21bc
00000060: cc33 543b 7068 30ba c303 033d 6f11 f6bc
00000070: 73bf 503d ff83 823d 9bc3 65bd a0d0 ac3c
00000080: 82be b23c e845 e8bc 7344 603c 46b1 afbc
00000090: 69ce 8cbc b382 36bd d7e1 41bc 81d6 5c3d
000000a0: 564d 5fbd 58d3 8ebb b4ee 643d 3954 4c3d
000000b0: dddd 113d 1628 80bb f4a2 78bd 754d ca3c
000000c0: 5100 5fbd b041 90bc 2226 13bc 65d4 6dbd
000000d0: f4d4 0abd 1fe3 213b 2f57 0e3d dc0f e23b
000000e0: 81ca da3b b4d7 14bd 5d72 31bc 24fe 673d
000000f0: ae33 15bd 6096 76bd 8a1f c03c 45f8 30bc
00000100: 9e7f 363d da65 153c a386 79bc 7134 94bc
00000110: 773f eabc e4f4 f03c 54fd 193d 3063 23bd
00000120: 6405 b2bc 547a 4d3d 151e b43c 42ab 5d3d
00000130: ee21 80bd c8b1 82bc b35d 80bc 57c4 80bd
00000140: 86db 87bc 64b0 5cbd 0ddd 86bc 5eaf 993c
00000150: 0b9a 4dbc 4df2 3f3c fef8 303d ad85 f23c
00000160: efc5 58bd bfcf 253d cae0 493c 34cb 1dbd
00000170: 7bb4 34bd f44c aebc af7f 14bd cdf3 63bd
00000180: 11b4 2fbd 1a48 67bc e938 e8bc 6345 223d
00000190: 7785 673d 8a50 99bc c59f 5dbd dcb3 43bd
000001a0: 80cc 873d 9697 90bc 44b0 473d fb1e d93b
000001b0: 1b69 acbc 6f4a e3ba 7068 803d 424b 383d
000001c0: 24c6 1a3d d4ca a3bc 9fa9 35bd 0bbf 323d
000001d0: ed7a c9bc ad24 f13a 05c0 6c3d fbd8 583c
000001e0: 1bff cdba 5455 123d 8b12 39bd 6628 a6bc
000001f0: 6a91 0b3c fc01 6bbd a7b9 2e3d f291 09bd

func.linear2.weight f4 [690, 128]
0.026061306 -0.017792715 -0.08451199 0.049904767 0.0020361817 -0.08150316 -0.049990043 -0.025226975
-0.06293932 -0.0038159478 0.019025387 0.0063367053 -0.022904988 -0.08338921 -0.008232051 -0.020736396
-0.041966826 -0.027946843 0.014674109 -0.077100985 -0.075706 0.05050051 -0.027158536 0.07394421
-0.08665847 0.041707043 0.0358063 0.020395644 0.015821995 -0.06182762 0.08513233 -0.028562732
-0.071979195 0.08225111 0.01923546 -0.05970904 0.040137794 -0.029705629 0.048285156 -0.016605671
0.019898038 -0.018651504 0.055154465 -0.022811633 -0.058844667 -0.05567155 -0.053988483 0.08446122
-0.021319767 0.08198499 -0.047852054 -0.0726886 -0.07574385 0.08109236 0.039665133 0.024683755
0.064986356 0.062848575 0.0059700673 0.08009448 0.004322307 0.06167701 -0.027658062 0.08724098
0.08402158 0.003207555 -0.037589174 0.008049051 -0.017891454 -0.04391018 -0.055630527 0.015973859
0.008986884 -0.013892327 0.02750824 -0.031481095 -0.03479531 0.06329893 0.0178027 0.054424167
-0.084441446 0.04020611 0.07861968 0.043652777 -0.08764396 0.03324434 -0.03348808 -0.07734394
0.072735325 -0.034266345 -0.06504775 -0.04152494 0.07894679 -0.045019597 -0.08163335 -0.013986799
0.07780126 0.0012166209 0.07957173 -0.032674618 -0.06964512 0.06717849 -0.017218811 0.05127335
0.0371635 -0.04125776 -0.028963363 -0.039279178 0.0062765665 0.07338831 0.029976446 -0.022455458
0.054689653 -0.037056934 -0.039689593 -0.02093141 -0.083697006 0.05634273 -0.031745963 -0.04422942
0.019750707 -0.0001234441 0.059600055 0.0098872 0.06649802 -0.013931996 -0.06254185 0.07027592
-0.031401385 -0.0615455 -0.015637804 0.0037748218 -0.046823777 -0.058157135 0.0006251037 0.03428547
-0.039775934 0.030032903 0.07093773 -0.016000453 0.08525459 -0.04845737 0.029169617 -0.029764924
-0.04673023 -0.06498257 -0.01647923 -0.0830638 0.038520597 -0.083462805 -0.027677054 0.03759723
-0.0057348404 0.037341487 0.019833727 -0.056454927 0.029236173 -0.08303989 0.04506591 0.0834063
0.035942756 -0.02479234 -0.050073724 -0.04689444 0.022969197 0.052890323 -0.008960472 -0.07436242
0.072792895 -0.028516758 0.06733638 -0.0134497825 0.033162106 0.07829494 0.0038783364 -0.028780874
0.06611667 0.034047272 0.043214437 0.019959442 0.048873402 -0.057121664 0.045934804 -0.0008893978
0.061891902 0.021772845 0.02894359 0.02921948 0.04761948 -0.067853235 0.07330396 0.038572136
-0.08148649 0.047176618 0.03500765 -0.026539786 -0.049086653 0.07084515 -0.012574456 -0.026686566
-0.03155774 0.074034125 -0.06098484 -0.0049254065 0.016039392 -0.041598495 0.01803342 -0.022819117
0.07853706 0.050909948 -0.0050189267 -0.061296225 0.044963546 0.030912139 -0.033911027 -0.058964152
-0.026371652 -0.07444558 -0.057586826 -0.07448581 0.084836096 -0.016723081 0.026365286 -0.08223946
-0.08199746 -0.02687046 0.007063325 0.036859162 -0.0022040075 -0.025215264 0.004789617 -0.010978766
0.016658455 0.055424176 -0.08094112 0.0729829 -0.085505396 0.06073163 -0.04129332 -0.06983571
0.06390421 0.0069645057 0.067270756 0.054510098 0.07409698 0.0015701932 0.003305395 0.03191028
0.0137798395 -0.08316468 -0.06750105 0.020516599 0.0042895214 -0.07537111 0.0038855865 -0.03590671
00000000: 857e d53c 07c2 91bc 9f14 adbd f168 4c3d
00000010: 7671 053b 21eb a6bd 5cc2 4cbd cda8 cebc
00000020: 55e6 80bd fb14 7abb 21db 9b3c 23a4 cf3b
00000030: 3ea3 bbbc f6c7 aabd b9df 06bc 60df a9bc
00000040: 68e5 2bbd c7f0 e4bc ad6b 703c 1fe7 9dbd
00000050: bf0b 9bbd 9fd9 4e3d 947b debc 1070 973d
00000060: ff79 b1bd 01d5 2a3d a0a9 123d c414 a73c
00000070: 219d 813c f53e 7dbd dc59 ae3d 64fc e9bc
00000080: d469 93bd 4573 a83d af93 9d3c 7791 74bd
00000090: 8767 243d 3859 f3bc a8c6 453d 9e08 88bc
000000a0: 3601 a33c 0acb 98bc a6e9 613d 76df babc
000000b0: 1b07 71bd da07 64bd 0723 5dbd 01fa ac3d
000000c0: cba6 aebc bfe7 a73d 8400 44bd c3dd 94bd
000000d0: 971f 9bbd c013 a63d e877 223d 9635 ca3c
000000e0: 9117 853d c1b6 803d 8ea0 c33b 9308 a43d
000000f0: 24a2 8d3b 08a1 7c3d 2993 e2bc 66ab b23d
00000100: 8213 ac3d d835 523b 1bf7 19bd 2be0 033c
00000110: 1991 92bc 29db 33bd d6dc 63bd 9cdb 823c
00000120: b93d 133c a59c 63bc f658 e13c 52f2 00bd
00000130: 8785 0ebd dfa2 813d f8d6 913c e0eb 5e3d
00000140: a3ef acbd 29af 243d 5b03 a13d 41cd 323d
00000150: ad7e b3bd 382b 083d cc2a 09bd 8066 9ebd
00000160: 42f6 943d de5a 0cbd c137 85bd 0e16 2abd
00000170: dbae a13d 7866 38bd 632f a7bd e328 65bc
00000180: 4456 9f3d 0677 9f3a 81f6 a23d d2d5 05bd
00000190: 1aa2 8ebd e094 893d 770e 8dbc 0104 523d
000001a0: c138 183d e6fd 28bd 9344 edbc 34e3 20bd
000001b0: a8ab cd3b 9c4c 963d 2a91 f53c 82f4 b7bc
000001c0: 4202 603d 03c9 17bd 8e91 22bd 5978 abbc
000001d0: 5669 abbd a2c7 663d 0e08 02bd e929 35bd
000001e0: 3ccc a13c c670 01b9 301f 743d ecfd 213c
000001f0: 1d30 883d 0743 64bc f115 80bd d2ec 8f3d
00000200: bd9e 00bd 2217 7cbd da1a 80bc 0063 773b
00000210: 4aca 3fbd 2d36 6ebd 00de 233a ec6e 0c3d
00000220: 17ec 22bd 9007 f63c cd47 913d 6213 83bc
00000230: f599 ae3d 3c7b 46bd 1ff5 ee3c 92d5 f3bc
00000240: 3368 3fbd 9515 85bd 73ff 86bc 5b1d aabd
00000250: c6c7 1d3d 8cee aabd fdba e2bc 8eff 193d
00000260: 54eb bbbb 63f3 183d 577a a23c 483d 67bd
00000270: b380 ef3c d110 aabd 0897 383d ecd0 aa3d
00000280: b638 133d 4e19 cbbc 1b1a 4dbd 6214 40bd
00000290: e629 bc3c 86a3 583d f2ce 12bc 534b 98bd
000002a0: 7114 953d fa9b e9bc a8e7 893d 7a5c 5cbc
000002b0: fdd4 073d 1959 a03d b02b 7e3b dec5 ebbc
000002c0: 2d68 873d 2775 0b3d 9f01 313d fc81 a33c
000002d0: 7a2f 483d 68f8 69bd 2226 3c3d 7a26 69ba
000002e0: 5d82 7d3d f75c b23c 1c1b ed3c b15d ef3c
000002f0: a50c 433d a3f6 8abd 6320 963d d1fd 1d3d
00000300: 64e2 a6bd 453c 413d 2e64 0f3d f769 d9bc
00000310: 160f 49bd 4317 913d 1705 4ebc c99d dabc
00000320: b042 01bd 349f 973d 3dcb 79bd 4e65 a1bb
00000330: 0b65 833c 2f63 2abd d3ba 933c 28ef babc
00000340: 0ad8 a03d f386 503d cf75 a4bb c011 7bbd
00000350: b22b 383d 743b fd3c 4ae6 0abd 6584 71bd
00000360: 5d09 d8bc ed76 98bd 2ae0 6bbd 048c 98bd
00000370: 8cbe ad3d d8fe 88bc 03fc d73c 296d a8bd
00000380: 49ee a7bd 701f dcbc 7773 e73b a2f9 163d
00000390: 1c71 10bb 3e90 cebc 38f2 9c3b 48e0 33bc
000003a0: 5077 883c 7604 633d 75c4 a5bd 0f78 953d
000003b0: 741d afbd bbc1 783d 2f23 29bd 0606 8fbd
000003c0: 36e0 823d 8236 e43b 40c5 893d fb45 5f3d
000003d0: 28c0 973d f1ce cd3a 539f 583b 5bb4 023d
000003e0: d6c4 613c 3e52 aabd fe3d 8abd 6d12 a83c
000003f0: 1d8f 8c3b 2b5c 9abd 53a5 7e3b ea12 13bd

func.linear2.bias f4 [690]
0.015379108 -0.060401294 -0.034426905 0.0067244573 -0.047864523 -0.036056902 -0.0037688487 0.051126778
-0.04046031 -0.03694656 0.037356038 -0.07399591 -0.06257138 0.050253514 -0.04549993 -0.0385395
0.07437812 -0.0009053455 0.018431738 0.061427116 -0.06673202 0.010047048 -0.05556625 0.02216177
-0.050903454 0.07126344 -0.053120337 0.060370706 0.009805527 -0.064499274 -0.04574672 -0.076277785
-0.020166634 0.059344474 0.0051753153 0.076048374 -0.053157013 -0.08687241 0.08217799 0.0652106
0.07979457 -0.06240735 -0.050420392 0.014442816 0.065295674 0.0001490887 0.07103346 0.060039703
0.001085885 0.07600971 -0.03864931 0.0736715 -0.032514762 -0.012956898 -0.06977804 -0.042633254
0.08318666 0.044506013 -0.08024356 -0.06956909 -0.0005073887 -0.059533972 0.0037261583 0.021760488
0.03652539 0.0035692514 -0.07403227 0.065867275 0.07012141 -0.00944985 0.030965935 -0.05842707
-0.06251258 0.07115761 0.012516227 0.048922654 -0.032523464 -0.023778887 -0.009505011 -0.006190832
-0.059950877 0.011467477 0.021028839 -0.054429576 -0.07639359 -0.038020406 -0.03513922 0.04341159
-0.01545522 0.04327722 0.053389754 0.08213409 0.0764807 0.013293647 0.07985702 0.038222753
-0.029359918 0.087557994 -0.056152217 0.021912517 0.003709971 -0.03598934 -0.02381823 0.0020502398
-0.08543352 -0.037662122 0.0641528 -0.034805223 0.03651491 -0.06652042 0.08463237 -0.042933196
-0.03636214 -0.060248274 -0.058609582 -0.05163271 0.03756984 -0.0057021445 -0.059193123 0.07133685
-0.0045733214 -0.010127047 -0.07845134 0.023535455 0.058951933 0.029451618 0.03252737 -0.010805214
0.026455196 -0.068112135 0.04419592 0.038800947 -0.025494078 0.07391663 -0.055401616 -0.039408047
0.07641239 -0.07664394 -0.018550867 -0.016798925 -0.048662163 0.0062158974 -0.016478255 -0.04832419
0.052363694 -0.016696757 -0.062247545 -0.0720731 0.04973223 0.04821735 0.07063689 -0.070012316
-0.00061382185 -0.05263546 -0.08156145 -0.04726979 -0.060777955 0.020975225 -0.087406546 0.0688767
0.040292077 0.005742383 -0.08651453 0.08613049 -0.037913915 0.06283058 0.06421173 -0.05160126
0.073430315 -0.03291289 0.0042923777 -0.061431937 -0.053308763 0.07528406 0.0036954868 0.027501306
0.037784327 -0.03549735 -0.08598556 -0.075200655 0.07968333 -0.062492397 0.04432692 0.059243366
0.021777414 0.07263282 -0.067280665 -0.007830638 0.021561649 0.06325227 -0.004433881 0.062835656
-0.05165391 -0.025398606 -0.04155077 0.044295087 0.031181108 0.00092455046 0.075621285 0.058974918
-0.039973635 0.028166963 -0.05346812 -0.071630314 0.06180052 0.0045784656 0.08186585 0.08880668
-0.023917045 -0.08658293 -0.06660951 -0.075548135 0.06397709 0.058249686 0.076668546 0.046902474
0.082676955 0.077896036 -0.08509938 -0.016506543 -0.005884653 0.007686721 -0.035880726 0.011675168
0.03770471 -0.066055246 -0.0036098384 -0.005983393 0.040586766 -0.05814582 -0.042832505 -0.025953809
-0.046236854 0.032376528 0.017157631 -0.006674143 -0.064835355 -0.07225068 0.020587044 -0.057427257
0.02896117 0.046001233 -0.0027241458 -0.08478714 -0.065264456 -0.024952833 -0.052164566 -0.02856715
0.038741365 -0.004395192 0.0013287464 -0.06864469 0.025642259 -0.00065610907 0.06797076 -0.041571144
00000000: a7f8 7b3c 5967 77bd 3a03 0dbd d658 dc3b
00000010: 970d 44bd 67b0 13bd cafe 76bb 506a 513d
00000020: b6b9 25bd 4755 17bd a502 193d 2b8b 97bd
00000030: 6c25 80bd a1d6 4d3d 225e 3abd 98db 1dbd
00000040: 8e53 983d b554 6dba 28fe 963c 009b 7b3d
00000050: ccaa 88bd 609c 243c 7099 63bd 9a8c b53c
00000060: 2480 50bd 91f2 913d b694 59bd 4647 773d
00000070: 5ca7 203c 3218 84bd ea60 3bbd 8737 9cbd
00000080: 7f34 a5bc 3113 733d b195 a93b 40bf 9b3d
00000090: 2bbb 59bd 29ea b1bd ef4c a83d 238d 853d
000000a0: 566b a33d d99e 7fbd 9d85 4ebd 90a1 6c3c
000000b0: bdb9 853d b154 1c39 fe79 913d 31ec 753d
000000c0: 4154 8e3a fbaa 9b3d bd4e 1ebd 15e1 963d
000000d0: 332e 05bd 2b49 54bc cae7 8ebd 35a0 2ebd
000000e0: c55d aa3d f04b 363d bc56 a4bd 3d7a 8ebd
000000f0: 4702 05ba e5d9 73bd 9032 743b 0d43 b23c
00000100: a69b 153d 1aea 693b 3b9e 97bd 6ce5 863d
00000110: d09b 8f3d 8bd3 1abc 46ac fd3c 3951 6fbd
00000120: 9806 80bd 15bb 913d dc10 4d3c 1f63 483d
00000130: 5337 05bd f1cb c2bc e8ba 1bbc 76dc cabb
00000140: 0d8f 75bd 16e2 3b3c ac44 ac3c 8cf1 5ebd
00000150: 3e74 9cbd 49bb 1bbd 25ee 0fbd 5ad0 313d
00000160: e437 7dbc 7443 313d 37af 5a3d eb35 a83d
00000170: eaa1 9c3d 99cd 593c 148c a33d 768f 1c3d
00000180: 3684 f0bc 9b51 b33d deff 65bd e181 b33c
00000190: fc22 733b 8f69 13bd 731e c3bc 515d 063b
000001a0: c5f7 aebd 9943 1abd 8b62 833d ec8f 0ebd
000001b0: a990 153d dc3b 88bd bc53 ad3d b8da 2fbd
000001c0: 78f0 14bd e5c6 76bd 9a10 70bd d27c 53bd
000001d0: d5e2 193d 0ed9 babb 7d74 72bd 0e19 923d
000001e0: cddb 95bb eaeb 25bc 19ab a0bd 6dcd c03c
000001f0: 9577 713d 8544 f13c 6b3b 053d 5a08 31bc
00000200: 91b8 d83c 607e 8bbd c806 353d beed 1e3d
00000210: f5d8 d0bc 9a61 973d ceec 62bd 556a 21bd
00000220: 197e 9c3d 7ff7 9cbd fdf7 97bc e69d 89bc
00000230: fa51 47bd baae cb3b 68fd 86bc 96ef 45bd
00000240: 507b 563d a3c7 88bc 48f7 7ebd 109b 93bd
00000250: 06b4 4b3d 8e7f 453d 13aa 903d 9e62 8fbd
00000260: e3e8 20ba 4898 57bd b109 a7bd f89d 41bd
00000270: 4ef2 78bd 3cd4 ab3c 3402 b3bd 3a0f 8d3d
00000280: 4e09 253d 9a2a bc3b 882e b1bd 2f65 b03d
00000290: 9f4b 1bbd 52ad 803d 7181 833d d85b 53bd
000002a0: a262 963d abcf 06bd 13a7 8c3b 0ea0 7bbd
000002b0: 4a5a 5abd 872e 9a3d fb2f 723b 6b4a e13c
000002c0: bdc3 1a3d ab65 11bd 3319 b0bd cd02 9abd
000002d0: 0431 a33d 07f8 7fbd 2590 353d 2ca9 723d
000002e0: 8c66 b23c 84c0 943d 72ca 89bd 144c 00bc
000002f0: 0ea2 b03c 688a 813d 174a 91bb fbaf 803d
00000300: 0d93 53bd bd10 d0bc 2431 2abd c46e 353d
00000310: 866f ff3c 885d 723a 55df 9a3d af8f 713d
00000320: 65bb 23bd 67be e63c 6301 5bbd eab2 92bd
00000330: 8b22 7d3d f406 963b 48a9 a73d 47e0 b53d
00000340: aeed c3bc 6452 b1bd 916a 88bd fbb8 9abd
00000350: 6c06 833d 3997 6e3d 6604 9d3d cf1c 403d
00000360: 8952 a93d f587 9f3d 9548 aebd bb38 87bc
00000370: 0cd4 c0bb e4e0 fb3b abf7 12bd 3449 3f3c
00000380: 4170 1a3d f947 87bd 0a93 6cbb 5710 c4bb
00000390: 4f3e 263d 502a 6ebd 2371 2fbd 159d d4bc
000003a0: db62 3dbd 409d 043d 298e 8c3c c5b2 dabb
000003b0: 66c8 84bd 2af8 93bd 29a6 a83c d838 6bbd
000003c0: fa3f ed3c ca6b 3c3d 9587 32bb e1a4 adbd
000003d0: 5fa9 85bd e269 ccbc 83aa 55bd a805 eabc
000003e0: 44af 1e3d 8b05 90bb 5529 ae3a 9695 8cbd
000003f0: b70f d23c bcfe 2bba 4134 8b3d 8146 2abd

initial.weight f4 [230, 3]
-0.14879294 0.08298762 0.47732618 -0.05863959 0.19460994 -0.35800236 0.2920396 -0.07340527
-0.48351008 -0.065981895 0.008810957 -0.51295716 -0.11564106 0.54361296 -0.41266492 0.28794327
0.29522145 0.38681003 0.54067725 -0.006767486 -0.10386786 -0.41748667 -0.0011980843 -0.40541342
0.076483674 -0.122918084 -0.30665106 0.5774542 -0.26395172 -0.5057835 -0.31065214 0.087107316
0.24207157 0.17106684 -0.051561415 -0.12749468 -0.20096831 0.5724913 -0.36304042 -0.18595935
-0.20368642 0.18713917 -0.3267901 0.35225564 -0.37179145 -0.08017115 -0.09487596 0.17516312
0.3961188 -0.24797718 -0.44691756 -0.10993317 0.53738153 -0.14096898 0.4158095 -0.0830361
-0.5030048 0.18680319 0.28210583 0.0535842 0.25351828 -0.08285902 0.40764046 -0.5637578
-0.18143503 0.037378836 -0.011610433 0.24043542 0.27164683 -0.012900091 -0.47795957 -0.30987322
-0.02031453 0.51459664 -0.11361859 0.3839428 0.50346124 -0.18393141 -0.010836327 0.41169322
-0.54381174 0.33524546 0.013425419 -0.2363755 0.22714661 -0.47194985 0.29222614 -0.34511477
0.30965477 0.1619422 0.23249362 -0.30874333 -0.25997746 -0.10699254 -0.092953354 0.15524387
0.081957884 0.036677644 -0.2850776 0.044986863 -0.38634977 -0.14628507 0.12254217 0.5728673
-0.40507084 0.32115412 0.16878107 -0.54947114 0.47045937 -0.1001641 0.5493563 0.53947556
-0.13661589 -0.41863605 0.17047997 0.079482436 0.21311173 -0.018512506 0.041775856 -0.48540834
0.056075454 -0.123457 -0.20804039 -0.31773847 -0.54141366 -0.39972112 -0.24391223 0.5295635
0.09608966 0.3537942 0.34104064 -0.42951807 0.24855477 0.44759712 0.26315504 0.55452526
0.16391811 0.0014898727 0.54412794 -0.10350648 -0.1152286 0.014509666 0.42235857 0.19811484
-0.15103334 -0.0020336441 -0.5485425 0.0759587 -0.4669583 -0.16416983 -0.070069954 -0.4514227
0.38801146 -0.48272046 -0.4808115 0.47834852 0.3787783 0.27678755 0.4414397 0.5414309
0.28921476 -0.4240855 0.38237193 -0.32019347 -0.17338178 -0.1511038 0.19245465 -0.26311758
0.37093073 -0.22524017 -0.00018934843 -0.36613375 -0.40713978 -0.11040012 -0.48311505 -0.55509967
0.448352 -0.055201806 -0.26476443 -0.13727614 0.27274165 -0.47588202 0.30562016 -0.5223819
-0.45789677 0.11837184 0.10426299 0.3342217 -0.45390448 0.24574915 -0.52645534 0.5565311
0.31146702 0.23266317 0.104679875 -0.09730368 -0.31788272 -0.29741797 0.19885685 -0.12589532
0.24970923 -0.3162441 -0.032943208 0.48840034 0.51172346 -0.57177097 -0.404427 -0.20903884
-0.22583006 -0.20191695 0.54570144 0.11749602 -0.2073243 0.5700711 -0.011850717 -0.35187528
-0.50516105 -0.43699613 0.07465419 -0.35024023 0.3949297 -0.38819358 -0.025568374 -0.17752688
-0.23792721 0.4573907 -0.11792892 -0.340332 -0.3724719 0.24336882 -0.39396873 0.30903214
0.17115289 -0.062628984 -0.22303791 0.027990444 -0.30020383 0.1724159 -0.47724903 -0.44732985
-0.42373836 -0.29349822 -0.5603622 -0.5492332 0.5605967 -0.46159366 -0.53668034 -0.17334594
-0.071427256 -0.109370805 -0.48767275 0.11684245 -0.36281887 -0.5389889 -0.11706451 0.17627084
00000000: 2d5d 18be 6af5 a93d 1964 f43e 1130 70bd
00000010: d447 473e 164c b7be 3786 953e 8155 96bd
00000020: a28e f7be 8421 87bd d55b 103c 2951 03bf
00000030: 38d5 ecbd 382a 0b3f d148 d3be 4d6d 933e
00000040: 4427 973e f70b c63e d369 0a3f cac1 ddbb
00000050: acb8 d4bd d0c0 d5be 0a09 9dba 5992 cfbe
00000060: 79a3 9c3d 7abc fbbd 5e01 9dbe 0ad4 133f
00000070: ae24 87be 077b 01bf cc0d 9fbe 5265 b23d
00000080: 9ce1 773e 252c 2f3e 1032 53bd f78d 02be
00000090: a3ca 4dbe ca8e 123f 6fe0 b9be 216c 3ebe
000000a0: 2c93 50be 69a1 3f3e 0851 a7be da5a b43e
000000b0: 735b bebe c630 a4bd 544e c2bd f65d 333e
000000c0: 15d0 ca3e bbed 7dbe 61d2 e4be a424 e1bd
000000d0: d691 093f 2c5a 10be fce4 d43e d50e aabd
000000e0: ecc4 00bf 5649 3f3e 2d70 903e 1b7b 5b3d
000000f0: 26cd 813e fdb1 a9bd 40b6 d03e 6e52 10bf
00000100: 1bca 39be 8d1a 193d b039 3ebc b434 763e
00000110: 4b15 8b3e e75a 53bc 1eb7 f4be b4a7 9ebe
00000120: a86a a6bc 9bbc 033f ddb0 e8bd 2794 c43e
00000130: d6e2 003f 8458 3cbe da8a 31bc 74c9 d23e
00000140: 3f37 0bbf 4ba5 ab3e 4af6 5b3c 6b0c 72be
00000150: 1f99 683e 69a3 f1be aa9e 953e e2b2 b0be
00000160: 128b 9e3e 2dd4 253e cf12 6e3e 9b13 9ebe
00000170: c41b 85be e81e dbbd 545e bebd 40f8 1e3e
00000180: 89d9 a73d 4c3b 163d b1f5 91be 2544 383d
00000190: a3cf c5be c1cb 15be 64f7 fa3d 6ea7 123f
000001a0: 7265 cfbe 506e a43e f2d4 2c3e 24aa 0cbf
000001b0: 0de0 f03e d622 cdbd 9da2 0c3f 121b 0a3f
000001c0: 09e5 0bbe 7757 d6be 4d92 2e3e b0c7 a23d
000001d0: f639 5a3e 8aa7 97bc 291d 2b3d 7187 f8be
000001e0: 60af 653d 06d7 fcbd 8a08 55be 9eae a2be
000001f0: 169a 0abf 3fa8 ccbe 21c4 79be 7991 073f
00000200: a8ca c43d 8324 b53e e19c ae3e cbe9 dbbe
00000210: 2485 7e3e 732b e53e 42bc 863e 5ef5 0d3f
00000220: 26da 273e d547 c33a f84b 0b3f 35fb d3bd
00000230: f9fc ebbd f3b9 6d3c 623f d83e 9ede 4a3e
00000240: 7ca8 1abe e346 05bb 486d 0cbf 3c90 9b3d
00000250: 2915 efbe 231c 28be d680 8fbd e020 e7be
00000260: 70a9 c63e 2327 f7be ed2c f6be 19ea f43e
00000270: 3bef c13e 19b7 8d3e 6204 e23e 379b 0a3f
00000280: f513 943e bc21 d9be 41c6 c33e 66f0 a3be
00000290: fe8a 31be f4ba 1abe d512 453e 59b7 86be
000002a0: a2ea bd3e 5ca5 66be d58b 46b9 e275 bbbe
000002b0: a074 d0be 7519 e2bd db5a f7be 031b 0ebf
000002c0: 658e e53e 4a1b 62bd 348f 87be 1e92 0cbe
000002d0: cba4 8b3e cfa6 f3be 3f7a 9c3e d2ba 05bf
000002e0: 7271 eabe ef6c f23d d687 d53d 1b1f ab3e
000002f0: 2b66 e8be aaa5 7b3e c7c5 06bf d278 0e3f
00000300: 9b78 9f3e 413f 6e3e 6762 d63d 2747 c7bd
00000310: 86c1 a2be 2b47 98be 21a1 4b3e b4ea 00be
00000320: c7b3 7f3e bfea a1be 75ef 06bd 9c0f fa3e
00000330: 4f00 033f 955f 12bf 0e11 cfbe 470e 56be
00000340: ff3f 67be 51c3 4ebe 17b3 0b3f c1a1 f03d
00000350: d24c 54be 2ef0 113f 8229 42bc ff28 b4be
00000360: 3c52 01bf f5bd dfbe 4ce4 983d b052 b3be
00000370: 3a34 ca3e 4fc1 c6be c474 d1bc 9bc9 35be
00000380: 31a3 73be 1d2f ea3e b884 f1bd ff3f aebe
00000390: a3b4 bebe ad35 793e 45b6 c9be 7639 9e3e
000003a0: b442 2f3e a043 80bd 0d64 64be 374c e53c
000003b0: 51b4 99be cb8d 303e fc59 f4be 6b08 e5be
000003c0: 3cf4 d8be 6645 96be e673 0fbf 8c9a 0cbf
000003d0: 4483 0f3f 0156 ecbe e263 09bf 9981 31be
000003e0: 7448 92bd cdfd dfbd 3eb0 f9be 184b ef3d
000003f0: 65c3 b9be 2dfb 09bf 85bf efbd 5880 343e

initial.bias f4 [230]
-0.40174958 0.27600765 -0.3590224 -0.52315 0.43854782 0.10257328 0.15845412 0.45065016
0.17591672 -0.20023197 -0.03470295 -0.5711358 0.14392735 -0.44227585 -0.12615551 -0.5750676
-0.026436621 -0.2088987 -0.027893376 -0.3609634 0.09985577 0.41260266 0.51106894 -0.16462629
-0.07436249 0.18058299 0.5684859 0.16337863 -0.26559284 0.19117118 0.3703 0.38802657
0.33439115 0.35284415 0.39174548 0.49679872 0.4828429 -0.11517576 -0.5045875 -0.39235082
-0.43728337 0.38870987 -0.4178207 0.34429616 0.14091584 -0.3172273 0.5279772 -0.46812704
0.010902335 0.460688 0.3862327 -0.5740563 -0.54430646 -0.2012062 -0.2590197 -0.469301
0.25443736 -0.49426228 -0.5442392 -0.12845229 0.28243744 -0.5487943 -0.19102705 0.18333368
0.036672916 -0.3337083 0.39082465 0.5279022 0.40227985 0.41753423 0.21742445 -0.07569918
0.25637078 -0.21212354 0.2779811 -0.25898343 0.23280524 -0.10218634 0.29534352 -0.41628492
-0.06556731 0.47980517 0.11763258 0.35906333 -0.36015537 -0.033662543 -0.22598991 -0.10808463
8.850124e-05 -0.009807054 0.050602306 0.35987556 -0.081332624 0.05310889 -0.29384947 -0.4485332
0.22594938 -0.18118353 -0.06086236 0.4611183 0.14403868 -0.36227775 -0.41247728 -0.3765073
-0.1175352 -0.20101662 -0.34230116 0.21119091 0.18845774 0.47368392 -0.1718058 0.22555722
0.07515836 0.20153226 -0.3593532 0.5615533 0.41343278 0.0005614518 0.055821605 0.5597478
-0.103558585 0.22769938 -0.19040577 0.30058736 -0.11874223 -0.042728394 0.48087952 -0.10158215
-0.13374399 0.4823041 -0.55750364 -0.31132752 -0.5610435 -0.46642667 -0.41126376 0.091907196
-0.2508509 0.38878563 0.57006377 -0.3736052 0.0148539 0.14653903 -0.09020725 -0.3184291
-0.082340956 -0.46636623 0.21414268 -0.4333338 -0.3206083 -0.20012887 0.05182379 -0.06995362
0.38677752 -0.30278668 0.21049492 -0.001949205 0.17523311 0.040318165 0.25008017 0.39327717
0.1157749 -0.47570905 0.48511443 -0.1331224 -0.42782468 0.1531608 -0.48265862 -0.18983167
0.0785279 -0.25838295 -0.49129957 0.340959 -0.43062726 0.06237645 0.0400033 0.3973992
0.3632696 0.40895185 0.4667298 0.01050715 0.5207112 0.007369184 -0.49700728 0.23677932
0.09422747 -0.22684756 0.26789173 0.25441486 0.14598222 0.55494875 -0.40478417 -0.005971147
0.52405894 0.060851093 0.36355656 -0.2797642 -0.2539239 -0.15944788 -0.042455763 0.48196808
0.3669596 0.5164817 -0.45460743 0.43930298 0.5719987 0.21214543 -0.48991397 -0.21700023
-0.25516656 -0.4775238 0.47565466 0.34664783 -0.5515058 0.20976236 0.47963825 0.48495483
-0.25393933 -0.30613738 0.20451014 -0.5188505 -0.3728151 -0.21369416 0.27372104 0.19562994
-0.56166553 -0.5409776 -0.34596357 0.23325515 -0.11603692 -0.40386653
00000000: 1fb2 cdbe e050 8d3e c9d1 b7be 29ed 05bf
00000010: 5789 e03e f111 d23d cc41 223e 9ebb e63e
00000020: 8323 343e 9c09 4dbe ae24 0ebd f535 12bf
00000030: b161 133e fb71 e2be e92e 01be a137 13bf
00000040: 9d91 d8bc 8ae9 55be a680 e4bc 32d0 b8be
00000050: 2f81 cc3d a840 d33e 6ad5 023f cb93 28be
00000060: 5c4b 98bd bfea 383e 4b88 113f ba4c 273e
00000070: c9fb 87be 61c2 433e f697 bd3e 6bab c63e
00000080: 5135 ab3e fda7 b43e dd92 c83e 675c fe3e
00000090: 2f37 f73e 45e1 ebbd a52c 01bf 35e2 c8be
000000a0: 9be3 dfbe fb04 c73e 98ec d5be 9647 b03e
000000b0: 3e4c 103e 9e6b a2be 8429 073f 59ae efbe
000000c0: b59f 323c 4cdf eb3e 4bc0 c53e 5bf5 12bf
000000d0: ab57 0bbf 0009 4ebe 3b9e 84be 3848 f0be
000000e0: 9d45 823e f20f fdbe 4353 0bbf ff88 03be
000000f0: a49b 903e c97d 0cbf 989c 43be d3bb 3b3e
00000100: 5736 163d d0db aabe 2b1a c83e 9924 073f
00000110: a0f7 cd3e 0cc7 d53e 84a4 5e3e 2c08 9bbd
00000120: 0843 833e ea36 59be 8a53 8e3e 7a99 84be
00000130: 7f64 6e3e 1247 d1bd 4437 973e 4c23 d5be
00000140: 2748 86bd 06a9 f53e 5ae9 f03d 26d7 b73e
00000150: 4966 b8be bce1 09bd e669 67be 795b ddbd
00000160: be99 b938 c4ad 20bc 5d44 4f3d 9c41 b83e
00000170: b891 a6bd b588 593d 7073 96be 25a6 e5be
00000180: 465f 673e 2d88 39be cf4a 79bd b317 ec3e
00000190: e07e 133e 787c b9be 3930 d3be 91c5 c0be
000001a0: 4cb6 f0bd 4dd7 4dbe 1942 afbe 6e42 583e
000001b0: 11fb 403e b386 f23e dced 2fbe 79f8 663e
000001c0: a0ec 993d 795e 4e3e 25fd b7be f5c1 0f3f
000001d0: 76ad d33e 642e 133a 32a5 643d a24b 0f3f
000001e0: 8616 d4bd 072a 693e bbf9 42be 96e6 993e
000001f0: 202f f3bd f803 2fbd d735 f63e 4d0a d0bd
00000200: 2ff4 08be 90f0 f63e 8fb8 0ebf 5266 9fbe
00000210: 8ca0 0fbf 7acf eebe 2a91 d2be d739 bc3d
00000220: 876f 80be e90e c73e b3ef 113f 2e49 bfbe
00000230: c65d 733c 540e 163e 94be b8bd 2409 a3be
00000240: 60a2 a8bd 8ec7 eebe 3848 5b3e eedd ddbe
00000250: c526 a4be 95ee 4cbe 2f45 543d d843 8fbd
00000260: b407 c63e db06 9bbe fb8b 573e 777c ffba
00000270: 4f70 333e a924 253d 820a 803e a05b c93e
00000280: 641b ed3d 2390 f3be eb60 f83e 3d51 08be
00000290: d60b dbbe 2fd6 1c3e 081f f7be 3c63 42be
000002a0: 3cd3 a03d c54a 84be 9e8b fbbe 2e92 ae3e
000002b0: 2d7b dcbe 737e 7f3d 80da 233d e877 cb3e
000002c0: 79fe b93e 2362 d13e 35f7 ee3e 2e26 2c3c
000002d0: 544d 053f 3279 f13b bd77 febe 4776 723e
000002e0: 55fa c03d ba4a 68be 1b29 893e aa42 823e
000002f0: 5d7c 153e 1f11 0e3f df3f cfbe 9da9 c3bb
00000300: ba28 063f ff3e 793d 1624 ba3e 413d 8fbe
00000310: 5002 82be 4e46 23be 18e6 2dbd 85c4 f63e
00000320: 21e2 bb3e 2538 043f 4ec2 e8be 52ec e03e
00000330: 826e 123f a73c 593e 01d6 fabe 4f35 5ebe
00000340: 31a5 82be 007e f4be 0289 f33e d37b b13e
00000350: 7c2f 0dbf f2cb 563e 2593 f53e 004c f83e
00000360: 5604 82be 0abe 9cbe 1b6b 513e 63d3 04bf
00000370: 9fe1 bebe a4d2 5abe 2a25 8c3e 3753 483e
00000380: 50c9 0fbf 827d 0abf 2322 b1be 70da 6e3e
00000390: c4a4 edbd 98c7 cebe

readout.weight f4 [126, 230]
-0.043093003 0.041254606 -0.064538054 0.046965607 0.029521283 0.05353396 0.008402329 -0.047122378
-0.018482478 0.03323004 -0.004339271 -0.015725981 0.05745115 -0.05020262 0.003471082 0.031222504
-0.01239361 0.018609727 -0.024705179 -0.014847701 -0.041879363 0.054570235 0.0028534636 -0.0040395935
-0.028352294 0.062886864 -0.04469058 0.024084348 -0.061254438 -0.0489767 -0.04228859 0.059077397
-0.04362675 -0.008308382 0.06347982 -0.02316713 0.046761483 -0.03291316 0.05078353 0.031126985
0.027530193 -0.03952134 0.0071566068 0.026243938 -0.004970698 -0.017084546 -0.040957786 0.042936664
0.030548563 0.046889983 0.021974482 0.010548609 0.035724204 0.03879989 -0.025383307 0.011653259
0.04079547 0.047236804 -0.06381579 0.035244133 -0.042537626 -0.052743617 -0.043723892 0.031981718
-0.023030292 -0.004255237 -0.043169662 -0.015345804 0.0023701335 0.004675517 0.05506228 -0.023607105
-0.030023677 -0.028226398 -0.013704369 -0.019131813 -0.050044127 -0.024731994 0.030297505 -0.0062040845
-0.009430823 -0.05118909 0.005575658 0.045366168 0.043182362 0.0173953 0.030944036 0.021942182
-0.015305283 0.0574818 -0.008484043 0.0470519 0.04063554 0.038697615 0.023647383 -0.0033885865
-0.0023224426 0.024334295 -0.036786295 -0.04481768 -0.05693416 -0.051688988 0.017229239 -0.013871791
-0.048093393 -0.011658102 -0.004560745 0.03945116 -0.036216307 -0.053296395 0.036260307 -0.031413313
-0.049668863 0.0040678303 0.035767484 0.05889395 -0.061363645 0.016022667 -0.03934484 0.00079152285
0.015443392 0.033614174 0.024456814 -0.009613414 -0.023432707 0.026928151 -0.027097132 -0.056963295
-0.05212723 0.055689737 0.028660437 0.0014406221 -0.00352842 -0.0027736686 -0.035603784 -0.06301093
-0.05639592 0.0444909 0.03927045 0.024658909 0.031437863 0.01738461 -0.039223175 0.04829873
-0.042644884 -0.020743107 -0.0007054815 -0.003986861 -0.04856392 -0.05916512 -0.034464996 0.035004828
0.04038715 -0.043159988 0.026749536 0.040949512 -0.06598474 0.03045754 0.01859055 0.0500282
-0.0058679287 -0.049854316 -0.003719364 -0.00668048 -0.010849407 -0.025853723 0.010908932 -0.05584341
0.005425433 -0.037957862 0.06176638 -0.031794034 0.035519637 0.037436333 0.03804942 0.032987744
-0.029741917 -0.038347382 0.013114121 0.06329376 -0.05452904 -0.04736806 0.013411558 -0.047107115
-0.04846797 -0.010345573 -0.03804391 -0.043816816 0.045026872 -0.0531374 -0.04534678 -0.011391358
-0.010422448 -0.0017932908 -0.056603637 -0.022996156 -0.036378495 -0.050505437 0.066495106 -0.013606083
0.009357395 -0.052317314 0.031522892 -0.0036390137 -0.0013748957 0.013384657 0.04490504 -0.02101283
-0.03965429 0.06284779 -0.056595936 -0.0015351813 -0.020292643 -0.034614272 0.05629665 0.023282604
0.019847514 0.026576765 0.045111205 0.043534376 0.04230239 -0.045979258 0.015529457 0.047216583
0.053523693 0.025149696 0.007264014 0.057931516 0.021376604 -0.05075309 -0.062619545 0.027257428
0.00070844305 0.047650915 0.023835856 -0.0075646355 -0.056141187 0.01473524 0.0051727043 -0.015696049
0.035831235 0.06334861 0.04936124 0.04128474 -0.04997869 -0.021233024 -0.03277982 0.03707551
0.029839667 -0.020324757 -0.037241813 0.050845817 0.019933334 -0.03334438 -0.043717783 -0.049838193
00000000: 4a82 30bd 97fa 283d 872c 84bd 025f 403d
00000010: 9ed6 f13c 6d46 5b3d eca9 093c 6503 41bd
00000020: 9168 97bc 391c 083d 7230 8ebb c6d3 80bc
00000030: e651 6b3d 43a1 4dbd 187b 633b 56c6 ff3c
00000040: 910e 4bbc 6d73 983c 8462 cabc c643 73bc
00000050: b289 2bbd 0a85 5f3d 2d01 3b3b 915e 84bb
00000060: 1243 e8bc d4ca 803d 780d 37bd 8a4c c53c
00000070: efe5 7abd cb9b 48bd cd36 2dbd 24fb 713d
00000080: f7b1 32bd e11f 08bc b501 823d fec8 bdbc
00000090: f888 3f3d f3cf 06bd 6402 503d 05fe fe3c
000000a0: 0087 e13c 21e1 21bd f881 ea3b 87fd d63c
000000b0: 3de1 a2bb e4f4 8bbc 5ac3 27bd 5bde 2f3d
000000c0: fb40 fa3c b60f 403d d403 b43c 13d4 2c3c
000000d0: 8b53 123d a2ec 1e3d a7f0 cfbc 50ed 3e3c
000000e0: 2719 273d 617b 413d dab1 82bd 275c 103d
000000f0: ef3b 2ebd b109 58bd d317 33bd 43ff 023d
00000100: 06aa bcbc 846f 8bbb acd2 30bd f86c 7bbc
00000110: 3e54 1b3b 1435 993b fc88 613d b063 c1bc
00000120: 37f4 f5bc 0c3b e7bc 4a88 60bc 52ba 9cbc
00000130: 12fb 4cbd c09a cabc 7932 f83c a24b cbbb
00000140: bd83 1abc a7ab 51bd 02b4 b63b e0d1 393d
00000150: fddf 303d 9780 8e3c 597e fd3c 17c0 b33c
00000160: 02c3 7abc 0972 6b3d a800 0bbc 7eb9 403d
00000170: 7471 263d 6481 1e3d 28b8 c13c 0c13 5ebb
00000180: 1f34 18bb b758 c73c 3aad 16bd be92 37bd
00000190: cb33 69bd d5b7 53bd 5524 8d3c 8246 63bc
000001a0: 94fd 44bd a001 3fbc 4d72 95bb 8a97 213d
000001b0: 8d57 14bd 524d 5abd b085 143d 3fab 00bd
000001c0: 9471 4bbd 6f4b 853b ed80 123d c83a 713d
000001d0: 7258 7bbd f841 833c 0e28 21bd 337e 4f3a
000001e0: 4806 7d3c 04af 093d a859 c83c 9581 1dbc
000001f0: f3f5 bfbc 6d98 dc3c cefa ddbc 5852 69bd
00000200: 5d83 55bd ec1a 643d 4bc9 ea3c 42d3 bc3a
00000210: 113d 67bb 70c6 35bb 46d5 11bd e00b 81bd
00000220: 69ff 66bd 173c 363d 0dda 203d 7b01 ca3c
00000230: fdc4 003d 2b6a 8e3c 7ba8 20bd e4d4 453d
00000240: 67ac 2ebd 73ed a9bc 10f0 38ba 37a4 82bb
00000250: f6ea 46bd 2057 72bd 2b2b 0dbd 3961 0f3d
00000260: ff6c 253d 87c8 30bd d821 db3c adba 273d
00000270: 0223 87bd 1782 f93c 364b 983c 5fea 4c3d
00000280: c147 c0bb 0a34 4cbd 93c0 73bb eee7 dabb
00000290: b6c1 31bc 30cb d3bc 61bb 323c 0fbc 64bd
000002a0: d5c7 b13b b479 1bbd befe 7c3d 763a 02bd
000002b0: 0a7d 113d d756 193d b5d9 1b3d 281e 073d
000002c0: 52a5 f3bc 2512 1dbd 9cdc 563c 29a0 813d
000002d0: d859 5fbd 0305 42bd 27bc 5b3c 64f3 40bd
000002e0: 5a86 46bd 7a80 29bc eed3 1bbd 4379 33bd
000002f0: 196e 383d 9aa6 59bd 8cbd 39bd d2a2 3abc
00000300: eac2 2abc db0c ebba 37d9 67bd 6f62 bcbc
00000310: 9e01 15bd cade 4ebd 962e 883d 0cec 5ebc
00000320: c24f 193c ae4a 56bd 261e 013d 857c 6ebb
00000330: d835 b4ba 524b 5b3c 59ee 373d 1923 acbc
00000340: 896c 22bd 58b6 803d 24d1 67bd 2338 c9ba
00000350: c23c a6bc b2c7 0dbd 5197 663d 29bb be3c
00000360: 4197 a23c 84b7 d93c 87c6 383d 1a51 323d
00000370: 4545 2d3d bf54 3cbd 436f 7e3c 2d66 413d
00000380: a93b 5b3d bc06 ce3c f706 ee3b 9949 6d3d
00000390: fd1d af3c 79e2 4fbd ad3e 80bd f84a df3c
000003a0: cfb6 393a 9b2d 433d 6a43 c33c c3e0 f7bb
000003b0: 4df4 65bd 136c 713c ca7f a93b 0095 80bc
000003c0: c6c3 123d ebbc 813d 032f 4a3d 301a 293d
000003d0: 74b6 4cbd e1f0 adbc 2244 06bd 7ddc 173d
000003e0: 5172 f43c 1b80 a6bc df8a 18bd b443 503d
000003f0: 3b4b a33c 1e94 08bd 6b11 33bd 2223 4cbd

readout.bias f4 [126]
-0.0459403 0.024079688 -0.018600775 -0.0041026883 0.013665696 0.03505041 -0.0417587 -0.061974306
0.045459986 0.063680865 0.01277603 0.04497291 0.015941532 0.048027392 0.0075145937 0.06332913
-0.008752207 0.028946828 -0.035812374 0.032499023 -0.014112212 -0.035743657 0.04687786 0.012978131
-0.0016530374 -0.05202493 -0.00050471304 -0.017956361 -0.03588835 -0.020720785 -0.06617221 -0.010413242
0.013670459 0.061726157 -0.051235076 -0.0012705295 0.003642413 -0.013375982 -0.02224736 -0.010845837
0.041013304 -0.012201429 0.037250843 -0.03493246 -0.058301974 -0.013658372 -0.03169052 -0.051923726
0.015124781 0.030926483 0.044503696 0.043993574 0.04417807 -0.00929541 -0.025849393 0.017809073
0.02702534 0.0017975364 -0.028196558 0.0032505072 -0.0034937928 -0.0006952068 0.012637048 0.011035182
0.02995513 -0.032927103 0.013831043 -0.02193433 -0.0017135764 0.011007907 0.02701959 -0.06372036
-0.02412148 -0.020980323 0.03230916 -0.01454615 0.03425197 0.02617686 0.040212363 0.04251396
0.06107884 0.06332388 0.014121755 0.019057335 0.033246566 -0.0342947 -0.020608272 -0.0022142807
-0.05962437 0.016485335 -0.01864094 0.05723369 0.0056720036 -0.036440004 -0.032607753 -0.032483242
-0.05667702 -0.034921434 -0.021362374 0.029702356 0.041282866 -0.048446726 0.032432094 -0.05376518
-0.0068168934 0.0022032892 0.05855366 0.06429646 -0.026628032 -0.0138013335 -0.009980012 -0.0547972
0.029059194 -0.04570398 -0.04083777 0.013419781 -0.0128246965 -0.054376017 -0.025064552 -0.05622886
-0.04406866 -0.020065317 0.03217752 -0.041712917 -0.03376002 0.0309254
00000000: e52b 3cbd c442 c53c a760 98bc d86f 86bb
00000010: 15e6 5f3c 0591 0f3d 2c0b 2bbd c5d8 7dbd
00000020: 4034 3a3d 1d6b 823d 8e52 513c 8435 383d
00000030: d197 823c 5fb8 443d fb3c f63b b4b2 813d
00000040: 6b65 0fbc e621 ed3c ffaf 12bd b21d 053d
00000050: e836 67bc f167 12bd 0003 403d 3aa2 543c
00000060: bbaa d8ba 1818 55bd b84e 04ba 3819 93bc
00000070: aaff 12bd a3be a9bc 4c85 87bd 4d9c 2abc
00000080: 10fa 5f3c 91d4 7c3d dfdb 51bd e587 a6ba
00000090: 8db5 6e3b ef26 5bbc 1840 b6bc bdb2 31bc
000000a0: 91fd 273d 81e8 47bc 5794 183d 5715 0fbd
000000b0: 0dce 6ebd 5dc7 5fbc ebcd 01bd f9ad 54bd
000000c0: eecd 773c 8959 fd3c 8249 363d 9b32 343d
000000d0: 10f4 343d c64b 18bc 1bc2 d3bc 55e4 913c
000000e0: 3f64 dd3c 509b eb3a 78fc e6bc 7606 553b
000000f0: 1ef8 64bb 8a3e 36ba 9f0b 4f3c e8cc 343c
00000100: 7664 f53c 92de 06bd 999b 623c a0af b3bc
00000110: 159a e0ba 825a 343c 3058 dd3c d27f 82bd
00000120: 699a c5bc edde abbc 9c56 043d fa52 6ebc
00000130: cb4b 0c3d db70 d63c b8b5 243d 1e23 2e3d
00000140: ce2d 7a3d f3af 813d ef5e 673c 211e 9c3c
00000150: 8d2d 083d 9978 0cbd aed2 a8bc 771d 11bb
00000160: af38 74bd 410c 873c e2b4 98bc e06d 6a3d
00000170: 37dc b93b 1d42 15bd b58f 05bd 260d 05bd
00000180: 2a26 68bd c709 0fbd 2500 afbc 5b52 f33c
00000190: 3918 293d 1370 46bd 84d7 043d e138 5cbd
000001a0: 3f60 dfbb 0f65 103b f6d5 6f3d ddad 833d
000001b0: 0823 dabc fd1e 62bc 3483 23bc 0773 60bd
000001c0: 8c0d ee3c 1934 3bbd 8145 27bd a4de 5b3c
000001d0: ad1e 52bc 63b9 5ebd 2d54 cdbc 3c50 66bd
000001e0: 5781 34bd 0560 a4bc 93cc 033d 2adb 2abd
000001f0: f247 0abd 4457 fd3c
