cde/model/eps/4.ckpt (torch, 596943 bytes, 8 tensors)

func.linear1.weight f4 [128, 230]
0.0647688 -0.027506303 0.03831773 -0.039808203 -0.04015805 0.020464227 0.008618745 0.0273533
-0.024877587 0.059531376 0.06624493 -0.026638545 0.045311805 -0.04487625 0.020475706 0.02567397
0.032691743 0.0045326524 0.05147366 -0.022362467 0.020981535 0.059247434 0.056078933 -0.06615698
-0.0072220233 0.014427506 -0.046290386 -0.008812841 0.042217817 -0.058397662 -0.0002048175 -0.03612282
-0.03631631 -0.041960593 -0.051973477 0.039271045 0.046880454 0.047745902 0.025008768 -0.054628044
-0.003276715 0.0062608365 -0.013570901 -0.00926945 0.04955081 0.0010900957 -0.047638953 -0.037281472
0.044551272 0.027765661 -0.04443077 0.04209771 -0.007062122 -0.0601962 -0.041237913 -0.050452933
-0.029516598 0.05671483 -0.037017714 0.039539244 0.0355357 0.028819108 -0.058485046 0.018794984
0.044050477 -0.05580805 0.054419287 0.014730963 -0.050688885 -0.029405605 -0.03304879 0.013585195
-0.06477613 0.020919032 -0.03784635 -0.06183759 0.053350963 -0.06279363 -0.030011494 -0.04692084
-0.026430598 0.05883015 0.03859615 -0.02566327 0.06552067 -0.035678606 0.0626549 -0.057156447
-0.0035800692 0.044055253 0.0042474773 -0.04409432 -0.05785784 0.014186137 -0.025934638 -0.043722857
0.022650708 -0.023009572 -0.026531098 0.010957694 -0.030701451 0.048275303 -0.064197674 -0.058878135
-0.031232383 0.02117444 0.028176183 -0.061415687 0.040304016 -0.027402999 0.042573377 -0.024318544
-0.022966415 -0.05224845 0.047897253 0.03326712 -0.034109876 -0.054144617 0.001025902 -0.037487894
-0.057548188 0.0087276455 0.049973875 0.028988194 -0.013226436 -0.0060557686 0.04394301 -0.064137064
-0.00034215004 -0.022266524 0.050570123 -0.03632221 0.02571449 -0.041087795 0.040774334 -0.0043418934
0.007809783 0.06471476 -0.021211658 -0.008553526 0.020370381 -0.0089147845 0.054377984 -0.032122467
-0.051095974 -0.010515725 0.057475016 0.05145076 -0.057970736 0.06528095 -0.05229136 0.048331086
-0.012892554 -0.06123148 0.017047621 -0.06133465 -0.017025903 0.0030880624 0.040230278 -0.0052955686
-0.011405404 0.059662327 0.06555644 -0.04943469 0.01655882 0.014620143 0.04434032 -0.014375845
-0.030670244 -0.058229905 0.0033085013 -0.02697438 -0.0010681011 -0.008973797 -0.04133721 0.03541737
-0.010859715 -0.058481317 -0.0034739443 -0.022892665 0.047250304 0.054664455 -0.05510683 0.02713867
-0.04643548 -0.024986194 -0.049530018 0.02660908 -0.06162164 0.0055891615 -0.015798261 0.011997334
-0.010794227 -0.06081962 -0.06328067 0.026021803 -0.0009991074 0.044201817 0.0130016925 -0.029680569
-0.050372295 0.044091623 -0.022889014 -0.044221982 -0.03886766 0.03870003 0.006067869 -0.041058924
0.06118376 0.017490815 -0.03373176 -0.037732534 -0.062444158 0.060290575 0.047641475 0.05344418
0.043696716 -0.008219793 0.028582145 0.0068698563 -0.049636133 -0.00686647 -0.054884374 0.020605812
-0.04231818 0.040401265 0.033332173 0.020591253 0.040543064 -0.001596046 -0.002837986 -0.029929193
0.018347563 0.013589539 -0.04059034 -0.036268197 0.002543345 -0.010727831 0.020864459 0.05325086
0.05765111 -0.022887146 -0.024821073 0.039067667 -0.046020772 -0.030148642 0.015995193 -0.016465435
-0.031054804 0.051049575 0.061286453 -0.0015762359 -0.026501255 -0.046204936 -0.048159126 -0.030519282
00000000: 81a5 843d e654 e1bc 0df3 1c3d ed0d 23bd
00000010: c47c 24bd 98a4 a73c a335 0d3c 0714 e03c
00000020: 15cc cbbc 2cd7 733d 6cab 873d 1439 dabc
00000030: df98 393d 29d0 37bd abbc a73c 3852 d23c
00000040: c7e7 053d a586 943b 0bd6 523d 7e31 b7bc
00000050: 78e1 ab3c 70ad 723d 06b3 653d 507d 87bd
00000060: b9a6 ecbb 5961 6c3c fd9a 3dbd bc63 10bc
00000070: 97ec 2c3d 6332 6fbd 47c4 56b9 86f5 13bd
00000080: 69c0 14bd dfde 2bbd 24e2 54bd adda 203d
00000090: b805 403d 3591 433d 30df cc3c a8c1 5fbd
000000a0: 28be 56bb b427 cd3b 7c58 5ebc e4de 17bc
000000b0: caf5 4a3d 8be1 8e3a 1021 43bd 75b4 18bd
000000c0: 657b 363d d074 e33c 0afd 35bd a66e 2c3d
000000d0: 6069 e7bb 4a90 76bd 16e9 28bd bca7 4ebd
000000e0: cbcc f1bc cf4d 683d e39f 17bd e7f3 213d
000000f0: e28d 113d 0d16 ec3c 048e 6fbd f0f7 993c
00000100: 466e 343d fb96 64bd c2e6 5e3d 235a 713c
00000110: 269f 4fbd 06e4 f0bc 2b5e 07bd 7094 5e3c
00000120: 59a9 84bd 645e ab3c c604 1bbd 6a49 7dbd
00000130: 8a86 5a3d f299 80bd aada f5bc 1130 40bd
00000140: fb84 d8bc e2f7 703d ff16 1e3d c73b d2bc
00000150: b32f 863d bb23 12bd 3651 803d e11c 6abd
00000160: 989f 6abb 4873 343d 6c2e 8b3b 3f9c 34bd
00000170: 58fc 6cbd f96c 683c e174 d4bc bd16 33bd
00000180: fa8d b93c 927e bcbc bf57 d9bc e687 333c
00000190: 9c81 fbbc 53bc 453d 127a 83bd 332a 71bd
000001a0: 0edb ffbc 0576 ad3c bdd1 e63c 048f 7bbd
000001b0: d315 253d 417c e0bc 6c61 2e3d af37 c7bc
000001c0: 1024 bcbc 7902 56bd e92f 443d 1b43 083d
000001d0: ccb6 0bbd bfc6 5dbd 8f77 863a e88c 19bd
000001e0: a6b7 6bbd 66fe 0e3c 68b1 4c3d a678 ed3c
000001f0: b2b3 58bc 786f c6bb 96fd 333d 4b5a 83bd
00000200: 9a62 b3b9 4968 b6bc 9e22 4f3d 99c6 14bd
00000210: 32a7 d23c ad4b 28bd fd02 273d 7146 8ebb
00000220: 35e9 ff3b 2c89 843d 12c4 adbc 1724 0cbc
00000230: c9df a63c 510f 12bc 73bb 5e3d d992 03bd
00000240: 034a 51bd 264a 2cbc ec6a 6b3d 08be 523d
00000250: b972 6dbd 05b2 853d 772f 56bd d1f6 453d
00000260: 4a3b 53bc dccd 7abd 74a7 8b3c 0b3a 7bbd
00000270: e879 8bbc 1761 4a3b 81c8 243d 7386 adbb
00000280: bbdd 3abc 7c60 743d 7442 863d 087c 4abd
00000290: 5da6 873c 5389 6f3c 329e 353d aa88 6bbc
000002a0: 2a40 fbbc 7b82 6ebd 71d3 583b 60f9 dcbc
000002b0: 87ff 8bba d506 13bc 3551 29bd ce11 113d
000002c0: f2ec 31bc 1b8a 6fbd 1dab 63bb 6689 bbbc
000002d0: 8989 413d d6e7 5f3d b3b7 61bd eb51 de3c
000002e0: 2133 3ebd d9af ccbc fddf 4abd 49fb d93c
000002f0: f966 7cbd 4925 b73b 5b6b 81bc 7790 443c
00000300: 45da 30bc fe1d 79bd 4c99 81bd ad2b d53c
00000310: 7bf4 82ba f70c 353d 0d05 553c aa24 f3bc
00000320: 2e53 4ebd 6b99 343d be81 bbbc 1c22 35bd
00000330: b233 1fbd ec83 1e3d f9d4 c63b 672d 28bd
00000340: d39b 7a3d e648 8f3c 502a 0abd 6e8d 1abd
00000350: 72c5 7fbd 40f3 763d b523 433d 49e8 5a3d
00000360: 54fb 323d 50ac 06bc 1a25 ea3c 881c e13b
00000370: 424f 4bbd 2000 e1bb 70ce 60bd 85cd a83c
00000380: d455 2dbd cc7b 253d 5187 083d fdae a83c
00000390: 7c10 263d 6b32 d1ba 81fd 39bb 112e f5bc
000003a0: a14d 963c a8a6 5e3c 0e42 26bd f68d 14bd
000003b0: 40ae 263b c9c3 2fbc f1eb aa3c 931d 5a3d
000003c0: 9223 6c3d d37d bbbc 9055 cbbc 6b05 203d
000003d0: 4780 3cbd 49fa f6bc 5a08 833c 85e2 86bc
000003e0: a566 febc 5c19 513d 8107 7b3d b399 ceba
000003f0: 2919 d9bc 6341 3dbd 8142 45bd 9303 fabc

func.linear1.bias f4 [128]
0.04449718 -0.01757456 -0.05534293 0.0094428705 0.0051518446 -0.04918236 -0.014061224 -0.05581808
0.032514576 -0.03668064 0.049205724 0.012640406 0.045835778 -0.043672483 0.0042259796 -0.048926458
0.0019169385 0.050617423 -0.060655374 0.026272135 -0.0077382717 0.05675185 -0.043790646 -0.009904036
0.0031898634 -0.0005986614 0.03208207 -0.029946975 0.050865754 0.06363159 -0.05600038 0.02109468
0.02187374 -0.028301189 0.013600468 -0.021377383 -0.017285176 -0.044653438 -0.011738936 0.05383108
-0.054421507 -0.004451374 0.055795524 0.049984924 0.03567288 -0.0039989445 -0.060800925 0.024612492
-0.054351967 -0.017655721 -0.008892522 -0.058051445 -0.033799518 0.0023939922 0.03474018 0.006918029
0.0067672655 -0.03626619 -0.010907284 0.056578487 -0.036352217 -0.060254216 0.023531986 -0.010894929
0.044526067 0.009211073 -0.015323339 -0.018181667 -0.028512856 0.029483432 0.037498705 -0.039792538
-0.02164868 0.050109517 0.02207381 0.054191355 -0.06263815 -0.016050057 -0.015764644 -0.06294319
-0.016503619 -0.05396758 -0.016544977 0.018840175 -0.012483507 0.011661282 0.04318407 0.029528439
-0.052873682 0.04038693 0.01240801 -0.03853254 -0.044202562 -0.021371644 -0.036161073 -0.055559386
-0.04279276 -0.014201003 -0.028427828 0.03966779 0.05642885 -0.018635005 -0.054025423 -0.047864996
0.06640471 -0.017587354 0.04884423 0.006682118 -0.021082193 -0.001664913 0.06260346 0.045058936
0.03780305 -0.019972933 -0.044332128 0.04372777 -0.024680011 0.0017570127 0.0578919 0.0132685425
-0.001474507 0.03581318 -0.045088533 -0.020349866 0.008576146 -0.05729834 0.042723063 -0.03367609
00000000: ad42 363d 86f8 8fbc 45af 62bd 45b6 1a3c
00000010: ced0 a83b 7173 49bd 0c61 66bc 80a1 64bd
00000020: 012e 053d 703e 16bd f18b 493d b519 4f3c
00000030: 4cbe 3b3d ebe1 32bd 167a 8a3b 1c67 48bd
00000040: c841 fb3a 3754 4f3d c571 78bd a938 d73c
00000050: 5491 fdbb a174 683d d25d 33bd 8a44 22bc
00000060: 070d 513b 7def 1cba 7d68 033d 5c53 f5bc
00000070: 9c58 503d 4751 823d a860 65bd c0ce ac3c
00000080: 8f30 b33c e5d7 e7bc 7fd4 5e3c 9f1f afbc
00000090: a499 8dbc 86e6 36bd ab54 40bc fb7d 5c3d
000000a0: 16e9 5ebd d5dc 91bb d989 643d febc 4c3d
000000b0: ba1d 123d 9409 83bb 640a 79bd 23a0 c93c
000000c0: 2ba0 5ebd bba2 90bc f1b1 11bc 5ac7 6dbd
000000d0: 5d71 0abd 86e4 1c3b b84b 0e3d a2b0 e23b
000000e0: f0bf dd3b db8b 14bd 77b4 32bc d8be 673d
000000f0: 10e6 14bd 20cd 76bd 27c6 c03c a580 32bc
00000100: f760 363d 0aea 163c be0e 7bbc b8f1 94bc
00000110: cb93 e9bc 3d87 f13c 3e98 193d 80fd 22bd
00000120: 9358 b1bc a33f 4d3d 23d4 b43c c1f7 5d3d
00000130: 6e48 80bd 697b 83bc db24 81bc 5ce8 80bd
00000140: 9932 87bc 1c0d 5dbd 5589 87bc b656 9a3c
00000150: a087 4cbc f60e 3f3c c8e1 303d a0e5 f13c
00000160: 1392 58bd c46c 253d f74a 4b3c 4cd4 1dbd
00000170: bf0d 35bd 9613 afbc a21d 14bd 3d92 63bd
00000180: 7647 2fbd 53ab 68bc 7ae1 e8bc b17a 223d
00000190: f021 673d 70a8 98bc c349 5dbd 160e 44bd
000001a0: 31ff 873d 5b13 90bc e310 483d abf5 da3b
000001b0: 90b4 acbc 3639 daba 3e36 803d b88f 383d
000001c0: 5fd7 1a3d 479e a3bc 9b95 35bd e41b 333d
000001d0: bc2d cabc 904b e63a 0f20 6d3d 4d64 593c
000001e0: 3f44 c1ba d7b0 123d c1ae 38bd c3b4 a6bc
000001f0: f782 0c3c aab1 6abd 61fe 2e3d f1ef 09bd

func.linear2.weight f4 [690, 128]
0.026154334 -0.017723158 -0.084477015 0.049976178 0.0021136159 -0.081410475 -0.049997505 -0.025173014
-0.062961884 -0.0037721626 0.019005105 0.0063927905 -0.022943517 -0.08345291 -0.008228571 -0.020714626
-0.042021085 -0.027929882 0.014748122 -0.07715179 -0.07574605 0.050546203 -0.027094044 0.07396673
-0.08663138 0.041724183 0.03584854 0.020369548 0.015884522 -0.061764747 0.085049525 -0.028566832
-0.07187797 0.082324155 0.01931338 -0.059617627 0.040078178 -0.029603653 0.048384137 -0.01654842
0.01993142 -0.018599616 0.055257782 -0.022715157 -0.05882059 -0.055579215 -0.053923152 0.08444547
-0.021309856 0.082034454 -0.04776849 -0.072658926 -0.07566981 0.08117089 0.039631456 0.024710972
0.06494732 0.06285742 0.00593339 0.08014081 0.0043678563 0.061650325 -0.027693441 0.08721323
0.083999984 0.0032223805 -0.037515625 0.0080768615 -0.017894572 -0.043941773 -0.055658773 0.016040694
0.009053206 -0.013925424 0.027474964 -0.031405874 -0.034724683 0.06339902 0.017869834 0.054389596
-0.084489636 0.04021459 0.07871319 0.04370047 -0.08756219 0.03332976 -0.033390164 -0.07730357
0.07268708 -0.034165382 -0.064987555 -0.04143245 0.07900813 -0.0450386 -0.08164075 -0.013956584
0.077821665 0.0011728229 0.07961111 -0.03261922 -0.06958981 0.06721508 -0.017249765 0.051304802
0.037155434 -0.041181307 -0.028872626 -0.03933601 0.0063220775 0.07345691 0.030071903 -0.02251307
0.054660723 -0.03695905 -0.03966295 -0.020861765 -0.083591685 0.05642266 -0.0317503 -0.044149134
0.01979587 -0.00011396333 0.059539262 0.009839137 0.066491626 -0.013939098 -0.06257901 0.070351325
-0.031419177 -0.061561655 -0.015663166 0.0037595152 -0.046818934 -0.058169387 0.0006075194 0.034265395
-0.039736006 0.02999324 0.07096416 -0.015976708 0.08523641 -0.048468176 0.029190458 -0.029770281
-0.046711214 -0.06498058 -0.016508123 -0.08302814 0.038518123 -0.08349551 -0.027634835 0.03758792
-0.005760145 0.037324946 0.019850414 -0.056472715 0.029234719 -0.08306587 0.04504724 0.08337837
0.035881538 -0.024821192 -0.050094135 -0.04689671 0.022966376 0.052855242 -0.008991309 -0.07436507
0.07277047 -0.028495627 0.067317694 -0.013416053 0.03317388 0.07832141 0.003881931 -0.028772801
0.06612891 0.034021355 0.043199558 0.019930007 0.048865132 -0.05713524 0.045916174 -0.0008894614
0.061883066 0.021736147 0.028919123 0.029199652 0.04759776 -0.06784352 0.073296234 0.03855277
-0.08151079 0.047198307 0.03503803 -0.02648945 -0.049073473 0.07085059 -0.012586773 -0.026703475
-0.031582486 0.07399074 -0.06100222 -0.0049620033 0.016005365 -0.041559465 0.018059012 -0.022833819
0.07852594 0.050875045 -0.0050408 -0.06132026 0.044950087 0.030930499 -0.033891644 -0.059009805
-0.026380057 -0.07446961 -0.057570904 -0.07443877 0.084845446 -0.016745696 0.026396904 -0.082294814
-0.082001135 -0.026828935 0.007059609 0.036835928 -0.0022084464 -0.025231121 0.004783655 -0.01098146
0.016647974 0.055424076 -0.0809007 0.07302722 -0.08551728 0.060762037 -0.041348156 -0.06984848
0.06387527 0.007011263 0.06723694 0.0544969 0.07405387 0.0016052502 0.0032920653 0.031933397
0.013734234 -0.08315883 -0.067454845 0.020472571 0.004257378 -0.07539036 0.0038713105 -0.035922065
00000000: 9d41 d63c 2830 91bc 4902 adbd d2b3 4c3d
00000010: 9784 0a3b 89ba a6bd 2fca 4cbd a337 cebc
00000020: 29f2 80bd 6336 77bb 98b0 9b3c 9d7a d13b
00000030: 0bf4 bbbc 5ce9 aabd 21d1 06bc b8b1 a9bc
00000040: 4d1e 2cbd 35cd e4bc 1ba2 713c c201 9ebd
00000050: bf20 9bbd 8909 4f3d 54f4 ddbc de7b 973d
00000060: cb6b b1bd fae6 2a3d ebd5 123d 0ade a63c
00000070: 4220 823c 08fd 7cbd 722e ae3d fd04 eabc
00000080: c234 93bd 9199 a83d 1837 9e3c 9d31 74bd
00000090: 0429 243d 5c83 f2bc 722e 463d 8d90 87bc
000000a0: 3847 a33c 395e 98bc fc55 623d 2315 babc
000000b0: dced 70bd 08a7 63bd 86de 5cbd bff1 ac3d
000000c0: 0292 aebc ae01 a83d e4a8 43bd 34ce 94bd
000000d0: c6f8 9abd ec3c a63d 9854 223d aa6e ca3c
000000e0: 1a03 853d 64bb 803d e26c c23b dd20 a43d
000000f0: 3c20 8f3b 0d85 7c3d 5bdd e2bc da9c b23d
00000100: 2f08 ac3d 932e 533b fca9 19bd d054 043c
00000110: a397 92bc 4afc 33bd 74fa 63bd c667 833c
00000120: e653 143c 7627 64bc 2d13 e13c 72a3 00bd
00000130: 783b 0ebd 58d7 813d c263 923c a0c7 5e3d
00000140: e708 adbd 0eb8 243d 6234 a13d 44ff 323d
00000150: ce53 b3bd c984 083d 20c4 08bd 5651 9ebd
00000160: f7dc 943d 00f1 0bbd 3218 85bd 13b5 29bd
00000170: 04cf a13d 657a 38bd 4433 a7bd 28aa 64bc
00000180: f760 9f3d 68b9 993a 260b a33d bb9b 05bd
00000190: 1a85 8ebd 0fa8 893d 614f 8dbc fc24 523d
000001a0: 4c30 183d bbad 28bd 4986 ecbc cc1e 21bd
000001b0: 6e29 cf3b 9470 963d 5a59 f63c 546d b8bc
000001c0: ece3 5f3d 5f62 17bd 9e75 22bd 4be6 aabc
000001d0: 1e32 abbd 721b 673d 9a0c 02bd b9d5 34bd
000001e0: f32a a23c 99ff eeb8 71df 733d 5534 213c
000001f0: c32c 883d d160 64bc 6d29 80bd 5b14 903d
00000200: 65b1 00bd 1328 7cbd 0a50 80bc 3362 763b
00000210: 36c5 3fbd 0643 6ebd f041 1f3a df59 0c3d
00000220: 39c2 22bd 62b4 f53c a855 913d 96e1 82bc
00000230: 6d90 ae3d 9186 46bd d420 ef3c cee0 f3bc
00000240: 4254 3fbd 8a14 85bd 0b3c 87bc a80a aabd
00000250: 2ec5 1d3d b2ff aabd 7362 e2bc caf5 193d
00000260: 99bf bcbb 0be2 183d 569d a23c ef4f 67bd
00000270: a67d ef3c 701e aabd 7483 383d 47c2 aa3d
00000280: 85f8 123d d055 cbbc 822f 4dbd c416 40bd
00000290: fb23 bc3c bd7e 583d 4950 13bc b74c 98bd
000002a0: af08 953d a96f e9bc dcdd 893d 01cf 5bbc
000002b0: 56e1 073d fa66 a03d ff67 7e3b f0b4 ebbc
000002c0: 986e 873d fa59 0b3d 05f2 303d 4144 a33c
000002d0: ce26 483d a406 6abd 9912 3c3d be2a 69ba
000002e0: 1979 7d3d 0110 b23c cce7 ec3c 1c34 ef3c
000002f0: def5 423d 8bf1 8abd 561c 963d 82e9 1d3d
00000300: 21ef a6bd 0353 413d 0a84 0f3d 6700 d9bc
00000310: 4401 49bd 1d1a 913d c138 4ebc 3fc1 dabc
00000320: a35c 01bd 7588 973d 77dd 79bd 4d98 a2bb
00000330: af1d 833c 423a 2abd 7ef0 933c fd0d bbbc
00000340: 35d2 a03d 5a62 503d 4c2d a5bb f42a 7bbd
00000350: 951d 383d f561 fd3c f7d1 0abd 44b4 71bd
00000360: fd1a d8bc 8683 98bd 78cf 6bbd 5b73 98bd
00000370: 73c3 ad3d 452e 89bc 523e d83c 2f8a a8bd
00000380: 36f0 a7bd 5bc8 dbbc 4b54 e73b 45e1 163d
00000390: 95bb 10bb 7fb1 cebc 35c0 9c3b 95eb 33bc
000003a0: 5561 883c 5b04 633d 44af a5bd 4c8f 953d
000003b0: af23 afbd 9de1 783d af5c 29bd b80c 8fbd
000003c0: 0ad1 823d bdbe e53b 85b3 893d 2438 5f3d
000003d0: 8ea9 973d 4267 d23a b1bf 573b 98cc 023d
000003e0: 8d05 613c 2d4f aabd c425 8abd 18b6 a73c
000003f0: 7a81 8b3b 4366 9abd d0b5 7d3b 0423 13bd

func.linear2.bias f4 [690]
0.01548321 -0.0604185 -0.034454104 0.006622764 -0.04777603 -0.035985064 -0.003679965 0.05105539
-0.040382564 -0.036855593 0.0374468 -0.07389795 -0.06266692 0.050166544 -0.045588147 -0.038638648
0.074290894 -0.0010027438 0.018477071 0.061525974 -0.06681578 0.00994454 -0.055661317 0.022255763
-0.051004637 0.07133473 -0.05319238 0.060467057 0.009897858 -0.06440519 -0.045841668 -0.07620231
-0.020261835 0.059243713 0.0050883708 0.076093756 -0.053226076 -0.086854525 0.08214919 0.0651086
0.079702884 -0.062499493 -0.05051843 0.014375073 0.06535646 0.0002476637 0.071130194 0.060132675
0.0011841217 0.076107025 -0.03855429 0.07357442 -0.03259865 -0.0130489385 -0.06982838 -0.04272829
0.08308552 0.04461018 -0.08032367 -0.06948551 -0.00040896685 -0.059454296 0.0038242387 0.02166037
0.036433507 0.0034746465 -0.07413211 0.06587512 0.07002299 -0.009352056 0.03104889 -0.058339614
-0.06241416 0.071247675 0.012611655 0.04882387 -0.03243921 -0.023859724 -0.009409662 -0.0060976096
-0.059946436 0.011367672 0.020958237 -0.054502375 -0.07629343 -0.037924606 -0.035187878 0.04334413
-0.015546856 0.043183256 0.053484187 0.08220977 0.07656591 0.013196731 0.079764694 0.03825582
-0.029265286 0.087610625 -0.056060757 0.021816216 0.0036358621 -0.036086436 -0.023914456 0.001965343
-0.08552653 -0.03757056 0.06424333 -0.03489066 0.03642263 -0.066606656 0.084549285 -0.043003477
-0.036415096 -0.06018602 -0.058702312 -0.051656477 0.037620954 -0.0058054673 -0.059287243 0.07124898
-0.00447617 -0.010134347 -0.07835369 0.023627894 0.05900696 0.029470341 0.032629073 -0.010709424
0.026549058 -0.06803676 0.044131566 0.03875354 -0.025575396 0.07383441 -0.055301163 -0.039501805
0.07639774 -0.076737806 -0.018648151 -0.016879816 -0.048752867 0.0061248117 -0.016539834 -0.048400383
0.052453093 -0.016656034 -0.062165342 -0.072176434 0.0496656 0.04812325 0.0705515 -0.06992041
-0.0007038743 -0.05273344 -0.08164721 -0.04736425 -0.060855005 0.020920807 -0.08749784 0.06877973
0.040338475 0.0056432555 -0.086424455 0.08605478 -0.037898798 0.06292268 0.06430141 -0.051514715
0.073329724 -0.032910686 0.0041953563 -0.06133337 -0.05321179 0.07537669 0.003600448 0.027580649
0.03769242 -0.035403118 -0.085898 -0.07528393 0.07978071 -0.06258287 0.044410206 0.059143744
0.021719446 0.07270339 -0.06718474 -0.00774371 0.021657094 0.063156515 -0.0043593203 0.06292806
-0.05156063 -0.025497295 -0.041452292 0.04438877 0.03126934 0.0008750025 0.07571786 0.05907335
-0.039883006 0.028083773 -0.05343791 -0.07158119 0.061899345 0.0045447554 0.08178915 0.08888658
-0.023875294 -0.086506136 -0.06651548 -0.075454876 0.06406403 0.058148894 0.076625176 0.04696458
0.08277014 0.07793286 -0.085044846 -0.016604595 -0.005979102 0.0075909356 -0.03578279 0.011734981
0.037796006 -0.065958604 -0.0035249814 -0.005934499 0.040688455 -0.058046438 -0.042737704 -0.026048535
-0.046326935 0.03238686 0.017060203 -0.0066874838 -0.06493369 -0.07215432 0.020678876 -0.0575294
0.029049339 0.04608613 -0.002674571 -0.084883004 -0.06535653 -0.025046006 -0.052269306 -0.028662523
0.038826223 -0.004300305 0.0012355215 -0.06863166 0.025537996 -0.00056788005 0.06804363 -0.041668426
00000000: 4aad 7d3c 6479 77bd bf1f 0dbd c503 d93b
00000010: ccb0 43bd 1365 13bd 912b 71bb 751f 513d
00000020: 3068 25bd e4f5 16bd d161 193d cf57 97bd
00000030: 8457 80bd 6f7b 4d3d a3ba 3abd 8f43 1ebd
00000040: d325 983d 806e 83ba 3a5d 973c a902 7c3d
00000050: b6d6 88bd 6dee 223c 1ffd 63bd b851 b63c
00000060: 3dea 50bd f117 923d 41e0 59bd 4eac 773d
00000070: a02a 223c dee6 83bd 79c4 3bbd f50f 9cbd
00000080: 26fc a5bc 89a9 723d 59bc a63b 0bd7 9b3d
00000090: 9603 5abd c9e0 b1bd d63d a83d a857 853d
000000a0: 443b a33d 78ff 7fbd 6aec 4ebd 6d85 6b3c
000000b0: 9cd9 853d dcd8 8139 b5ac 913d ae4d 763d
000000c0: 8834 9b3a 00de 9b3d 1aeb 1dbd 2fae 963d
000000d0: 2986 05bd 37cb 55bc 2f02 8fbd dc03 2fbd
000000e0: be28 aa3d 2ab9 363d bc80 a4bd 6b4e 8ebd
000000f0: 9a6a d6b9 5986 73bd 14a0 7a3b 1771 b13c
00000100: 4d3b 153d e5b6 633b 93d2 97bd 89e9 863d
00000110: 3768 8f3d 5e39 19bc 3e5a fe3c 85f5 6ebd
00000120: fea5 7fbd 4dea 913d 1da1 4e3c 8afb 473d
00000130: fade 04bd 7875 c3bc fc2a 1abc 75ce c7bb
00000140: 658a 75bd 793f 3a3c 9cb0 ab3c e23d 5fbd
00000150: bb3f 9cbd d556 1bbd 2a21 10bd 9d89 313d
00000160: 3eb8 7ebc ede0 303d 3c12 5b3d 995d a83d
00000170: 96ce 9c3d 1a37 583c ac5b a33d 22b2 1c3d
00000180: c1bd efbc 336d b33d f79f 65bd ecb7 b23c
00000190: a547 6e3b 5fcf 13bd 40e8 c3bc fccc 003b
000001a0: 8928 afbd 96e3 19bd 0292 833d 82e9 0ebd
000001b0: e52f 153d 1269 88bd 2d28 ad3d 6a24 30bd
000001c0: ff27 15bd 9e85 76bd d671 70bd be95 53bd
000001d0: 6e18 1a3d ca3b bebb 2ed7 72bd fcea 913d
000001e0: d6ac 92bb 880a 26bc e677 a0bd 498f c13c
000001f0: 48b1 713d c96b f13c 10a6 053d 9476 2fbc
00000200: 697d d93c db56 8bbd 4dc3 343d 08bc 1e3d
00000210: 7e83 d1bc 7f36 973d 7983 62bd a5cc 21bd
00000220: 6b76 9c3d b628 9dbd 02c4 98bc 8a47 8abc
00000230: 16b1 47bd a5b2 c83b 8c7e 87bc 7b3f 46bd
00000240: 0ed9 563d 3c72 88bc 16a1 7ebd 3dd1 93bd
00000250: 286e 4b3d e31c 453d 4e7d 903d 6f32 8fbd
00000260: 3484 38ba 05ff 57bd a736 a7bd 0401 42bd
00000270: 1943 79bd 1d62 ab3c 1132 b3bd 63dc 8c3d
00000280: f539 253d 0feb b83b 4eff b0bd 7d3d b03d
00000290: c53b 1bbd 9bdd 803d 75b0 833d 1801 53bd
000002a0: e52d 963d 5bcd 06bd 3379 893b b338 7bbd
000002b0: 9bf4 59bd 185f 9a3d 7ef5 6b3b d0f0 e13c
000002c0: 5e63 1a3d dc02 11bd 4aeb afbd 762e 9abd
000002d0: 1264 a33d 732b 80bd 7ae7 353d b640 723d
000002e0: fbec b13c 84e5 943d 2798 89bd f3be fdbb
000002f0: 386a b13c 3458 813d a1d8 8ebb 6de0 803d
00000300: 3d31 53bd b4df d0bc e1c9 29bd 00d1 353d
00000310: 4814 003d 6c60 653a f711 9b3d e6f6 713d
00000320: 5d5c 23bd f10f e63c b6e1 5abd 2999 92bd
00000330: 2b8a 7d3d 2cec 943b 1281 a73d 2b0a b63d
00000340: 1f96 c3bc 212a b1bd 4539 88bd 1688 9abd
00000350: 0134 833d 892d 6e3d a9ed 9c3d ee5d 403d
00000360: 6483 a93d 439b 9f3d fe2b aebd 5c06 88bc
00000370: 58ec c3bb 62bd f83b fa90 12bd 1444 403c
00000380: fccf 1a3d 4e15 87bd 6003 67bb 3076 c2bb
00000390: f0a8 263d 1ac2 6dbd bb0d 2fbd bd63 d5bc
000003a0: 50c1 3dbd 16a8 043d d7c1 8b3c ae22 dbbb
000003b0: f4fb 84bd a5c5 93bd bf66 a93c f3a3 6bbd
000003c0: e1f8 ed3c cfc4 3c3d db47 2fbb 24d7 adbd
000003d0: a5d9 85bd 482d cdbc 5718 56bd abcd eabc
000003e0: 3f08 1f3d 93e9 8cbb 39f1 a13a c18e 8cbd
000003f0: 0f35 d13c c9dd 14ba 755a 8b3d 83ac 2abd

initial.weight f4 [230, 3]
-0.14888062 0.0829619 0.47729507 -0.058725182 0.19450855 -0.35810313 0.29211846 -0.07331308
-0.48341715 -0.06589436 0.008903535 -0.5128638 -0.11573493 0.5435167 -0.41276026 0.28784734
0.295123 0.38671154 0.5406232 -0.006773752 -0.10383137 -0.4175724 -0.0012920441 -0.40550995
0.07639603 -0.123016134 -0.30674893 0.57754296 -0.2638586 -0.5056898 -0.31074068 0.0870106
0.24197455 0.17096457 -0.0516632 -0.12759635 -0.2008692 0.57257074 -0.36296523 -0.18605913
-0.20378834 0.18703662 -0.32687917 0.35215455 -0.3718921 -0.08008302 -0.09477763 0.17526127
0.39621013 -0.2478773 -0.44681743 -0.11002779 0.53728426 -0.14106554 0.4157323 -0.08309971
-0.5030793 0.18680114 0.2822089 0.053688105 0.2536165 -0.08275864 0.40774035 -0.5638523
-0.18153441 0.037279505 -0.011702599 0.24033932 0.27155063 -0.012805381 -0.47786117 -0.3097749
-0.020216966 0.5146946 -0.11351998 0.38384834 0.50336546 -0.18402644 -0.010746467 0.4117903
-0.54371375 0.33514592 0.013325135 -0.23647541 0.22723593 -0.47185028 0.29232493 -0.34520045
0.3095687 0.16185497 0.23258619 -0.30864722 -0.25988135 -0.10708853 -0.09305201 0.15514499
0.08204767 0.036773656 -0.28498113 0.04488874 -0.38644654 -0.14638193 0.12244739 0.5727686
-0.4051685 0.32124853 0.16887377 -0.5493776 0.47037452 -0.10026059 0.54925907 0.53954
-0.13657008 -0.41859052 0.17038581 0.07938887 0.21301836 -0.018506268 0.041672654 -0.48551136
0.056170642 -0.123361394 -0.20794444 -0.3176465 -0.54131657 -0.39962405 -0.24381183 0.52966356
0.0961899 0.35377562 0.34112433 -0.42943144 0.24847661 0.4475035 0.26306173 0.5544359
0.16382341 0.0013952068 0.5440357 -0.10360593 -0.11532812 0.01442965 0.42226985 0.19802555
-0.15094219 -0.0019411886 -0.5484494 0.07586012 -0.4670604 -0.16427232 -0.070157684 -0.451516
0.3879175 -0.48281583 -0.48090956 0.4782495 0.37869495 0.27670678 0.4413601 0.54133487
0.28911698 -0.4241824 0.3824564 -0.32010233 -0.17329043 -0.15101653 0.19254903 -0.2630225
0.37083474 -0.2253387 -0.0002881176 -0.36603883 -0.4070421 -0.11030276 -0.4832104 -0.5551931
0.4482578 -0.055106908 -0.26466933 -0.13718109 0.2727695 -0.4757862 0.30571535 -0.5224338
-0.45798954 0.118275456 0.104335055 0.33431792 -0.45380723 0.24565744 -0.5265505 0.55643606
0.31155494 0.23275806 0.10477424 -0.09721305 -0.31778544 -0.29732075 0.1989508 -0.12579712
0.24980702 -0.31630832 -0.03302523 0.48831758 0.51181215 -0.5716735 -0.4043295 -0.20895271
-0.22573964 -0.2018259 0.5457938 0.11759281 -0.20722713 0.5699812 -0.011947872 -0.35197198
-0.5050668 -0.43690032 0.074749164 -0.35033724 0.39483038 -0.38829213 -0.025471414 -0.17742814
-0.23782848 0.4574838 -0.11783408 -0.34023684 -0.3723866 0.2434701 -0.39386684 0.30893743
0.17105764 -0.06272387 -0.22308458 0.027980978 -0.30020237 0.17251085 -0.4771499 -0.44723067
-0.4236477 -0.2934112 -0.56027484 -0.5493163 0.5605017 -0.46168646 -0.5367622 -0.17344786
-0.071530156 -0.109274656 -0.4875742 0.11694022 -0.36291656 -0.5390929 -0.11716877 0.1761766
00000000: 2974 18be eee7 a93d 0560 f43e d189 70bd
00000010: 402d 473e 4b59 b7be 8d90 953e 2b25 96bd
00000020: 7482 f7be 9ff3 86bd 22e0 113c 0b4b 03bf
00000030: 6f06 edbd e923 0b3f 5055 d3be ba60 933e
00000040: 5d1a 973e 0eff c53e 4866 0a3f 5af6 ddbb
00000050: 8ba5 d4bd 0dcc d5be ce59 a9ba 009f cfbe
00000060: 8675 9c3d e2ef fbbd 320e 9dbe dbd9 133f
00000070: 7918 87be e374 01bf 6719 9fbe 9d32 b23d
00000080: 2dc8 773e 5611 2f3e cb9c 53bd 9ea8 02be
00000090: a8b0 4dbe ff93 123f 94d6 b9be 4986 3ebe
000000a0: e4ad 50be 8786 3f3e b55c a7be 9a4d b43e
000000b0: a468 bebe 9102 a4bd c61a c2bd b177 333e
000000c0: 0edc ca3e 8cd3 7dbe 41c5 e4be 4056 e1bd
000000d0: 768b 093f 7c73 10be ddda d43e 2e30 aabd
000000e0: cec9 00bf cc48 3f3e af7d 903e 0fe8 5b3d
000000f0: 06da 813e 5d7d a9bd 58c3 d03e a058 10bf
00000100: 28e4 39be 65b2 183d 42bc 3fbc 831b 763e
00000110: af08 8b3e a9cd 51bc 38aa f4be d19a 9ebe
00000120: 0d9e a5bc 06c3 033f 2a7d e8bd c587 c43e
00000130: 8fdc 003f 6d71 3cbe f311 30bc 2ed6 d23e
00000140: d330 0bbf 3f98 ab3e ab51 5a3c 9c26 72be
00000150: 89b0 683e 5c96 f1be 9dab 953e 1dbe b0be
00000160: ca7f 9e3e 4fbd 253e 132b 6e3e 0207 9ebe
00000170: 2b0f 85be 3b51 dbbd 0d92 bebd 54de 1e3e
00000180: 9c08 a83d f99f 163d 0ce9 91be 41dd 373d
00000190: 52dc c5be 25e5 15be b2c5 fa3d f7a0 123f
000001a0: 3f72 cfbe b07a a43e 3fed 2c3e 03a4 0cbf
000001b0: eed4 f03e 6d55 cdbd 3e9c 0c3f 4b1f 0a3f
000001c0: 07d9 0bbe 7f51 d6be 9e79 2e3e a296 a23d
000001d0: 7c21 5a3e 759a 97bc f2b0 2a3d f294 f8be
000001e0: 3013 663d e6a4 fcbd 63ef 54be 90a2 a2be
000001f0: b993 0abf 869b ccbe cfa9 79be 0898 073f
00000200: 36ff c43d 1422 b53e d9a7 ae3e 70de dbbe
00000210: a770 7e3e 2e1f e53e 07b0 863e 83ef 0d3f
00000220: 53c1 273e 5fdf b63a ec45 0b3f 592f d4bd
00000230: 2631 ecbd 576a 6c3c c133 d83e 36c7 4a3e
00000240: 9790 1abe 7b6f feba 2e67 0cbf 8d5c 9b3d
00000250: 8a22 efbe 0137 28be d5ae 8fbd 1b2d e7be
00000260: 1f9d c63e a333 f7be c739 f6be 1edd f43e
00000270: 4ee4 c13e 83ac 8d3e f3f9 e13e ec94 0a3f
00000280: 2407 943e 6f2e d9be 53d1 c33e 74e4 a3be
00000290: 0c73 31be 14a4 1abe 932b 453e e3aa 86be
000002a0: 0dde bd3e 30bf 66be 7d0e 97b9 7169 bbbe
000002b0: d267 d0be 6ae6 e1bd 5b67 f7be 2321 0ebf
000002c0: 0c82 e53e c8b7 61bd bd82 87be 3379 0cbe
000002d0: 72a8 8b3e 409a f3be b986 9c3e 39be 05bf
000002e0: 9b7d eabe 673a f23d 9ead d53d b82b ab3e
000002f0: 6c59 e8be a08d 7b3e 03cc 06bf 9872 0e3f
00000300: 2184 9f3e 2158 6e3e e093 d63d a317 c7bd
00000310: c6b4 a2be 6d3a 98be c2b9 4b3e f6d0 00be
00000320: 69cd 7f3e 2af3 a1be 7745 07bd c304 fa3e
00000330: 1f06 033f 3259 12bf 4704 cfbe b3f7 55be
00000340: 4b28 67be 73ab 4ebe 24b9 0b3f 80d4 f03d
00000350: 5933 54be 4aea 113f 02c1 43bc ac35 b4be
00000360: 0f4c 01bf 66b1 dfbe 1716 993d 675f b3be
00000370: 3527 ca3e 3ace c6be 6da9 d0bc b9af 35be
00000380: 4f89 73be 513b ea3e fe52 f1bd 8633 aebe
00000390: 75a9 bebe 3a50 793e eaa8 c9be 0c2d 9e3e
000003a0: bc29 2f3e 5f75 80bd 4970 64be 5d38 e53c
000003b0: 20b4 99be afa6 303e fe4c f4be 6bfb e4be
000003c0: 5ae8 d8be fe39 96be 2c6e 0fbf fe9f 0cbf
000003d0: 0a7d 0f3f 2b62 ecbe 3f69 09bf 519c 31be
000003e0: 677e 92bd 64cb dfbd 53a3 f9be 5b7e ef3d
000003f0: 33d0 b9be fe01 0abf 2ef6 efbd a367 343e

initial.bias f4 [230]
-0.4018148 0.27590707 -0.35893184 -0.52305716 0.43845204 0.10247508 0.15838006 0.45055592
0.17581952 -0.20013888 -0.034798462 -0.5712371 0.14401811 -0.4423769 -0.12625478 -0.5749691
-0.026337402 -0.20899536 -0.027964894 -0.36086333 0.09995599 0.41250217 0.51097244 -0.16452849
-0.07426387 0.18048751 0.5685836 0.16327803 -0.26549387 0.19108187 0.3703953 0.38792726
0.33448586 0.35274625 0.3916472 0.4968898 0.48274627 -0.11511996 -0.5046808 -0.3924517
-0.43718714 0.38880593 -0.4177191 0.34434265 0.14082167 -0.31732163 0.52787787 -0.46821252
0.010994944 0.46058488 0.38613808 -0.5741542 -0.5443895 -0.20130357 -0.25892946 -0.46920687
0.25433812 -0.49416468 -0.5443345 -0.12835702 0.28252685 -0.5488865 -0.190932 0.18323463
0.036768973 -0.3336114 0.390922 0.5278198 0.4023754 0.41762474 0.217521 -0.07579631
0.25646594 -0.21222238 0.27807906 -0.25888848 0.2329063 -0.10228183 0.29529387 -0.41618633
-0.06547915 0.47971097 0.117534555 0.3591615 -0.36025947 -0.033758767 -0.22589564 -0.10800147
-4.1194808e-06 -0.009898971 0.050592545 0.35978228 -0.08141919 0.05320483 -0.29394734 -0.44843447
0.22604872 -0.18126561 -0.060964115 0.46102318 0.14394268 -0.3621927 -0.41238236 -0.3766023
-0.11762935 -0.20111434 -0.34239605 0.21109357 0.18845318 0.47377613 -0.17190485 0.22545668
0.07506324 0.20143421 -0.35944805 0.56165 0.41352972 0.00049965846 0.055723805 0.5596505
-0.10345869 0.22779603 -0.19050495 0.30048668 -0.11864778 -0.042632386 0.4809719 -0.10148423
-0.13364989 0.48240384 -0.5575995 -0.3114286 -0.5611444 -0.46632665 -0.41136366 0.09198374
-0.25095186 0.38868564 0.5701532 -0.37370437 0.014756546 0.14663988 -0.09016524 -0.31850427
-0.08224844 -0.46644476 0.2141788 -0.4333173 -0.32051677 -0.20022066 0.0517416 -0.070006795
0.38668585 -0.3026905 0.21039511 -0.0018538985 0.17513521 0.040415425 0.24997799 0.3931809
0.115680374 -0.4758068 0.4852145 -0.13302551 -0.42772922 0.1531108 -0.48256347 -0.1897327
0.07861944 -0.2582867 -0.4913888 0.3410559 -0.4307259 0.06247441 0.039981388 0.39729834
0.36318088 0.40884793 0.46679118 0.010404757 0.5207993 0.0074672396 -0.49691716 0.23668581
0.094324306 -0.22694886 0.26798683 0.25431916 0.14607203 0.5548534 -0.40488362 -0.006073448
0.5241559 0.0609475 0.36365062 -0.27985838 -0.25401905 -0.15946123 -0.042556796 0.48187786
0.36706114 0.5165796 -0.4547035 0.43920204 0.5720993 0.2120496 -0.49001318 -0.21690667
-0.25506276 -0.4774987 0.47575313 0.34656134 -0.5514127 0.20967515 0.47970527 0.48485795
-0.25401932 -0.30623272 0.20459811 -0.5187493 -0.37276474 -0.21359769 0.27361545 0.19570264
-0.5617563 -0.5410717 -0.34605888 0.23335122 -0.11593721 -0.4037658
00000000: abba cdbe b143 8d3e eac5 b7be 13e7 05bf
00000010: c97c e03e 74de d13d 622e 223e 44af e63e
00000020: 080a 343e 35f1 4cbe d588 0ebd 983c 12bf
00000030: 7c79 133e 3a7f e2be ef48 01be 2d31 13bf
00000040: 89c1 d7bc e102 56be a216 e5bc 14c3 b8be
00000050: bab5 cc3d 7c33 d33e 17cf 023f 287a 28be
00000060: a817 98bd b8d1 383e b28e 113f 5b32 273e
00000070: d0ee 87be f7aa 433e 74a4 bd3e 679e c63e
00000080: bb41 ab3e 289b b43e fb85 c83e 5768 fe3e
00000090: 852a f73e 03c4 ebbd c332 01bf 6eef c8be
000000a0: fed6 dfbe 9211 c73e 47df d5be ae4d b03e
000000b0: 8e33 103e fb77 a2be 0123 073f 8db9 efbe
000000c0: 2324 343c c8d1 eb3e e4b3 c53e c5fb 12bf
000000d0: 1c5d 0bbf 8622 4ebe 6792 84be e23b f0be
000000e0: 9b38 823e 2703 fdbe 8159 0bbf 0670 03be
000000f0: 5ca7 903e d383 0cbf ae83 43be dca1 3b3e
00000100: 109b 163d 1dcf aabe ee26 c83e 331f 073f
00000110: 2604 ce3e e9d2 d53e d3bd 5e3e 193b 9bbd
00000120: 814f 833e d350 59be 6160 8e3e 088d 84be
00000130: fd7e 6e3e 2379 d1bd c230 973e 6016 d5be
00000140: ef19 86bd ad9c f53e f5b5 f03d 04e4 b73e
00000150: ee73 b8be a246 0abd 3051 67be e02f ddbd
00000160: 123a 8ab6 4b2f 22bc 213a 4f3d 6235 b83e
00000170: 1bbf a6bd 4fed 593d 4480 96be 3499 e5be
00000180: 5179 673e b19d 39be 82b5 79bd 3b0b ec3e
00000190: b665 133e 5271 b9be c823 d3be 04d2 c0be
000001a0: a8e7 f0bd ebf0 4dbe 894e afbe ea28 583e
000001b0: dff9 403e c992 f23e d307 30be 1ede 663e
000001c0: c2ba 993d c544 4e3e 9309 b8be 4bc8 0f3f
000001d0: 2bba d33e 83fb 023a a53e 643d 4145 0f3f
000001e0: 26e2 d3bd 5d43 693e bb13 43be 64d9 993e
000001f0: 9bfd f2bd 4c9f 2ebd f341 f63e f7d6 cfbd
00000200: 84db 08be a3fd f63e d7be 0ebf 9273 9fbe
00000210: 29a7 0fbf 5ec2 eebe 429e d2be f961 bc3d
00000220: c37c 80be ce01 c73e 8ff5 113f 2e56 bfbe
00000230: 71c5 713c c428 163e 8ea8 b8bd fe12 a3be
00000240: df71 a8bd d9d1 eebe b051 5b3e c4db ddbe
00000250: c61a a4be a506 4dbe 00ef 533d b95f 8fbd
00000260: b0fb c53e 40fa 9abe d171 573e 83fe f2ba
00000270: a556 333e a58a 253d 3bfa 7f3e 024f c93e
00000280: d5e9 ec3d f39c f3be 096e f83e d737 08be
00000290: 53ff dabe 14c9 1c3e 8f12 f7be 4a49 42be
000002a0: 3b03 a13d 283e 84be 5097 fbbe e19e ae3e
000002b0: 1b88 dcbe 2be5 7f3d 86c3 233d b06a cb3e
000002c0: d8f2 b93e 8454 d13e 41ff ee3e b778 2a3c
000002d0: 1a53 053f bfaf f43b ed6b febe c45d 723e
000002e0: 1a2d c13d 4865 68be 9235 893e 1f36 823e
000002f0: e893 153e df0a 0e3f e84c cfbe c603 c7bb
00000300: 152f 063f 16a4 793d 6a30 ba3e 9949 8fbe
00000310: c90e 82be ce49 23be 0950 2ebd b2b8 f63e
00000320: 70ef bb3e 903e 043f e6ce e8be 17df e03e
00000330: 1a75 123f 8823 593e 02e3 fabe c81c 5ebe
00000340: 9697 82be b67a f4be ea95 f33e 7d70 b13e
00000350: 6229 0dbf 15b5 563e ee9b f53e 4d3f f83e
00000360: d20e 82be 89ca 9cbe 2b82 513e c1cc 04bf
00000370: 05db bebe 5ab9 5abe 5317 8c3e 4666 483e
00000380: 43cf 0fbf ad83 0abf a12e b1be 9ff3 6e3e
00000390: 7d70 edbd 64ba cebe

readout.weight f4 [126, 230]
-0.04319081 0.041184112 -0.064440235 0.04706407 0.029423492 0.05343499 0.0084726075 -0.047023397
-0.018386263 0.03332785 -0.0044353153 -0.015626734 0.057356447 -0.05011226 0.0035488454 0.031131463
-0.012295523 0.01851183 -0.024606386 -0.014945045 -0.04197765 0.054656446 0.002755216 -0.0039412035
-0.028450716 0.062789395 -0.044662666 0.024178265 -0.061161075 -0.049073428 -0.0421912 0.058985252
-0.043532103 -0.008210685 0.063387215 -0.023069307 0.04666281 -0.032815028 0.050688006 0.031225638
0.027628202 -0.039422784 0.0070591276 0.026325032 -0.0050684386 -0.01717783 -0.04086028 0.042838
0.03064544 0.04698925 0.021959318 0.010621871 0.035627443 0.038886115 -0.025284868 0.011726868
0.04085497 0.047334198 -0.063723676 0.03534129 -0.042441275 -0.052645106 -0.04362903 0.032038
-0.023122776 -0.00415791 -0.04326584 -0.015444486 0.0024681655 0.004772887 0.054965507 -0.023507865
-0.029925354 -0.028149439 -0.013605426 -0.019033806 -0.04995327 -0.024738228 0.030381879 -0.006105714
-0.009332991 -0.051288944 0.0056751035 0.045464132 0.043281298 0.017491832 0.030861681 0.022040665
-0.015403153 0.057382982 -0.008385682 0.04710915 0.040537365 0.038794674 0.02355006 -0.0034833837
-0.0022238719 0.0242416 -0.036687456 -0.044916134 -0.056975402 -0.051787835 0.017326012 -0.013969868
-0.048189957 -0.011562565 -0.0046588625 0.039352376 -0.036117956 -0.05319898 0.036345955 -0.031314105
-0.049759578 0.0039696996 0.035670117 0.058795236 -0.061283883 0.0159297 -0.0392467 0.00069342874
0.015344976 0.03353276 0.024554992 -0.009544423 -0.023349 0.027022569 -0.026998855 -0.057044607
-0.052028798 0.05559028 0.028565736 0.0015397856 -0.0034292722 -0.0028720074 -0.035505243 -0.062912606
-0.056297 0.04458781 0.039312776 0.024571326 0.031339943 0.017285695 -0.039128866 0.048374478
-0.042546682 -0.02084035 -0.0006081868 -0.003889042 -0.048465963 -0.059263773 -0.034563817 0.03491116
0.040292695 -0.043068636 0.026848823 0.041047607 -0.066079766 0.030554783 0.01868999 0.049932573
-0.0059622787 -0.049774855 -0.003665806 -0.00658209 -0.010750833 -0.025951669 0.011006646 -0.055746805
0.0055197603 -0.038053855 0.061668657 -0.031887207 0.035548028 0.037337422 0.038144745 0.03308243
-0.029831469 -0.038257167 0.013211638 0.06339129 -0.0546269 -0.047269426 0.0135101825 -0.047204744
-0.048472065 -0.010246901 -0.03794547 -0.04372625 0.045124333 -0.053231698 -0.045248594 -0.011292691
-0.010323391 -0.0016947424 -0.056512326 -0.022898052 -0.036475994 -0.050407384 0.06659258 -0.013510045
0.009258794 -0.052223317 0.031597987 -0.0035425206 -0.0014652199 0.013292368 0.045003463 -0.02091462
-0.039750203 0.06294547 -0.056695014 -0.0014394132 -0.020388626 -0.034712948 0.05638813 0.023186907
0.019750146 0.02664857 0.04520909 0.043435566 0.04221427 -0.04588269 0.015628882 0.04711833
0.053622693 0.025050644 0.0071694404 0.058019303 0.021281583 -0.050851706 -0.06271945 0.027357044
0.00080696255 0.04774917 0.023737777 -0.007662328 -0.056042302 0.0148350755 0.0052707265 -0.015598361
0.035731956 0.06344702 0.04926949 0.04118959 -0.049977195 -0.021327939 -0.03268217 0.036978442
0.029938422 -0.020422881 -0.037339833 0.050944783 0.019834958 -0.03324629 -0.043817416 -0.049935956
00000000: d9e8 30bd acb0 283d 3ef9 83bd 41c6 403d
00000010: 8909 f13c a6de 5a3d b1d0 0a3c 9b9b 40bd
00000020: ca9e 96bc c982 083d 1f56 91bb a303 80bc
00000030: 98ee 6a3d 8342 4dbd bf93 683b 6907 ff3c
00000040: 2973 49bc 1fa6 973c 5593 c9bc 10dc 74bc
00000050: c2f0 2bbd 70df 5f3d db90 343b 3625 81bb
00000060: 7a11 e9bc ba97 803d 33f0 36bd 7f11 c63c
00000070: 0984 7abd 3801 49bd aed0 2cbd 859a 713d
00000080: b84e 32bd 1c86 06bc 28d1 813d d8fb bcbc
00000090: 8121 3f3d 0d69 06bd 3a9e 4f3d e9cc ff3c
000000a0: 8a54 e23c c979 21bd 4150 e73b 98a7 d73c
000000b0: 2515 a6bb 85b8 8cbc 1c5d 27bd e676 2f3d
000000c0: 250c fb3c cd77 403d 07e4 b33c 5b07 2e3c
000000d0: 15ee 113d 0c47 1f3d 3622 cfbc 0d22 403c
000000e0: 8b57 273d 81e1 413d 8f81 82bd 07c2 103d
000000f0: e7d6 2dbd 65a2 57bd 5bb4 32bd 473a 033d
00000100: fa6b bdbc 143f 88bb 8537 31bd df0a 7dbc
00000110: f2c0 213b e165 9c3b 8323 613d 9193 c0bc
00000120: 0426 f5bc a799 e6bc 4be9 5ebc c9ec 9bbc
00000130: cd9b 4cbd d3a7 cabc 6be3 f83c 7112 c8bb
00000140: 67e9 18bc 5b14 52bd 38f6 b93b 9938 3a3d
00000150: bb47 313d 084b 8f3c a3d1 fc3c a08e b43c
00000160: 825d 7cbc 6b0a 6b3d 1964 09bc 86f5 403d
00000170: 820a 263d 2ae7 1e3d 0eec c03c 7b49 64bb
00000180: 61be 11bb 5296 c63c 9645 16bd fbf9 37bd
00000190: 0a5f 69bd 7b1f 54bd 48ef 8d3c e0e1 64bc
000001a0: d562 45bd ea70 3dbc 5fa9 98bb f52f 213d
000001b0: 6cf0 13bd 2ce7 59bd 7fdf 143d 3843 00bd
000001c0: b3d0 4bbd 4114 823b d41a 123d 46d3 703d
000001d0: cf04 7bbd 017f 823c 26c1 20bd 37c7 353a
000001e0: 7f69 7b3c a659 093d 8d27 c93c 3660 1cbc
000001f0: 6746 bfbc 6f5e dd3c b42c ddbc 9ba7 69bd
00000200: 261c 55bd a2b2 633d b102 ea3c a2d2 c93a
00000210: a4bd 60bb 4a38 3cbb f26d 11bd 53d8 80bd
00000220: af97 66bd b5a1 363d 6f06 213d ce49 c93c
00000230: 505e 003d bb9a 8d3c 9745 20bd 5124 463d
00000240: 6e45 2ebd 62b9 aabc ba6e 1fba 4cdf 7ebb
00000250: 3f84 46bd 92be 72bd ca92 0dbd 01ff 0e3d
00000260: f409 253d bd68 30bd 10f2 db3c 8921 283d
00000270: d454 87bd 064e fa3c c01b 993c 1986 4c3d
00000280: 385f c3bb b8e0 4bbd 053e 70bb 93ae d7bb
00000290: 4324 30bc 9898 d4bc 3855 343c c356 64bd
000002a0: 1bdf b43b 5cde 1bbd 4698 7c3d 299c 02bd
000002b0: cf9a 113d 20ef 183d aa3d 1c3d 7181 073d
000002c0: 2061 f4bc 8cb3 1cbd a075 583c 4bd3 813d
000002d0: 75c0 5fbd 969d 41bd d059 5d3c c359 41bd
000002e0: a58a 46bd 9ee2 27bc b66c 1bbd 4c1a 33bd
000002f0: 4bd4 383d 7b09 5abd 9756 39bd fb04 39bc
00000300: 7123 29bc 1e22 deba 7879 67bd b294 bbbc
00000310: da67 15bd f977 4ebd b161 883d 3c59 5dbc
00000320: 32b2 173c 1ee8 55bd e46c 013d a229 68bb
00000330: 9f0c c0ba 3bc8 593c 8d55 383d 2355 abbc
00000340: 1cd1 22bd 8ee9 803d 0839 68bd b1aa bcba
00000350: 0c06 a7bc 2a2f 0ebd 3df7 663d 78f2 bd3c
00000360: 0fcb a13c 1a4e da3c 2b2d 393d 7ee9 313d
00000370: dfe8 2c3d 7def 3bbd 2408 803c 26ff 403d
00000380: 78a3 5b3d 0237 cd3c a0ed ea3b a6a5 6d3d
00000390: b756 ae3c e149 50bd 0e73 80bd e11b e03c
000003a0: 578a 533a a294 433d ba75 c23c 4414 fbbb
000003b0: 9d8c 65bd d10e 733c 0fb6 ac3b 4590 7fbc
000003c0: ac5b 123d 83f0 813d cece 493d 6ab6 283d
000003d0: e3b4 4cbd eeb7 aebc bddd 05bd b576 173d
000003e0: 6c41 f53c e34d a7bc a7f1 18bd 7aab 503d
000003f0: ec7c a23c 432d 08bd e479 33bd a589 4cbd

readout.bias f4 [126]
-0.046038598 0.023981137 -0.018537149 -0.0042022844 0.013567361 0.03495407 -0.041857958 -0.06205365
0.045364954 0.06359244 0.01273825 0.045066554 0.015851237 0.047932122 0.0074200793 0.06323671
-0.008851374 0.028853292 -0.035908196 0.032402862 -0.0142059475 -0.03584186 0.04678451 0.0128825
-0.0017497931 -0.0521223 -0.0006006667 -0.018049277 -0.035983928 -0.020815635 -0.066271305 -0.01051113
0.01357667 0.061627805 -0.05133329 -0.0013658188 0.0035432978 -0.013472717 -0.022341747 -0.01094244
0.04091848 -0.012298722 0.037156343 -0.035031155 -0.0583991 -0.013753797 -0.031786814 -0.052020017
0.015028813 0.030832252 0.044407237 0.043898374 0.04408295 -0.0093902415 -0.02594383 0.017714707
0.02710897 0.0017019291 -0.028291149 0.0031543248 -0.0035924907 -0.0007913579 0.012537808 0.010945337
0.029859051 -0.03302262 0.013731496 -0.02203201 -0.001809059 0.010907956 0.026925499 -0.0638182
-0.024214335 -0.02107671 0.032212723 -0.014642677 0.03415312 0.026081573 0.04011686 0.042415336
0.06097938 0.06322822 0.014025758 0.018961718 0.033147093 -0.03438948 -0.02070248 -0.0023024487
-0.05971762 0.016388683 -0.018547853 0.05714053 0.005576005 -0.03653447 -0.032703456 -0.032413777
-0.056776594 -0.03501255 -0.021454226 0.029611168 0.04118826 -0.048540857 0.03233944 -0.0538583
-0.0069117593 0.0021062777 0.058454797 0.06419658 -0.026722513 -0.013899471 -0.0100670885 -0.054896433
0.02896495 -0.04580158 -0.040931907 0.013323413 -0.0129231755 -0.05447188 -0.025159093 -0.05632801
-0.04415215 -0.020162076 0.03208409 -0.0416217 -0.033858377 0.031013224
00000000: f892 3cbd 1774 c43c 38db 97bc 51b3 89bb
00000010: a349 5e3c 002c 0f3d 4073 2bbd f82b 7ebd
00000020: 9ad0 393d c13c 823d 18b4 503c b597 383d
00000030: 74da 813c 7954 443d 2324 f33b 4082 813d
00000040: 5a05 11bc bd5d ec3c 7914 13bd ddb8 043d
00000050: 10c0 68bc eace 12bd 1da1 3f3d 1f11 533c
00000060: 5059 e5ba 317e 55bd 0f76 1dba 14dc 93bc
00000070: e263 13bd 8d85 aabc 40b9 87bd e036 2cbc
00000080: ae70 5e3c 706d 7c3d db42 52bd 4605 b3ba
00000090: ac36 683b acbc 5cbc 0a06 b7bc eb47 33bc
000000a0: 239a 273d 9480 49bc 4031 183d d47c 0fbd
000000b0: e533 6fbd 9b57 61bc e432 02bd f112 55bd
000000c0: 693b 763c eb93 fc3c 5de4 353d c8ce 333d
000000d0: 5390 343d 87d9 19bc 2888 d4bc 6f1e 913c
000000e0: a113 de3c 4413 df3a d7c2 e7bc cab8 4e3b
000000f0: fe6f 6bbb 2173 4fba 616b 4d3c 1254 333c
00000100: f89a f43c ba42 07bd 12fa 603c 797c b4bc
00000110: f21d edba 49b7 323c dd92 dc3c 1eb3 82bd
00000120: 245d c6bc 11a9 acbc 7df1 033d d7e7 6fbc
00000130: 24e4 0b3d 06a9 d53c 9451 243d b4bb 2d3d
00000140: 84c5 793d cc7d 813d 4bcc 653c 9b55 9b3c
00000150: 3fc5 073d fcdb 0cbd 3f98 a9bc aee4 16bb
00000160: 779a 74bd 8f41 863c abf1 97bc 300c 6a3d
00000170: ecb6 b63b 2ba5 15bd 0ff4 05bd 4fc4 04bd
00000180: 938e 68bd 5269 0fbd c6c0 afbc 1f93 f23c
00000190: 05b5 283d c7d2 46bd 5c76 043d 859a 5cbd
000001a0: 0a7c e2bb 7a09 0a3b 4c6e 6f3d 7f79 833d
000001b0: 2ce9 dabc 9bba 63bc 6ef0 24bc 15db 60bd
000001c0: e747 ed3c 709a 3bbd 37a8 27bd 724a 5a3c
000001d0: babb 53bc e81d 5fbd 711a cebc 33b8 66bd
000001e0: e3d8 34bd f02a a5bc 9b6a 033d 847b 2abd
000001f0: 15af 0abd 720f fe3c
