cde/model/rk4/1.ckpt (torch, 596943 bytes, 8 tensors)

func.linear1.weight f4 [128, 230]
00000000: e138 ff3b 6891 55bd 8da9 633d 8ebb 023d
00000010: d2b9 86bb 4599 0a3d 9bb8 2a3d 19b8 bdba
00000020: b37c bb3c a0ac 823d 9d57 593d addb 5abd
00000030: 699b 8b3b 1bb9 ad3b b72d df3c 4e18 513c
00000040: c02d fd3c 6abf 4d3d fdc5 d13b 0b0f 033d
00000050: 8fc5 76bd 7052 63bd 17b5 bfbc df9f 03bd
00000060: 6784 8cbc e63b f73c de2d 4cbd 61c1 7a3d
00000070: 1bbb 9d3a 6fd7 ccbc 67b5 70bc 5b69 863d
00000080: 4635 53bd 4c93 2b3d 18a1 50bd f6e5 803d
00000090: b650 a83c 188f 843d ccaf 84bd ccdc 2fbd
000000a0: d46c 13bc f0b3 78bd e33a 2d3d ad8a 77bd
000000b0: 8002 0cbc f05e 953c 9996 c0bc bc7f 313b
000000c0: cd29 093d ef22 7abc ca0a ec3c 3ae5 7dbb
000000d0: 6afe 83bd 18b6 5d3d 0d85 0dbd 201c 5a3d
000000e0: d878 0d3d 0871 22bd bd73 283d 4826 2cbd
000000f0: 3820 9a3c 1d60 4fbd 6671 53bc 0207 003d
00000100: d1a8 15bd 7506 023d 6bc5 57bc e5ff 47bc
00000110: aaf6 583d d474 1a3d 4bce ca3c 3fce acbc
00000120: ec1a 4ebd d830 553c 51d0 913c 6946 863c
00000130: e7ed 75bc 470c 6e3d 7033 873d 08ce 18bd
00000140: 2d19 113d 027f 5f3d 1696 fb3c 9b2a 253a
00000150: 3919 6d3d 0fc3 2bbd e77f 5abd be8c 98bc
00000160: 24a0 dabc d349 84bc 7239 b43b 5d98 5a3d
00000170: c128 24bd e0ba d5bc 875b 31bd f016 993b
00000180: c6c0 e63b 9430 b2bc b89e f5bb 403c d3bb
00000190: 0039 803d 300f 2abd ca42 88bc 42a4 31bd
000001a0: 1e1f 573d 2ec6 2fbd 14d8 403d 8ae5 603c
000001b0: 9d46 133d 7f5a f03a 87dc 353d 0b90 5f3c
000001c0: 143b 29bc bc42 d93c a4d4 74bd b5cd d33c
000001d0: 4f96 1dbd 2a48 cf3c e761 973b d7be 85bd
000001e0: 145b 933c a8e5 4bbd e80c 35bc 71c3 23bc
000001f0: 6432 38bb 7a35 86bd e3e4 753d af2b 1bbc
00000200: 8353 683d b649 1b3d f47e 6b3c 3a1d b63b
00000210: 0650 f3bc bd73 c53c e95a 1fbd d631 5ebb
00000220: 97e2 163d 4c50 e33c 5a2f 14bb a581 3c3c
00000230: 3231 313d b556 313c bb35 84bd ed2d 86bc
00000240: 406b 51bc 6602 6fbd 4ad8 4ebd 1cea 10bd
00000250: 9a05 d93c 36b8 00bd 4dff ddbc ed11 61bd
00000260: afdd eabc 341f 823c 031d 823d cddb 0bbc
00000270: 1d6b 9f3c c613 3fbc 349e 7cbd a866 7e3d
00000280: 46d0 863d afb0 80bb 8aa7 febc 7d34 9b3b
00000290: 6880 1bbd c2c4 243d 6d5b 1f3c 7a1a 243a
000002a0: cec0 a1ba 7711 87bc 0450 733d 8c5d 673d
000002b0: 4cda d63c ae54 7ebd c54c 72bc 954a 833d
000002c0: 0a8b 86bd 7532 8f3b 5dfc 533d 6df4 8fbc
000002d0: f074 cbbc 9337 3cbd e51d 86bd 3f44 333c
000002e0: 9d89 40bb 76d5 513d 287d 77bc 65e0 353d
000002f0: abad 863d 67b7 35bd 4427 85bd c045 5bbd
00000300: 31ef 783d cbb7 1ebd 2b07 703d ff3a 52bd
00000310: d24f 4a3c 6338 8c3c d2b1 2a3d b21d 2b3d
00000320: 02fb cc3c c8fa 0dbd 653a ba3c 598f b93c
00000330: 00e9 063d 80af d13c 51b8 43bd 2253 52bd
00000340: 06c1 fb3b bac5 42bd 4a3a 503c 358f 0c3d
00000350: 321a ae3c 1293 59bd aaed 24bd 91be 253c
00000360: 06c7 1fbd 806c 81bd 8d81 09bd 818e 35bd
00000370: b093 1b3d 7607 493d 50db 453d e031 bfbc
00000380: 701a 1fbd 2299 83bd 1952 58bc 5786 5a3d
00000390: 0211 ad3c 0c98 09bd 44f2 583a d48b d13c
000003a0: df5b 7abc 5582 00bd e336 bb3c 898f 5e3d
000003b0: e742 84bd 4d77 a6bb 9995 cebb 36b7 3ebd
000003c0: 8f3a 513d 5a9e 2a3c 3e64 863c 9fd1 623d
000003d0: d624 e13c 08e2 433d 0f74 32bd b256 443d
000003e0: 2a1c 02bd e095 073d ad15 b2bc b792 6fbd
000003f0: adb2 91bc e46a 9d3c 37d7 a23c efc9 ccbc
0.007788763 -0.052140623 0.055581618 0.031917147 -0.004111507 0.033837575 0.04167996 -0.0014474421
0.02288661 0.06380582 0.05306207 -0.053432155 0.0042604697 0.0053016073 0.027243478 0.012762142
0.030905604 0.050231375 0.006401776 0.031996768 -0.060247 -0.05549854 -0.02340178 -0.032134887
-0.017152978 0.030179929 -0.04984843 0.061219577 0.0012033911 -0.02500507 -0.014691687 0.06563064
-0.051564477 0.04188852 -0.05093488 0.062938616 0.020546298 0.064726055 -0.06478843 -0.042935178
-0.008998115 -0.060718477 0.042292487 -0.060434986 -0.008545518 0.018233746 -0.02350931 0.0027084192
0.03348713 -0.015267118 0.028813738 -0.0038741366 -0.0644501 0.054128736 -0.034550715 0.05324948
0.034539074 -0.039658576 0.041126 -0.042028695 0.018814191 -0.05062877 -0.012905454 0.031256683
-0.03653795 0.03174444 -0.013169627 -0.012207006 0.052969612 0.037709072 0.024756571 -0.02109444
-0.050318643 0.013012134 0.017799528 0.016390996 -0.015010334 0.058117177 0.06601608 -0.03730586
0.0354244 0.054564483 0.030711215 0.0006300599 0.057885382 -0.04193407 -0.053344633 -0.018621799
-0.02668769 -0.016148483 0.005500012 0.05336796 -0.04007793 -0.026090086 -0.043300178 0.004671924
0.0070420234 -0.02175168 -0.0074957274 -0.0064463913 0.06260872 -0.04151839 -0.01663341 -0.04336954
0.05251991 -0.04291361 0.04708107 0.013726601 0.035956014 0.0018337517 0.044399764 0.013645182
-0.010329027 0.02652108 -0.059773102 0.025854925 -0.038473424 0.025302965 0.004619825 -0.065305404
0.017987765 -0.049779564 -0.01105044 -0.009995327 -0.0028106207 -0.065531686 0.060032737 -0.009470864
0.056720268 0.037912093 0.01437353 0.0055576833 -0.029701244 0.02410304 -0.038905058 -0.0033904216
0.036837187 0.02774825 -0.0022611232 0.011505519 0.043259807 0.010823895 -0.06455561 -0.016379321
-0.012781918 -0.058351897 -0.050499238 -0.035379514 0.026491929 -0.031425677 -0.027099276 -0.054948736
-0.02867016 0.01588402 0.0635319 -0.008536291 0.019460255 -0.011662429 -0.06167431 0.06210962
0.06582694 -0.0039273123 -0.031085748 0.0047364817 -0.037964255 0.040226705 0.009726387 0.0006260049
-0.0012340785 -0.01648782 0.05940248 0.056485698 0.026227139 -0.062092476 -0.014788811 0.0641071
-0.06569488 0.0043700286 0.051754344 -0.017572606 -0.024836034 -0.045951437 -0.06548671 0.010941564
-0.00293789 0.051228963 -0.015105523 0.044403452 0.06576093 -0.04436436 -0.0650163 -0.053533316
0.060774986 -0.038749497 0.058600586 -0.051325794 0.012348132 0.017116731 0.04167349 0.041776367
0.025022034 -0.03466299 0.022732923 0.022651361 0.03293705 0.02559638 -0.0477832 -0.051348813
0.0076829223 -0.047551848 0.01270921 0.03431626 0.021252725 -0.053118773 -0.040265717 0.010116235
-0.039008163 -0.06319523 -0.033570815 -0.044325355 0.037982643 0.04907938 0.048304856 -0.023339212
-0.038843572 -0.06425692 -0.013203167 0.053350773 0.021126274 -0.03359227 0.00082758465 0.02557937
-0.015280693 -0.031374294 0.02285332 0.054336105 -0.06458073 -0.0050801397 -0.0063044545 -0.046561442
0.051081236 0.0104137305 0.016405221 0.05537569 0.027483385 0.047822982 -0.043567713 0.04793424
-0.03176514 0.033101916 -0.021738851 -0.058489528 -0.017785395 0.019216008 0.019878013 -0.024998633

func.linear1.bias f4 [128]
00000000: 7e62 303d 6569 4cbd 986b 9cbc 26df 19bd
00000010: 8b99 863c 5e17 71bd 14bd 343a 134f 8f3c
00000020: c9ef 443d 3522 4abd 819d 7f3d b9b6 1c3d
00000030: 0763 cf3c a0af 013b 9816 d83c f725 5a3d
00000040: a09b 47bd f291 123d 4ced 5bbd c0d4 763d
00000050: 94d8 36bd 83fa d3bc 5fce 8eba 6223 343d
00000060: 4bf4 11bd 3caf d3b9 12f5 febb 2b74 713d
00000070: 4e72 3f3c 5ffe 00bd 3bfc 0f3c 8def 7ebd
00000080: 5179 2a3d 124c ab3b 021b 2b3d fe91 d93c
00000090: b793 0b3d e421 61bd 8937 d53c 09d4 2bbd
000000a0: 2d17 d93c 660f 4cbd 07ff 633d d44e 20bc
000000b0: 1b34 733c 89f1 dabc 8636 dcbc b3ab f7bb
000000c0: b8f4 553d 26f3 b9bc 0709 59bd 09fa 283d
000000d0: 4830 ea3c cf58 483d 5b03 e83c 7a2b b63c
000000e0: aa7a 933c bfcc 82bc 59cf 053c 26b4 bbbc
000000f0: af97 81bc cf34 593d 7855 173d 3c98 b1bc
00000100: b9ba 0ebd 4cfb f1ba 47a5 67bb 9709 72bd
00000110: f63d 07bd 1e7b 30bc a2a7 75bd 7333 69bd
00000120: a0ad bfbc f35a 7d3c 157e 93bb f22a 463d
00000130: 5859 253d 2cb1 a8bc a919 453d 7358 c4bc
00000140: cd6b bbbc 9827 213c a83d 09bd e3f4 903c
00000150: f2db 3abc 6f71 32bd d5e0 c93b 7449 703d
00000160: b2d2 a5bc ffc2 893c f1c1 27bd 905e 7ebd
00000170: f019 483d a1c8 e93c 3225 b9bc 4a59 89bc
00000180: abd2 3d3d aba3 163d 4247 50bb 3b94 66bd
00000190: 97fc 753d 493e 093d 423b 6ebb 8df7 3cbd
000001a0: f8e6 a73b e480 6e3d ddf7 7a3d e7c5 4f3c
000001b0: c125 583d 2d69 d0bc 94ae a0bc a1ea 5fbd
000001c0: 7a1e c53c a16b 403d 25bd 193c 5f70 f5bc
000001d0: 5852 173d e289 243d b414 393d 4fcb 6dbd
000001e0: d589 1d3d 2866 e93c b077 7d3d b680 8e3c
000001f0: c331 3dbd 6fd0 45bd 502e 773d de4a 3b3d
0.04306268 -0.0499052 -0.019094273 -0.037566327 0.016430637 -0.058860175 0.000689463 0.01749376
0.04808024 -0.04934903 0.062406067 0.038260195 0.025315775 0.0019788519 0.026377961 0.053258862
-0.0487324 0.035783716 -0.0536931 0.060261488 -0.04464014 -0.02587629 -0.0010895244 0.043979056
-0.035633367 -0.00040375616 -0.0077806795 0.058948677 0.011684967 -0.031492587 0.008788164 -0.062240172
0.041619603 0.005227574 0.041773804 0.026558872 0.03407642 -0.05496396 0.026027458 -0.04195026
0.026500309 -0.049819373 0.055663135 -0.009784419 0.014843966 -0.026726501 -0.026881468 -0.00755831
0.052235335 -0.02269895 -0.052987125 0.041254077 0.028587475 0.04891282 0.028321913 0.022237528
0.018002827 -0.015966771 0.008167111 -0.02291305 -0.015819399 0.053028878 0.036946744 -0.021679036
-0.03484604 -0.0018461733 -0.0035346316 -0.059091177 -0.033018075 -0.010771541 -0.05997432 -0.05693383
-0.02339822 0.0154635785 -0.004501114 0.0483808 0.040368408 -0.020592295 0.048120175 -0.023967957
-0.022878552 0.0098361 -0.033506066 0.017694896 -0.011404978 -0.04356521 0.0061608353 0.0586638
-0.020242069 0.016816614 -0.04095644 -0.0621019 0.04885286 0.02853805 -0.022600744 -0.01676621
0.046343487 0.03677718 -0.0031780754 -0.056293707 0.06005534 0.033506665 -0.0036351238 -0.04613452
0.005123969 0.05822839 0.061271537 0.012681461 0.05277038 -0.025440777 -0.019614495 -0.05466712
0.024062384 0.046977643 0.0093834745 -0.02996081 0.036943763 0.040170558 0.04518576 -0.05805522
0.038461525 0.028491095 0.06188172 0.017395359 -0.046190035 -0.04829448 0.0603469 0.045725696

func.linear2.weight f4 [690, 128]
00000000: 5b8b b0bc 822d 1ebd 8182 97bd b386 e23c
00000010: 0f96 9dbd 14fe 54bd 7627 a93d bf9b 8a3b
00000020: a302 81bd 46bd acbd b83b 193b 89a7 58bd
00000030: b1b5 8fbd 9fcb 623c a1fc a7ba ae2a f2bc
00000040: c01a 3d3d 9816 523d f45f 053d 2e0f 803d
00000050: 40e4 643b a489 f33b ca87 87bd dced 5bbd
00000060: 6dc1 80bd 11bb a4bd 8a31 62bd 190f 52bd
00000070: b4b7 783d 6ef1 4cbd de26 8dbd 2230 fb3c
00000080: b64c 573d e135 44bc c377 913d 94dd e7bc
00000090: a187 233d 7738 aebc 25db 80bd d86d 0cbc
000000a0: 576a 36bd c8c6 3a3d 31e2 993d 1d5e 0ebc
000000b0: 459f 3bbd c047 b93c bfde 7cbc 4770 8e3d
000000c0: 701b 73bd 7fdd 5dbc bc36 92bb 5562 8abd
000000d0: dbca 75bd 49b8 573d 721e b0bd 1d6f 643c
000000e0: bec7 9fbb eda1 85bd 7bf3 113d d5a6 8739
000000f0: 1102 873d 84c7 9d3d 070d 193c 9bb5 54bc
00000100: 0511 7bbd 9d93 90bd c391 703c 8620 a4bd
00000110: c9be 4e3d e06a 703d 1493 23bd 15a3 9a3d
00000120: a4b9 023d dc8d 2e3b 824a ddbb 7043 c0bc
00000130: 7fee 1abd 3981 7a3d 4caa dcbc a01d 643d
00000140: a289 3fbc b152 d1bc 2f27 afbd 0880 0d3d
00000150: 8d8c 60bb e69c 5dba e6db a23d 571a 7e3d
00000160: acf5 8d3d 7e6e babb bb6d 7cbb cb85 3e3d
00000170: e789 23bd 565c 033d 45b8 523d 3ccb f6bc
00000180: 26c9 4ebd 1d0f a83d dbfe 37bb b6e2 543d
00000190: e842 84bd cf9a 803d 6db4 43bc aef2 9fbd
000001a0: 6d64 5bbd 1b2b 4dbd 3193 c23c 4666 5bbd
000001b0: f323 7a3d f796 8fbc a1ff bebc 1890 7fbd
000001c0: 3973 22bd 64e2 5a3d 5f22 0abd e815 0abd
000001d0: 5967 8bbd 5220 103d d14c 8cbd 508d a4bd
000001e0: 67e2 a6bd b697 f23c 17aa 04bc 5ad7 89bd
000001f0: 6fbf 20bd e1da 95bd e9fd 873d 6005 a8bc
00000200: 701c 96bd c4d5 9bbd 3880 49bd 50aa edbc
00000210: 7d4b 99bd ebcd 353d 1426 fcbc 62cb 8b3d
00000220: 1cc4 a8bc 116e 9abc c01a 183d fc4e 00bd
00000230: a43b a2bd 145b b4bd f80d a83d 6832 83bd
00000240: 4b80 85bc c01f 4d3d d649 b13d 0250 a23c
00000250: fd45 aabc 87bd a2bd 5c41 4539 2223 4a3d
00000260: b575 403d bee7 933d 943c c939 706f 36bd
00000270: 57cf fdba 8283 b2bc 5515 62bd 0092 25bd
00000280: fd6f 0cbb f1d8 783d 1f2e 683c 4d30 cabb
00000290: 7c12 94bd 4f1b 06bd 6a7c 0f3c 0889 5e3d
000002a0: ee89 343d 79cf 4cbd b621 d4bc 4c7e f4ba
000002b0: ed41 3ebd af9b 53bd 4dff 53bd f6cb 93bd
000002c0: 5249 c23b 22fd a43b 5b36 b0bc 0ab7 4a3d
000002d0: 15e7 55bc e297 a6bd 9258 21bd 3fd4 73bc
000002e0: 6083 4e3c d220 2a3b 9d4d 083d 4b8c 623c
000002f0: f722 6abd 918a 233d 7612 f63c 5392 813d
00000300: 1cfc 19bd 1b99 313d 9f27 00bd d017 553c
00000310: 3660 d53c 2b6d a03c 3eb9 23bd 8380 80bd
00000320: 420b 9bbc 0137 713d 6558 8d3d 7bcc 3f3d
00000330: f1b7 8e3c 2656 813b 1fb1 0cbd 6027 803d
00000340: 771d 3cbd 15ee 47bd cdf2 853d 1872 523c
00000350: a719 28bc b794 35bd 30b7 b1bd 0ca3 f5bc
00000360: 1256 693c 5497 ac3d c71a 57bb d24c a83b
00000370: 02c4 68bd 7bb7 753d 8a14 8bbd 9388 50bd
00000380: 5f4a 453d 4bab 1bbd 885c 9ebd 5a31 97bd
00000390: 8be7 93bc 7ee9 a73d 4629 38bc 075e 80bd
000003a0: 753f 36bd 6b3c b53c f7d0 acbd a145 40bd
000003b0: ece3 e5bc 603c be3c e4a9 843d 39a4 fdbb
000003c0: 5145 243d 0f7a c6bc 9a32 8dbc 2870 6dbc
000003d0: fe3d c6bc b09d d2bc cb48 633c e0e5 853d
000003e0: 32dd 9abd 5660 6abd ee42 79bd 1d38 773d
000003f0: b28f 8bbd 1913 17bd 2fa8 90bd f04a d1bc
-0.021550825 -0.03861762 -0.073979385 0.02765212 -0.07694637 -0.05200012 0.0825948 0.004229992
-0.06299331 -0.084345385 0.0023381542 -0.05289415 -0.07017077 0.013842492 -0.0012816378 -0.029561367
0.04616809 0.05129108 0.03256221 0.06252895 0.0034926087 0.0074321795 -0.066176966 -0.053693637
-0.06286893 -0.080434926 -0.055223025 -0.05128393 0.060722068 -0.050034933 -0.06892179 0.0306626
0.05256339 -0.011975736 0.07102921 -0.028303899 0.039924268 -0.021267159 -0.062917985 -0.008571111
-0.044535007 0.04559973 0.07513846 -0.008689431 -0.045806188 0.02261722 -0.015433966 0.06955009
-0.05935234 -0.013541578 -0.0044620913 -0.067570366 -0.06000791 0.052665982 -0.08599557 0.013942507
-0.004876106 -0.065250255 0.03563259 0.00025873506 0.06592191 0.0770407 0.009341485 -0.012982751
-0.061295528 -0.07059405 0.01468319 -0.08014016 0.050474916 0.058695674 -0.039935187 0.07550637
0.031915322 0.0026634848 -0.006753267 -0.023469657 -0.037825104 0.061158393 -0.026936673 0.055692315
-0.011690529 -0.025552126 -0.085523956 0.03454593 -0.0034263462 -0.00084538606 0.079520985 0.06203684
0.06931624 -0.005689441 -0.0038517553 0.046514314 -0.039926436 0.03207048 0.051445264 -0.030126207
-0.0504848 0.08206008 -0.002807549 0.05197402 -0.06458074 0.062795274 -0.011944872 -0.07809959
-0.05356257 -0.050089937 0.023751827 -0.053564332 0.06106944 -0.01752804 -0.023315253 -0.062393278
-0.039660666 0.05343856 -0.033724185 -0.033712298 -0.068068214 0.035187073 -0.06850589 -0.08034766
-0.081486516 0.029613357 -0.008097193 -0.06730528 -0.039245065 -0.073171385 0.066402264 -0.020510375
-0.07329643 -0.07609132 -0.049194545 -0.029011875 -0.07485101 0.04438583 -0.030779876 0.068259016
-0.020601325 -0.018851312 0.037134886 -0.031325325 -0.07921532 -0.08806434 0.08205789 -0.064060986
-0.016296526 0.050079107 0.08656661 0.019813541 -0.020785326 -0.07946306 0.00018811732 0.04934991
0.046987254 0.07221936 0.00038382842 -0.04453987 -0.001936416 -0.021791223 -0.055196125 -0.04042244
-0.0021429055 0.060753766 0.014171152 -0.0061703087 -0.07230088 -0.032740887 0.00875769 0.054329902
0.044076853 -0.05000255 -0.02589498 -0.0018653362 -0.04644959 -0.051662143 -0.051757146 -0.07216637
0.0059291506 0.0050350586 -0.021510294 0.049490966 -0.0130555825 -0.08134438 -0.039391108 -0.014882146
0.012604564 0.0025959504 0.033277143 0.013827394 -0.05716225 0.03992707 0.0300381 0.06326737
-0.037593946 0.043358903 -0.031287786 0.013006166 0.026046854 0.019583305 -0.039971583 -0.06274512
-0.018926267 0.058890346 0.069016255 0.046825867 0.017421694 0.0039470373 -0.034348603 0.0625751
-0.045926537 -0.048811037 0.06540451 0.012844585 -0.010260022 -0.04433128 -0.08677518 -0.029984973
0.014241712 0.08427301 -0.0032822357 0.005136111 -0.056827553 0.059989434 -0.06791027 -0.050911497
0.04816663 -0.038005155 -0.07732493 -0.0738246 -0.018054744 0.08198832 -0.011240309 -0.06267934
-0.04449411 0.022123536 -0.084382944 -0.046941403 -0.028062783 0.023222148 0.064777166 -0.007740524
0.040105168 -0.024228124 -0.017236043 -0.014492072 -0.024199482 -0.025709957 0.013872336 0.06537986
-0.07561721 -0.05722078 -0.060854845 0.06035625 -0.06814517 -0.036883447 -0.070633285 -0.025548428

func.linear2.bias f4 [690]
00000000: 6672 93bc 50c1 1b3d 95dc 12bc 051f acbd
00000010: 908e a9bd 083c 7fbc 71e8 513d cbcf 67bc
00000020: 635e 61bd 2456 a3bd b06f 81bd 36fa 8bbd
00000030: a2bb a8bc da02 6d3d bed6 9e3b 0e8f 6f3d
00000040: e293 223d ddd0 27bc 41d5 92bc 8970 55bd
00000050: 641f 7ebd 7bee bd3c 65cc 28bc e977 b43d
00000060: b085 a7bd b2e4 58bd bfee aa3d 6efb b9bc
00000070: dd02 0f3d ed35 a73d 8640 98bc 28b2 8fbd
00000080: 85a3 45bd 40b5 113d 1af6 d6bc cea5 7a3d
00000090: 6ee6 a2bc 5814 f73c 1870 2d3c a691 92bd
000000a0: bd16 a33d 3cb4 323c 206a a0bd b0f9 8abd
000000b0: 3a6f 7c3d 605d 6fbd c502 27bb 2728 693d
000000c0: 1282 1c3d 8981 2c3d 3474 e53c 1201 b0bd
000000d0: 5031 9c3d b963 b0bd fcb0 943d bd32 69bd
000000e0: 280a 853c e539 ffbb b125 1dbd dc1e 1dbd
000000f0: 9aba 7c3c 4f86 843d 703c 0b3d 4cc0 ea3c
00000100: aa36 443d 1ea4 ae3d eec2 c0bc 8b2b 05bd
00000110: 8464 c2ba ef2c 953d 8ecb a73d 2726 27bd
00000120: 6c0f 693d bb1d 86bd cea7 58bd 2bc4 71bd
00000130: 13f5 8dbd 5dde aabc 3027 3c3d 73d8 e2bc
00000140: 5b26 a1bd a6cb 123c c888 9f3d eadd 093d
00000150: 3220 553c 0d67 923d 4fbc 9c3d deb4 4c3d
00000160: 1589 d4bc 1132 a23c 95cf 623d 727b 6f3d
00000170: 9554 6fbb 34fb a0bd 2323 a6bd 1d36 253d
00000180: e3ef 17bb 3c05 813c f656 81bd 71b5 a4bd
00000190: 44e7 253d 276c 8e3d 3088 973d 7e66 ca3c
000001a0: 37bb 473c f25c b93c 8648 663c d955 033d
000001b0: 060f 39bc 4c29 9abd 1802 893d 24f1 a23d
000001c0: 5432 283d ca3b 6e3d 5373 a7bc c85d ac3d
000001d0: 6a9d 773d 4a09 85bd a470 433d f94f 08bd
000001e0: 357b fe3c 3a17 953d a01a 8dbc 09eb b53c
000001f0: 478c 0d3d b62c 593d dc5d 413d 471e 6abd
00000200: 615c 483c 957f 973d 77d9 423d eae7 233d
00000210: 7ade 593d 54ee 963c 6f1b ac3d 8484 b2bd
00000220: b766 383d f4b6 613d 44db 813d 819c ce3c
00000230: 6d30 d4bb 7c2e 88bd 527a 8a3b d400 a73d
00000240: e756 b43d a684 bebc 7339 86bd b859 53bd
00000250: 6a5e acbb f4b8 883d f534 6fbd 9e8d f63c
00000260: 7099 81bd 3abf 523d 3462 afbd 037c 5db9
00000270: 1482 933d b713 57bd b161 c93b 51e9 15bd
00000280: 4975 a53b 61fa a33d b024 c1bc 97ef 64bc
00000290: 5ecb 18bd 35e6 903d e316 9a3d 42fb 8a3c
000002a0: 01a6 3abc b117 96bd bf89 46bd 0b6d 4dbd
000002b0: a64a 92bd 664f 51bd ac20 5ebd 6027 193b
000002c0: b6ed 8abc e2f3 8d3d 4ae1 053d a6de 44bd
000002d0: 7d95 ba3c 81eb 11bd 9193 19bb de19 99bd
000002e0: d4d5 883d 445d 813d 9840 37bd 6dc5 34bd
000002f0: 68b3 aebc 2a95 f2bb 15d8 dd3c 8384 e03c
00000300: bb71 813d 849e 193b 9f21 9d3d 3e64 833d
00000310: 96b4 ba3c 2695 903d ce60 ed3c 9fe1 a7bd
00000320: 9e4b aabd 1322 e83b a0a6 26bd 59fd 64bd
00000330: cb6d 89bd 1ae5 fa3b b7f3 063d d044 39bd
00000340: 420f cabc 56a6 523d 3e86 73bd 7ef5 193d
00000350: 31ed 5e3c 9bb3 95bc 2a6b ddbc 42ef 0fbb
00000360: 87d0 a73d 760f a0bd 694f 793d 4050 9abd
00000370: 5dc3 443d 00fb ecbc ec97 083d a1f2 bc3c
00000380: dae8 a2bc 3aca 73bd ab13 5bbd e4f6 c7bc
00000390: 31b2 82bd 33d8 a63d 3eca 8abc f675 253d
000003a0: 822d 093d a094 d2bb 56a6 7c3d 1eee 7cbd
000003b0: 2e54 333d d345 ae3d 4a16 9abd 4f30 c5bc
000003c0: 7ae8 cc3c 57d3 91bd 8fa1 2a3d 9563 8cbc
000003d0: 72cc 003c 31ea 9b3d d8bd 8b3c 359d 833d
000003e0: f6ba caba 5397 f8bc 9eb2 4d3d da48 0b3c
000003f0: a158 103d 7d11 97bd 393a 993c 61c6 d5bc
-0.017998885 0.038026154 -0.008963724 -0.08404354 -0.08279145 -0.015578277 0.051247064 -0.014148663
-0.055021655 -0.079754144 -0.06320131 -0.06834833 -0.020597283 0.057864048 0.0048473766 0.058486037
0.039691813 -0.010242668 -0.017923953 -0.052109275 -0.062041655 0.023185005 -0.010302638 0.088119335
-0.08179796 -0.052952476 0.083463185 -0.022702899 0.03491484 0.081645824 -0.018585455 -0.070164025
-0.048251648 0.035573244 -0.026240397 0.06119328 -0.019885268 0.030161068 0.010585807 -0.071566865
0.07963321 0.010907229 -0.07832742 -0.06785905 0.06162951 -0.05843866 -0.0025483829 0.056923058
0.038209982 0.04211572 0.028009512 -0.08593954 0.07626593 -0.086127706 0.072603196 -0.056933153
0.016240194 -0.007788884 -0.038366023 -0.038359508 0.015425349 0.0647093 0.033993185 0.028656147
0.047903694 0.085273966 -0.02353045 -0.03251223 -0.0014830981 0.07283961 0.08193122 -0.04080787
0.056899473 -0.065486394 -0.052894406 -0.05902497 -0.0693151 -0.020857984 0.04593581 -0.027691102
-0.07868644 0.008959686 0.07789761 0.0336589 0.013008164 0.071485616 0.076531045 0.049977176
-0.025944272 0.019799264 0.055373747 0.058467336 -0.003651892 -0.07860413 -0.081121705 0.04033481
-0.0023183755 0.015749566 -0.063154146 -0.0804242 0.040503755 0.06954222 0.073990226 0.024707075
0.012190632 0.022627328 0.014055377 0.032064293 -0.011295086 -0.07527408 0.066898525 0.0795615
0.04106362 0.058162488 -0.020440733 0.08416325 0.060452856 -0.064959124 0.047714844 -0.033279393
0.031064609 0.07279821 -0.01722461 0.0222068 0.034557607 0.053021155 0.047208652 -0.05715778
0.012229056 0.07397381 0.047570672 0.040016092 0.053190686 0.01842419 0.0840367 -0.087166816
0.04501983 0.05510612 0.0634065 0.025221111 -0.0064754994 -0.06649491 0.0042260075 0.08154455
0.08805638 -0.023256611 -0.06553926 -0.051599234 -0.0052602785 0.06675902 -0.058400113 0.030096825
-0.06328094 0.0514519 -0.08563653 -0.000211224 0.07202545 -0.052509036 0.006145679 -0.03659946
0.005049382 0.0800674 -0.023577064 -0.013973138 -0.03730332 0.070751585 0.075238965 0.016965512
-0.0113921175 -0.073287375 -0.04847121 -0.05015282 -0.07143144 -0.05110111 -0.054230377 0.0023369417
-0.016959053 0.069312826 0.032685556 -0.048063897 0.02277636 -0.035624985 -0.0023433904 -0.07475637
0.066814095 0.06316617 -0.044739336 -0.044133592 -0.021325782 -0.0074030356 0.027080575 0.027406937
0.063205205 0.002344043 0.07672428 0.06415604 0.022791188 0.07059698 0.028976824 -0.08197331
-0.08315204 0.00708414 -0.04068625 -0.055905674 -0.067103945 0.0076567056 0.03294727 -0.04523164
-0.024665479 0.05142816 -0.059454195 0.037587635 0.0136063555 -0.01827412 -0.027028639 -0.0021962677
0.0819407 -0.07815449 0.060866747 -0.07534838 0.048037875 -0.02892828 0.03334801 0.023064913
-0.019886423 -0.05951903 -0.053485554 -0.024409719 -0.063816436 0.081467055 -0.01694214 0.0403957
0.033490665 -0.006426409 0.061682068 -0.061750524 0.043781452 0.08509412 -0.075237826 -0.024070887
0.025013197 -0.07120388 0.04165798 -0.017137328 0.007861244 0.07613028 0.017058298 0.06426469
-0.0015467096 -0.030345595 0.05021917 0.008501256 0.035240773 -0.073763825 0.01870452 -0.026095571

initial.weight f4 [230, 3]
00000000: 6c90 c03e ae98 e93e 11ba 04bd f877 cbbe
00000010: e1e4 f1bb 6de2 2fbe 71e8 f73e 28cd c9bc
00000020: 1b70 643e a407 243e 7440 6dbd 4b42 fc3e
00000030: 7d7d 9e3e 275d b5be d5b2 b43e 0d2f a6be
00000040: ce7b 9d3e acd4 dcbe 2e7f 94be fbc2 83be
00000050: ad0a 4f3e 846f 53be 11e4 893c 9e65 003f
00000060: ee2c a6be bf7f a23e 96ba 17be 98b3 6f3e
00000070: 33a4 963e 0e07 203c bc5b 5b3e 89c3 7ebe
00000080: 3292 373e 0a9c 0cbf c785 02bf f31d 8cbe
00000090: 632d aebc 06fe c9be 8770 713c 7c40 97be
000000a0: 608d a63e 309e d8be ebd9 a23e b9b8 06bf
000000b0: 360e d0be 4678 01bf b47d a3bd eb48 c8bd
000000c0: a4a0 01bf 6120 13bf 3400 13bf 8de8 dabd
000000d0: 9e98 363e b59b 053f 3fcf 793e 6d4c dc3c
000000e0: f162 b3be c2d5 c9be a51f a4be 89c2 acbe
000000f0: 282a f33e 7ae7 e63e 6c0e bd3e 3421 043f
00000100: cde7 0abf 7a3a 72be 09cb 9bbe b498 f83b
00000110: eb18 b5be 0ad9 1dbe bf01 30be 7e26 133f
00000120: ff6d a63e e93c d2bd 5777 12bf 97b3 fcbe
00000130: a386 5a3d 82bc 573e 5e24 6fbe af40 ee3e
00000140: c652 a13e 9677 9ebd 2590 8bbe f12d 903e
00000150: ee39 8e3e 6d3d f93d 6bbe 813d 54e1 90be
00000160: 3a55 ad3d 50eb da3d 1b96 743e 2505 0abf
00000170: 6434 343e c06b cdbe 3e0a 7f3c 9c68 d8be
00000180: 7b49 d8be 861f 55bd c6bb fabd ebed 0cbf
00000190: 8432 e83e ec32 9bbe cc1f b7be ae1d e23e
000001a0: 64b8 b7bd d9f8 9a3e ab9b bebe 371a 6bbe
000001b0: df06 d83e 92d2 053f 8232 8c3e e929 ca3e
000001c0: 9bfb 483e 9cd3 9dbe d2e7 94be 0f3d b33e
000001d0: af7d bc3e f146 e23d 5552 24be fa19 a83e
000001e0: 4f24 47be a55e 023f 89e5 f7be ae10 e3be
000001f0: 8ed7 8cbe 2556 2cbe b934 babe 73f8 083f
00000200: f23e c5be 9c3f cb3d d9da 883e 541a 5a3e
00000210: 7462 b03d 76cb e9be fd8e ed3e 0f56 9ebe
00000220: a4c9 543e 062a 743e 5e72 053f ccad adbe
00000230: 2f01 f33e add2 473e 80ee ee3d 34f9 00bf
00000240: 59d7 57be b20e 7bbd 27c8 a13e c728 a1bc
00000250: 6745 2f3e 2b6f c23e 09b0 6cbe 45f2 053f
00000260: e776 b23e 7a12 1f3e 2c89 ff3e 6ee9 73bd
00000270: 69db ecbc 7409 053d 57d3 01bf 2b38 a7bd
00000280: 3589 c13e 1970 ec3e 8efa 6dbe 389d 023e
00000290: ab2a a83e 26f6 b4bd 2af3 12be 6259 3abe
000002a0: adf3 99be 96a7 c93d 25c6 f5bd d109 6fbe
000002b0: 1458 94bd e666 a1bd 9a3a 3b3e ae01 e7be
000002c0: 442c 4bbb c894 2e3e c2d0 113f 1b06 d23e
000002d0: d292 0b3f f22a 413e faa8 b1be cc72 00bd
000002e0: 6c1c adbe 371d 3d3e 1334 5bbe d785 adbe
000002f0: 8eb7 c53e a187 e53d b9d0 0b3f a4e6 92bd
00000300: 357e 983d b755 513e a595 b9bd e718 8cbe
00000310: 8127 86be baf6 df3e f2d5 fcbe 64a3 a8bb
00000320: 9c49 6abe d651 5a3e c44a 0d3f 8718 b4be
00000330: 1015 803e bd82 223e b0d1 9e3d f01d e03d
00000340: 8c6b f03e 8379 823d 0d52 b2be 5792 33bc
00000350: 710b c13d 6ea0 a0be 8e45 b83d 3b8c b13e
00000360: 3ffa 2bbe eb67 13bf 8c7b fbbe c871 b43e
00000370: c11f 063f 1f49 97bd 59b3 e8bc d7e7 b03e
00000380: e92d fc3e 2b8e a23e d167 da3d 7021 23be
00000390: 87b4 bebd 2f17 043f 0120 133c 3447 05bd
000003a0: 9bcb 903c 9fb2 be3e 7ff6 b3be 6a48 2cbe
000003b0: 9730 a6be 754a adbe 69e3 45be 94ac 59be
000003c0: e3fe 45be b303 02bf 7bf1 bbbd 98c3 933d
000003d0: 7b4f 8abe bd90 b03e 8c66 ab3e 5d4a 11bf
000003e0: a058 9ebe 0893 46be 87d2 0c3f f8d7 003f
000003f0: 111b b33e 72e0 b9bd dbc5 5b3e c6aa 27be
0.37610185 0.45624298 -0.03240401 -0.39739966 -0.007382021 -0.17176218 0.48419526 -0.024633959
0.2230839 0.1601854 -0.057922795 0.49269328 0.30955115 -0.35422632 0.35292688 -0.32457772
0.30758518 -0.43131006 -0.2900328 -0.25734696 0.20218916 -0.20648009 0.016832383 0.50155056
-0.32456154 0.31738088 -0.1481727 0.23408353 0.2942215 0.009767307 0.21421713 -0.24879278
0.17926863 -0.54925597 -0.5098538 -0.273666 -0.021261876 -0.39451617 0.014736301 -0.29541385
0.32529736 -0.42308187 0.31806883 -0.52625614 -0.40635842 -0.5057415 -0.0798296 -0.09779533
-0.50635743 -0.5747128 -0.57422185 -0.10688887 0.17831656 0.52190715 0.24395464 0.026891911
-0.35036424 -0.39420897 -0.32055393 -0.3374217 0.474931 0.45098478 0.36925066 0.51613164
-0.5425995 -0.2365512 -0.3042834 0.007586563 -0.35370573 -0.15414825 -0.17188166 0.5748061
0.32505795 -0.10265524 -0.5721335 -0.49355766 0.053351056 0.21068004 -0.23353717 0.46533725
0.31508464 -0.07737653 -0.2725841 0.2816005 0.27778572 0.12169919 0.063351475 -0.28296912
0.08463521 0.106894135 0.23885386 -0.539141 0.1759811 -0.4012127 0.015566407 -0.4226731
-0.4224356 -0.052032016 -0.12242846 -0.55050534 0.4535104 -0.30312288 -0.35766447 0.4416327
-0.089707166 0.3026798 -0.3722814 -0.22959219 0.42192742 0.5227443 0.27382284 0.394851
0.1962723 -0.30825508 -0.29083115 0.35007522 0.3681464 0.11048687 -0.16047032 0.3283232
-0.19447444 0.50925666 -0.4841731 -0.44348663 -0.27508205 -0.16829737 -0.3636835 0.53504103
-0.38524586 0.09924242 0.26729468 0.21299106 0.086125284 -0.4566304 0.46398154 -0.30925032
0.20780045 0.23844156 0.52127635 -0.3392166 0.4746184 0.1951396 0.11666584 -0.50380254
-0.21078242 -0.06129331 0.31598017 -0.019672764 0.17116319 0.3797544 -0.23114027 0.523228
0.3485634 0.15534392 0.4990934 -0.059548788 -0.028913217 0.03247972 -0.50713104 -0.0816501
0.37799993 0.46179274 -0.2324011 0.12755287 0.32845053 -0.088360116 -0.14350572 -0.1819816
-0.30068722 0.098464176 -0.12000684 -0.23343588 -0.07243362 -0.078809544 0.18284073 -0.4511847
-0.0031001726 0.17048943 0.56959164 0.41020283 0.54520905 0.18864039 -0.3469923 -0.03135948
-0.33810747 0.18468176 -0.21406583 -0.33891174 0.38616604 0.1120751 0.5461536 -0.071728975
0.07445947 0.20442854 -0.090617456 -0.2736275 -0.26202014 0.43742925 -0.49381977 -0.005146431
-0.22879642 0.2132028 0.5519221 -0.35174963 0.2501607 0.15870185 0.077548385 0.1094321
0.46957052 0.06370833 -0.34828225 -0.010960183 0.094260104 -0.31372398 0.089976415 0.346773
-0.1679468 -0.5758044 -0.49117696 0.35243058 0.523922 -0.073869936 -0.028405832 0.3455188
0.49253777 0.3174909 0.10664333 -0.15930724 -0.093117766 0.51597875 0.008979798 -0.032538608
0.017675212 0.37245652 -0.35149 -0.16824499 -0.32458946 -0.3384587 -0.19325031 -0.2125724
-0.19335513 -0.50786895 -0.09176918 0.07215041 -0.27013764 0.34485427 0.33476675 -0.56754094
-0.3092699 -0.19392025 0.5500874 0.5032954 0.34981588 -0.09076013 0.21462195 -0.16373739

initial.bias f4 [230]
00000000: ccdd cd3e 5526 02bf 9c42 ab3e bb54 c13d
00000010: 28d5 113f 40ab 2bbe aae5 893e ae1b 3bbe
00000020: 1e73 dc3e b267 a9bd a552 963e 5536 b1be
00000030: b3f4 0e3e eb26 39be a0e1 8b3e 43e5 01be
00000040: 83f9 10bf b2c5 083d 3689 56be 30e4 ee3e
00000050: 3916 30be b47e d0be 8e35 0abe ff6f a73d
00000060: 651a ddbe 45eb be3e a191 ca3d 6407 dc3e
00000070: cdc5 9f3e b2e8 b3be 4d53 113f 9a66 973d
00000080: 9c34 213e af14 8d3d c8e7 86bc 8eee 093f
00000090: 83cd 123e 1cf8 67be a943 dabc 1fce c2be
000000a0: bf4e 7cbc 09d3 8d3d 82d5 f83c e22c 99be
000000b0: 9b57 da3e 6eab f2be 3e52 13bf 17da 633d
000000c0: af99 04bf 8d4d 7b3e 541d c5be be17 54be
000000d0: fa84 debd 4a0d 9d3e ff33 c1be 1886 963e
000000e0: 72f1 bfbe fe2c dfbc e0fd f8be 3dd9 a0be
000000f0: 16f8 0bbe ec39 783e 56b3 adbe a7e6 88be
00000100: 77eb d63d 09d4 bfbe 8230 bb3e 5232 38be
00000110: c6fb f63e 7bd9 933e 0251 d2bd 05cb babe
00000120: e820 013e c8af cfbe 294f 2dbe ad6a 303e
00000130: 62aa e63d f834 03bf 3daa 7c3e ca9a f5be
00000140: 265c 3dbe 061d 0dbd 0ea7 03bf 434a f73e
00000150: 6941 963e 1f39 d33e ffe6 5abe 43df de3e
00000160: f227 1c3e 83b1 db3e e50e f23e 1623 133e
00000170: 4345 85be ccbc 1f3e 459b cb3e 608c dc3e
00000180: 6fdb 44be 240b a93d de8d 40be 7f90 c5be
00000190: 28c3 cfbd bf76 293e e4d2 a83e a5f2 ea3d
000001a0: 9c1d 86bd 1c64 aebe 0bf8 6abe 9dba bbbe
000001b0: e872 d63e 266d 27be 8c1c c53a 9b99 87be
000001c0: 52f0 d23d 8011 b5bd 8059 4abe 1f40 0ebf
000001d0: 4a42 03bf eace debd aaaa c2be e719 05bf
000001e0: e928 a2be 989d a83e 8af2 d53e c22f eabe
000001f0: d594 3c3e 469b 0bbf 3d03 acbe 8189 11bf
00000200: 4d48 5f3e abdf b6bd 081c d63c 1437 953e
00000210: 4521 073f 82ef 973d 6b84 72bd eada adbe
00000220: 811b 50bd 7d52 b93e 2af2 a2bd 82b5 203e
00000230: 4a9c f63e d6a9 c4bd 3eed eabe c0ce 0b3e
00000240: 2ea7 593e 52e3 773e cef5 afbd 7b97 1a3e
00000250: c326 25bc a66c 6dbe 853e 75bc 766b 703e
00000260: 769b abbe 7226 1abe 6d9b a8bd 541f c8be
00000270: cb2d 8ebe c16c e33e ea57 bfbe 9984 c7be
00000280: 2b46 a33e 5b01 d0be 0d90 88be 7ce3 103e
00000290: d7e1 08bf de4b 423d 04b1 433e b660 95be
000002a0: c290 9c3e 18d7 5f3d f386 a1bc fb50 0dbe
000002b0: 9daf e03e 7fb7 b7be 1e4e dfbe 50e5 69be
000002c0: 6970 8fbd 8d52 69be 3674 dbbd a599 00bf
000002d0: 85f1 603c 3aa8 01be 25d0 e63e 68e0 9ebe
000002e0: 477a 25be de2a 033e a421 083f 7e5a c63e
000002f0: f689 123e ba04 023e f587 01bf a7cc 01be
00000300: 3ca9 85bd 76fd 93be 6717 9d3e be91 06bf
00000310: 8704 07bf db38 5dbe 3049 fbbd daba 373d
00000320: 33bf 25be bc69 26be 9463 9ebe 0189 633e
00000330: 77bb 8e3e 9086 353d 4d3d a0be 6027 de3e
00000340: e969 b13e 6031 7e3e b9fc d83e e9a2 0ebe
00000350: e2ae ad3e 84ad bd3e fcb7 da3e 2eb5 13bf
00000360: 1f72 b83e 2d5f f4be 8f87 843e cb00 8dbe
00000370: 3293 dcbe d880 073f 22d1 dfbe 2fb4 fa3e
00000380: 932e 0fbf 7125 c03e 729c bebe 1230 3fbe
00000390: 812a 123f 041e dd3e
0.4020828 -0.5083974 0.33449256 0.09439989 0.56965876 -0.16764545 0.26933032 -0.18272278
0.43056577 -0.082717314 0.29359928 -0.34611765 0.13960533 -0.18081252 0.27320576 -0.12685113
-0.56630725 0.033391662 -0.2095078 0.46658468 -0.17195977 -0.40721667 -0.13496992 0.081756584
-0.431842 0.3728887 0.09891058 0.4297439 0.31205598 -0.3513847 0.5676773 0.073926166
0.15742725 0.06888711 -0.016467944 0.5387963 0.14336209 -0.2265324 -0.026643591 -0.38047883
-0.015399634 0.069250174 0.030375246 -0.29917055 0.42644963 -0.47396415 -0.57547367 0.05562791
-0.51797 0.24541302 -0.38498938 -0.20712182 -0.10865207 0.306742 -0.37734982 0.2939918
-0.37488896 -0.027243134 -0.4863119 -0.3141574 -0.13668856 0.24240845 -0.33925885 -0.26738474
0.1049413 -0.37466457 0.36560446 -0.17987946 0.48238963 0.28876862 -0.10269357 -0.36483017
0.12610209 -0.40563798 -0.16924728 0.17228194 0.11262967 -0.512527 0.24674316 -0.47969657
-0.18492183 -0.034451507 -0.5142678 0.48298845 0.2934678 0.41254517 -0.2137718 0.4352971
0.15249613 0.42908868 0.4727699 0.14368853 -0.26029405 0.15599364 0.397669 0.43075848
-0.19224332 0.08254078 -0.18804118 -0.38586804 -0.10144645 0.16549204 0.32973397 0.11472062
-0.06548616 -0.34060752 -0.22946183 -0.36665812 0.41884542 -0.1635023 0.0015038415 -0.2648438
0.10299744 -0.088412285 -0.19760704 -0.5556659 -0.51273024 -0.108793095 -0.3802083 -0.5199265
-0.31671837 0.32932734 0.41786605 -0.4573956 0.1841615 -0.54533803 -0.3359622 -0.5685044
0.21804924 -0.0892938 0.026136413 0.29143584 0.5278514 0.07418729 -0.059208315 -0.3395608
-0.05080748 0.36195746 -0.079563454 0.1569424 0.48166114 -0.09602706 -0.45884126 0.13653088
0.2125518 0.2420781 -0.085918054 0.15096848 -0.010080042 -0.23185977 -0.014968519 0.23478493
-0.33517045 -0.15053728 -0.0823277 -0.390864 -0.27769312 0.4441891 -0.3737176 -0.3896835
0.3188947 -0.40626034 -0.26672402 0.14149278 -0.53469604 0.047435634 0.19110495 -0.29175347
0.3057919 0.05464849 -0.01971767 -0.13800423 0.43883982 -0.35882184 -0.43614286 -0.22841382
-0.070038624 -0.22785397 -0.10715525 -0.5023444 0.013729458 -0.1266183 0.45080677 -0.31030583
-0.16159926 0.12809321 0.5317633 0.38740915 0.1431044 0.12697116 -0.5059808 -0.12675725
-0.065264195 -0.28904313 0.30681917 -0.52566135 -0.52741283 -0.2160372 -0.12269819 0.04485593
-0.16186218 -0.16251272 -0.30935347 0.22220232 0.278774 0.044317782 -0.3129677 0.43389416
0.34651116 0.24823523 0.42380312 -0.13929333 0.33922487 0.37046444 0.42718494 -0.57698333
0.36024567 -0.47728863 0.25884673 -0.27539667 -0.4308105 0.52930975 -0.43714243 0.48965594
-0.5593044 0.37528566 -0.37228733 -0.18670681 0.57096106 0.43186963

readout.weight f4 [126, 230]
00000000: f17b 773c 2bd1 33bd 96ee fa3c 4d00 dcbc
00000010: 6e42 ba3c c845 3a3c b467 01bd e915 263d
00000020: de23 aabc 290b 0e3d c2bc fbbc 9c90 033d
00000030: a3c5 8ebc d200 74bd 44a8 86bd a8f9 ccbc
00000040: cf7f 3ebd c933 1abc 3744 cdbc 7dd9 563d
00000050: 4201 f53b 9cb7 0c3d 461e 6fbc 9fa7 1fbd
00000060: 7f50 f2bc 63e0 15bd 2ab2 78bd 67d6 3abd
00000070: 8237 513d fae5 b6bc 77a5 6cbd 7934 d53c
00000080: 2ab0 15bd 4580 3a3d 6ae8 9aba 42f3 d33c
00000090: 0024 fc3c 25ef 61bd d5c1 f8bb c3f3 5c3c
000000a0: 48cb 7e3d 86fc 183a 9c5a a13c c8fd 60bd
000000b0: 1077 84b9 400b e2bc 00ec 5fbd 401a a4bb
000000c0: eb23 353a 7e52 0fbd 9ff0 82bd 92ad 7c3d
000000d0: 8186 b03c 1a65 1b3d 2829 5a3d 8fe8 dabc
000000e0: 0cc0 98bc 96f7 b03b 0861 57bd 32d3 e93c
000000f0: 4547 1ebb 209d 29bd 6223 963c c4fd 64bd
00000100: 4893 833d 893d fc3c 415e 613d 6294 6fbb
00000110: 635c e1bc 2042 10bd ec3b d43c 3651 843d
00000120: 2f6b 823d 2dfc 2f3d b8d2 19bd d552 ec3c
00000130: a5df 62bd 8e73 bdbc bc1c b6bc c507 2cbd
00000140: 4f26 f1bc 83cc e1bb 1d7a f3bb 5ce6 7dbd
00000150: 4539 f53c 5f61 76bd 2d5f 51bd bfb5 4e3d
00000160: 6d68 363d c9fa bfbc 643d 1cbd 2ed5 8bbc
00000170: 1173 36bd 3af7 763d 9221 74bd 8ab8 efbb
00000180: 8e34 5d3d 86c7 043d a6e7 e73b 83d0 1439
00000190: abc1 81bd da15 aabb 3142 6dbd f03d 79bc
000001a0: 8805 3fbc 5b2f 763d 202b 053d 008b 9c3c
000001b0: 830f eabc adf2 143d e5c1 99bc 3237 a2bb
000001c0: 10fe 2a3d 932c ccbc 52bb b33a 79af e13c
000001d0: 18ec 3cbb 8512 3dbd ec95 153b 929e b3bc
000001e0: b0d3 6fbb 62ad 7f3d 6f02 29bc 9209 4e3b
000001f0: bc6d b5bc f366 193c 8308 8ebc e3b1 713c
00000200: f021 13bc b4dc 4dbd 8a09 51bd bc16 4bbd
00000210: 5315 543d ddbd df3b 5b2c 0f3d 01de 023d
00000220: 9f01 2c3c 3220 d4bc f80d 923c fdc2 f5bb
00000230: e292 d83b d2a1 13bd 9e81 f53c 1c23 21bd
00000240: 1a58 51bc cc33 1fbd b2fb 513b 6f69 793d
00000250: fa0e 32bb 4a4a 5e3d 5efd 85bd 29af 233c
00000260: 0698 253d 920c 55bd 380f 3f3d 4d44 febc
00000270: 40fb 9e3c 63d6 283d c54f b63c 8760 503d
00000280: c061 743c c01e 823d d625 43bd fb10 063a
00000290: 5136 f5bc f727 883b 2a97 c23c 0ded 4abc
000002a0: 2e32 2abc d270 d4bc 9236 a13c 2865 be38
000002b0: fc37 b23c d446 d3bc ec38 8ebb c7bb 603d
000002c0: 8502 f5bc bdb2 a33c f3a9 9c3b ee91 c73c
000002d0: 9909 9dbc 0e00 0a3c 5821 2d3d 9bf6 cc3a
000002e0: 2390 66bc 70c4 6ebd 70c2 ce3b 1aa7 d73c
000002f0: 5053 81bd c10d 83bd 7835 72bc 5c86 633d
00000300: 09ac d7bb e8cb 03bd 7ef1 333d eb5a 01bd
00000310: df45 073c 4a7e 683d 80c1 83bd 7f59 853d
00000320: 62d3 36bd 6c5d 823d 561b 20bd 6ad8 d03b
00000330: b803 68bd f63f 413c b04a 31bd 8a99 14bd
00000340: b483 edbb b0a7 343c 4df1 80bd b2a5 a5bc
00000350: d378 c83b 6cfd 033d 3e5e 39bd 48ac 19bd
00000360: b088 63bd 5fa7 c6bc 1f60 143d fb4e 1ebb
00000370: caa1 2bbd 8283 653d 0721 8fbc 4669 05bd
00000380: f5a9 f5bc 6f5c 753d bbda 7fbd 5815 453d
00000390: 3f2d 9f3c d1b1 e63c e6ef 1bbd 4f2c 863b
000003a0: 1aa2 103d e884 b03c ad5f 7fbd 06a2 8a3b
000003b0: d9f0 e13c 541e 1fbd e5b4 57bd 492a b039
000003c0: 9658 333d 5584 31bd d7cd d7bc 150e c1bb
000003d0: dad9 17bd 2fec e5bc dbd6 743d abad 58bd
000003e0: 1ce1 423d 1f64 23bd 3051 463d af6d 153d
000003f0: fff0 683d 3730 453c 1d65 50bd 2c3b 983b
0.0151052335 -0.04390065 0.030631345 -0.026855612 0.022736754 0.011369176 -0.03159304 0.04054824
-0.020769056 0.034678612 -0.030729655 0.032120332 -0.017428225 -0.059571095 -0.06575063 -0.02502139
-0.046508607 -0.009411761 -0.025056941 0.052453507 0.0074769566 0.03435479 -0.01459462 -0.038978215
-0.0295794 -0.036590945 -0.060716785 -0.045614626 0.051078327 -0.022326458 -0.057774987 0.026025997
-0.036544956 0.045532484 -0.0011818532 0.02587283 0.030778885 -0.055159707 -0.007591466 0.013485852
0.062205583 0.0005835969 0.019696526 -0.054929525 -0.0002526571 -0.027593255 -0.054668427 -0.005008012
0.0006909954 -0.03499078 -0.06393551 0.061688967 0.021548511 0.037938215 0.053261906 -0.02672222
-0.018646263 0.0054006083 -0.05258277 0.028543089 -0.0024151367 -0.04140961 0.018327419 -0.055906072
0.06424576 0.030791061 0.05502153 -0.003655695 -0.027509874 -0.03521931 0.02590748 0.06460802
0.063681 0.042965103 -0.037554473 0.028848091 -0.055389065 -0.02312639 -0.022230498 -0.041999597
-0.029437212 -0.006890835 -0.0074303285 -0.061987266 0.029934535 -0.060151454 -0.051116157 0.050466295
0.044533182 -0.023435013 -0.038144484 -0.017069425 -0.04454333 0.060294367 -0.059602328 -0.0073157
0.0540052 0.032416843 0.007077175 0.00014192057 -0.06335767 -0.005190593 -0.057924453 -0.015212521
-0.011659034 0.060103755 0.03251183 0.01910925 -0.02857185 0.036364246 -0.018769214 -0.0049504275
0.0417462 -0.024923598 0.0013712442 0.027549492 -0.0028827246 -0.04616024 0.0022824956 -0.021926198
-0.0036594681 0.06242121 -0.010315522 0.003143881 -0.022147052 0.009362924 -0.017338043 0.014751884
-0.008980259 -0.050259307 -0.051034488 -0.049582228 0.05177815 0.0068280534 0.03495441 0.03195
0.010498433 -0.025894258 0.017828926 -0.007500051 0.0066093067 -0.036042996 0.029969033 -0.039340124
-0.012777353 -0.038867757 0.0032040891 0.060891565 -0.0027169571 0.054270066 -0.065424666 0.009990492
0.040428184 -0.05201394 0.046645373 -0.031038428 0.019406915 0.04122008 0.022254834 0.050873306
0.014915884 0.06353521 -0.047643505 0.00051142246 -0.029933127 0.004155155 0.023753721 -0.012385619
-0.01038794 -0.025932703 0.019679341 9.078748e-05 0.021755211 -0.02579061 -0.0043402817 0.05486658
-0.029908428 0.01998269 0.0047810017 0.024361577 -0.019169616 0.008422865 0.042268127 0.0015637459
-0.014072451 -0.058292806 0.0063098 0.026324797 -0.06314719 -0.06399108 -0.014783256 0.055548057
-0.0065817875 -0.032176882 0.043931477 -0.031580847 0.008256405 0.056761064 -0.064333916 0.06511211
-0.044635184 0.06365475 -0.03908857 0.006373455 -0.05664417 0.011795035 -0.04328412 -0.03627924
-0.0072483663 0.011026308 -0.062960245 -0.020220611 0.006117919 0.032224104 -0.045255892 -0.037517816
-0.055550277 -0.02424973 0.03622448 -0.0024155963 -0.04190234 0.05603362 -0.017471803 -0.0325711
-0.029988268 0.059902605 -0.062464457 0.048116058 0.019430755 0.028160961 -0.03807058 0.0040946375
0.035310842 0.02154775 -0.062347103 0.0042307405 0.027580665 -0.038847283 -0.05266275 0.0003360084
0.043785654 -0.043339092 -0.02634327 -0.0058915713 -0.037072994 -0.028066723 0.059775215 -0.052899998
0.047577962 -0.039890405 0.04841727 0.036481556 0.056870457 0.012035421 -0.05087768 0.0046457257

readout.bias f4 [126]
00000000: dcfb 233d 7ae4 eebc e716 42bd f765 5ebd
00000010: a769 153d 0695 393d c27f e0bc e48a 9a39
00000020: 89a4 633c 528a 44bd 5488 0ebd dcd0 46bd
00000030: d3a6 3e3b 8106 68bd 43b4 643d 071f d9bc
00000040: 224f 34bd 9ce3 75bb fc94 173d 69c5 44bd
00000050: af85 eb3b d6d0 7cbd 6613 8c3c 4984 90bc
00000060: d04a 11bd 4837 6bbd 8a33 433c c6a1 563c
00000070: 87b5 503d 3ced a43c 54ba 793c 28d9 61bd
00000080: 02f3 3abd 5ab7 2dbc 39ab 91bc 7de2 93bc
00000090: fb92 5aba 760b 14bb c2a6 733d 2b89 5cbc
000000a0: 96a9 5d3d 3d1b 2f3d 17c7 443d 0514 c13b
000000b0: 787a 0d3d 6a35 4bbd 367b 68bc 4f5a 74bd
000000c0: 32f9 6b3d 4ebe cebc af2a 1abc da8d 3b3d
000000d0: 4f4e 85bd 4454 b73b 8421 56bd 915e 923c
000000e0: 3584 23bd e5c8 703c aaa2 62bd f076 26bb
000000f0: 0d4f fbbc c766 2b3d 512e 633d 169e 02bd
00000100: f43a 50bd 3501 543c bcce 443b 3b40 c33c
00000110: dc70 c7bc 48ab 28bd b5a8 8e3c c7f7 1f3c
00000120: 8960 0e3d 94bf 8cbc 2138 173c 2af9 163d
00000130: d4b4 f4bc c8d8 aabc b58b 3ebc 3515 3a3d
00000140: 5d64 5dbd 01a5 5bbd fc20 01bd d0c2 ad3c
00000150: c04e 60bd b1de a3bb 2f7c 82ba 9969 6d3c
00000160: be7e 70bd d275 7f3d d5b5 06bd c417 613d
00000170: 34f2 2a3c 7c1e 813d b5c1 4b3c da59 3dbd
00000180: 7c85 13bd 1339 acbc ef48 923c 6635 2bbd
00000190: a0bc adbc fc62 053d c3b4 48bd 1a85 0d3d
000001a0: c46b ecbc 465e e3bb 2a51 523d b297 5a3d
000001b0: 8ef1 113c d22a 123c 7d96 d9bc a24e 57bd
000001c0: 4222 90bb 3212 ff3c 4fc5 1cbd 0f83 1a3b
000001d0: bfd8 2c3d 453e a83c 7e54 f63c 75dc 213c
000001e0: 45e3 593d ee69 36bd 1c1b 2d3d 8070 9f3b
000001f0: 013e 4d3d d52d ddbc
0.040035114 -0.02916168 -0.047385123 -0.05429646 0.03647771 0.045308135 -0.02740467 0.0002947665
0.013894209 -0.047983475 -0.03479798 -0.048539028 0.0029091134 -0.056646828 0.055835973 -0.026504053
-0.04402078 -0.00375197 0.037007317 -0.048039827 0.007187567 -0.0617226 0.017099094 -0.017641203
-0.035471737 -0.057425767 0.011914143 0.013100093 0.050954368 0.020132653 0.015242178 -0.055138737
-0.045641907 -0.010602796 -0.01778184 -0.018052334 -0.0008337942 -0.002258984 0.059485205 -0.013460438
0.054116808 0.042750586 0.04804143 0.005892279 0.034540623 -0.049611486 -0.014189532 -0.059656437
0.057610698 -0.025237229 -0.009409591 0.045789577 -0.06509077 0.005594762 -0.052278057 0.017867358
-0.039921004 0.0146963345 -0.05533091 -0.0025400482 -0.030677343 0.041846063 0.055464093 -0.031889044
-0.050837472 0.012939741 0.003003045 0.023834338 -0.024345808 -0.04117897 0.01741443 0.009763665
0.03476003 -0.017181195 0.009229691 0.036858715 -0.029871382 -0.020855322 -0.011629988 0.04543038
-0.054050792 -0.053624157 -0.031525597 0.021211058 -0.0547626 -0.005000912 -0.0009955222 0.0144905085
-0.05871462 0.06236822 -0.032888252 0.054954305 0.010433722 0.063046426 0.01243632 -0.046228267
-0.036015972 -0.021023309 0.017857043 -0.04179897 -0.021208107 0.032565102 -0.049000513 0.034550764
-0.02885998 -0.0069387285 0.051346935 0.053367324 0.008907689 0.008921342 -0.026561016 -0.052565224
-0.004398615 0.031136606 -0.038274106 0.0023576652 0.042198893 0.020537505 0.030069586 0.009879221
0.053195257 -0.044534616 0.04226218 0.004865706 0.05010796 -0.026999393
