cde/model/rk4/10.ckpt (torch, 581263 bytes, 8 tensors)

func.linear1.weight f4 [128, 224]
0.14433551 -0.050808284 0.091697074 -0.072115615 -0.111327566 -0.07799435 -0.023842597 0.31352252
-0.25596762 -0.30329674 0.19463807 0.18277921 0.08528049 0.016311754 -0.22421089 0.06567286
0.25285602 -0.14118034 0.12474678 -0.20349066 0.16233788 0.17795919 -0.33441523 0.22452876
0.17599124 -0.22449695 0.34219307 0.21632501 -0.1471613 0.23206148 -0.21797426 -0.24358863
0.2751168 0.25462762 0.1792163 0.30476335 0.13034943 -0.021077367 -0.3318927 0.27862248
0.30574408 -0.18610448 -0.1626989 0.15504663 0.026447471 -0.3589907 0.17459753 -0.20921186
0.18571489 0.24944448 -0.27861512 -0.22093953 0.27804744 -0.34576133 -0.2837045 -0.19626352
-0.28483254 -0.1127672 -0.17167544 -0.30424586 0.12048362 -0.013149473 0.3311552 0.3110722
0.34708002 -0.08497982 -0.07604621 -0.03468904 -0.3852243 -0.10929186 0.10181206 0.18349224
-0.26839975 -0.28205526 0.026712453 -0.1354854 0.20724995 0.074859634 0.20714028 0.104872346
-0.2284549 -0.28379986 0.06505423 -0.21619582 0.33439463 0.24901828 0.27979994 -0.24365984
0.29730734 0.2177329 -0.12116054 -0.32599333 0.22629724 0.0880249 -0.27587447 0.17754118
-0.32926244 -0.13997307 -0.14865221 0.05245723 -0.053704455 0.07958828 -0.21651304 -0.06571373
0.20730838 0.2568051 0.16184977 0.23099394 -0.33125073 0.21717003 -0.30017915 -0.14479406
-0.18007861 -0.107075185 -0.057432313 0.012992846 0.1490957 0.26577032 0.262063 -0.30785468
-0.058926426 -0.19937621 -0.08414904 0.32733375 0.23137261 -0.1906237 -0.08759783 -0.25323382
-0.11582467 -0.25288558 -0.11294582 -0.0789446 0.08656858 -0.04639264 0.20084783 0.039792947
0.05863843 -0.042787034 -0.0016775387 0.31672627 0.28106952 -0.0007386946 -0.2562146 0.27830884
0.11657657 -0.2909836 -0.24472766 0.29013813 0.33900225 -0.26265976 -0.27073538 -0.0332327
0.080176935 -0.13369553 -0.062647074 0.26684043 -0.26552036 -0.19649258 0.17609473 -0.22316961
0.110646464 -0.2079624 0.26031482 0.3701821 0.28324118 -0.18794902 -0.32266137 -0.20146015
0.11648599 -0.2465994 0.34882963 0.28052503 -0.26840216 -0.33012873 -0.3159634 0.3161603
0.13863128 -0.24648337 0.27247575 0.03247943 -0.17427574 -0.32948986 0.25967064 0.014667696
0.11320212 -0.016547589 -0.12976895 0.36570624 0.26999432 0.010653951 -0.12830667 0.32829067
-0.25641087 -0.080820024 0.05740416 0.035175215 0.23897447 -0.04466813 0.3661689 0.014574842
-0.2409348 -0.18774064 -0.27020863 -0.062508546 0.1808229 0.121127605 0.21701407 -0.07878939
0.038251627 0.023009596 0.021854512 -0.1312101 0.13429496 0.10474346 -0.079464816 -0.13273115
-0.12497447 -0.10707338 0.11920841 -0.14059591 0.108306415 -0.20036004 0.09179004 -0.281917
-0.019017199 -0.36356875 0.3370475 -0.39891466 -0.19720547 0.28201145 -0.22090714 0.36814657
-0.10135105 -0.07577462 -0.36406916 -0.055461824 0.048475046 0.084084764 -0.29264942 -0.35992652
0.28828022 -0.06605977 -0.3184323 -0.15963419 0.31767628 0.023708282 -0.28916797 -0.015805902
0.2868868 0.37606665 0.13945742 -0.36008465 -0.087039016 0.049210846 0.39845684 0.023135882
00000000: b0cc 133e 591c 50bd adcb bb3d 5ab1 93bd
00000010: b5ff e3bd 80bb 9fbd 8d51 c3bc 0686 a03e
00000020: 300e 83be b649 9bbe 344f 473e 792a 3b3e
00000030: 8aa7 ae3d 3aa0 853c 8a97 65be 7e7f 863d
00000040: 5876 813e 9491 10be 3d7b ff3d db5f 50be
00000050: e73b 263e ef3a 363e 7938 abbe deea 653e
00000060: 0c37 343e 87e2 65be ee33 af3e 4e84 5d3e
00000070: 74b1 16be 86a1 6d3e a534 5fbe 4c6f 79be
00000080: 1cdc 8c3e 8d5e 823e 7a84 373e f109 9c3e
00000090: 527a 053e 71aa acbc d7ed a9be 9ba7 8e3e
000000a0: 7d8a 9c3e 2c92 3ebe 8a9a 26be 8bc4 1e3e
000000b0: 5ea8 d83c a1cd b7be b2c9 323e a23b 56be
000000c0: 0b2c 3e3e 606e 7f3e a4a6 8ebe f93d 62be
000000d0: 3c5c 8e3e a107 b1be b741 91be 4ef9 48be
000000e0: 92d5 91be 7df2 e6bd b0cb 2fbe 1dc6 9bbe
000000f0: 1ec0 f63d e370 57bc 2d8d a93e db44 9f3e
00000100: 79b4 b13e e609 aebd 1ebe 9bbd 1816 0ebd
00000110: 1f3c c5be 69d4 dfbd d782 d03d 64e5 3b3e
00000120: b16b 89be 8c69 90be 13d4 da3c afbc 0abe
00000130: 5539 543e 0250 993d 951c 543e 50c7 d63d
00000140: 15f0 69be 374e 91be 273b 853d 7062 5dbe
00000150: c635 ab3e a6fe 7e3e f041 8f3e f781 79be
00000160: ab38 983e 60f5 5e3e 0423 f8bd 99e8 a6be
00000170: 77ba 673e 6646 b43d 6b3f 8dbe 5bcd 353e
00000180: 1695 a8be 1a55 0fbe 4938 18be 64dd 563d
00000190: 34f9 5bbd 2eff a23d 98b5 5dbe ec94 86bd
000001a0: a648 543e f57b 833e f2bb 253e ad89 6c3e
000001b0: b299 a9be d261 5e3e 15b1 99be e544 14be
000001c0: 8766 38be 3c4a dbbd 253e 6bbd f2df 543c
000001d0: 8bac 183e 0c13 883e 1f2d 863e 219f 9dbe
000001e0: d65c 71bd 4729 4cbe 5556 acbd 4a98 a73e
000001f0: f1ec 6c3e dc32 43be 7e66 b3bd dda7 81be
00000200: 7c35 edbd 387a 81be 2350 e7bd b5ad a1bd
00000210: de4a b13d 3506 3ebd 0eab 4d3e eefd 223d
00000220: da2e 703d 7541 2fbd dce0 dbba f229 a23e
00000230: 58e8 8f3e f5a4 41ba 8f2e 83be 7f7e 8e3e
00000240: b2bf ee3d cdfb 94be e399 7abe fc8c 943e
00000250: b491 ad3e 577b 86be d49d 8abe 031f 08bd
00000260: ce33 a43d 7be7 08be 1c4d 80bd 4f9f 883e
00000270: 49f2 87be 5a35 49be 2d52 343e 9386 64be
00000280: 9d9a e23d 18f4 54be fc47 853e 8288 bd3e
00000290: fd04 913e b575 40be df33 a5be 924b 4ebe
000002a0: 3590 ee3d 8e84 7cbe cc99 b23e faa0 8f3e
000002b0: 026c 89be a206 a9be f4c5 a1be c3df a13e
000002c0: 5cf5 0d3e 2366 7cbe f181 8b3e 2709 053d
000002d0: 5775 32be e5b2 a8be 8df3 843e c750 703c
000002e0: 83d6 e73d cf8e 87bc 27e2 04be d93d bb3e
000002f0: b23c 8a3e e98d 2e3c d362 03be b715 a83e
00000300: 4948 83be f884 a5bd a020 6b3d e313 103d
00000310: b9b5 743e eef5 36bd 7d7a bb3e 51cb 6e3c
00000320: 9db7 76be 153f 40be c958 8abe 7b04 80bd
00000330: a329 393e c011 f83d f038 5e3e 555c a1bd
00000340: bdad 1c3d 9f7e bc3c 3c08 b33c f15b 06be
00000350: 9e84 093e bd83 d63d 73be a2bd adea 07be
00000360: 9df2 ffbd 4a49 dbbd 8a23 f43d 60f8 0fbe
00000370: c1cf dd3d 2f2b 4dbe 6bfc bb3d 6d57 90be
00000380: f5c9 9bbc af25 babe 7d91 ac3e 8b3e ccbe
00000390: 3bf0 49be ce63 903e 7b35 62be b57d bc3e
000003a0: 2491 cfbd b92f 9bbd 4667 babe f02b 63bd
000003b0: c58d 463d a234 ac3d 25d6 95be 4a48 b8be
000003c0: 7799 933e 584a 87bd 8f09 a3be 2577 23be
000003d0: 77a6 a23e df37 c23c d30d 94be 617b 81bc
000003e0: d4e2 923e cf8b c03e edcd 0e3e 045d b8be
000003f0: 8341 b2bd 5091 493d 8902 cc3e 7687 bd3c

func.linear1.bias f4 [128]
-0.3268267 -0.3419454 0.03048509 0.14747865 -0.1333826 -0.25027585 -0.32023823 0.33256522
0.1855806 0.34618104 -0.23941113 -0.2292303 0.24384895 -0.35421842 -0.2189797 0.3686666
-0.21233372 -0.31201574 -0.33385068 0.01759082 -0.2650679 -0.1998697 0.17481916 0.38094014
0.34271497 -0.38248974 -0.3254702 -0.15952685 -0.20812188 0.34758204 0.3051071 -0.24215044
0.010010152 -0.048310712 -0.34330648 -0.2907548 0.40773687 -0.030916166 -0.27870438 0.27523273
-0.2694363 0.22093813 0.25698924 -0.20299299 0.14693582 0.35454583 -0.31579265 0.19545916
-0.39527366 -0.3386191 -0.18263456 -0.28466004 -0.33451197 -0.0068485853 0.31392333 0.32965416
0.03343022 -0.36597696 -0.33168274 0.16090213 -0.36355484 0.18798631 -0.22300173 0.4067893
0.058842715 0.17415094 -0.14872457 -0.37129554 -0.2941225 0.26149943 0.27574736 0.1815053
-0.30604395 0.19236682 -0.2927983 -0.22617158 0.30597842 -0.093057446 0.009696072 -0.3340088
0.38510948 -0.0376152 0.023058921 -0.25228736 0.1611927 0.22667778 0.16665116 -0.062343013
-0.2833037 0.16038054 -0.28886488 0.3110146 -0.21521577 -0.035646416 -0.15943852 -0.1931862
-0.12408125 -0.20571429 0.29165357 -0.2536227 0.22034435 -0.089806624 -0.19756064 0.31530297
0.23709972 -0.13797373 -0.0032604919 -0.26028112 0.1832812 -0.3215941 -0.2051631 -0.243054
-0.25401726 -0.2887626 0.23074104 -0.2519292 -0.3322778 -0.28901187 0.09355427 0.34963858
0.31806043 0.40647987 0.33907744 0.27785417 -0.10042065 -0.07982833 -0.089557774 -0.2512764
00000000: d455 a7be 7813 afbe debb f93c a504 173e
00000010: 7395 08be 2824 80be 44f6 a3be fd45 aa3e
00000020: d708 3e3e a43e b13e 3128 75be 59bb 6abe
00000030: 8ab3 793e 1e5c b5be 373c 60be dec1 bc3e
00000040: 036e 59be 87c0 9fbe 7aee aabe a01a 903c
00000050: fbb6 87be a5aa 4cbe cb03 333e 960a c33e
00000060: 5678 af3e b2d5 c3be 08a4 a6be 025b 23be
00000070: e71d 55be 46f6 b13e ff36 9c3e 49f6 77be
00000080: 9f01 243c 74e1 45bd dec5 afbe d0dd 94be
00000090: e3c2 d03e e643 fdbc 57b2 8ebe 4eeb 8c3e
000000a0: 8ef3 89be 9b3d 623e 1894 833e 65dd 4fbe
000000b0: 5876 163e 0887 b53e 93af a1be 7226 483e
000000c0: 4f61 cabe 7c5f adbe 8e04 3bbe f6be 91be
000000d0: 2745 abbe 196a e0bb 8fba a03e 6ec8 a83e
000000e0: 20ee 083d 5561 bbbe 52d2 a9be 87c3 243e
000000f0: dc23 babe 7c7f 403e 915a 64be b046 d03e
00000100: 0f05 713d a054 323e 414b 18be 731a bebe
00000110: 3997 96be 41e3 853e c22e 8d3e 86dc 393e
00000120: cbb1 9cbe cffb 443e a9e9 95be 8699 67be
00000130: 34a9 9c3e e794 bebd 46dc 1e3c 3403 abbe
00000140: 122d c53e 6512 1abd 10e6 bc3c cf2b 81be
00000150: b30f 253e 381e 683e 9aa6 2a3e 635b 7fbd
00000160: 2f0d 91be cc3a 243e 19e6 93be 4e3d 9f3e
00000170: 8661 5cbe fa01 12bd da43 23be 9ad2 45be
00000180: 4f1e febd c4a6 52be 9e53 953e d6da 81be
00000190: f3a1 613e 89ec b7bd 564d 4abe 646f a13e
000001a0: 45ca 723e fc48 0dbe faad 55bb 9143 85be
000001b0: 11ae 3b3e fba7 a4be 4716 52be 26e3 78be
000001c0: 8d0e 82be b1d8 93be 6147 6c3e ddfc 80be
000001d0: 5120 aabe 5df9 93be 6299 bf3d d403 b33e
000001e0: d1d8 a23e 211e d03e 8f9b ad3e e742 8e3e
000001f0: 57a9 cdbd 097d a3bd 116a b7bd 4da7 80be

func.linear2.weight f4 [672, 128]
0.18643284 0.32572582 0.31988662 0.26493403 0.31292748 0.25563017 0.22647056 0.2907995
0.29259667 0.1957367 0.1974555 0.32436398 0.17291015 0.21360648 0.19426847 0.2614436
0.30550867 0.19058496 0.2844067 0.19444437 0.23519099 0.2843299 0.3257407 0.3284256
0.28425276 0.2709396 0.20081902 0.2672253 0.19733872 0.30759808 0.2866577 0.27023685
0.32813245 0.18477179 0.29565755 0.22021472 0.18626517 0.25476643 0.30712062 0.17776065
0.20890857 0.22797225 0.17995746 0.18446256 0.1919738 0.26497892 0.22622198 0.18288468
0.32853436 0.32259127 0.19357856 0.34669533 0.27067158 0.28789037 0.23499979 0.3337366
0.2854222 0.23377816 0.19421725 0.29021618 0.20294239 0.25941077 0.18745579 0.20520806
0.20326957 0.17636585 0.3278368 0.3485541 0.22908805 0.26096934 0.27403438 0.17908388
0.2788866 0.24092978 0.27207258 0.21416394 0.20946775 0.19549282 0.185315 0.28780165
0.23449513 0.3413123 0.3471932 0.2746567 0.34727845 0.24986881 0.3073549 0.2780137
0.20588332 0.19255637 0.3199151 0.2844671 0.34128958 0.1991226 0.26904723 0.2023905
0.19760063 0.1776217 0.249199 0.34255657 0.29975432 0.26145723 0.20703074 0.19455813
0.3429367 0.17882401 0.2594758 0.21054764 0.2124783 0.2345323 0.23346072 0.23712178
0.23572707 0.21021113 0.26017526 0.32099494 0.21710564 0.17925628 0.21800512 0.3449433
0.1791006 0.2596809 0.3016258 0.2785057 0.31096298 0.25173175 0.29767224 0.26557615
0.265087 0.25562766 0.2002952 0.2660064 0.1904428 0.30536407 -0.32633257 0.26166695
0.21629116 0.33757573 0.24836347 0.21992028 0.30676994 0.25259247 0.18474837 0.23550567
-0.21526022 0.22882347 0.30159646 0.30850157 0.33954617 0.24029626 0.2491544 0.25728354
0.30511543 -0.22897427 0.3284231 0.27316883 0.2081186 0.24607469 0.261324 0.18062817
0.27221957 0.26270708 0.3164076 0.17940977 0.28126508 0.17769028 0.21384418 0.2968155
0.19312638 0.3428191 0.32407168 0.3022325 0.279737 0.22430564 0.32741717 0.3203856
0.32200566 0.3262784 0.1838281 0.22367926 0.17822601 0.25126922 0.29709032 0.18300737
0.25607508 0.22729048 0.20498443 0.29441535 0.19962342 0.30744782 0.33075455 0.27599472
0.1777301 0.22857481 0.30065018 -0.33513373 0.2943095 0.27738196 -0.3051626 0.34357116
0.18943055 0.3474202 0.2691535 0.2880438 0.17559177 0.22107878 0.25430006 0.21718757
0.17887923 0.17644106 0.30486754 0.26550868 0.20103219 0.20527983 0.20347087 0.22552447
0.3372139 0.24296536 0.2655497 -0.3022945 0.3371835 0.20184892 0.3312149 0.27595383
0.33910173 0.22782512 0.21091028 0.17894076 0.27380696 0.3403234 0.17475788 0.29749742
0.20660251 0.33036625 0.33270946 0.24978173 0.33690754 0.23110151 0.31826094 0.20713983
0.23904926 0.23485807 0.18305233 0.27832133 0.25436538 0.30828905 0.2157515 0.24632928
0.22872263 0.21646443 0.33312982 0.1996679 0.3209333 0.21619797 0.33069137 0.2498585
00000000: 40e8 3e3e 89c5 a63e 2ec8 a33e 6fa5 873e
00000010: 0838 a03e f5e1 823e e6e7 673e ace3 943e
00000020: 3bcf 953e 346f 483e c631 4a3e 0913 a63e
00000030: 5c0f 313e a8bb 5a3e 50ee 463e efdb 853e
00000040: a26b 9c3e b428 433e c19d 913e 6d1c 473e
00000050: e8d5 703e b093 913e 7cc7 a63e 6627 a83e
00000060: 9489 913e 98b8 8a3e 80a3 4d3e c1d1 883e
00000070: 2913 4a3e 7f7d 9d3e ccc4 923e 7c5c 8a3e
00000080: fa00 a83e d134 3d3e 6d60 973e f87f 613e
00000090: 4cbc 3e3e bf70 823e ea3e 9d3e e306 363e
000000a0: 21ec 553e 8f71 693e c546 383e c1e3 3c3e
000000b0: c894 443e 51ab 873e bca6 673e 1f46 3b3e
000000c0: a835 a83e af2a a53e 7539 463e 0d82 b13e
000000d0: 7795 8a3e 5e66 933e c9a3 703e 86df aa3e
000000e0: dc22 923e 8b63 6f3e e3e0 463e 3797 943e
000000f0: 21d0 4f3e 7dd1 843e 69f4 3f3e 1022 523e
00000100: e625 503e 4099 343e 3ada a73e af75 b23e
00000110: 0f96 6a3e c69d 853e 3c4e 8c3e c461 373e
00000120: 39ca 8e3e 4cb6 763e 194d 8b3e cb4d 5b3e
00000130: b77e 563e 452f 483e 37c3 3d3e bd5a 933e
00000140: 7e1f 703e 7cc0 ae3e 4fc3 b13e ce9f 8c3e
00000150: 7bce b13e 9cdd 7f3e 9f5d 9d3e d057 8e3e
00000160: 14d3 523e 7f2d 453e e9cb a33e aca5 913e
00000170: 82bd ae3e cbe6 4b3e 8fc0 893e 753f 4f3e
00000180: d257 4a3e 77e2 353e 062e 7f3e 9363 af3e
00000190: 6679 993e b9dd 853e deff 533e 3f3a 473e
000001a0: 6695 af3e a41d 373e 03da 843e cd99 573e
000001b0: e993 593e 3c29 703e 5410 6f3e 0dd0 723e
000001c0: 7062 713e 9641 573e b135 853e 7359 a43e
000001d0: f150 5e3e f58e 373e bc3c 5f3e 699c b03e
000001e0: 2666 373e e5f4 843e b26e 9a3e 4d98 8e3e
000001f0: 8a36 9f3e fce2 803e 7f68 983e 99f9 873e
00000200: 7cb9 873e a1e1 823e 2f1a 4d3e fe31 883e
00000210: 7003 433e ae58 9c3e 1015 a7be 36f9 853e
00000220: 6e7b 5d3e bad6 ac3e fe52 7e3e c832 613e
00000230: f310 9d3e cd53 813e ad2e 3d3e 6628 713e
00000240: 2d6d 5cbe b350 6a3e da6a 9a3e ebf3 9d3e
00000250: ffd8 ad3e 3910 763e 5522 7f3e abba 833e
00000260: 1738 9c3e 3b78 6abe 1327 a83e c9dc 8b3e
00000270: 0b1d 553e 01fb 7b3e 42cc 853e 97f6 383e
00000280: 5d60 8b3e 8b81 863e 2d00 a23e 32b7 373e
00000290: fa01 903e 71f4 353e f8f9 5a3e 34f8 973e
000002a0: ecc2 453e fc85 af3e b9ec a53e 38be 9a3e
000002b0: b039 8f3e 61b0 653e 39a3 a73e 9509 a43e
000002c0: eddd a43e f60d a73e 6f3d 3c3e 2d0c 653e
000002d0: e180 363e 5ca6 803e 391c 983e 4966 3b3e
000002e0: 461c 833e d6be 683e 70e7 513e 9cbd 963e
000002f0: 156a 4c3e cd69 9d3e a958 a93e 2e4f 8d3e
00000300: e1fe 353e 840f 6a3e d2ee 993e a696 abbe
00000310: bcaf 963e 0205 8e3e 463e 9cbe 8fe8 af3e
00000320: 15fa 413e 0fe1 b13e 7dce 893e 7a7a 933e
00000330: 54ce 333e 7a62 623e 9e33 823e 6b66 5e3e
00000340: 1e2c 373e f7ac 343e 9917 9c3e c1f0 873e
00000350: 62db 4d3e e034 523e ab5a 503e e3ef 663e
00000360: 4da7 ac3e e9cb 783e 21f6 873e 58c6 9abe
00000370: 51a3 ac3e 7cb1 4e3e 0095 a93e d249 8d3e
00000380: be9e ad3e fd4a 693e ddf8 573e 3f3c 373e
00000390: 6d30 8c3e de3e ae3e bbf3 323e 9551 983e
000003a0: 9c8f 533e c425 a93e e558 aa3e c8c6 7f3e
000003b0: 257f ac3e e0a5 6c3e 19f3 a23e 771c 543e
000003c0: 54c9 743e a27e 703e 1272 3b3e 2280 8e3e
000003d0: 2e3c 823e 10d8 9d3e f6ed 5c3e be3d 7c3e
000003e0: 4436 6a3e daa8 5d3e fe8f aa3e be75 4c3e
000003f0: 5f51 a43e 0063 5d3e 6150 a93e e8da 7f3e

func.linear2.bias f4 [672]
0.3343617 0.3469656 -0.34521323 -0.22910455 -0.26533726 0.32637164 -0.21161939 -0.06630811
0.2847888 -0.2722242 -0.19996999 -0.18495966 -0.3173974 -0.18782814 -0.25891832 -0.33931312
-0.24021369 0.29084775 -0.27361032 -0.23360988 -0.34228364 -0.27737167 -0.19451013 0.20407128
0.3401149 0.2839625 -0.17347604 0.34566906 0.3215272 0.28183815 0.28502432 0.27147228
0.41845098 0.039051637 -0.28763956 0.28402904 -0.20900668 0.037808944 0.41458398 0.3856599
0.28687787 -0.30226034 0.21008839 0.23273373 -0.14273846 0.18220302 0.2925821 0.33535188
0.30538502 -0.25565845 0.31043884 -0.25741756 -0.061947364 -0.26126313 0.33182856 0.29518938
0.27344257 0.26806843 0.21991982 0.3243716 -0.268476 -0.1936861 0.3310704 -0.3091766
-0.18996465 0.34650692 -0.19555308 0.36517268 -0.34157097 -0.213496 -0.31067985 -0.2235528
-0.22742653 -0.113400914 0.21620886 0.30142203 0.25320044 0.3059169 -0.2025413 -0.19435602
-0.2066715 -0.3178013 -0.089875296 -0.22049461 -0.26119164 -0.3196019 -0.13346685 -0.31889096
-0.26112777 0.24562946 -0.17691235 -0.2722316 0.17820549 -0.2466952 0.10810516 -0.21230875
-0.21948212 -0.18393332 0.22204721 -0.22478674 -0.17857 0.1896956 0.18478265 0.32969388
-0.32627818 -0.19259244 -0.29901785 -0.19906278 0.32530883 0.21009472 0.17753755 -0.2115536
-0.26189297 -0.22864637 -0.34140947 -0.26798406 0.2061688 -0.28027242 -0.21856838 0.19276837
0.28859413 -0.36632013 0.19519852 0.31508806 0.25565875 0.27982974 0.33112 0.21910372
-0.23518693 0.2458158 0.2854441 0.22282498 0.3225663 0.07479906 0.282728 0.26257795
0.2322382 0.34872356 0.27668318 0.30115896 0.28854945 -0.15768646 -0.2501079 -0.17220236
-0.29609135 0.27946714 -0.23706046 0.34799716 0.14450438 0.20199727 0.20926777 0.19475515
0.29458517 0.2077119 0.07782517 0.19691995 0.2974865 0.22262254 0.13089448 0.33482614
0.31184807 0.32189077 0.14940467 0.27024758 -0.18259999 -0.2841091 -0.32768363 0.27795488
-0.3033445 -0.2753383 -0.31663468 -0.2885478 -0.22374018 0.33808506 -0.22281538 -0.19428755
-0.2986788 0.27677745 0.25253212 -0.36851573 -0.19091563 -0.14695701 0.23669106 0.32562637
0.3191436 0.26273754 0.3469918 -0.21364479 0.28818476 -0.24465233 -0.28628412 -0.28648195
-0.23939554 0.18364847 0.28453854 0.17477891 0.19048005 0.26468068 -0.26174074 -0.2264355
-0.30977017 0.2929529 0.29744455 0.3375001 0.25378907 0.18947656 -0.21497203 -0.19125958
-0.3103259 -0.2601206 0.34421706 -0.1811573 0.33556214 -0.21646996 -0.095439546 0.28803274
0.22577581 0.2575934 0.28354558 0.21787557 0.23687626 0.219108 0.21216157 0.19405594
0.32360277 -0.3013536 -0.31820285 0.2307208 0.19508873 -0.12641957 0.2486282 -0.20299503
0.23093452 0.28067532 0.34631008 0.3604348 0.2728486 0.27835518 0.17315653 0.28593996
0.34568322 -0.28092378 0.30310187 -0.3013801 -0.005236297 -0.22808968 0.2905688 -0.2663456
0.33126235 0.26492327 0.18098505 -0.34327576 0.21784027 -0.3417367 0.2882822 0.2548617
00000000: 7531 ab3e 7aa5 b13e cabf b0be 629a 6abe
00000010: 49da 87be 2f1a a73e c1b2 58be 8ccc 87bd
00000020: d6cf 913e f860 8bbe efc4 4cbe 1166 3dbe
00000030: e981 a2be 0556 40be f190 84be 73ba adbe
00000040: 94fa 75be ffe9 943e a716 8cbe 6e37 6fbe
00000050: cd3f afbe a903 8ebe aa2d 47be 10f8 503e
00000060: 8a23 ae3e 8863 913e b4a3 31be 89fb b03e
00000070: 379f a43e 174d 903e b5ee 913e 6afe 8a3e
00000080: 353f d63e 9cf4 1f3d 7e45 93be 416c 913e
00000090: d905 56be 8ddd 1a3d 5a44 d43e 3775 c53e
000000a0: a8e1 923e dec1 9abe 6921 573e c051 6e3e
000000b0: 082a 12be 6e93 3a3e 52cd 953e 3eb3 ab3e
000000c0: 6d5b 9c3e aae5 82be d7f1 9e3e 3ccc 83be
000000d0: 85bc 7dbd 48c4 85be 6fe5 a93e 1023 973e
000000e0: aa00 8c3e 4440 893e a932 613e 0914 a63e
000000f0: b075 89be a655 46be 0f82 a93e 654c 9ebe
00000100: 1886 42be 5b69 b13e 113f 48be eaf7 ba3e
00000110: 64e2 aebe b29e 5abe 6e11 9fbe 06eb 64be
00000120: 80e2 68be bd3e e8bd db65 5d3e fd53 9a3e
00000130: 7da3 813e 24a1 9c3e fd66 4fbe 4405 47be
00000140: b2a1 53be dab6 a2be 8a10 b8bd 57c9 61be
00000150: e9ba 85be dca2 a3be 89ab 08be ad45 a3be
00000160: 8ab2 85be 4a86 7b3e 8328 35be f161 8bbe
00000170: 807b 363e ab9d 7cbe 3d66 dd3d 7767 59be
00000180: ecbf 60be 0459 3cbe 5860 633e 7f2e 66be
00000190: 0edb 36be 903f 423e aa37 3d3e a3cd a83e
000001a0: ef0d a7be f436 45be de18 99be 1dd7 4bbe
000001b0: e18e a63e 1223 573e 67cc 353e 82a1 58be
000001c0: d616 86be 4622 6abe 39cd aebe 3535 89be
000001d0: ea1d 533e de7f 8fbe 64d0 5fbe 1265 453e
000001e0: 9cc2 933e 508e bbbe 1fe2 473e 3953 a13e
000001f0: b4e5 823e d845 8f3e 9088 a93e ba5c 603e
00000200: d8d4 70be 23b7 7b3e bb25 923e 3b2c 643e
00000210: 6927 a53e 4030 993d b9c1 903e 9e70 863e
00000220: dacf 6d3e e58b b23e 6ba9 8d3e 8231 9a3e
00000230: c1bc 933e 8f78 21be 250e 80be d155 30be
00000240: 4999 97be 5116 8f3e fabf 72be af2c b23e
00000250: f5f8 133e 5fd8 4e3e 4a4a 563e e56d 473e
00000260: ded3 963e 6eb2 543e cd62 9f3d 62a5 493e
00000270: 2750 983e 2af7 633e 3409 063e 556e ab3e
00000280: 8daa 9f3e dece a43e 8afd 183e e45d 8a3e
00000290: 7efb 3abe bf76 91be 26c6 a7be 1a50 8e3e
000002a0: f84f 9bbe 24f9 8cbe f11d a2be 8abc 93be
000002b0: 251c 65be 7c19 ad3e b729 64be 51f3 46be
000002c0: 6dec 98be c6b5 8d3e e44b 813e 18ae bcbe
000002d0: 637f 43be e67b 16be 245f 723e 80b8 a63e
000002e0: ca66 a33e 8985 863e e9a8 b13e b3c5 5abe
000002f0: f48c 933e 2486 7abe d593 92be c3ad 92be
00000300: 1b24 75be 580e 3c3e 09af 913e 3ef9 323e
00000310: 340d 433e 3a84 873e e202 86be b5de 67be
00000320: 329a 9ebe ecfd 953e a74a 983e d0cc ac3e
00000330: a4f0 813e 2506 423e a121 5cbe 8dd9 43be
00000340: 09e3 9ebe 872e 85be 383d b03e 4d81 39be
00000350: cdce ab3e 4daa 5dbe cf75 c3bd 0779 933e
00000360: c631 673e 48e3 833e e32c 913e c61a 5f3e
00000370: b18f 723e d95d 603e e240 593e 9ab6 463e
00000380: 43af a53e 054b 9abe 7ceb a2be 1342 6c3e
00000390: 57c5 473e 2274 01be 6498 7e3e eedd 4fbe
000003a0: 197a 6c3e adb4 8f3e 8e4f b13e e98a b83e
000003b0: d0b2 8b3e 9284 8e3e f24f 313e b966 923e
000003c0: 64fd b03e 3ed5 8fbe 2b30 9b3e 7e4e 9abe
000003d0: 3e95 abbb 5790 69be 6fc5 943e 735e 88be
000003e0: 389b a93e 06a4 873e 2554 393e d7c1 afbe
000003f0: 8511 5f3e 1df8 aebe b999 933e 3c7d 823e

initial.weight f4 [224, 3]
-0.10126417 0.21914181 -0.250958 -0.29137364 -0.26911163 0.1870068 0.17684557 0.15682085
-0.4991649 -0.27799726 0.20975399 -0.03939617 -0.33330455 -0.64056176 0.019583656 -0.21742316
0.013300761 -0.6878845 0.047616344 0.24238871 -0.28283295 0.36794952 -0.2726395 0.14438367
-0.46301824 0.53067356 -0.18480837 -0.21252021 -0.32659996 0.18300003 0.2919742 -0.2382538
-0.19157252 -0.32394525 0.007768137 0.04811644 0.104598604 0.112563856 0.31907326 0.21397762
-0.24468213 0.54288226 0.32607132 -0.051355418 0.16149497 -0.37031853 -0.17166881 0.48030996
0.23889042 -0.16473073 -0.2721042 -0.098874256 0.24721351 0.18711445 -0.20716879 -0.33459446
0.7407352 0.5005947 -0.14678279 0.5589903 -0.3448723 -0.40678754 -0.41610444 0.4287478
0.18421294 -0.20640305 0.35688862 0.29496676 -0.74983674 -0.00046625067 -0.4021521 0.040163703
-0.26538217 -0.5764153 0.20916356 -0.24889442 0.31609532 -0.2655223 -0.045762766 -0.54328775
0.51152086 -0.21238682 -0.2948936 0.2003831 -0.27248037 -0.1905306 0.032061026 -0.26906005
0.21478096 0.015853047 0.013332807 -0.080740675 -0.4411121 0.24369979 -0.19194235 0.010723594
0.10053857 -0.32572514 -0.43904036 -0.41600463 -0.0016916207 0.21564734 -0.13603283 -0.22025914
0.13896649 -0.45038104 0.32274505 -0.23638193 0.43968403 -0.19754577 0.21208583 0.530093
0.24990986 -0.48305798 0.6181867 0.13117842 0.14790908 0.17900437 -0.32488152 -0.39831796
-0.27737978 -0.10249102 0.09072841 -0.14196973 0.07716288 0.5708232 -0.6053507 -0.23875225
0.29725924 0.013137179 -0.24914984 0.14574307 -0.45839143 0.16532187 0.17573471 -0.37885085
0.58132887 -0.19990334 -0.025767174 -0.22311641 0.37941238 -0.46098024 0.051567644 -0.055217374
-0.6027385 -0.48062038 -0.36727715 0.20541607 -0.13119087 -0.3165151 0.61469257 0.25086895
-0.18828218 0.6448175 0.58629084 -0.15222082 0.5138339 0.2128253 -0.13504301 0.091314435
0.3390873 -0.19009726 0.2798772 0.26654533 -0.25429142 -0.3474378 0.19635022 -0.23094167
-0.19798605 -0.048245266 0.14314418 0.023491643 0.072135456 -0.34992808 0.5332611 0.23165108
0.23071277 0.42173368 0.341083 0.11282999 -0.1908253 -0.25052708 0.12162201 0.36881936
-0.082905255 0.011462152 -0.447408 0.21749961 -0.29188108 -0.09117956 -0.49179402 -0.10971762
0.15346819 -0.42677492 -0.57702893 -0.6231174 0.09898426 -0.2855872 -0.049460046 0.13600326
-0.3152813 0.3367279 0.4190573 0.00832505 -0.14063275 0.35836607 -0.10640262 0.09715453
-0.27785408 0.15751772 0.26130646 -0.0545979 -0.029666467 0.50823665 -0.06847684 0.077169664
-0.05640689 0.1627133 0.05247948 0.2702583 0.5065169 -0.16063093 -0.033620153 0.4148257
-0.36636496 -0.6820939 -0.12156086 -0.3015411 -0.30389518 -0.08734373 -0.055488616 -0.81988657
-0.6604328 -0.04313849 0.40626904 0.13128132 -0.088378824 0.27283967 -0.23230748 -0.35086495
0.73888147 0.22504108 0.074832246 -0.34631178 0.122115806 -0.30452967 0.55230343 -0.1216788
0.539907 0.3969295 0.13391669 0.12259963 0.1017631 0.34803972 -0.23025815 0.62100327
00000000: 9763 cfbd b666 603e 917d 80be ed2e 95be
00000010: 00c9 89be b67e 3f3e 0117 353e a595 203e
00000020: 8b92 ffbe a855 8ebe c0c9 563e e15d 21bd
00000030: e5a6 aabe dbfb 23bf e76d a03c 2da4 5ebe
00000040: 6feb 593c 3319 30bf 5b09 433d bf34 783e
00000050: 7bcf 90be e163 bc3e 6897 8bbe 50d9 133e
00000060: ba10 edbe 39da 073f 683e 3dbe e69e 59be
00000070: 1c38 a7be 5c64 3b3e a47d 953e cef8 73be
00000080: 962b 44be 27dc a5be db8b fe3b bf15 453d
00000090: cb37 d63d e187 e63d 925d a33e f31c 5b3e
000000a0: f48d 7abe 55fa 0a3f d2f2 a63e 0f5a 52bd
000000b0: f05e 253e 649a bdbe f3c9 2fbe 30eb f53e
000000c0: b19f 743e 2caf 28be 3e51 8bbe 967e cabd
000000d0: 8a25 7d3e ee9a 3f3e 0e24 54be f74f abbe
000000e0: d2a0 3d3f f926 003f 3a4e 16be fd19 0f3f
000000f0: 1a93 b0be 7546 d0be a40b d5be d584 db3e
00000100: 51a2 3c3e 525b 53be 1bba b63e e205 973e
00000110: 4df5 3fbf 1b73 f4b9 e1e6 cdbe b282 243d
00000120: 2ce0 87be f48f 13bf f92e 563e 2ede 7ebe
00000130: 3fd7 a13e 8af2 87be bd71 3bbd e814 0bbf
00000140: 08f3 023f ee7b 59be 4bfc 96be 3a31 4d3e
00000150: 8c82 8bbe 741a 43be 6c52 033d 3dc2 89be
00000160: 8aef 5b3e 40de 813c d971 5a3c 5e5b a5bd
00000170: 72d9 e1be 708c 793e 898c 44be 03b2 2f3c
00000180: 2ae7 cd3d 72c5 a6be e6c9 e0be 8ffe d4be
00000190: 5fb9 ddba a8d2 5c3e 314c 0bbe 9d8b 61be
000001a0: 3b4d 0e3e 5898 e6be d73e a53e 1b0e 72be
000001b0: 441e e13e 7049 4abe 072d 593e 2db4 073f
000001c0: 5fe8 7f3e 6053 f7be 7c41 1e3f a353 063e
000001d0: 7a75 173e ec4c 373e df56 a6be 55f0 cbbe
000001e0: b904 8ebe d0e6 d1bd d1cf b93d 8360 11be
000001f0: 9207 9e3d 7821 123f 43f8 1abf 787b 74be
00000200: 5d32 983e 533d 573c 2321 7fbe ac3d 153e
00000210: 48b2 eabe 234a 293e cdf3 333e bdf8 c1be
00000220: f8d1 143f 76b3 4cbe ae15 d3bc a178 64be
00000230: 5742 c23e 9a05 ecbe 9838 533d 9d2b 62bd
00000240: 124d 1abf e013 f6be c00b bcbe 9758 523e
00000250: e656 06be 440e a2be 7e5c 1d3f e571 803e
00000260: 0bcd 40be c212 253f 2817 163f c6df 1bbe
00000270: 9e8a 033f e0ee 593e b748 0abe 1003 bb3d
00000280: da9c ad3e dba8 42be 104c 8f3e a178 883e
00000290: 7c32 82be 5ee3 b1be 0810 493e f97b 6cbe
000002a0: dbbc 4abe d49c 45bd 6394 123e 8c71 c03c
000002b0: c1bb 933d c629 b3be cd83 083f f135 6d3e
000002c0: f83f 6c3e 7aed d73e 6ea2 ae3e 6913 e73d
000002d0: b567 43be 1645 80be f614 f93d e4d5 bc3e
000002e0: 3bca a9bd c0cb 3b3c a912 e5be 38b8 5e3e
000002f0: 7071 95be 59bc babd 6dcc fbbe a2b3 e0bd
00000300: c426 1d3e 3e82 dabe 2bb8 13bf 9f84 1fbf
00000310: 42b8 ca3d 7c38 92be 9e96 4abd 7044 0b3e
00000320: 8d6c a1be 9967 ac3e ae8e d63e ca65 083c
00000330: 0802 10be c27b b73e 9ee9 d9bd f4f8 c63d
00000340: e442 8ebe 534c 213e f6c9 853e 0ca2 5fbd
00000350: 1707 f3bc cc1b 023f 963d 8cbd 210b 9e3d
00000360: e90a 67bd 519e 263e b9f4 563d 4c5f 8a3e
00000370: 17ab 013f 6f7c 24be 49b5 09bd 0964 d43e
00000380: 3094 bbbe b59d 2ebf e6f4 f8bd 9863 9abe
00000390: 2698 9bbe 45e1 b2bd 0848 63bd 16e4 51bf
000003a0: 2012 29bf fcb1 30bd 7f02 d03e 9c6e 063e
000003b0: f5ff b4bd a4b1 8b3e 03e2 6dbe 92a4 b3be
000003c0: 5627 3d3f 2b71 663e a641 993d c74f b1be
000003d0: da17 fa3d 50eb 9bbe c263 0d3f bc32 f9bd
000003e0: 5837 0a3f 583a cb3e 7521 093e 8415 fb3d
000003f0: 2c69 d03d 4332 b23e cbc8 6bbe 12fa 1e3f

initial.bias f4 [224]
0.07373657 -0.7057897 -0.06049991 -0.40658012 -0.096023746 0.121091396 -0.83643734 -0.13364163
0.29772756 -0.08516896 -0.094002396 0.48101428 0.03968473 0.5390654 0.10374505 -0.17568189
-0.32672393 0.054829326 0.12399348 -0.14800666 -0.59516895 0.083910815 0.5301874 -0.49662846
0.24991433 -0.09950406 -0.6046635 -0.45887014 0.052994546 -0.7295192 0.32700753 -0.5870972
0.26178953 -0.0952087 -0.17750095 0.1089224 0.6382778 -0.07737849 0.32246253 0.10094877
0.8012135 -0.019857608 -0.52253765 -0.03146603 0.38207182 0.2253961 0.028936917 -0.6739604
-0.9039828 -0.48066002 0.48214725 -0.22071533 -0.2436429 0.09390977 -0.6674579 -0.24885772
-0.19719985 -0.10325682 -0.56933403 -0.43728757 -0.054830853 -0.4852558 -0.33876938 -0.7532913
-0.40566063 -0.26592752 -0.12551828 0.24164099 0.6203327 0.38914654 -0.12871446 -0.7307153
-0.3919344 0.28722522 -0.5617089 -0.63970816 0.22549985 -0.18765363 0.12837665 -0.27744153
-0.4796265 -0.581931 0.028088657 0.64410967 -0.12761581 0.25244692 -0.22878762 -0.19717154
0.07753744 0.6783237 0.028139608 0.5882276 -0.37331232 -0.4792375 -0.49864504 0.7282748
0.07027407 -0.03272565 -0.62398416 -0.71627814 0.37422967 -0.29478788 0.28452063 0.3800242
0.07568186 -0.20662817 0.30706537 -0.5862455 -0.29812515 -0.09425266 -0.2266562 -0.018584972
-0.0906946 -0.03352821 -0.5962763 0.18850482 0.14000168 -0.69511664 -0.09152093 -0.52066016
-0.26631367 0.22191408 -0.50857854 0.059529748 0.32488516 0.051149346 -0.12682495 -0.022880802
0.07971303 -0.69543374 -0.45725015 0.2148637 0.20637237 0.12337858 0.1516034 0.5186925
-0.048518695 0.5736629 0.23572503 -0.8812781 -0.6307343 0.36323363 0.1632305 0.6881982
-0.1596481 -0.12218769 -0.6664887 0.63459855 -0.052079223 0.31553033 -0.11619882 -0.40606064
0.41087902 -0.4995434 -0.10204243 0.41742826 -0.11434011 0.1128955 0.1782726 -0.17204419
0.33605048 0.45554817 0.49730402 0.49046978 -0.20118384 -0.5505954 0.25865677 0.7084075
0.09724043 -0.5439629 -0.21680841 0.07313795 0.8050686 0.08159294 0.05980422 -0.13276385
-0.6292319 0.60786605 -0.20914945 0.43431565 0.19178118 -0.049032286 0.18205826 0.33124503
-0.110690296 0.6339148 -0.039839666 -0.089661025 0.31948513 -0.06359201 0.43067813 0.35337633
-0.53449464 -0.024049276 -0.2883273 -0.025011398 0.11506701 0.18845141 0.6595705 0.575784
-0.27465132 0.13547553 -0.35096 0.20717362 -0.45442382 -0.34804106 0.29819325 0.15740883
-0.27600566 -0.2161757 -0.26033542 -0.3036966 -0.29988375 0.040982235 0.31090614 -0.21780697
0.30318484 -0.012652275 -0.3233733 0.08561176 0.054054115 -0.14690882 -0.285574 0.4317197
00000000: 3303 973d a2ae 34bf c1ce 77bd 452b d0be
00000010: 19a8 c4bd c4fe f73d c220 56bf 5ad9 08be
00000020: bf6f 983e 106d aebd 5484 c0bd 8147 f63e
00000030: 758c 223d 3100 0a3f 4978 d43d f4e5 33be
00000040: 5c48 a7be b794 603d 4bf0 fd3d 0f8f 17be
00000050: fe5c 18bf 6fd9 ab3d 5dba 073f 1646 febe
00000060: 8be9 7f3e c9c8 cbbd 3acb 1abf 07f1 eabe
00000070: cf10 593d c5c1 3abf 886d a73e 014c 16bf
00000080: 4709 863e c7fc c2bd cfc2 35be b512 df3d
00000090: 2d66 233f 9d78 9ebd cf19 a53e 3bbe ce3d
000000a0: 541c 4d3f 6cac a2bc 07c5 05bf 86e2 00bd
000000b0: eb9e c33e 3cce 663e 1d0d ed3c ab88 2cbf
000000c0: 6b6b 67bf 1219 f6be 01dc f63e 3303 62be
000000d0: 867d 79be c453 c03d 85de 2abf 8fd4 7ebe
000000e0: c2ee 49be 5078 d3bd e0bf 11bf 28e4 dfbe
000000f0: 5196 60bd 7373 f8be 2e73 adbe b3d7 40bf
00000100: c0b2 cfbe a727 88be dd87 00be bc70 773e
00000110: 20ce 1e3f 373e c73e b9cd 03be 2810 3bbf
00000120: a0ab c8be 2f0f 933e 28cc 0fbf eac3 23bf
00000130: 6fe9 663e 4628 40be 2b75 033e d10c 8ebe
00000140: 9b91 f5be 6ef9 14bf 2f1a e63c 5fe4 243f
00000150: b8ad 02be b940 813e 4d47 6abe 56e7 49be
00000160: f3cb 9e3d 9fa6 2d3f 0985 e63c 1696 163f
00000170: cb22 bfbe 9e5e f5be 674e ffbe 3870 3a3f
00000180: daeb 8f3d 550b 06bd 6dbd 1fbf 015e 37bf
00000190: 089b bf3e 70ee 96be b0ac 913e 8892 c23e
000001a0: 17ff 9a3d 5696 53be ac37 9d3e 2f14 16bf
000001b0: dca3 98be 8a07 c1bd 9018 68be 833f 98bc
000001c0: 17be b9bd e054 09bd 90a5 18bf 6807 413e
000001d0: 9a5c 0f3e 2af3 31bf 536f bbbd fc49 05bf
000001e0: 445a 88be 723d 633e 3432 02bf 77d5 733d
000001f0: 5957 a63e fa81 513d 66de 01be 8570 bbbc
00000200: 9640 a33d f207 32bf b11c eabe 3b05 5c3e
00000210: 4753 533e e9ad fc3d ec3d 1b3e 08c9 043f
00000220: 8abb 46bd 92db 123f e761 713e 719b 61bf
00000230: ce77 21bf c2f9 b93e e525 273e c22d 303f
00000240: cb7a 23be 8a3d fabd 019f 2abf 0d75 223f
00000250: 0651 55bd 318d a13e a6f9 edbd 2ee7 cfbe
00000260: bc5e d23e 27c4 ffbe 9ffb d0bd 28b9 d53e
00000270: 262b eabd c235 e73d 188d 363e 5a2c 30be
00000280: cf0e ac3e 9c3d e93e a29e fe3e db1e fb3e
00000290: 2303 4ebe d2f3 0cbf a96e 843e 325a 353f
000002a0: fe25 c73d 2741 0bbf 0603 5ebe 59c9 953d
000002b0: fa18 4e3f 331a a73d 45f5 743d 3ff3 07be
000002c0: 5815 21bf 1c9d 1b3f 462b 56be 9f5e de3e
000002d0: 4962 443e 14d6 48bd 7b6d 3a3e f398 a93e
000002e0: 98b1 e2bd 3e48 223f eb2e 23bd 33a0 b7bd
000002f0: 8e93 a33e 873c 82bd d881 dc3e beed b43e
00000300: a4d4 08bf fd02 c5bc a39f 93be b4e4 ccbc
00000310: 41a8 eb3d 68f9 403e 9dd9 283f 9566 133f
00000320: 199f 8cbe 19ba 0a3e 07b1 b3be 5225 543e
00000330: 3daa e8be 7032 b2be c9ac 983e c82f 213e
00000340: 9d50 8dbe 2a5d 5dbe af4a 85be 1f7e 9bbe
00000350: 5d8a 99be fddc 273d 172f 9f3e ca08 5fbe
00000360: 0b3b 9b3e 7d4b 4fbc 2f91 a5be 3855 af3d
00000370: d967 5d3d 446f 16be c136 92be 5d0a dd3e

readout.weight f4 [126, 224]
0.26764235 -0.2137241 -0.25554356 -0.22647655 -0.08858062 -0.18173061 -0.2332326 0.22428522
0.28453285 -0.24621703 0.24620731 -0.055163775 -0.20049724 -0.31975776 0.15896495 0.26003754
0.19675519 -0.20061326 0.29790196 -0.251537 0.21478195 -0.28318974 -0.2051948 0.2743599
-0.26600653 0.31837338 0.29541245 -0.19138469 -0.27634618 -0.20311838 -0.27104327 -0.27872688
-0.22028837 -0.22752695 0.32339558 -0.27123138 0.30554417 -0.29376194 -0.29288188 0.31564906
0.24702224 -0.22545555 -0.29526782 0.28059626 0.124186754 -0.22377339 0.20807448 -0.260372
0.3036012 0.28608003 -0.22003679 -0.046068005 0.23229568 -0.11977311 -0.22483411 -0.232549
-0.25106996 -0.32998872 -0.24665181 -0.28829032 0.24476232 0.2582483 0.25169173 0.27219382
0.21522439 0.21502073 -0.24745391 0.32669887 -0.2528877 0.2493439 0.2015376 -0.18818547
-0.28777298 -0.29767045 -0.19707154 -0.20300125 0.24330671 0.35718745 0.22195983 0.31273767
-0.22040753 0.13456412 0.22185731 0.28057712 -0.20709036 0.29928204 0.23022048 0.29942477
0.23285489 -0.26877564 -0.29098862 0.070585914 0.27755967 -0.28529304 -0.05891973 0.13233061
-0.20941415 -0.21057256 -0.20346907 -0.23699935 -0.30655035 0.22132152 -0.17682382 -0.22993106
0.201987 0.24530834 0.20611797 0.27375087 -0.28058055 0.3238667 -0.28582498 -0.22714412
-0.2743582 -0.25683445 -0.16541468 0.20969884 0.24645907 0.26390877 0.17206767 -0.23886223
-0.28353575 -0.21623947 -0.2881011 0.22578847 -0.2203682 -0.2861141 -0.25133115 0.15355511
0.2707617 -0.20665966 -0.24686413 0.21706162 -0.19624063 -0.20927522 0.2776522 0.20004204
0.31329268 0.27148968 -0.21148184 0.19133227 -0.28161624 -0.1289312 -0.3149785 0.21734212
0.32929426 -0.2690673 -0.28897038 -0.18499696 0.07733582 -0.18182035 -0.18360694 -0.29791766
0.26078472 -0.19722539 -0.13525964 0.20101851 -0.29013965 0.20297176 0.19206238 -0.21432911
0.2371351 -0.22673509 0.3199647 0.3255443 0.2518868 -0.29617873 -0.22615156 -0.13786004
0.2530354 -0.18027318 0.22148035 -0.22376662 -0.31906432 -0.1934943 -0.119934626 0.28155166
0.3081517 -0.2323074 -0.27259687 0.22024418 -0.20363098 -0.2716429 0.20145741 -0.29634684
-0.23059925 -0.15548238 0.05778971 -0.32231483 0.20768923 -0.16980849 -0.21549205 0.1928964
-0.2646174 -0.32137558 -0.15193324 0.27739316 0.18442842 0.32145292 0.27258146 -0.32061857
-0.2200901 0.3586196 0.2582399 -0.32572576 0.28216994 -0.23132569 0.27776498 0.2581489
0.2672319 -0.31685433 0.22422267 -0.25952318 0.33575675 0.28980553 -0.21214661 -0.2163227
-0.2550849 -0.22523712 0.21841408 0.35890698 0.2501599 0.31040084 0.14486828 -0.16576374
0.29067442 -0.27206558 -0.14409491 -0.2667819 0.10522629 -0.07694596 -0.13474785 0.26133308
0.123665765 -0.28617296 0.19838184 -0.2414099 -0.2523151 -0.17787364 0.22149989 0.17000055
0.20888409 -0.32495674 0.21116155 -0.34419417 0.19973688 -0.20577134 -0.20228195 0.24055272
0.041672822 0.19728813 0.30896184 -0.23240125 -0.26892617 -0.25083742 -0.21715066 -0.29008242
00000000: 6b08 893e 7eda 5abe 9bd6 82be 78e9 67be
00000010: c269 b5bd 9717 3abe 87d4 6ebe 06ab 653e
00000020: 4aae 913e 5120 7cbe c51d 7c3e 69f3 61bd
00000030: 264f 4dbe 4ab7 a3be b5c7 223e a423 853e
00000040: 317a 493e 906d 4dbe 9b86 983e 75c9 80be
00000050: cdef 5b3e 3ffe 90be 961e 52be e778 8c3e
00000060: 0232 88be d601 a33e 4d40 973e 59fa 43be
00000070: 3f7d 8dbe 44fe 4fbe 2fc6 8abe 4ab5 8ebe
00000080: 4693 61be d3fc 68be 1b94 a53e d7de 8abe
00000090: 4970 9c3e f767 96be 9df4 95be c19c a13e
000000a0: 66f3 7c3e d2dd 66be 582d 97be 50aa 8f3e
000000b0: a055 fe3d da24 65be 7a11 553e 7b4f 85be
000000c0: 9e71 9b3e 1579 923e 5351 61be ceb1 3cbd
000000d0: ebde 6d3e 9b4b f5bd ea3a 66be 5321 6ebe
000000e0: 3e8c 80be 48f4 a8be 4b92 7cbe ca9a 93be
000000f0: f9a2 7a3e 1f39 843e bddd 803e fd5c 8b3e
00000100: c863 5c3e 652e 5c3e 8f64 7dbe 1345 a73e
00000110: 7f7a 81be 0254 7f3e df5f 4e3e b1b3 40be
00000120: fb56 93be 4368 98be 1fcd 49be 8fdf 4fbe
00000130: 6525 793e 46e1 b63e 7049 633e 271f a03e
00000140: 83b2 61be 2dcb 093e 902e 633e cea7 8f3e
00000150: 7f0f 54be 7f3b 993e ebbe 6b3e 344e 993e
00000160: 8371 6e3e f69c 89be 76fc 94be 598f 903d
00000170: 4d1c 8e3e ee11 92be d155 71bd ad81 073e
00000180: aa70 56be 55a0 57be 325a 50be f5af 72be
00000190: 2bf4 9cbe 1ca2 623e 4e11 35be 0c73 6bbe
000001a0: aed5 4e3e 1c32 7b3e 9710 533e 1329 8c3e
000001b0: 41a8 8fbe dbd1 a53e a757 92be 7898 68be
000001c0: ae78 8cbe ce7f 83be 7762 29be 4bbb 563e
000001d0: c45f 7c3e 0d1f 873e 8232 303e 4d98 74be
000001e0: 992b 91be e16d 5dbe fd81 93be 1835 673e
000001f0: 34a8 61be 8c7d 92be 7aae 80be 8d3d 1d3e
00000200: 47a1 8a3e 979e 53be f3c9 7cbe 6745 5e3e
00000210: 4ef3 48be 3e4c 56be 6e28 8e3e d2d7 4c3e
00000220: e667 a03e b200 8b3e b28e 58be 9bec 433e
00000230: 0130 90be 8a06 04be dd44 a1be ef8e 5e3e
00000240: 4299 a83e 30c3 89be edf3 93be d86f 3dbe
00000250: 3e62 9e3d 1d2f 3abe 7503 3cbe aa88 98be
00000260: 9385 853e 74f5 49be 8181 0abe ccd7 4d3e
00000270: 2f8d 94be d4d7 4f3e 00ac 443e 1779 5bbe
00000280: 8bd3 723e 3e2d 68be 6ad2 a33e bead a63e
00000290: 4ff7 803e bda4 97be 4694 67be 2f2b 0dbe
000002a0: db8d 813e 8899 38be bfcb 623e 1423 65be
000002b0: 665c a3be 5f23 46be 49a0 f5bd 8a27 903e
000002c0: 0fc6 9d3e fee1 6dbe d191 8bbe b187 613e
000002d0: a484 50be c714 8bbe da4a 4e3e c6ba 97be
000002e0: 3622 6cbe c636 1fbe e7b4 6c3d 7306 a5be
000002f0: 7cac 543e 47e2 2dbe f3a9 5cbe a286 453e
00000300: ef7b 87be 578b a4be 6394 1bbe 7a06 8e3e
00000310: ceda 3c3e 7a95 a43e cc8f 8b3e 1e28 a4be
00000320: 4d5f 61be fd9c b73e 0538 843e 87c5 a6be
00000330: 9478 903e a4e0 6cbe 3637 8e3e 182c 843e
00000340: 9fd2 883e bb3a a2be a19a 653e 39e0 84be
00000350: 4fe8 ab3e 6461 943e f63c 59be b383 5dbe
00000360: 7d9a 82be 8fa4 66be f1a7 5f3e a8c2 b73e
00000370: f514 803e dcec 9e3e 5a58 143e f8bd 29be
00000380: 47d3 943e 2e4c 8bbe 9e8d 13be a397 88be
00000390: e280 d73d d895 9dbd 57fb 09be 73cd 853e
000003a0: 7a44 fd3d 4385 92be 9c24 4b3e 2834 77be
000003b0: 722f 81be 8224 36be ded0 623e a014 2e3e
000003c0: b6e5 553e bb60 a6be bc3a 583e 383a b0be
000003d0: d387 4c3e b9b5 52be 0023 4fbe 7453 763e
000003e0: 1fb1 2a3d e605 4a3e 3f30 9e3e 98fa 6dbe
000003f0: b1b0 89be c36d 80be be5c 5ebe af85 94be

readout.bias f4 [126]
-0.23242626 -0.31204125 -0.16273448 0.050345793 -0.124217965 -0.28615674 -0.17835607 -0.21694079
-0.3292325 -0.22536515 0.019311095 0.029380243 -0.16331194 -0.21788388 -0.2143322 -0.16917606
-0.1866951 -0.30051458 -0.2969185 -0.20678577 -0.05490629 -0.31274506 -0.38121212 -0.28929588
-0.2511401 -0.2333539 -0.29788724 -0.27595654 -0.31827465 -0.21162772 -0.3425906 -0.24916904
-0.23701651 -0.38637182 -0.21835634 -0.32259417 -0.311674 -0.3241588 -0.3162849 -0.29707906
-0.20359685 -0.29224372 -0.30391616 -0.35569853 -0.31953326 -0.29377544 -0.31852362 -0.27905744
-0.24890606 -0.2443376 -0.2959785 -0.22929704 -0.16065533 -0.2842559 -0.30772668 -0.36256522
-0.17809029 -0.21531382 -0.3141798 -0.24970725 -0.35402438 -0.30704218 -0.23797044 -0.22045264
-0.3209495 -0.328053 -0.2013148 -0.20390463 -0.26169643 -0.2296668 -0.3297712 -0.3004387
-0.36548534 -0.31881806 -0.16823278 -0.3978076 -0.28995144 -0.30747277 -0.27561113 -0.31208217
-0.29553568 -0.27065527 -0.36110565 -0.24384907 -0.23188026 -0.24652784 -0.25189453 -0.19782919
-0.22919898 -0.32328427 -0.20732036 -0.26815996 -0.30855998 -0.20866272 -0.24445285 0.019117791
-0.18427578 -0.1605415 -0.1828437 -0.276793 -0.05166608 -0.33321273 -0.20225029 -0.2907427
-0.39519 -0.26859316 -0.31327507 -0.3102309 -0.3630781 -0.26489636 -0.17859311 -0.24028319
-0.30554664 -0.25723317 -0.26537383 -0.34748438 -0.207964 -0.20911081 -0.36980733 -0.28387487
-0.19968249 -0.23747201 -0.24773212 0.08472539 -0.24964133 0.09636091
00000000: 2601 6ebe dfc3 9fbe dea3 26be 6437 4e3d
00000010: fd65 febd 2383 92be f9a2 36be ba25 5ebe
00000020: 2a91 a8be 1fc6 66be 4d32 9e3c d6ae f03c
00000030: 3f3b 27be f41c 5fbe e679 5bbe 7d3c 2dbe
00000040: 002d 3fbe 0cdd 99be b405 98be a6bf 53be
00000050: 6be5 60bd 1f20 a0be 3c2e c3be 971e 94be
00000060: 6f95 80be 53f4 6ebe ad84 98be 2d4a 8dbe
00000070: e5f4 a2be f0b4 58be 0968 afbe 2b26 7fbe
00000080: 75b4 72be 87d2 c5be ce98 5fbe 102b a5be
00000090: bc93 9fbe 24f8 a5be 18f0 a1be bf1a 98be
000000a0: b17b 50be f8a0 95be e69a 9bbe 1e1e b6be
000000b0: dd99 a3be bc69 96be 8715 a3be 9ee0 8ebe
000000c0: 3be1 7ebe a333 7abe 7e8a 97be d8cc 6abe
000000d0: d582 24be fd89 91be 5a8e 9dbe 26a2 b9be
000000e0: 4d5d 36be 3a7b 5cbe 2ddc a0be 42b3 7fbe
000000f0: af42 b5be a234 9dbe 86ae 73be 56be 61be
00000100: 7e53 a4be 90f6 a7be 7825 4ebe 60cc 50be
00000110: 13fd 85be c62d 6bbe c5d7 a8be 1ad3 99be
00000120: e520 bbbe 1f3c a3be 3745 2cbe 70ad cbbe
00000130: 8474 94be 126d 9dbe e71c 8dbe 3cc9 9fbe
00000140: 7450 97be 5493 8abe d7e2 b8be 92b3 79be
00000150: 0572 6dbe cb71 7cbe 52f8 80be bc93 4abe
00000160: 23b3 6abe 8485 a5be ca4b 54be 434c 89be
00000170: 93fb 9dbe aeab 55be d951 7abe ea9c 9c3c
00000180: cab2 3cbe fe64 24be 613b 3bbe d0b7 8dbe
00000190: d09f 53bd dc9a aabe b31a 4fbe 3adc 94be
000001a0: 5856 cabe 0b85 89be 9765 a0be 96d6 9ebe
000001b0: 5fe5 b9be 7fa0 87be 1de1 36be cc0c 76be
000001c0: 9c70 9cbe 11b4 83be 14df 87be 79e9 b1be
000001d0: 84f4 54be 2521 56be 6357 bdbe 0c58 91be
000001e0: 9179 4cbe dd2b 73be 7dad 7dbe 8184 ad3d
000001f0: faa1 7fbe de58 c53d
