cde/model/rk4/11.ckpt (torch, 581263 bytes, 8 tensors)

func.linear1.weight f4 [128, 224]
00000000: b08a a53d c2ff 8abd e7a6 0c3e dca8 94bd
00000010: cc87 aabd 277b 3cbd 7614 b03b 011d c83e
00000020: a26b a9be d398 aebe b952 383e 71e9 7b3e
00000030: e83f 0c3e f352 603c 9a13 90be 8033 213d
00000040: cdee a53e 101e 41be 06ed a73d a3c7 78be
00000050: bfe6 2a3e 2186 793e e614 c5be 8f77 773e
00000060: 9769 543e 0064 7abe 8276 bb3e 8607 5a3e
00000070: bf5c e7bd db45 9d3e 9793 5dbe 6efd 88be
00000080: cd9a b13e ef22 a63e d59e f93d 79a9 c43e
00000090: 5ca6 1c3e 4b6c e7bc 009f a7be 4661 b43e
000000a0: a543 c03e 6cc8 57be 902b 3fbe 2472 363e
000000b0: 2232 f93c 99b4 c4be e83a 703e a1c7 57be
000000c0: eaae 1d3e 0467 9f3e e34c 9abe ece1 87be
000000d0: afae 923e ecab bebe 263f b5be b00b 1abe
000000e0: 2722 b6be 2202 7dbd 55fa 02be b733 b6be
000000f0: d11d 383e 0d09 dcbc 374e ce3e c9ea b73e
00000100: 1ff6 d43e e8e5 1abe 0b87 b8bd 1093 17bd
00000110: 0e7a edbe b5b8 e2bd 2a32 293e 1686 7e3e
00000120: 58b6 93be 5377 9ebe 345f 5e3c b77c c1bd
00000130: 7045 823e a384 8d3d 804d 543e b9e3 e23d
00000140: b42b 4ebe c821 acbe 9d34 af3d a954 92be
00000150: 68bc cb3e 5035 a03e 7101 b83e 3c0b 59be
00000160: f5d5 af3e 6829 8a3e ab41 92bd 43bf b1be
00000170: 76e0 8b3e 2c3d bc3d 0c50 aebe d968 4d3e
00000180: db81 ccbe 25bf 1abe f3a4 3fbe 047b 723d
00000190: 0221 133c eeac 8d3c 2ae1 8ebe 74c6 85bd
000001a0: 5be8 7c3e d63c ab3e d07a 2f3e 3536 833e
000001b0: 4f17 babe 81fb 3d3e 79c3 bdbe 0eff 38be
000001c0: 6553 50be bcde efbd ce3c c9bc 7907 18bb
000001d0: 7116 413e a38f a03e 0b07 9d3e a7bb c1be
000001e0: a79d b4bd 17ca 61be 43cd ffbc 8807 c23e
000001f0: 8d98 9b3e b7a6 80be a992 c8bd ecd0 84be
00000200: bebe 03be 2b0d a5be 6712 94bd a53a b8bd
00000210: 5b90 b93d e72b aabd 6994 7b3e 5c72 bf3b
00000220: 0703 903d a2f7 a2bd 0669 bc3b c5dd c83e
00000230: 6450 a73e 8bfa 313d 160e 90be 3ea0 a03e
00000240: e981 b73d 9dd1 a4be bbf1 a7be 5dd4 8d3e
00000250: c5fb b83e 7b5c 95be b4a2 98be 7153 20bd
00000260: 34bb b63d ecb3 1dbe 16ce ecbd 880a ab3e
00000270: f747 b1be a455 82be 46e6 5c3e 5028 78be
00000280: e764 eb3d 7ee5 3bbe af31 953e ec47 d73e
00000290: 8501 b53e f44a 05be 9d97 bdbe 898f 7dbe
000002a0: 7f1e 9d3d ea47 90be 6744 b83e 6689 aa3e
000002b0: 761e 8cbe cc98 cbbe 7fe3 b8be 4dd5 b53e
000002c0: 270c 083e 8677 9ebe e6c2 9b3e 67f2 2e3d
000002d0: 335c 01be 8329 b0be 4c26 8c3e b651 813c
000002e0: fc8f 3c3e cdf0 83bb 2219 e6bd aee8 cb3e
000002f0: 4bc3 943e 7585 073d 55af eabd 0907 cc3e
00000300: 4669 82be 68cd afbd bcf1 fa3d 9e57 293d
00000310: 6ab3 843e dd20 9bbd 5ba0 cb3e 9629 953c
00000320: ddd9 72be 45e5 30be 4fab 96be b2b0 91bd
00000330: 48d6 7c3e 27e6 163e 8d9c 8e3e c6e1 bbbd
00000340: d33c 113d 0e19 143d fecd 523d 258c cbbd
00000350: 3b93 263e 555b 0b3e 4425 6abd 4148 0dbe
00000360: caac 0cbe 3c71 fcbd 63ac b93d 9dd4 45be
00000370: 95c1 e33d 87d7 6dbe 761c 963d 5468 b7be
00000380: c27f 8ebd 0010 d5be 58e3 cf3e 6451 f1be
00000390: db64 23be 8ea3 b33e 5fe3 3abe 24e3 dc3e
000003a0: 4998 25be 1107 d4bc 8d61 dabe c975 c2bb
000003b0: 7e77 de3d 0282 f13d 5af1 b3be 55f0 d6be
000003c0: 082d b73e 5466 02be b8a1 c2be 6282 55be
000003d0: c09c c83e 0cb0 9d3d 1dd7 b3be 9446 8cbd
000003e0: 70fd b53e e35c e33e ba89 ca3d fdd0 d8be
000003f0: dd6d 2ebd 2922 da3d 17e5 ef3e 7df7 9f3d
0.08083093 -0.06787063 0.13735543 -0.0725877 -0.083266824 -0.046015885 0.005373533 0.39084628
-0.3308993 -0.3410097 0.18000306 0.2460077 0.13696253 0.013691652 -0.28139955 0.039355755
0.32408753 -0.18859124 0.081995055 -0.24294905 0.16689585 0.24367572 -0.38492507 0.24166702
0.20743404 -0.2445221 0.36613852 0.21291932 -0.11296987 0.30717358 -0.21638332 -0.26755852
0.34688416 0.32448527 0.12188498 0.38410547 0.15297836 -0.02824988 -0.32738495 0.35230464
0.3755161 -0.21072549 -0.18668962 0.17816979 0.030419413 -0.38419035 0.23459971 -0.21072246
0.15398756 0.31133282 -0.30136785 -0.26539552 0.28648898 -0.3724054 -0.3539974 -0.15043521
-0.3557293 -0.061769612 -0.12790807 -0.3558633 0.17980124 -0.026859784 0.40294048 0.35921314
0.41594025 -0.15126765 -0.090101324 -0.037005484 -0.46382183 -0.11070386 0.16523042 0.24855837
-0.28850055 -0.30950412 0.013572503 -0.094476156 0.25443602 0.06910064 0.20732689 0.11078591
-0.20133859 -0.33619523 0.08554957 -0.28580216 0.3979218 0.31290674 0.359386 -0.21195692
0.34342924 0.26984715 -0.071414314 -0.34716234 0.27319688 0.09191355 -0.34045446 0.20059527
-0.39942822 -0.15111978 -0.18715267 0.059199348 0.008980038 0.017294373 -0.27906162 -0.065319926
0.24698012 0.33444852 0.17136693 0.25627294 -0.36345908 0.18552972 -0.37063196 -0.18066046
-0.20344312 -0.11712405 -0.024565127 -0.0023197813 0.18856217 0.31359586 0.30669436 -0.3783848
-0.08819132 -0.22049747 -0.031225806 0.3789637 0.30389825 -0.25127193 -0.09793598 -0.25940645
-0.12865731 -0.3223661 -0.072300725 -0.089955606 0.09060737 -0.08309155 0.24568333 0.00584249
0.070318274 -0.079573885 0.0057498245 0.39231697 0.3267852 0.043451827 -0.28135747 0.31372255
0.08960325 -0.32191172 -0.32801613 0.27701083 0.36129585 -0.2917212 -0.29811633 -0.039142076
0.08922425 -0.15400666 -0.11562745 0.33406472 -0.34625217 -0.25455964 0.21572217 -0.24234128
0.11493855 -0.18349263 0.29139468 0.4204706 0.35352722 -0.13016874 -0.37029734 -0.24761786
0.07671832 -0.28179866 0.35989687 0.33307952 -0.2736699 -0.39765012 -0.36111066 0.35514298
0.13285886 -0.30950564 0.30422133 0.04271164 -0.12632827 -0.3440667 0.27372968 0.015786033
0.184143 -0.0040265084 -0.112352625 0.39825958 0.29055247 0.03308626 -0.11459223 0.39849117
-0.25470942 -0.085841 0.122531384 0.041343324 0.25918132 -0.075746275 0.3977078 0.018208306
-0.23715921 -0.1727496 -0.29427573 -0.0711378 0.24691117 0.14736234 0.27853814 -0.09173922
0.035458397 0.036156707 0.05146598 -0.0993884 0.16267101 0.13609059 -0.057164446 -0.13797094
-0.13737789 -0.12326285 0.09066083 -0.19319387 0.11120907 -0.23226748 0.07329647 -0.35821784
-0.069579616 -0.4161377 0.40603137 -0.4713241 -0.15956442 0.3508572 -0.18250798 0.43142045
-0.16171373 -0.025882276 -0.4265255 -0.0059344512 0.10862635 0.11792375 -0.35145074 -0.41980234
0.35776544 -0.12734348 -0.38014007 -0.20850518 0.3918209 0.07699594 -0.35125056 -0.06849399
0.3554492 0.44406804 0.098895505 -0.42346945 -0.042585243 0.10651047 0.4685447 0.078108765

func.linear1.bias f4 [128]
00000000: 6676 b4be 2db7 b1be 28a3 76bb 9dd6 033e
00000010: 5d7f eabd e832 a4be 7618 b8be 984e cb3e
00000020: e835 853e 0cd5 d43e a08e 94be 5849 68be
00000030: 2abf 873e a431 d5be a75c 80be 201f e43e
00000040: ea08 90be ea2d bebe 60a4 a3be 8ac5 d2bc
00000050: cc0b 94be 9278 7bbe fe46 1b3e a066 e13e
00000060: ea3b b23e 398d e0be fcdf b7be a127 28be
00000070: 7123 6ebe 169d c03e ae74 a83e 864e 44be
00000080: 98fb 603d f18a 9bbd 3423 c6be bc67 afbe
00000090: b4b1 ed3e 99ad 76bc 5d01 81be 56bc a73e
000000a0: 6636 76be a640 843e cfff a13e ba76 3cbe
000000b0: 89dc fa3d 8a6e dc3e 19f7 b3be 9a5e 783e
000000c0: e50b f2be 3ef4 c0be 0c81 7bbe 204b 9fbe
000000d0: fd9c ccbe a46f 673d 0b59 a73e 5252 cb3e
000000e0: bdc5 893c 28a3 e9be e39e b7be b921 1e3e
000000f0: d225 c7be 1030 453e 831d 5fbe b0ef ee3e
00000100: 7756 c43c 8d2a 283e 4c41 eebd c50e dcbe
00000110: 1ae6 aabe 5865 9d3e c832 833e 4fe2 5a3e
00000120: 9459 a9be f80d 763e 3ceb b5be b826 8abe
00000130: 005a c23e 7f0a 1ebe dcd4 6b3c 22ec a4be
00000140: 03a0 e73e b358 823c 022a 693d 0e56 92be
00000150: cb1c 503e 68fc 7d3e 4395 403e 3851 cfbd
00000160: 8e9d 9fbe e214 223e d070 7bbe 2eac 8e3e
00000170: 77a1 3ebe 755c 1bba 09f7 5dbe 2811 6abe
00000180: 136e c5bd 4df0 6abe f55b b73e 4f0a 9ebe
00000190: f7e8 4e3e 5baa 4abd f8ef 55be 7cce ba3e
000001a0: 13d4 8d3e afd4 0dbe bc90 44bd d25e 98be
000001b0: ce1c 473e bcbe b1be f521 33be ec3d a0be
000001c0: 9cd5 8ebe 3865 abbe 30e2 8a3e 8900 4dbe
000001d0: f48c b3be 024b 9dbe d895 263e 66bb b53e
000001e0: 5db1 aa3e 42e9 ed3e 015d 9f3e b0b5 a33e
000001f0: c861 29be 027d edbc 5394 83bd f719 97be
-0.3524658 -0.34710065 -0.003763387 0.12874837 -0.11450074 -0.32070088 -0.35956162 0.397084
0.2601769 0.41568792 -0.29015064 -0.22684228 0.26513034 -0.41639435 -0.25070688 0.44554996
-0.281318 -0.37144405 -0.31961346 -0.02572896 -0.2891525 -0.24557713 0.151638 0.4402361
0.34811336 -0.43857744 -0.35913074 -0.16421367 -0.23255707 0.37619847 0.3290152 -0.1917058
0.05492744 -0.0759486 -0.38698733 -0.3425883 0.4642464 -0.015056037 -0.25196353 0.32760876
-0.24044189 0.25830573 0.3164048 -0.18404666 0.12249095 0.43053085 -0.35149458 0.24254838
-0.472747 -0.37686342 -0.24560946 -0.31112003 -0.39963523 0.056502953 0.32685122 0.39711243
0.016817922 -0.4563229 -0.35863408 0.15442552 -0.38896042 0.19256616 -0.21788602 0.46667242
0.02396701 0.16422482 -0.11633548 -0.42980018 -0.3337868 0.30741382 0.2562468 0.21375392
-0.33076155 0.24028766 -0.35531032 -0.26982665 0.3795929 -0.15433691 0.014394011 -0.32211405
0.45239267 0.015911436 0.056924827 -0.2858128 0.20323484 0.24803317 0.18806939 -0.10122913
-0.31174892 0.15828279 -0.24554753 0.27865738 -0.18616281 -0.0005926558 -0.21676268 -0.22858107
-0.096401356 -0.2294323 0.35812345 -0.3086724 0.20206057 -0.04947887 -0.20892322 0.3648566
0.27700862 -0.13850664 -0.047989592 -0.29759842 0.19444582 -0.3471583 -0.17493422 -0.31297243
-0.27897346 -0.3347566 0.27125692 -0.20019735 -0.35068476 -0.3072129 0.16268098 0.35494536
0.33338442 0.46467024 0.31125644 0.31974554 -0.16541207 -0.028990272 -0.06424775 -0.29511997

func.linear2.weight f4 [672, 128]
00000000: d6a0 633e 1a21 b93e 8524 b63e bd01 9a3e
00000010: 6a94 b23e 3e3e 953e 934e 863e fe3f a73e
00000020: 0c2b a83e 321f 6d3e 79ea 6e3e 696f b83e
00000030: a4c7 553e 6473 7f3e 31a5 6b3e 0a38 983e
00000040: 2cc7 ae3e 51e1 673e 16fa a33e a0d4 6b3e
00000050: 45c7 8a3e bcee a33e b723 b93e 7383 ba3e
00000060: bce5 a33e 330f 9d3e 0e5c 723e 212e 9b3e
00000070: 69cb 6e3e bfd9 af3e 2b21 a53e bcb8 9c3e
00000080: 535d ba3e 78ed 613e 35bc a93e 5a1c 833e
00000090: e874 633e f1cc 943e ec96 af3e a4bf 5a3e
000000a0: 8fa4 7a3e 1315 873e 5dff 5c3e 979b 613e
000000b0: b63b 693e d706 9a3e 342f 863e 43fe 5f3e
000000c0: f091 ba3e 1087 b73e 2bf2 6a3e 4fde c33e
000000d0: 94f1 9c3e b5c2 a53e 07ad 8a3e da3b bd3e
000000e0: 2c7f a43e b90d 8a3e c796 6b3e 1bf3 a63e
000000f0: a588 743e d92d 973e baa9 643e c6da 763e
00000100: 8cde 743e c551 593e 2436 ba3e cdd1 c43e
00000110: 67a7 873e 21fa 973e 02aa 9e3e 0b1a 5c3e
00000120: 4b26 a13e 55b7 8d3e 36a9 9d3e 3603 803e
00000130: e336 7b3e 7ee4 6c3e 0b76 623e a1b6 a53e
00000140: 196c 8a3e dd1c c13e ae1f c43e 75fb 9e3e
00000150: d92a c43e 254b 923e 62b9 af3e dab3 a03e
00000160: 808a 773e 33e6 693e 3b28 b63e 0001 a43e
00000170: 8918 c13e 248e 703e d11c 9c3e 0af8 733e
00000180: 8410 6f3e 389b 5a3e 4df3 913e e5be c13e
00000190: b1d3 ab3e 193a 983e a0b8 783e eef2 6b3e
000001a0: 6bf1 c13e 08d6 5b3e b735 973e 8b52 7c3e
000001b0: dd4b 7e3e cc70 8a3e 87e4 893e 96c3 8b3e
000001c0: 760d 8b3e 4cfa 7b3e 0d92 973e c8b5 b63e
000001d0: c384 813e 3f3d 5c3e abfa 813e 98f8 c23e
000001e0: ce1e 5c3e 2151 973e 03cb ac3e eef3 a03e
000001f0: 9692 b13e 513f 933e d2c4 aa3e e053 9a3e
00000200: d715 9a3e f63b 953e e6d2 713e 548e 9a3e
00000210: 30bc 673e 09b5 ae3e f170 b9be 8255 983e
00000220: a719 813e 0033 bf3e b285 913e c1f5 823e
00000230: 516d af3e 1eb0 933e 53e7 613e 86f0 8a3e
00000240: 3392 80be b684 873e 38c7 ac3e 3e50 b03e
00000250: 5735 c03e 6c64 8d3e 77ed 913e 0217 963e
00000260: 6b94 ae3e 3a98 87be 6283 ba3e 2939 9e3e
00000270: 9dd5 793e d659 903e a028 983e 28ae 5d3e
00000280: adbc 9d3e e7dd 983e 755c b43e f16f 5c3e
00000290: 3f5e a23e 39ac 5a3e a0b2 7f3e 9454 aa3e
000002a0: 9e7b 6a3e 55e2 c13e 1649 b83e 4a1a ad3e
000002b0: 0796 a13e 4e34 853e 83ff b93e ef65 b63e
000002c0: 433a b73e 566a b93e 20f6 603e 5ee2 843e
000002d0: 8c39 5b3e ad02 933e 7878 aa3e cd1e 603e
000002e0: 8d78 953e b8bb 863e 7c9f 763e ee19 a93e
000002f0: c522 713e 25c6 af3e d9b4 bb3e 87ab 9f3e
00000300: 84b7 5a3e 1c64 873e 274b ac3e 52f2 bdbe
00000310: 0e0c a93e 5861 a03e 829a aebe cf44 c23e
00000320: c6b2 663e 543d c43e 242a 9c3e d3d6 a53e
00000330: ca86 583e 928d 833e de8f 943e 898f 813e
00000340: d2e4 5b3e b465 593e f573 ae3e ff4c 9a3e
00000350: 2194 723e 91ed 763e 5813 753e 37d4 853e
00000360: a502 bf3e 4ec2 8e3e 7652 9a3e c920 adbe
00000370: a7ff be3e 326a 733e 43f1 bb3e 18a6 9f3e
00000380: 05fb bf3e da01 873e 89b1 7c3e b3f3 5b3e
00000390: bf8c 9e3e 3c9b c03e 7eac 573e f3ad aa3e
000003a0: f147 783e 0b82 bb3e 2eb5 bc3e c43f 923e
000003b0: 7edb be3e 3baf 883e 714f b53e 0ad5 783e
000003c0: e1c0 8c3e a79b 8a3e c12a 603e 7adc a03e
000003d0: 7498 943e 5534 b03e 50d3 803e 307b 903e
000003e0: 6e77 873e 721d 813e 4cec bc3e 5c2e 713e
000003f0: a9ad b63e cd0d 813e c0ac bb3e de47 923e
0.22229323 0.36158067 0.35574737 0.3007945 0.34878856 0.2914905 0.26231822 0.3266601
0.32845342 0.23156431 0.23331632 0.360225 0.20876938 0.24946362 0.23012234 0.29730254
0.3413633 0.22644545 0.32026738 0.23030329 0.27105156 0.32018077 0.3616006 0.36428413
0.3201121 0.3067566 0.23667929 0.3030863 0.23319782 0.34345815 0.32251868 0.3060969
0.36399326 0.22063243 0.33151403 0.25607568 0.22212565 0.29062608 0.34294832 0.21362168
0.24476837 0.26383266 0.21581788 0.22032009 0.22776684 0.30083343 0.26207888 0.21874337
0.36439466 0.35845232 0.22943942 0.38255545 0.3065306 0.32375112 0.27085134 0.36959726
0.32128274 0.26963595 0.23006736 0.3260735 0.23880251 0.29527166 0.2233037 0.24106893
0.2391302 0.21222599 0.3636943 0.38441315 0.26494905 0.2968302 0.3098908 0.2149431
0.31474528 0.27678934 0.3079316 0.2500245 0.24532656 0.23134038 0.22115342 0.32365897
0.27035597 0.37717333 0.3830542 0.3105122 0.3831394 0.28572956 0.34321123 0.31387216
0.24173927 0.2284172 0.35577568 0.32032013 0.3771403 0.23491722 0.30490735 0.23825088
0.23346144 0.21348274 0.28505936 0.37840953 0.33559945 0.29731825 0.24289179 0.23041889
0.378795 0.21468365 0.2953317 0.24640863 0.24833627 0.27039182 0.26932165 0.27297658
0.27158707 0.246072 0.29603615 0.35685563 0.25296602 0.21507739 0.25386557 0.38080287
0.21496126 0.29554084 0.33748636 0.31436104 0.3468215 0.28759244 0.33353287 0.30142117
0.30094787 0.2914731 0.23615608 0.30186713 0.22630382 0.34122494 -0.3621898 0.29752737
0.25214884 0.37343597 0.28422314 0.2557812 0.3426309 0.28845304 0.220609 0.2713663
-0.2511154 0.26468438 0.33745742 0.3443622 0.37540695 0.27615678 0.28501484 0.2931443
0.3409761 -0.26483327 0.36428362 0.30902985 0.24397893 0.2819354 0.29718494 0.21648467
0.3080801 0.29856798 0.3522679 0.21527077 0.3171253 0.2135476 0.24970484 0.33267653
0.22898719 0.3786799 0.3599326 0.3380912 0.31559774 0.26016468 0.36327752 0.35624644
0.35786638 0.3621394 0.21968889 0.25953954 0.21408671 0.2871298 0.33295035 0.2188675
0.29193535 0.26315093 0.24084276 0.33027595 0.2354842 0.3433086 0.36661413 0.31185552
0.21359068 0.26443565 0.33651087 -0.37098938 0.3301701 0.31324267 -0.34102255 0.37943122
0.22529134 0.3832804 0.305009 0.3239046 0.21145168 0.25693947 0.29016012 0.2530482
0.21474007 0.21230203 0.34072843 0.30136868 0.23689319 0.24114062 0.2393316 0.2613847
0.37306705 0.27882618 0.30141038 -0.33814076 0.37304422 0.23770979 0.36707506 0.31181407
0.374962 0.263686 0.246771 0.21479683 0.30966756 0.37618434 0.21061894 0.33335838
0.24246193 0.36622652 0.3685698 0.28564274 0.37276834 0.2669619 0.3541217 0.24300018
0.27490905 0.27071878 0.2189131 0.3141821 0.29022563 0.34414926 0.2516122 0.28218985
0.26458305 0.25217777 0.3689903 0.23552841 0.35679367 0.25205842 0.36655235 0.28570455

func.linear2.bias f4 [672]
00000000: ba8d bd3e ba01 c43e 1c1c c3be 67a9 87be
00000010: c4c2 9dbe 55c5 ba3e 656b 7dbe 92c2 29bd
00000020: de2b a43e 3fbd 9dbe a77d 71be ca1e 62be
00000030: 42de b4be b60e 65be e429 95be a916 c0be
00000040: 9659 8dbe 3528 ae3e f872 9ebe fef7 89be
00000050: d5f1 c0be df5f a0be 38e6 6bbe 8828 723e
00000060: e67f c03e b3bf a33e 255a 56be 8057 c33e
00000070: 7bfb b63e 7621 a43e 084b a43e ba5a 9d3e
00000080: 497d fa3e e70e 833d b169 a6be 92c8 a33e
00000090: ac12 7abe 36e2 a83d 6d89 ef3e 5ed7 dc3e
000000a0: b6d1 a53e 1621 a8be dad9 7b3e bf3f 623e
000000b0: 70c9 0cbe a74b 5f3e b797 a73e ca57 be3e
000000c0: c5b7 ae3e 4941 95be 2e4e b13e 5c28 96be
000000d0: 84a8 90bc a220 98be 7641 bc3e 437f a93e
000000e0: 7f1e a53e 7f9c 9b3e 8af5 823e fb63 b93e
000000f0: d4d1 9bbe 3e0e 6bbe 3bb0 c13e a2ac b0be
00000100: 2d3e 67be 8dc5 c33e 0af4 6cbe 80a0 d53e
00000110: 84a2 c5be 5057 7fbe 8e6d b1be d8d1 84be
00000120: 34cd 86be 7e79 00be 220f 813e 39b0 ac3e
00000130: a6ff 933e 57fd ae3e 791f 74be e9bd 6bbe
00000140: 455a 78be 3413 b5be 2deb 9dbd 34de 87be
00000150: 4717 98be 5d4b bebe 31a8 02be 0da2 b5be
00000160: 76ff 8fbe 641f 903e f9e0 59be 2abe 9dbe
00000170: 8867 553e 18ab 90be f7fb 883d 13fd 6dbe
00000180: f5bb 82be 6811 61be 1163 833e 9171 85be
00000190: 8793 5bbe 41f8 663e 49f0 613e f229 bb3e
000001a0: e668 b9be abef 69be 3475 abbe dd44 65be
000001b0: 3eeb b83e ccdb 7b3e 321f 523e 7186 7dbe
000001c0: 6470 98be 666d 87be 7429 c1be 8391 9bbe
000001d0: 6821 773e 95db a1be 3a29 68be 891d 6a3e
000001e0: f51e a63e 2a93 d5be 0de8 713e 1baf b33e
000001f0: 0940 953e 724c af3e b3e4 bb3e e689 823e
00000200: 63d0 8abe cf37 903e 1b7d ab3e f271 843e
00000210: 8e83 b73e 4c8a 6f3d 811d a33e d5cc 983e
00000220: 1544 893e 0af9 c93e b505 a03e 47d4 a43e
00000230: e318 a63e bb9d 30be 256a 92be 4b32 59be
00000240: 87f5 a9be b971 a13e 34bc 8bbe fb88 c43e
00000250: a561 113e fc6f 733e 5502 7b3e 72c7 663e
00000260: 2530 a93e 1e6b 793e 18a3 bf3d 1d29 5e3e
00000270: 7aac aa3e e757 843e 677a 053e a7ca bd3e
00000280: 57eb bb3e f41a b43e 58e4 303e 1009 a43e
00000290: 0ab4 5fbe e8d2 a3be 5d22 babe 27ac a03e
000002a0: 49ac adbe 3041 8abe 4a7a b4be 1ae7 95be
000002b0: e5d5 84be d675 bf3e 066f 84be f4ab 6bbe
000002c0: 6248 abbe ca11 a03e 1aa8 933e 97e0 cebe
000002d0: 0d09 65be 1089 32be b78b 8b3e d314 b93e
000002e0: 16c3 b53e d9e1 983e 4b04 c43e c97c 7fbe
000002f0: 4be9 a53e 5e9f 8fbe 19f0 a4be 5636 a8be
00000300: f9ed 8cbe b88a 5e3e b604 b13e e9b1 573e
00000310: 90c5 673e b899 953e 225f 98be 924b 86be
00000320: 86f6 b0be 455a a83e fea6 aa3e 2829 bf3e
00000330: 594c 943e 10be 663e 166d 80be f28e 68be
00000340: 4b2f b8be be8a 97be 7a99 c23e 4a38 5ebe
00000350: 765f ca3e ecf9 85be ffc5 aabd fa14 ab3e
00000360: ccf4 853e 30fa 873e 2f89 a33e afe9 813e
00000370: 13a4 8b3e 248b 823e 64f9 7d3e 396f 6b3e
00000380: 890b b83e 52a7 acbe d147 b5be 644f 893e
00000390: d77d 6c3e 2443 2bbe 85a8 913e 1e96 74be
000003a0: 7498 883e a310 a23e b2ab c33e 8906 d13e
000003b0: 9b30 923e e8e0 a03e 4108 563e 0ac3 a43e
000003c0: 9a56 c33e 3e60 adbe 858c ad3e 45aa acbe
000003d0: 3dd1 423d 6c24 87be c821 a73e 91bc 98be
000003e0: 98f7 bb3e 4e00 9a3e 880c 5e3e ff1d c2be
000003f0: b0e4 813e b953 c1be 7fcd a83e 82d9 943e
0.3702219 0.38282567 -0.38107383 -0.2649643 -0.30812657 0.36478677 -0.24747999 -0.041445322
0.32064718 -0.30808446 -0.23583089 -0.22082058 -0.3532582 -0.22368893 -0.29133523 -0.37517288
-0.2760741 0.3401505 -0.3094709 -0.26947016 -0.37684503 -0.31323144 -0.2303704 0.23648274
0.3759758 0.31982192 -0.20932825 0.38152695 0.3573874 0.3205678 0.32088494 0.3073328
0.4892371 0.06399327 -0.3250251 0.3198896 -0.24421185 0.08246271 0.46784535 0.43133062
0.3238656 -0.32837743 0.24594823 0.2209463 -0.13748717 0.21806203 0.32732937 0.37176353
0.3412458 -0.2915137 0.3462996 -0.29327667 -0.01765848 -0.29712397 0.36768693 0.33104905
0.3224983 0.30392835 0.25577956 0.36209092 -0.30433524 -0.22954652 0.37829766 -0.34506708
-0.22582312 0.38236657 -0.23139969 0.41724014 -0.38600552 -0.24935651 -0.34653896 -0.25941348
-0.26328433 -0.12546346 0.25206858 0.33728197 0.28905982 0.34177658 -0.23840131 -0.23021664
-0.24253185 -0.35366213 -0.07710872 -0.26536715 -0.2970526 -0.37166873 -0.12759472 -0.35475197
-0.2812459 0.2814895 -0.21277227 -0.30809146 0.20840275 -0.28255534 0.066886835 -0.23241071
-0.25534025 -0.21979296 0.2566152 -0.26063207 -0.21442996 0.22555639 0.22064318 0.3655544
-0.36212844 -0.22845332 -0.33487856 -0.2238955 0.36116976 0.24595565 0.20519713 -0.24758317
-0.29773247 -0.26450652 -0.3772694 -0.30384454 0.24133837 -0.3161284 -0.22671977 0.2286283
0.32445493 -0.4171384 0.23623677 0.35094532 0.29150417 0.3423801 0.3669792 0.25495833
-0.2711211 0.2816758 0.33493885 0.25868183 0.35842556 0.0584815 0.31858447 0.29843774
0.26809755 0.39447814 0.31254354 0.32193205 0.32440862 -0.1724767 -0.28596607 -0.21210591
-0.33195135 0.31532076 -0.27292025 0.38385758 0.14197405 0.23773187 0.24512608 0.2253702
0.33044544 0.24357268 0.093572795 0.21695371 0.33334714 0.25848314 0.13034974 0.37068674
0.36702988 0.35176814 0.17274606 0.32038164 -0.21846023 -0.31996846 -0.36354342 0.31381342
-0.33920506 -0.2700286 -0.3524955 -0.2927788 -0.2594444 0.3739459 -0.25865954 -0.23014814
-0.3345366 0.31263572 0.2883919 -0.40405723 -0.22366734 -0.17435098 0.2725503 0.361487
0.355004 0.29859808 0.38284525 -0.24949946 0.3240455 -0.28051275 -0.3221443 -0.32853955
-0.2752531 0.21732605 0.34573907 0.21063961 0.22633958 0.2921884 -0.2976008 -0.2622953
-0.34563082 0.3288137 0.3333053 0.37336087 0.289645 0.2253344 -0.25083226 -0.2271078
-0.35973582 -0.2959804 0.38007718 -0.2170116 0.39525956 -0.26167238 -0.08338546 0.3341444
0.26163328 0.26558065 0.319406 0.253736 0.27273616 0.2549678 0.24802166 0.22991647
0.359463 -0.33721405 -0.35406354 0.26818383 0.23094879 -0.16724831 0.28448883 -0.2388539
0.26678813 0.31653318 0.3821693 0.40825298 0.28552708 0.3142159 0.20901586 0.32180053
0.3815201 -0.3386249 0.3389627 -0.33723655 0.047562826 -0.26394975 0.3264296 -0.29831365
0.36712337 0.30078357 0.21684468 -0.3791351 0.25369787 -0.37759188 0.3296928 0.29072195

initial.weight f4 [224, 3]
00000000: ca92 2bbe 8ace 3e3e 1d59 90be dd89 5ebe
00000010: 1bc6 64be 054c 6b3e 108d 783e bcb3 4c3e
00000020: afe4 e9be ba1e 4fbe fd06 803e c4ed e6ba
00000030: d9d6 c9be 1186 34bf 6426 31bd 3de3 2dbe
00000040: 3d26 383d e736 28bf 30d0 ab3d 568f 7c3e
00000050: 5f51 90be 1844 bc3e 8771 9cbe fe06 e83d
00000060: 2634 09bf 794f 033f 3fa0 4ebe ae76 65be
00000070: c75d 9dbe 66d3 4e3e e1e0 743e 4436 8dbe
00000080: 1077 69be 1cfb 9ebe 8ffb 173c 6934 4f3d
00000090: b0e9 3c3e 6d2a 1f3e c997 b83e 385b 8f3e
000000a0: ce15 51be b8df 143f 799b 833e e375 97bd
000000b0: 6177 103e 3b78 e0be e230 61be d815 dd3e
000000c0: 64d0 473e 3888 4fbe fcdc 9cbe ebe5 b1bc
000000d0: 24f9 9c3e f3cf 7b3e d012 53be f6e8 bebe
000000e0: bd56 333f d111 053f d872 d8bd 4c5b 193f
000000f0: 6493 d9be ae79 ebbe 2c6b eebe 3c9f 003f
00000100: f688 753e bda4 1abe d784 c93e 8b35 b93e
00000110: 75e4 2ebf 7d18 63bd 98dd d4be 74dc ea3c
00000120: 9338 4cbe 035e 07bf ab82 823e beef a5be
00000130: 8c6c 973e d01e 8fbe 8f23 d1bd 6c42 16bf
00000140: 88c1 f03e e5cf 1cbe a0ab 87be fddf 653e
00000150: dd8e 63be 1f6c 29be ff7d 5f3d 3c42 53be
00000160: b5a4 663e 630c ca3c 3df6 6d3d d455 f9bc
00000170: 4126 c8be 7748 833e 4b10 1fbe 3dac 3e3d
00000180: 3f13 333d 4c9c 9dbe 2bdb d5be 66bc abbe
00000190: 2219 3d3d d80c 873e e877 4ebe bdee 7ebe
000001a0: 5421 e53d eb54 c2be 1bc0 bb3e 476e 47be
000001b0: 43ae c93e b5fa 6dbe 8653 373e f7dc 133f
000001c0: 2de0 983e 7fcf debe 5bdc 2b3f 5223 333e
000001d0: 8bf4 423e 56ae 233e dfca babe 4b8a dfbe
000001e0: a816 98be 5d50 06be f687 813d a9f3 7dbd
000001f0: 019a 063e c03f 1f3f 132a 17bf 8d00 57be
00000200: 21ca a63e 36f0 83bc 2657 96be cde9 d13d
00000210: 91ab 00bf 572f f13d a715 033e fb96 c8be
00000220: 9916 1b3f ac49 33be 3c17 dbbd 69c1 8dbe
00000230: 3fe8 a73e 43f6 dfbe ff2e c23d e24b 4cbc
00000240: 9202 25bf 6275 08bf 8da0 d6be 537f 063e
00000250: 6b64 38be 0bbb b9be aadb 213f f289 923e
00000260: 1c1d 1dbe f76c 293f f8f1 213f 762b d8bd
00000270: a6d9 e33e abbd 2b3e 05ab 38be a53f 2a3d
00000280: 4d66 9f3e 9c5f 5fbe 25a3 aa3e 5808 a33e
00000290: e26c 50be 6c7c a7be 6429 6c3e 7d93 49be
000002a0: eb75 22be 96c9 7abb ef31 3f3e a023 cd3d
000002b0: ca0d 033e 7199 96be 3693 183f a7c6 8d3e
000002c0: 4fd2 8c3e b0d8 db3e 5642 c43e e9d4 1e3e
000002d0: 0488 4ebe 185e 91be 5717 b73d 2b03 963e
000002e0: c807 12be 06e2 42bd 0d55 f9be 6492 293e
000002f0: 1e78 afbe d0aa f8bd 6b09 0cbf 01e3 27be
00000300: 1ec1 b23d 2bc3 f6be 3380 21bf a269 31bf
00000310: 05ee 3c3d 4e45 acbe 3607 d23c 6d2d 473e
00000320: 0005 84be 1f3b 913e b617 bd3e 87a3 26bd
00000330: e182 dfbd 4dc0 d03e ca9f 6cbd b26e ed3c
00000340: bef1 a3be 1e0a f13d e1dd 363e c155 d0bd
00000350: 33c3 96bd 6335 183f f49d efbc 7795 eb3d
00000360: 0cc7 b33c 4830 533e fc08 c33d 6e63 8d3e
00000370: aef6 093f 9f6c 03be 8518 5b3d ef19 c53e
00000380: e65e cabe be69 27bf 6be0 acbd 4237 87be
00000390: e028 b4be d82e 1abe 87ec f0bd 4b0c 69bf
000003a0: f329 39bf 3638 d7bd 04df b83e 2416 a53d
000003b0: 1b66 0dbe 41e5 573e 3c01 91be 3300 cdbe
000003c0: 818d 423f 6105 7c3e c5cf bf3d dad6 d5be
000003d0: f4ed c53d 3633 a7be 3135 063f 3885 17be
000003e0: 9d35 043f defc a63e 80ed ab3d 6399 953d
000003f0: 1ed3 fb3d 4b6a b43e c431 68be 0859 143f
-0.16755214 0.18633476 -0.28192988 -0.21732278 -0.22341196 0.22978218 0.24272561 0.19990438
-0.45682284 -0.20226565 0.25005332 -0.0017618467 -0.39421728 -0.7051707 -0.043249503 -0.16981216
0.044958342 -0.65708774 0.08389318 0.24664053 -0.2818708 0.367707 -0.30555364 0.11329459
-0.535952 0.5129314 -0.20178317 -0.22408554 -0.3073561 0.2019783 0.2391391 -0.27580464
-0.22799325 -0.31050956 0.009276285 0.05058709 0.1844852 0.15543528 0.36053303 0.27999282
-0.20418474 0.5815387 0.25704554 -0.07395532 0.1410804 -0.4384173 -0.21991304 0.43180728
0.19513088 -0.20266807 -0.30637348 -0.021716079 0.3065883 0.24591045 -0.20612645 -0.3728711
0.7005423 0.5198031 -0.1056878 0.5990493 -0.42495263 -0.45991272 -0.4656614 0.5024297
0.23978028 -0.15101905 0.3935916 0.36173663 -0.6831735 -0.055443276 -0.41575313 0.028669573
-0.19943456 -0.52877825 0.25490317 -0.3240947 0.29575002 -0.27953196 -0.102118604 -0.586951
0.47022653 -0.1531368 -0.26498127 0.22448726 -0.22222467 -0.16545151 0.05456352 -0.20630735
0.22523768 0.02466411 0.05809616 -0.030436434 -0.39091685 0.25641224 -0.15533559 0.046550978
0.043719526 -0.30783308 -0.41768774 -0.33542174 0.046166547 0.26376987 -0.20162928 -0.24895759
0.111879975 -0.37955412 0.36670002 -0.19475661 0.39390764 -0.23240168 0.17902955 0.5775904
0.29858533 -0.43517682 0.6713311 0.17493942 0.19038598 0.15984473 -0.36482903 -0.43660197
-0.29704785 -0.13116594 0.063247606 -0.06199995 0.13144685 0.6220665 -0.59048575 -0.20996304
0.32576087 -0.016105752 -0.29363364 0.10249672 -0.5026179 0.117766075 0.12801228 -0.3917769
0.60581356 -0.17508572 -0.10697791 -0.27686623 0.32794377 -0.4374257 0.0948162 -0.012469264
-0.64457047 -0.5330411 -0.41919366 0.13134508 -0.18007056 -0.36275515 0.63225806 0.2862087
-0.15343136 0.6618189 0.6325984 -0.105551645 0.4450199 0.16771571 -0.18033989 0.041564602
0.31132737 -0.21813816 0.33327594 0.31842303 -0.20354035 -0.32712114 0.23062664 -0.19685169
-0.15865295 -0.0038267127 0.18671392 0.100165606 0.12798229 -0.29413942 0.59599626 0.27690622
0.27504203 0.42938757 0.3833186 0.15510906 -0.20169073 -0.283921 0.089399986 0.29299292
-0.14260781 -0.047578834 -0.486977 0.1655975 -0.3427133 -0.12141955 -0.5470187 -0.16395189
0.087282404 -0.48195776 -0.6308624 -0.6930181 0.04612543 -0.33646625 0.025638204 0.19450922
-0.25785065 0.28365418 0.36932153 -0.040683296 -0.10913635 0.40771714 -0.057769574 0.028983448
-0.32020372 0.11769508 0.17858078 -0.10172606 -0.0736145 0.5945646 -0.029250123 0.115031175
0.021945499 0.20623887 0.09523198 0.2761492 0.5389203 -0.12834404 0.05349018 0.38496348
-0.39525527 -0.65395725 -0.08441242 -0.26409346 -0.35187435 -0.15056932 -0.11763864 -0.9103438
-0.72329634 -0.10508768 0.36107647 0.080608636 -0.13808481 0.21083547 -0.28321254 -0.40039214
0.7599717 0.24611427 0.09365801 -0.4176548 0.096645266 -0.32656258 0.52424914 -0.14796913
0.5164431 0.32614797 0.08394909 0.07304647 0.12296127 0.35237345 -0.22675234 0.5794835

initial.bias f4 [224]
00000000: 7b69 a53c a611 24bf 9880 ce3a f4b0 b2be
00000010: ff30 32be 5365 293e 6191 50bf f40f 37be
00000020: d587 823e 6d33 57bd 371d 19be 6c0f fd3e
00000030: b83b d63d ea3a 1c3f 668a 683d e2bd 6fbe
00000040: c4cd c4be de94 023e 5ac0 973d 0f59 bebd
00000050: 6a28 2abf 684e 1f3e 865d 1b3f 91b5 09bf
00000060: 21c6 a03e 8461 0dbe 3110 2bbf 497f d1be
00000070: ea3d c63d 8317 31bf 82a7 c83e d90d 09bf
00000080: 495f 8b3e 65ee ebbc c16b 69be fe31 303e
00000090: 1949 163f 6dd9 67bc 6eee c23e e3c4 393d
000000a0: 4d93 403f 7667 5d3d 5c12 f7be 170c b8bd
000000b0: dc94 a53e 80f2 863e faba 2ebd 95b7 1dbf
000000c0: f8a2 78bf a1cc 0cbf 90ec 083f 10e9 26be
000000d0: 12e6 9cbe 95af 823d 4c22 1abf 52ca 4bbe
000000e0: a9ad 0cbe 1bbc 0bbd 7080 01bf 48b6 c2be
000000f0: 1619 c7bd 2cb4 0ebf 6a22 cfbe ec29 52bf
00000100: 2922 f4be 7092 acbe 4e15 6cbd 9dac 3b3e
00000110: 1b4a 2f3f 28cf a23e 9723 45be 4ba6 2bbf
00000120: af3e a6be 3808 ae3e 579c 07bf 388b 17bf
00000130: 0aa1 183e 7dfb 8abe 53c8 843d 846a b1be
00000140: bda1 ddbe 11f4 22bf 9a14 27bc 8471 133f
00000150: 8a2b d0bd 3f46 4c3e a344 98be 59ce 36be
00000160: 63d6 c73c 643a 413f bb01 a03d e51b 0d3f
00000170: b2ab e6be 9e04 dfbe 5055 08bf 41aa 3d3f
00000180: c6dd 013e e843 203d c3fc 0cbf 65fc 29bf
00000190: fed0 e33e 88d1 b4be 5683 b23e 0dca e53e
000001a0: 5d2f 433b 1503 8bbe fe5b 763e 735e 26bf
000001b0: 53e5 75be 0df3 12be 3cf8 24be 2623 bd3c
000001c0: afd8 17bd 7853 8b3c c432 13bf 5a11 023e
000001d0: d8a5 953d 4466 44bf 7af0 d9bd 7ba1 ebbe
000001e0: 0cec 4cbe 6a7e 903e 8801 01bf b58a 463b
000001f0: a0f8 c73e 09ca 003e 1d00 6bbd 9945 c4bd
00000200: 10ef dc3c 2557 20bf 895f d5be d428 283e
00000210: 2124 6d3e ab72 373e 9e43 a33d 1f9a f23e
00000220: b1b0 d0bd e992 063f fc38 993e af24 75bf
00000230: 04df 10bf 1f12 ae3e 3bdb 683e 07af 1f3f
00000240: 14b3 5cbe 3193 9cbd 8cf0 19bf 7029 323f
00000250: 80ff 23bd c44e be3e ed2e e4bd d5b6 b1be
00000260: 13df b03e 31bc e6be 324c 3abd c6c5 b53e
00000270: b238 ccbd 79e4 833d 58de 4b3e bd93 d7bd
00000280: 5636 8c3e 7264 fb3e e695 dd3e 45e8 e63e
00000290: b682 84be 6749 01bf e900 a33e ee9d 423f
000002a0: bd00 213d 3dee f5be 9a2f 8cbe 8031 0d3e
000002b0: cbbe 603f 402d 1a3e d737 d13d 3b2a 45be
000002c0: d5f5 32bf b6eb 2b3f ad23 35be e83f c33e
000002d0: ea41 783e cb6f c83c e22f 073e b859 c43e
000002e0: 28e4 3abd 2faa 343f d1ad 06be 6313 08bd
000002f0: aa20 883e 923e 82bd d85f c43e fcf1 8a3e
00000300: 35dd f7be f8b4 1c3d 5988 82be 9ffc bbbd
00000310: bbc4 773d d487 ff3d 3b78 193f 1cb8 233f
00000320: b118 52be d194 8d3d f637 d4be 5758 863e
00000330: b8ef 00bf b19a 9abe 47d1 7a3e 658c a23d
00000340: 7c43 afbe c101 1abe 4a02 a6be cbb0 74be
00000350: 7911 c0be d617 e7bc 8235 b83e 5df2 1abe
00000360: 4c8c b93e dd2f 423d 0e00 c4be 467e c23c
00000370: 6311 66bc c3d6 47be dcc8 aebe dd69 fa3e
0.020191899 -0.6408943 0.0015754877 -0.3490063 -0.17401503 0.16542558 -0.8147183 -0.1787718
0.25494257 -0.052539278 -0.14952551 0.49425828 0.10460609 0.61027396 0.056772612 -0.23412278
-0.38438237 0.12752101 0.07409735 -0.0929433 -0.66467917 0.15557253 0.6068958 -0.53792673
0.3140116 -0.1380673 -0.6682158 -0.40917423 0.09679778 -0.691765 0.39190298 -0.53536755
0.27221134 -0.028800199 -0.22795011 0.1720657 0.5870529 -0.014150959 0.38072532 0.04535378
0.75224763 0.054053746 -0.48256195 -0.08986681 0.32340133 0.26356888 -0.042658783 -0.6160825
-0.9712367 -0.5499974 0.53485966 -0.16299844 -0.3064428 0.06381146 -0.6020858 -0.19901398
-0.13738121 -0.03411494 -0.50586605 -0.38029695 -0.09721582 -0.5574367 -0.40455943 -0.8209522
-0.47682312 -0.33705473 -0.057637505 0.18327565 0.6847245 0.31798673 -0.19251858 -0.6705062
-0.324697 0.33990645 -0.5297293 -0.59196806 0.14905182 -0.27144995 0.06483521 -0.34651577
-0.4328746 -0.63653666 -0.010197783 0.57595086 -0.101645544 0.19948672 -0.29739866 -0.17852153
0.02439422 0.7547972 0.0781283 0.5512069 -0.45052868 -0.4355821 -0.53255177 0.7408791
0.12682256 0.03912726 -0.55073184 -0.6640075 0.44495386 -0.3531611 0.34865826 0.44880715
0.002978287 -0.2715079 0.2405853 -0.6498787 -0.24013261 -0.14350529 -0.16110319 0.02308805
-0.03707188 0.017007574 -0.5749934 0.12701932 0.07307023 -0.76718545 -0.106415704 -0.46021637
-0.2001192 0.28221446 -0.5039296 0.0030295078 0.39056873 0.1257707 -0.057373155 -0.09583587
0.026969463 -0.6263297 -0.4167445 0.16421825 0.23158313 0.17914836 0.07971881 0.4738321
-0.10189951 0.5256792 0.29926288 -0.957591 -0.56590295 0.339982 0.2273988 0.62376446
-0.21552688 -0.07645262 -0.6013267 0.6959448 -0.040038586 0.37169468 -0.11141763 -0.34709802
0.34545192 -0.45065454 -0.04548282 0.35502452 -0.09971751 0.06440062 0.19909036 -0.10526226
0.27385205 0.4910007 0.43278426 0.45099083 -0.25880975 -0.5050263 0.31836632 0.7602223
0.039307345 -0.48033324 -0.27380067 0.13788414 0.87791127 0.15056324 0.10215729 -0.19254391
-0.6990636 0.6715654 -0.1768939 0.38134694 0.24243894 0.02446737 0.1320186 0.383497
-0.045627743 0.7057218 -0.13152243 -0.033221614 0.2658742 -0.063595906 0.38354373 0.27137744
-0.48410955 0.038258523 -0.2549465 -0.09179043 0.06049035 0.12477079 0.5994908 0.63952804
-0.20517232 0.0691315 -0.41448945 0.26239273 -0.5036578 -0.30196145 0.24493895 0.079369344
-0.34231174 -0.15039732 -0.3242362 -0.23895566 -0.3751333 -0.028209608 0.35978323 -0.15131517
0.3623985 0.047408927 -0.38281292 0.023741852 -0.014042231 -0.19515519 -0.3413762 0.48908892

readout.weight f4 [126, 224]
00000000: 0bb9 9b3e 4acc 86be e31c 75be dd99 83be
00000010: a00c 41bd c8ae 17be f8ff 76be 10a3 8e3e
00000020: 9308 913e 8190 91be a7a0 8c3e 6f85 d3bd
00000030: d7c6 70be 50e8 b9be c21b 1a3e b36f 843e
00000040: 85ce 6b3e 77b4 70be acab 893e 2195 99be
00000050: 3fac 833e 8b02 a3be c1ab 2ebe 9843 a73e
00000060: e4b6 9cbe 5b18 ae3e 2142 b03e 8c1e 3ebe
00000070: d68c 9fbe 7396 6dbe 4c77 6ebe eef6 98be
00000080: 8c3d 35be df38 88be aef7 b83e a4b6 96be
00000090: 197b a23e 3c11 9ebe d679 a5be c420 b93e
000000a0: 3036 883e de1a 93be 2070 abbe 4abe a03e
000000b0: 39af af3d 7e89 93be d8de 553e 4353 9bbe
000000c0: 35a3 b63e 3b91 a23e 54b8 85be f2c3 c8bd
000000d0: 86c0 893e 601d 42be d19f 7bbe 1836 89be
000000e0: f66f 8dbe f32a bfbe 840e 93be 47d8 a8be
000000f0: f344 893e ec16 933e 6237 8e3e 643f a73e
00000100: 45b6 853e 043c 733e d13f 87be 6ef3 a23e
00000110: 2d3b 95be 3305 973e e6c8 673e 9f5c 5dbe
00000120: 7c57 aabe 5e18 b3be e27f 6ebe c475 5fbe
00000130: 143e 873e f872 d73e 900c 803e 8f3c b33e
00000140: e325 8abe c7e7 3f3e 8cac 573e 9ab0 993e
00000150: c156 85be 788d a33e de23 893e 39d3 b73e
00000160: 8869 863e 968a a4be 704b aebe 3cbc 0c3d
00000170: 93cc ab3e aaf0 b8be bc03 403c c650 c03d
00000180: 6514 75be b29a 6ebe d081 70be 71ba 5fbe
00000190: fce0 acbe 75e7 833e 7eaf 3ebe b61e 64be
000001a0: 1b17 643e 9d41 923e 0f6c 673e 8335 a63e
000001b0: 2f03 afbe 8bc0 c33e 5c52 97be 70ae 76be
000001c0: e2d0 9bbe cf8c 99be 871a febd 1c24 703e
000001d0: e42a 943e 60cb a23e de04 5f3e bb66 89be
000001e0: 779e 9cbe f7b2 73be 1839 9cbe 55ad 813e
000001f0: c0d1 77be 65c1 a2be ff9d 93be 1738 f23d
00000200: 643a 9c3e 39df 6cbe 409c 88be 834a 613e
00000210: bcf6 34be 9477 89be d36c a93e 7365 503e
00000220: e19a ac3e 745d 993e 7f68 61be 509c 703e
00000230: 8014 9fbe 8963 dabd 1778 bbbe 282e 7b3e
00000240: e445 b13e 0cf8 adbe 9c90 93be 097b 6ebe
00000250: c00d f63d 0617 4cbe a05b 62be 09c4 97be
00000260: dbd6 953e 01e2 5abe a7a7 f8bd 9355 433e
00000270: 5f62 a0be c1ad 693e 973c 703e e382 79be
00000280: f98b 8e3e c3e9 89be f667 b23e d9a4 c83e
00000290: 4e8c 863e ea25 acbe df76 75be 9c0f 34be
000002a0: a637 8f3e 0c87 31be 83e5 8a3e 2475 71be
000002b0: 398b c0be 2b9f 17be c138 c8bd 1af0 a03e
000002c0: 87a6 c43e 162c 90be 9224 7abe 983b 893e
000002d0: 4a59 73be 985e 9cbe 31b1 813e 1805 b3be
000002e0: 738e 8cbe b9e0 44be 9836 d03d 73d1 adbe
000002f0: 8205 853e f8e4 16be 0655 8abe 1231 683e
00000300: daa0 80be eedb c6be ffc4 f8bd eaa3 a93e
00000310: b934 593e 2ae6 ad3e b4dd 9c3e cd1e bfbe
00000320: 5ed6 7abe 5413 ba3e 2c43 8b3e afe9 a7be
00000330: 1253 a83e 3340 4dbe 341f 8e3e 723d 8c3e
00000340: 1eef 913e 7a4a a7be 3666 7f3e 8488 a3be
00000350: 6814 b23e 590b b23e 2332 63be 217f 78be
00000360: af16 91be 8b66 84be 804e 813e d665 ca3e
00000370: 3487 883e 1614 8e3e 42a5 d93d 45da 56be
00000380: 5788 ac3e 1856 9abe 7315 25be 5597 98be
00000390: 462b 0a3e 4f4c bfbd 4579 2bbe cdb2 8a3e
000003a0: 20d8 1e3e 74ae a0be e1ce 723e c451 96be
000003b0: bc57 93be 715b 47be d439 7b3e ed93 563e
000003c0: da90 6e3e 4c1c b4be 0052 6f3e 2426 c8be
000003d0: 533f 643e 355f 81be d289 27be f1fd 903e
000003e0: 8730 063d b7bd 633e 2dc1 b03e 1a94 72be
000003f0: 96c4 a0be 1840 95be 1f90 75be 0d53 a4be
0.30414614 -0.26327735 -0.239368 -0.25703326 -0.04713118 -0.14812768 -0.24121082 0.27858782
0.28326854 -0.2843056 0.27466318 -0.10328185 -0.23513351 -0.36310053 0.15049651 0.2586647
0.23028 -0.23506342 0.26888788 -0.2999659 0.2571735 -0.31837878 -0.17057706 0.32668757
-0.30608284 0.34002957 0.34425452 -0.1856634 -0.31162137 -0.23201923 -0.23287696 -0.29875892
-0.1769926 -0.2660589 0.36126465 -0.2943622 0.3173454 -0.30872524 -0.32319516 0.3615781
0.26603842 -0.28731436 -0.33483982 0.3139518 0.08578343 -0.28815836 0.2088579 -0.3033696
0.35671392 0.31751427 -0.26117194 -0.098029986 0.26904696 -0.18956518 -0.24572684 -0.26799083
-0.27624482 -0.37337455 -0.28722012 -0.32977507 0.26810417 0.28728426 0.2777663 0.3266555
0.26115623 0.23753363 -0.26415876 0.31826347 -0.2914671 0.29496154 0.2263523 -0.21617363
-0.3326987 -0.34979528 -0.23290971 -0.21822268 0.2641455 0.42079902 0.25009584 0.3500714
-0.2698203 0.1874076 0.21061915 0.3001755 -0.2604275 0.3194387 0.26785177 0.35903338
0.2625239 -0.32136983 -0.3404193 0.0343592 0.33554515 -0.36121112 0.01171964 0.09390406
-0.23933561 -0.23301199 -0.2348702 -0.21848466 -0.337654 0.25762525 -0.18621632 -0.2227734
0.22274439 0.28565684 0.22599815 0.324627 -0.34182116 0.38232836 -0.29555023 -0.2408998
-0.30432802 -0.2999024 -0.124074034 0.23451275 0.28938973 0.31795788 0.217792 -0.2683619
-0.3058965 -0.23798738 -0.3051231 0.25327554 -0.24201107 -0.31788173 -0.2883148 0.118271045
0.305133 -0.23132028 -0.2668171 0.2200108 -0.17672247 -0.26849043 0.3309084 0.203512
0.33711913 0.29954112 -0.22012518 0.23497128 -0.31070328 -0.10663516 -0.3661506 0.24529326
0.34623635 -0.33978307 -0.28821266 -0.23289122 0.12014341 -0.19930658 -0.22105265 -0.2964175
0.29265484 -0.21375276 -0.12141352 0.19075613 -0.3132505 0.22820188 0.23460613 -0.24366336
0.27841166 -0.2693616 0.3484494 0.3918827 0.2627892 -0.33622676 -0.23971127 -0.1758408
0.27972144 -0.17336673 0.2712823 -0.23579842 -0.37606218 -0.14806812 -0.0977645 0.31433183
0.384083 -0.28158635 -0.24428013 0.2680328 -0.2376453 -0.3054092 0.253305 -0.34964824
-0.2745243 -0.1922635 0.10166663 -0.3394886 0.25980765 -0.14735782 -0.27017993 0.22674969
-0.2512272 -0.38839668 -0.12146949 0.3313287 0.21211518 0.33964664 0.30637896 -0.37328187
-0.24495837 0.3634287 0.27199686 -0.32795474 0.32875878 -0.20044021 0.2775818 0.2739063
0.28502744 -0.3267401 0.24941334 -0.3194009 0.34781194 0.34774283 -0.22187094 -0.24267246
-0.2833762 -0.25859484 0.25255203 0.3953082 0.26665652 0.277497 0.106272236 -0.209817
0.3369777 -0.3014381 -0.16121463 -0.29802957 0.1349307 -0.093407266 -0.1674548 0.2708954
0.15512133 -0.31383097 0.2371173 -0.29359257 -0.28777874 -0.19468476 0.24533778 0.20954867
0.23297444 -0.3517784 0.23371124 -0.390916 0.22289781 -0.2526795 -0.16361168 0.28318742
0.032761123 0.22240339 0.3452238 -0.23689309 -0.31399983 -0.29150462 -0.23980759 -0.32094613

readout.bias f4 [126]
00000000: 2aca 8fbe c517 b6be 4420 35be b50c 713d
00000010: 26b1 31be 896d aebe 0d24 51be c80e 83be
00000020: 1881 bdbe e9a5 81be 33dc e33a 5beb 4b3d
00000030: 9904 53be bfa6 76be 5f5a 83be 3be5 75be
00000040: 3eae 63be 2242 b5be a6ea babe b2d8 80be
00000050: f51f cfbd af12 c1be f7a0 eabe 39cf abbe
00000060: 38c5 94be 02b3 8bbe 3679 babe d6d8 a4be
00000070: f179 b8be 5cca 81be d58d d4be 1ba1 95be
00000080: f094 8ebe e21a eebe 2cdf 86be 3c4b bfbe
00000090: ed94 b4be 35ae babe d6a5 bdbe 9842 b6be
000000a0: 7422 7dbe 4f49 afbe 5a81 b2be a4b3 d8be
000000b0: ac87 c5be b0ed bcbe db5f bbbe 8e7d a7be
000000c0: 1c35 93be 96cc a2be fb66 aebe 6a89 8bbe
000000d0: 0861 66be af23 b0be 31e6 b4be 438e dcbe
000000e0: b908 2dbe 8a8f 8abe e338 b5be a3b9 a1be
000000f0: 3f17 d5be 8c9c b5be 0b40 94be c761 86be
00000100: 1523 cfbe 4074 c2be a532 79be 076e 72be
00000110: 9a7a 9fbe e0eb 98be 8f49 c5be e0b8 bbbe
00000120: 9257 e2be 93b6 d3be 7893 60be 38cd f9be
00000130: 4d17 abbe 1f15 c3be 3e82 a3be 3332 b3be
00000140: 8b96 acbe b2cc a0be d0ef dbbe 7c58 90be
00000150: d6e9 97be df9f 95be 0b1a 93be d14e 65be
00000160: 6d66 88be ce7a bcbe ebba 7bbe 780b a0be
00000170: 8cbe ccbe 0111 81be 37cb 92be 5e9c f9bc
00000180: c132 50be 3cb1 42be 6238 5fbe dffa a2be
00000190: 9044 9fbd bbc5 c9be d101 7abe 8578 a8be
000001a0: 9fa6 f6be f9b4 99be b665 b4be 97eb b2be
000001b0: 1761 e4be af59 9bbe 64ff 5ebe 0924 91be
000001c0: 4621 b1be ca0e 9bbe f382 9cbe 3c49 d3be
000001d0: c2d0 81be aa95 7ebe 83ab e0be 53d9 b2be
000001e0: d36f 68be 6215 8bbe 3ca3 92be b5b5 8b3d
000001f0: 1f80 97be 1b64 983d
-0.28083926 -0.3556501 -0.1768809 0.05885001 -0.17352733 -0.34067944 -0.20423909 -0.25597215
-0.37012553 -0.25321892 0.001738435 0.049785 -0.20607223 -0.24087046 -0.25654885 -0.24013226
-0.22234437 -0.35402018 -0.36507148 -0.25165325 -0.10113517 -0.37709567 -0.4582593 -0.33556536
-0.29056716 -0.2728501 -0.36420602 -0.32196683 -0.36030534 -0.253497 -0.4151446 -0.29224476
-0.27848005 -0.46504885 -0.26342142 -0.37362087 -0.3526987 -0.36461034 -0.37040585 -0.35597682
-0.24720174 -0.34235618 -0.34864312 -0.42324555 -0.38580072 -0.3690009 -0.3659657 -0.32712978
-0.28751457 -0.31796712 -0.34062943 -0.27253276 -0.22497952 -0.34402224 -0.35331872 -0.43077287
-0.16897859 -0.27062637 -0.35394964 -0.31586942 -0.41619298 -0.35470998 -0.2895511 -0.26246473
-0.40456453 -0.37979317 -0.24335726 -0.23674785 -0.31148225 -0.29867458 -0.38532683 -0.36664486
-0.44207436 -0.4135023 -0.21931255 -0.48789382 -0.33416215 -0.38102052 -0.31935304 -0.34999236
-0.33708605 -0.3140617 -0.429564 -0.28192508 -0.2967059 -0.29223534 -0.28730807 -0.22393347
-0.26640645 -0.36812443 -0.24583022 -0.3125875 -0.39989126 -0.25208285 -0.28670666 -0.03047007
-0.20331861 -0.19012922 -0.21798852 -0.31832024 -0.07776749 -0.3940867 -0.24414755 -0.3290445
-0.48173997 -0.30020884 -0.3523385 -0.34945366 -0.44605324 -0.3034186 -0.21777111 -0.28347805
-0.34595698 -0.3028472 -0.30568656 -0.4126681 -0.25354582 -0.2486178 -0.43880853 -0.3493143
-0.22698908 -0.2716475 -0.28640163 0.06821767 -0.29589936 0.074409686
