cde/model/rk4/12.ckpt (torch, 581263 bytes, 8 tensors)

func.linear1.weight f4 [128, 224]
000000 0a 9c da 3c a3 40 ac bd cb 9c 34 3e 13 d8 97 bd
       0.026685733 -0.08410766 0.17637937 -0.0741426
000010 c8 6a 68 bd eb 4f 91 bc a1 fa fc 3c 62 9f ea 3e
       -0.05674246 -0.017738303 0.030881228 0.45824724
000020 88 34 ca be 71 b2 be be cd 4f 2b 3e 8c a8 99 3e
       -0.39493203 -0.37245515 0.1672966 0.30011404
000030 9d 41 3a 3e 54 6b 40 3c 3f 33 aa be e0 3d 83 3c
       0.18189092 0.011744339 -0.33242223 0.016020715
000040 04 41 c5 3e cf b1 6a be 89 cd 35 3d 93 b4 8e be
       0.38526165 -0.22919391 0.044385467 -0.27872142
000050 ac 9b 2e 3e a6 6d 99 3e 9c 3e db be 2e e3 82 3e
       0.17051572 0.29966468 -0.42821205 0.2556395
000060 f7 51 71 3e df 65 85 be ae 8b c5 3e 16 a7 56 3e
       0.23566423 -0.26054284 0.3858313 0.20962176
000070 49 0b ac bd 8f 1b be 3e c4 50 5b be d9 77 93 be
       -0.0840059 0.371304 -0.21417528 -0.28802374
000080 b7 e5 d1 3e e7 a7 c4 3e 35 af 95 3d 01 d4 e7 3e
       0.4099557 0.3840935 0.07308809 0.45278934
000090 e3 40 30 3e 6e 07 11 bd 5b 48 a5 be cb b4 d4 3e
       0.17212252 -0.035407476 -0.32281765 0.41544184
0000a0 f5 e6 de 3e 51 28 6e be e2 e8 54 be 17 af 4b 3e
       0.4353558 -0.23257567 -0.20791963 0.1989101
0000b0 b6 52 0b 3d f7 72 cf be 09 6a 92 3e 18 39 5a be
       0.034014426 -0.405174 0.28596523 -0.21310842
0000c0 c2 1f 02 3e a7 91 ba 3e 58 62 a4 be 60 74 9c be
       0.12707427 0.3643925 -0.3210628 -0.30557537
0000d0 05 a0 96 3e b1 80 ca be 5b 19 d4 be 54 58 e4 bd
       0.2941896 -0.3955131 -0.41425595 -0.1114966
0000e0 d0 45 d5 be cb 48 95 bc 85 d8 b9 bd ec 53 cd be
       -0.41654825 -0.018223187 -0.09074501 -0.4010309
0000f0 f6 db 6c 3e 62 c6 18 bd e1 d5 ed 3e 0c 92 cd 3e
       0.23130783 -0.037298568 0.4645224 0.40150487
000100 a5 3c f3 3e 3e 1a 56 be 74 09 d3 bd e7 07 1c bd
       0.47507206 -0.20908448 -0.103045374 -0.038093474
000110 df f6 07 bf 9e 1f e7 bd 59 c9 60 3e e8 c8 9b 3e
       -0.5311107 -0.112853274 0.21951808 0.30426717
000120 3b 25 9c be a6 36 aa be e4 c0 5c 3b 0a 45 74 bd
       -0.30497155 -0.33244818 0.0033684308 -0.059636153
000130 76 ef 96 3e 81 27 86 3d 7b ee 54 3e 6e aa ef 3d
       0.2947957 0.065505035 0.20794098 0.11702429
000140 6d 00 36 be d9 c0 c3 be ca 3a d2 3d a9 bc b0 be
       -0.177736 -0.3823307 0.102651194 -0.34518936
000150 6b a1 e7 3e 1e 43 bc 3e 54 c6 da 3e 10 f3 3a be
       0.4524034 0.36769956 0.42729437 -0.18256783
000160 91 90 c3 3e c5 8d a1 3e 45 b6 ec bc 3a 97 ba be
       0.38196233 0.31553474 -0.028895507 -0.36443502
000170 fd fe a0 3e 44 66 bf 3d a7 8c ca be bd cc 60 3e
       0.3144454 0.093456775 -0.39560434 0.21953101
000180 a4 2b eb be 93 c1 22 be f8 47 61 be 77 35 83 3d
       -0.45931733 -0.15894155 -0.2200011 0.06406682
000190 46 79 7f 3d a4 92 12 bd ae 48 aa be c4 12 83 bd
       0.062371515 -0.03578438 -0.33258575 -0.06400064
0001a0 44 13 90 3e 00 45 cd 3e a2 c8 38 3e 37 e6 8d 3e
       0.28139699 0.40091705 0.18045285 0.27714702
0001b0 e2 1d c8 be aa 6c 22 3e 76 ac dc be d9 44 59 be
       -0.390853 0.15861765 -0.43100327 -0.2121767
0001c0 0f 98 65 be f4 a4 01 be 0c 0a 90 3b 5e eb 80 bc
       -0.22421287 -0.12660581 0.004395729 -0.015737232
0001d0 f1 a3 64 3e ca 16 b6 3e 76 df b0 3e 89 b9 e0 be
       0.22328164 0.35564262 0.34545487 -0.43891552
0001e0 cf 0d e9 bd 18 1e 75 be 65 1e 63 3c 1f 3d d8 3e
       -0.11379587 -0.23937261 0.013862227 0.42234132
0001f0 ff 4b bb 3e 93 95 9b be 53 e1 dc bd 6c 60 88 be
       0.36581418 -0.30387554 -0.10785165 -0.26636064
000200 d1 28 10 be 7c e5 c1 be 16 fe 1a bd f8 5e c9 bd
       -0.1407807 -0.37870395 -0.03783997 -0.09832567
000210 ab 84 c0 3d 13 da ec bd 2a 64 91 3e 5f 1a c8 bc
       0.094003044 -0.11565032 0.28396732 -0.024426637
000220 74 6b a6 3d e7 a0 e4 bd da ca 34 3c d3 f3 e9 3e
       0.08125964 -0.11163502 0.011034692 0.45693836
000230 fa cc bb 3e 33 3e a8 3d 96 c9 9a be 89 9f af 3e
       0.36679822 0.082149886 -0.30231923 0.34301403
000240 42 dd 88 3d c2 45 b2 be 85 e3 ca be 21 8c 87 3e
       0.066828266 -0.34818846 -0.3962671 0.26474097
000250 ac 5b c2 3e 67 20 a1 be df 3a a4 be e2 12 38 bd
       0.37960565 -0.31470034 -0.32076165 -0.044939883
000260 32 b2 c8 3d 98 bf 2f be 9f e2 24 be 24 81 c8 3e
       0.09799613 -0.17162931 -0.16102074 0.39161026
000270 1b c9 d4 be 57 c0 9b be a8 5a 80 3e aa e6 84 be
       -0.4155968 -0.3042018 0.25069165 -0.25957233
000280 ab be f4 3d a8 0a 26 be d4 69 a3 3e 87 df ed 3e
       0.119504295 -0.16215003 0.31916678 0.464596
000290 2f d6 d3 3e 72 ce a5 bd a7 d7 d1 be 33 8c 93 be
       0.41374347 -0.08096017 -0.40984842 -0.288179
0002a0 c0 1c 30 3d cb 16 9f be 81 95 bc 3e cf da c1 3e
       0.042996168 -0.31072077 0.36832812 0.3786225
0002b0 f1 1f 8f be 6d 39 e9 be da 0e cc be 28 62 c6 3e
       -0.27954057 -0.45551625 -0.3985508 0.38746762
0002c0 de 18 05 3e 88 b1 ba be c1 2e a9 3e 11 bb 4e 3d
       0.12997767 -0.3646357 0.33043483 0.05047137
0002d0 75 48 af bd e6 3f b6 be da ea 91 3e 03 fc 8f 3c
       -0.08558742 -0.35595626 0.2849949 0.017576223
0002e0 cb d4 7a 3e 3a 54 e5 3b d4 c4 c5 bd 68 3f da 3e
       0.24495237 0.006998566 -0.096566826 0.426265
0002f0 bd 56 9d 3e 01 91 54 3d ae a9 d0 bd 62 bc ea 3e
       0.3073024 0.0518961 -0.10188614 0.4584685
000300 70 32 81 be 22 36 b8 bd 0a ce 35 3e ee 46 3c 3d
       -0.25233793 -0.089947 0.17754379 0.04596608
000310 84 39 8d 3e af ff d0 bd be 4e d9 3e 35 7e aa 3c
       0.27582943 -0.10205018 0.42442888 0.020812133
000320 97 4d 6f be b8 b6 22 be 3e 78 a1 be 9e d0 a2 bd
       -0.23369442 -0.15890014 -0.3153705 -0.07949947
000330 8e 6d 9b 3e 24 32 2f 3e 84 15 aa 3e 50 61 d0 bd
       0.3035702 0.17108971 0.3321954 -0.10174811
000340 33 f2 0b 3d d3 0b 3e 3d 2a ed 9c 3d ec 7d 92 bd
       0.034166526 0.046397995 0.07662423 -0.07152924
000350 fa 94 40 3e 88 7c 27 3e f6 2d 1a bd 4c fa 12 be
       0.1880683 0.16356099 -0.037641488 -0.14353293
000360 0b a9 16 be 3f 55 0d be ac 55 86 3d d4 e5 73 be
       -0.14712922 -0.1380205 0.06559309 -0.23818141
000370 20 fe e5 3d fa 7c 85 be ee 43 69 3d 88 81 d9 be
       0.11230111 -0.26071912 0.05694955 -0.42481637
000380 a0 77 e8 bd 3a 66 ec be c3 52 ee 3e 63 b4 08 bf
       -0.11350942 -0.46171743 0.46547517 -0.5340025
000390 ee ed 01 be 20 42 d2 3e db 73 18 be cb 0c f9 3e
       -0.12688419 0.41066074 -0.14887945 0.48642573
0003a0 68 2f 5b be 27 a7 8e 3c 88 1e f6 be 39 11 18 3d
       -0.21404803 0.017413689 -0.48070168 0.0371258
0003b0 33 81 24 3e 69 f6 16 3e 31 0f ce be 5b 88 f1 be
       0.1606491 0.14742436 -0.40245965 -0.47174343
0003c0 94 fc d5 3e 14 c8 38 be 52 09 de be 6b 6a 80 be
       0.41794264 -0.18045074 -0.43366486 -0.2508119
0003d0 d5 6b e9 3e ca 7d fc 3d 7a 65 cf be e9 17 ea bd
       0.45590082 0.1232868 -0.40507108 -0.11430342
0003e0 2e 6b d4 3e 2f c5 00 3f eb 3e 82 3d 67 0b f5 be
       0.41488022 0.5030088 0.06359657 -0.47860262
0003f0 52 b9 81 bb 85 ca 1f 3e a6 93 07 3f 23 1a 01 3e
       -0.0039588595 0.15604599 0.5295967 0.12607627

func.linear1.bias f4 [128]
000000 7e 08 c0 be be bf b3 be 2f f3 04 bd ae 8b e6 3d
       -0.3750648 -0.35107225 -0.03245848 0.112571105
000010 72 2b c7 bd 60 64 c4 be 46 5b cb be ab 98 ea 3e
       -0.097250834 -0.3835783 -0.39718074 0.458196
000020 28 2e a4 3e 67 2a f5 3e f0 6b a9 be 97 57 64 be
       0.32066464 0.47883913 -0.33090162 -0.22299038
000030 3d b7 93 3e dc a3 ef be af a2 8c be 4f 24 01 3f
       0.28850737 -0.46804702 -0.27467868 0.5044603
000040 60 b8 ae be 4d b4 d7 be 46 05 9e be 7d 3f 83 bd
       -0.34125042 -0.42129746 -0.30863398 -0.06408594
000050 5d 9b 9e be 13 cd 90 be 5c bc 08 3e ba d1 f9 3e
       -0.30977908 -0.2828146 0.13353103 0.4879282
000060 73 f9 b3 3e b3 bd f7 be e1 e4 c7 be 88 a5 2b be
       0.35151252 -0.48386917 -0.39041808 -0.16762364
000070 00 c5 81 be b2 68 ce 3e 9e 3b b2 3e fb 8e 1d be
       -0.25345612 0.4031425 0.3481111 -0.15386574
000080 aa 49 c0 3d fa f0 c5 bd 52 e4 d8 be 91 3a c8 be
       0.0938905 -0.09665103 -0.42361695 -0.39107183
000090 25 5c 03 3f d6 f6 be ba dc 41 6a be a2 ee bb 3e
       0.51312476 -0.0014569412 -0.22876686 0.367055
0000a0 fa d1 56 be 75 06 94 3e ae b9 bb 3e 02 13 31 be
       -0.20978537 0.28911176 0.366651 -0.17292407
0000b0 9c 05 d3 3d 0f a0 f7 3e a1 1b c4 be b8 02 8d 3e
       0.10303804 0.48364303 -0.3830233 0.27541137
0000c0 55 5b 0a bf bb d2 d1 be 57 1e 99 be b1 a6 ab be
       -0.5404561 -0.40981087 -0.2990596 -0.33525613
0000d0 da ce e8 be f1 e6 e8 3d 36 5f ae 3e 7a a5 e1 3e
       -0.45470315 0.113721736 0.34057015 0.4407156
0000e0 e5 b6 cb 3a a0 00 0a bf 05 23 c3 be b0 77 17 3e
       0.0015542178 -0.53907204 -0.38112655 0.14791751
0000f0 ec f5 d4 be 30 14 4c 3e 6c 23 56 be e3 5d 03 3f
       -0.41593874 0.19929576 -0.2091195 0.51315135
000100 14 de b6 bb e7 c0 1e 3e f4 eb bb bd ce ec f6 be
       -0.005580673 0.15503274 -0.09175864 -0.48227543
000110 d4 cc bb be bf d1 b2 3e 84 e8 77 3e 1e db 74 3e
       -0.3667971 0.3492565 0.24209791 0.23911712
000120 76 8b b3 be d7 9c 8e 3e 70 ae d4 be db ff 9c be
       -0.35067338 0.27854034 -0.41539335 -0.30663952
000130 40 39 dd 3e 7a 1d 57 be 7e d3 ac 3c a7 05 a0 be
       0.4320774 -0.21007338 0.021096941 -0.31254312
000140 a0 ca 02 3f f1 27 82 3d eb 3f ab 3d c0 80 a1 be
       0.5109043 0.063552745 0.08361801 -0.3154354
000150 df 1e 72 3e f3 f6 89 3e dc f6 5a 3e 3b 5e 0b be
       0.23644589 0.2694622 0.21383232 -0.13610165
000160 ba d3 ab be 6c 9b 25 3e 08 a0 55 be 48 f1 81 3e
       -0.33559972 0.1617257 -0.20861828 0.25379395
000170 8e 7e 25 be e9 38 03 3d ce 3a 8a be 96 0a 85 be
       -0.16161558 0.032036696 -0.2699799 -0.2598464
000180 99 de 95 bd aa 53 7f be 73 60 d6 3e ca d5 b4 be
       -0.07317848 -0.24934259 0.4187046 -0.35319358
000190 ae 0d 45 3e 03 56 8a bc da 60 60 be 3f 55 cf 3e
       0.192435 -0.016886717 -0.21911946 0.40494725
0001a0 fb f2 9e 3e 21 58 11 be f2 b6 b0 bd 54 d0 a8 be
       0.31044754 -0.14193775 -0.08628644 -0.32971442
0001b0 1c ad 53 3e 8a d2 bc be d9 81 18 be c3 56 bc be
       0.20671505 -0.3687938 -0.14893283 -0.36784944
0001c0 48 60 99 be 8d 1d c0 be 77 df 9f 3e db 6a 20 be
       -0.2995627 -0.37522545 0.31225178 -0.15665762
0001d0 09 d9 b9 be 69 90 a4 be a4 30 61 3e 5f 0d b8 3e
       -0.36298397 -0.32141426 0.21991211 0.359477
0001e0 9b 41 b3 3e 5c b8 04 3f d0 a8 95 3e 5c 85 b4 3e
       0.3501099 0.5184381 0.29230356 0.35257995
0001f0 c0 60 60 be 51 c5 16 3c b0 1a 43 bd ac 86 ab be
       -0.21911907 0.009202317 -0.047632873 -0.33501184

func.linear2.weight f4 [672, 128]
000000 74 a3 81 3e 73 f3 c8 3e 9a f7 c5 3e c9 d4 a9 3e
       0.25320017 0.39248237 0.38665468 0.33170155
000010 89 67 c2 3e 45 11 a5 3e 09 20 96 3e 0d 13 b7 3e
       0.37969616 0.32239738 0.29321316 0.35756722
000020 a1 fd b7 3e 93 5e 86 3e 53 48 87 3e 85 42 c8 3e
       0.3593569 0.2624403 0.26422366 0.3911325
000030 6c 6d 75 3e 54 8c 8f 3e d3 a4 85 3e e6 0a a8 3e
       0.23967522 0.2803675 0.26102313 0.32820815
000040 7e 99 be 3e b5 c3 83 3e 29 cd b3 3e 2a bd 85 3e
       0.3722648 0.2573525 0.35117462 0.26120883
000050 53 9a 9a 3e 98 c0 b3 3e b0 f6 c8 3e 41 56 ca 3e
       0.30195865 0.35107875 0.39250708 0.39518932
000060 a4 b8 b3 3e dd dc ac 3e 0c 01 89 3e 3e 01 ab 3e
       0.35101807 0.33762255 0.2675861 0.33399385
000070 95 38 87 3e be ac bf 3e 46 f4 b4 3e bb 8b ac 3e
       0.26410356 0.3743648 0.35342616 0.33700356
000080 69 30 ca 3e cd c9 80 3e c2 8e b9 3e 75 ef 92 3e
       0.3949006 0.25153962 0.36241728 0.28698316
000090 80 8d 81 3e e3 9f a4 3e e9 65 bf 3e de 65 7a 3e
       0.25303268 0.32153234 0.3738244 0.24452922
0000a0 3e 25 8d 3e 1d e8 96 3e 70 a5 7c 3e 7a a0 80 3e
       0.27567476 0.29473963 0.24672484 0.25122434
0000b0 8e 68 84 3e 26 d9 a9 3e cf 01 96 3e e9 a3 7f 3e
       0.2586102 0.33173484 0.29298255 0.2496487
0000c0 f7 64 ca 3e 2d 5a c7 3e 2d 4c 85 3e 4f b1 d3 3e
       0.39530155 0.38935986 0.2603468 0.41346213
0000d0 71 c4 ac 3e ca 95 b5 3e f8 7e 9a 3e eb 0e cd 3e
       0.33743623 0.35465842 0.30174994 0.40050444
0000e0 3a 52 b4 3e 70 e0 99 3e 26 9d 85 3e c3 c5 b6 3e
       0.35218984 0.30054045 0.26096457 0.35697755
0000f0 53 17 8a 3e f2 00 a7 3e 5b 26 82 3e 7b 40 8b 3e
       0.2697092 0.3261791 0.25419888 0.27197632
000100 56 42 8a 3e c7 f7 78 3e d2 08 ca 3e ab a4 d4 3e
       0.27003735 0.2431327 0.39459854 0.41531882
000110 83 7a 97 3e 39 cd a7 3e 8e 7c ae 3e d3 bf 7b 3e
       0.29585657 0.3277376 0.34079403 0.24584894
000120 1f f9 b0 3e 43 8a 9d 3e 14 7c ad 3e 44 d6 8f 3e
       0.34565064 0.30769548 0.33883727 0.2809316
000130 49 6e 8d 3e b1 43 86 3e 57 0b 81 3e 49 89 b5 3e
       0.27623203 0.2622352 0.25203964 0.35456303
000140 30 3f 9a 3e fb ef d0 3e c9 f2 d3 3e e3 cd ae 3e
       0.30126333 0.4080809 0.41396168 0.34141454
000150 f4 fd d3 3e 3a 1e a2 3e eb 8b bf 3e a5 86 b0 3e
       0.41404688 0.31663686 0.37411436 0.34477726
000160 bc 97 8b 3e 31 c6 84 3e 4b fb c5 3e 1f d3 b3 3e
       0.27264202 0.25932458 0.38668284 0.3512201
000170 60 ea d0 3e f7 11 88 3e d1 ef ab 3e 0e cf 89 3e
       0.40803814 0.26576206 0.33581403 0.26915783
000180 58 5b 87 3e 72 41 7a 3e 55 c6 a1 3e 03 91 d1 3e
       0.26436877 0.24439028 0.31596628 0.40930948
000190 d7 a4 bb 3e 36 0d a8 3e 6e 2f 8c 3e 8c cc 85 3e
       0.366492 0.3282258 0.27379936 0.2613262
0001a0 32 c4 d1 3e eb 7b 7b 3e 31 08 a7 3e 62 fc 8d 3e
       0.40969998 0.2455899 0.32623437 0.27731615
0001b0 ab f8 8e 3e b9 43 9a 3e a1 b7 99 3e ee 95 9b 3e
       0.27924094 0.30129793 0.3002291 0.30387825
0001c0 73 e0 9a 3e 3e d0 8d 3e 26 65 a7 3e db 88 c6 3e
       0.30249366 0.2769794 0.32694358 0.38776287
0001d0 cc 57 91 3e 98 d9 7b 3e b6 cd 91 3e 87 cb d2 3e
       0.28387296 0.24594724 0.28477257 0.41170904
0001e0 f1 c4 7b 3e 1c 24 a7 3e 11 9e bc 3e 57 c6 b0 3e
       0.24586846 0.32644737 0.36839345 0.3452632
0001f0 63 65 c1 3e 64 12 a3 3e e3 97 ba 3e 02 25 aa 3e
       0.37772664 0.31849968 0.36444005 0.3323136
000200 ef e8 a9 3e 25 0d a5 3e 8c bc 88 3e 67 61 aa 3e
       0.33185527 0.3223659 0.2670635 0.33277437
000210 35 b1 83 3e 21 88 be 3e 96 43 c9 be 8c 28 a8 3e
       0.25721136 0.37213233 -0.39309376 0.32843435
000220 5a ec 90 3e 05 06 cf 3e a5 58 a1 3e db c8 92 3e
       0.28305322 0.4043428 0.31512943 0.28668866
000230 6c 40 bf 3e 2c 83 a3 3e ba c6 80 3e 96 c3 9a 3e
       0.37353837 0.31936014 0.25151616 0.30227345
000240 97 64 90 be cf 57 97 3e 53 9a bc 3e 4f 23 c0 3e
       -0.28201744 0.2955918 0.3683649 0.37526938
000250 6c 08 d0 3e 79 37 9d 3e 82 c0 a1 3e 16 ea a5 3e
       0.40631425 0.30706385 0.31592184 0.32405156
000260 7c 67 be 3e 17 6b 97 be 6f 56 ca 3e 46 0c ae 3e
       0.37188327 -0.2957389 0.3951907 0.3399374
000270 d6 bd 8c 3e e9 2c a0 3e bb fb a7 3e 43 53 7d 3e
       0.27488583 0.31284264 0.32809243 0.24738793
000280 ba 8f ad 3e 00 b1 a8 3e 7b 2f c4 3e 2a 16 7c 3e
       0.33898717 0.3294754 0.38317475 0.2461783
000290 42 31 b2 3e 88 51 7a 3e 61 ac 8f 3e b1 27 ba 3e
       0.34803206 0.24445164 0.28061202 0.36358407
0002a0 e5 10 85 3e 6b b5 d1 3e 30 1c c8 3e 1d ed bc 3e
       0.25989452 0.40958723 0.39084005 0.36899653
0002b0 1b 69 b1 3e 2c 07 95 3e 8b d2 c9 3e 06 39 c6 3e
       0.34650502 0.29107034 0.39418444 0.3871538
0002c0 57 0d c7 3e 73 3d c9 3e 26 4e 80 3e 63 b5 94 3e
       0.38877365 0.39304695 0.25059623 0.29044637
0002d0 b2 df 7a 3e bc d5 a2 3e 76 4b ba 3e ce c4 7f 3e
       0.24499395 0.3180369 0.36385697 0.24977419
0002e0 92 4b a5 3e c3 8e 96 3e 86 22 8b 3e fe ec b8 3e
       0.32284218 0.29405794 0.27174777 0.3611831
0002f0 78 64 88 3e 3a 99 bf 3e c8 87 cb 3e 9d 7e af 3e
       0.26639152 0.3742159 0.3975203 0.34276286
000300 a2 5d 7a 3e 34 37 97 3e 39 1e bc 3e c4 c4 cd be
       0.2444978 0.29534304 0.36741808 -0.40189183
000310 1e df b8 3e 6b 34 b0 3e 7d 6d be be ce 17 d2 3e
       0.36107725 0.34414992 -0.37192908 0.41033787
000320 79 2c 83 3e 57 10 d4 3e 92 fc ab 3e ea a9 b5 3e
       0.25619867 0.41418716 0.33591133 0.35481197
000330 be 2c 78 3e a4 60 93 3e dc 62 a4 3e 9a 62 91 3e
       0.24235818 0.28784668 0.32106674 0.2839554
000340 00 8b 7b 3e eb 0b 79 3e 0e 47 be 3e fc 1f aa 3e
       0.24564743 0.24320953 0.37163585 0.33227527
000350 2d 1d 89 3e de 49 8b 3e c0 5c 8a 3e 3b a7 95 3e
       0.26780072 0.27204794 0.27023888 0.2922915
000360 c9 d4 ce 3e 65 95 9e 3e 89 25 aa 3e 12 f2 bc be
       0.40396717 0.30973354 0.33231762 -0.36903435
000370 ba d2 ce 3e 31 88 89 3e 45 c4 cb 3e 1c 79 af 3e
       0.40395147 0.26861718 0.3979818 0.34272087
000380 0a ce cf 3e f2 d4 96 3e d8 2b 8e 3e b3 98 7b 3e
       0.40586883 0.2945934 0.27767825 0.24569969
000390 ce 5f ae 3e 57 6e d0 3e bb 52 77 3e 0e 81 ba 3e
       0.34057468 0.40709183 0.24152653 0.36426586
0003a0 e3 f6 8b 3e 10 55 cb 3e 35 88 cc 3e e0 12 a2 3e
       0.27336797 0.39713335 0.39947668 0.31655025
0003b0 94 ae ce 3e 44 82 98 3e 87 22 c5 3e 8d 3d 8c 3e
       0.40367568 0.29786885 0.38502905 0.2739071
0003c0 d7 93 9c 3e ba 6e 9a 3e eb d0 7f 3e 8f af b0 3e
       0.30581543 0.30162603 0.2498204 0.3450894
0003d0 78 6b a4 3e 58 07 c0 3e 62 a6 90 3e 3e 4e a0 3e
       0.32113242 0.37505603 0.2825194 0.31309694
0003e0 78 4a 97 3e 4a de 90 3e 58 bf cc 3e 3b 6a 88 3e
       0.29549003 0.28294593 0.39989734 0.26643547
0003f0 b1 80 c6 3e d8 e0 90 3e dc 7f cb 3e 21 19 a2 3e
       0.3877006 0.28296542 0.39745986 0.31659797

func.linear2.bias f4 [672]
000000 bd 60 cd 3e b9 d4 d3 3e 2b ef d2 be 5c 7c 97 be
       0.40112868 0.41373232 -0.41198096 -0.29587066
000010 03 29 b2 be 81 8a c9 3e c2 88 8e be cf 79 e9 bc
       -0.34796914 0.39363483 -0.27838713 -0.028500466
000020 a7 fe b3 3e 44 90 ad be ec 91 88 be 7f e2 80 be
       0.35155222 -0.33899128 -0.2667383 -0.25172803
000030 59 b1 c4 be 71 5a 82 be 42 9e a2 be 9e e9 cf be
       -0.38416556 -0.25459626 -0.31761366 -0.40607923
000040 a0 2c 9d be f8 e9 c3 3e 07 46 ae be 03 cb 99 be
       -0.3069811 0.38264441 -0.34037802 -0.30037698
000050 83 35 d0 be d4 32 b0 be 21 c6 85 be 32 84 87 3e
       -0.40665826 -0.3441378 -0.26127723 0.26468045
000060 ff 52 d0 3e a0 92 b3 3e 30 fe 75 be 3a 2a d3 3e
       0.4068832 0.35072803 -0.24022746 0.41243154
000070 7d ce c6 3e a0 38 b5 3e 19 1e b4 3e c8 2d ad 3e
       0.38829413 0.35394764 0.35179213 0.3382399
000080 20 af 0d 3f d8 14 af 3d f8 e8 b6 be a1 9b b3 3e
       0.55345345 0.085488975 -0.35724616 0.35079673
000090 da 1b 8d be c3 b3 f7 3d 17 85 03 3f fd c9 ef 3e
       -0.27560312 0.12094834 0.51374954 0.46833792
0000a0 bb cd b5 3e 83 b2 b3 be e5 bf 8d 3e 92 d8 57 3e
       0.35508522 -0.3509713 0.27685466 0.21078709
0000b0 90 18 05 be 61 f1 7e 3e f8 ec b6 3e f3 5f ce 3e
       -0.12997651 0.24896766 0.35727668 0.40307578
0000c0 db 8a be 3e b0 13 a5 be 43 21 c1 3e 3d fb a5 be
       0.37215313 -0.32241583 0.3772069 -0.32418242
0000d0 6d 0a a8 3c b9 f3 a7 be 3f 14 cc 3e 36 52 b9 3e
       0.020512784 -0.32803133 0.39859197 0.36195534
0000e0 40 7e b9 3e 79 6f ab 3e 7f c8 92 3e 48 c7 c9 3e
       0.36229134 0.33483484 0.2866859 0.39409852
0000f0 b8 a4 ab be 29 5a 85 be 5b 87 d6 3e 06 83 c0 be
       -0.33524108 -0.2604535 0.41900143 -0.37599963
000100 e3 71 83 be 7f 98 d3 3e 7e 4b 86 be 58 9a ec 3e
       -0.25672826 0.41327283 -0.2622947 0.46211505
000110 26 3e d9 be b5 7e 8f be 6e 40 c1 be ea a4 94 be
       -0.42430228 -0.28026357 -0.37744468 -0.2903207
000120 eb 9f 96 be b9 1c 0b be 16 e2 90 3e 34 83 bc 3e
       -0.29418883 -0.13585176 0.2829749 0.3681885
000130 8f d2 a3 3e 4a d0 be 3e b9 e2 89 be 03 b2 85 be
       0.3199658 0.37268287 -0.26930788 -0.26112375
000140 2a 00 8c be 4b e6 c4 be 15 52 b0 bd 4e ab 9b be
       -0.27343875 -0.3845695 -0.08609406 -0.30404133
000150 62 ea a7 be 2f 45 d5 be f8 f2 fa bd 2a 75 c5 be
       -0.32796007 -0.41654345 -0.12253374 -0.38565952
000160 d6 d3 99 be 62 f2 9f 3e 17 5c 79 be 22 91 ad be
       -0.3004443 0.3123961 -0.24351536 -0.3389979
000170 d3 8f 74 3e 19 7e a0 be f3 fa f7 3c c8 ba 7f be
       0.2388299 -0.31346205 0.03027103 -0.24973595
000180 b7 8e 92 be a5 5b 80 be c5 9b 92 3e bd 42 95 be
       -0.28624508 -0.2506992 0.28634468 -0.2915248
000190 7d 39 7b be 36 4f 83 3e 32 cb 80 3e ff fc ca 3e
       -0.24533649 0.2564637 0.25155026 0.39646146
0001a0 c5 3a c9 be ee ca 84 be 48 48 bb be 6d cf 7b be
       -0.3930265 -0.25936073 -0.36578584 -0.24590845
0001b0 58 be c8 3e 00 c1 8d 3e fd cb 6b 3e 57 a9 8e be
       0.3920772 0.2768631 0.23027034 -0.2786357
0001c0 e3 40 a8 be 67 40 97 be 6e fc d0 be 8f 64 ab be
       -0.32862005 -0.29541323 -0.4081759 -0.33475158
0001d0 50 16 8a 3e 12 ae b1 be e3 5a 6f be bf e1 84 3e
       0.26970148 -0.34703118 -0.23374514 0.2595348
0001e0 0b f2 b5 3e ee ff eb be fe 0f 8b 3e c0 81 c3 3e
       0.35536227 -0.46093696 0.2716064 0.3818493
0001f0 38 11 a5 3e 2e a7 ca 3e 96 b7 cb 3e 37 5c 92 3e
       0.322397 0.39580673 0.39788502 0.2858598
000200 c2 ab 9a be cb 0a a0 3e 50 54 c1 3e 8b 44 94 3e
       -0.30209166 0.31258234 0.37759638 0.28958544
000210 73 56 c7 3e e0 0f 10 3d 0e f0 b2 3e cc 9f a8 3e
       0.38933143 0.03517139 0.34948772 0.32934415
000220 fd 16 99 3e cb 29 de 3e bd d8 af 3e ec fe ad 3e
       0.2990035 0.4339126 0.34345046 0.33983552
000230 c5 eb b5 3e b0 3f 42 be b9 e6 a1 be 11 36 7c be
       0.3553144 -0.18969607 -0.3162134 -0.2463
000240 84 c8 b9 be ec 43 b1 3e 2a 8f 9b be 05 5c d4 3e
       -0.36285794 0.34622133 -0.30382663 0.41476455
000250 f5 25 0f 3e a3 c0 89 3e f2 53 8d 3e 68 07 8a 3e
       0.13979323 0.26904783 0.27603108 0.26958776
000260 2a 03 b9 3e a4 88 8c 3e e8 6f db 3d de f1 6f 3e
       0.36135226 0.27448 0.10714704 0.23432109
000270 8b 7f ba 3e f7 2a 94 3e 53 ff 04 3e b7 9d cd 3e
       0.36425433 0.2893903 0.12988023 0.4015939
000280 36 ee d5 3e 3a 73 c1 3e db 7d 45 3e 8b 28 ba 3e
       0.41783303 0.37783223 0.19286291 0.36359057
000290 12 5a 7f be d1 a5 b3 be 53 f5 c9 be f6 7e b0 3e
       -0.24936703 -0.35087445 -0.3944498 0.34471864
0002a0 58 7f bd be 61 e9 87 be 60 4d c4 be 0c c5 97 be
       -0.37011218 -0.2654524 -0.38340282 -0.29642522
0002b0 ed 27 7d be ed 48 cf 3e 94 6d 94 be 09 a9 85 be
       -0.24722262 0.40485325 -0.2898985 -0.26105526
0002c0 1a 1b bb be 90 e4 af 3e 0f 7b a3 3e 88 76 de be
       -0.36544114 0.34354067 0.31929824 -0.43449807
0002d0 59 27 81 be 80 9b 4b be 9c 5e 9b 3e e4 e7 c8 3e
       -0.25225332 -0.19883537 0.3034562 0.39239419
0002e0 20 96 c5 3e e6 b4 a8 3e 77 d6 d3 3e b8 90 8f be
       0.385911 0.32950515 0.4137456 -0.280401
0002f0 60 bc b5 3e 68 72 9f be 1c c3 b4 be ef 3c b9 be
       0.3549528 -0.31141973 -0.35305107 -0.361793
000300 a8 c0 9c be f0 26 7c 3e 4d 06 cc 3e 0f 58 77 3e
       -0.30615735 0.24624228 0.39848557 0.24154685
000310 b5 b5 83 3e 15 b4 a1 3e 21 32 a8 be 89 1e 96 be
       0.2572457 0.31582704 -0.32850745 -0.2932017
000320 97 c9 c0 be 5b 2d b8 3e 12 7a ba 3e 3d fc ce 3e
       -0.376538 0.35972103 0.36421257 0.40426818
000330 d4 1e a4 3e c0 31 83 3e 19 40 90 be 00 19 84 be
       0.3205477 0.25623894 -0.28173903 -0.25800323
000340 f2 fc cd be a5 5d a7 be 7a 6c d2 3e d9 dc 7d be
       -0.40232044 -0.32688633 0.41098386 -0.24791278
000350 4a b7 e4 3e 44 ec 99 be fc 9f 8b bd 12 6e bf 3e
       0.44671088 -0.3006307 -0.06817624 0.37388664
000360 78 c7 95 3e 81 be 8f 3e 39 5c b3 3e b9 bc 91 3e
       0.29253745 0.2807503 0.35031298 0.28464296
000370 0d 77 9b 3e 1a 5e 92 3e b1 cf 8e 3e aa 8a 85 3e
       0.30364266 0.2858742 0.2789283 0.26082355
000380 8d de c7 3e 5d 7a bc be e3 1a c5 be 78 d7 99 3e
       0.3903698 -0.36812106 -0.38497075 0.30047202
000390 ea 11 86 3e b6 4b 4f be 95 7b a1 3e e8 1d 8a be
       0.26185542 -0.20243725 0.31539598 -0.26975942
0003a0 a6 6a 98 3e 5c e3 b1 3e 96 7e d3 3e 5b 20 e6 3e
       0.29768866 0.34743774 0.41307515 0.4494656
0003b0 86 c8 98 3e fb b3 b0 3e 0f ae 75 3e 18 96 b4 3e
       0.29840487 0.34512314 0.2399218 0.35270762
0003c0 ba 26 d3 3e 87 55 c9 be 9c 5f bd 3e d1 7c bc be
       0.41240484 -0.39323065 0.36987007 -0.36813977
0003d0 9f 9a be 3d 6c f7 96 be df f4 b6 3e e2 d7 a6 be
       0.093068354 -0.29485643 0.35733697 -0.3258658
0003e0 b5 ca cb 3e 54 d3 a9 3e 69 b2 7d 3e e7 f0 d1 be
       0.3980309 0.33169043 0.2477509 -0.41004106
0003f0 61 b7 91 3e 1d 26 d1 be 87 13 bb 3e 86 ac a4 3e
       0.2846022 -0.4084939 0.36538336 0.32162875

initial.weight f4 [224, 3]
000000 ff 60 5e be c5 c4 39 3e 55 3a 91 be 4e 63 39 be
       -0.21716689 0.18141468 -0.28364816 -0.18104288
000010 c2 aa 74 be 78 16 57 3e 17 b5 8e 3e e9 03 55 3e
       -0.23893264 0.21004665 0.27872536 0.20802273
000020 c1 a1 e6 be 37 7a 11 be 1a 2e 86 3e 29 cc cc 3b
       -0.45045283 -0.14206778 0.26207048 0.0062499237
000030 f0 e7 d6 be 48 c5 35 bf ce 21 2f bd a1 bc 0a be
       -0.4197383 -0.7100415 -0.042756848 -0.13548519
000040 a8 fd 6f 3d 66 dc 24 bf 22 f1 ed 3d 6e 61 7b 3e
       0.058591515 -0.643988 0.11618258 0.24548885
000050 b0 5d 92 be 40 83 be 3e cf 80 a6 be 73 cb c2 3d
       -0.28587103 0.3720951 -0.32520148 0.09511461
000060 67 04 18 bf e8 c2 04 3f 97 9d 47 be 95 a8 76 be
       -0.5938172 0.51859903 -0.1949371 -0.24087746
000070 5e a9 9b be c9 f7 51 3e 0d 9a 43 3e 04 ce 99 be
       -0.30402654 0.20504679 0.19101734 -0.3003999
000080 21 8d 80 be 43 49 96 be 28 55 94 3c a8 36 76 3d
       -0.25107673 -0.2935277 0.018107012 0.060110718
000090 dd 93 7b 3e 78 21 26 3e 16 5a ba 3e a1 15 ac 3e
       0.24568124 0.16223705 0.36396855 0.33610252
0000a0 69 59 41 be 85 34 18 3f c4 92 50 3e 83 1b 90 bd
       -0.18881764 0.5945514 0.20368487 -0.070364974
0000b0 9d b2 17 3e eb 48 fd be 88 2a 82 be ed 47 cb 3e
       0.1481423 -0.49469694 -0.25423074 0.39703313
0000c0 47 4c 2a 3e dc bf 56 be 89 3f 9e be 86 b5 16 3d
       0.1663066 -0.20971626 -0.30907848 0.036794208
0000d0 2a ca a7 3e 30 5b 87 3e 81 dd 50 be 10 c2 cd be
       0.32771426 0.26436758 -0.20396997 -0.4018712
0000e0 a1 56 2b 3f 99 28 07 3f 6c 22 bc bd 54 6f 1c 3f
       0.6692906 0.5279632 -0.09186253 0.61107373
0000f0 c2 32 f8 be cb 84 f2 be 09 6d f2 be 4c 57 0f 3f
       -0.48476225 -0.47366938 -0.47348812 0.5599258
000100 ba 74 86 3e a6 73 05 be 30 75 cd 3e d2 f0 bc 3e
       0.2626093 -0.13032398 0.4012847 0.3690248
000110 18 6d 2d bf 87 67 c0 bd a2 b1 ce be b2 50 32 3d
       -0.6774459 -0.09394746 -0.40369898 0.04353399
000120 40 bc 1c be e0 95 06 bf ad db 82 3e 00 63 c6 be
       -0.15306187 -0.5257244 0.25558224 -0.38747406
000130 49 78 95 3e df 88 8d be 45 9a 0e be 1a a9 16 bf
       0.29193333 -0.27643487 -0.13926037 -0.5885178
000140 14 83 f1 3e 13 9d df bd 58 92 8a be cb 95 59 3e
       0.47170317 -0.109186314 -0.27064776 0.21248548
000150 52 95 3d be 0f 28 26 be 8c f4 5d 3d b6 63 27 be
       -0.18513992 -0.16226219 0.054188296 -0.1634663
000160 52 cd 57 3e c9 57 fd 3b 87 a7 bd 3d d0 39 89 bb
       0.21074417 0.007731412 0.09260469 -0.0041878
000170 af 0e bb be df e6 83 3e 58 5f 15 be 44 70 61 3d
       -0.3653464 0.25762078 -0.14587152 0.055038705
000180 ce 88 2a 3b e0 d3 93 be 5e 77 ca be a6 8a 8a be
       0.0026021483 -0.28872585 -0.39544195 -0.27058905
000190 25 7b 82 3d bb 38 8f 3e f6 9c 80 be f5 48 80 be
       0.06371144 0.2797297 -0.25119752 -0.25055662
0001a0 07 7c e8 3d fb d5 a3 be 91 5a c5 3e 34 5c 38 be
       0.11351781 -0.31999192 0.3854566 -0.18003923
0001b0 87 08 b7 3e e9 26 80 be d0 08 27 3e cc a5 1d 3f
       0.35748693 -0.25029686 0.16311955 0.6158111
0001c0 58 bd a9 3e 66 4f ce be 40 34 37 3f af f3 49 3e
       0.3315227 -0.4029495 0.715641 0.19721864
0001d0 a6 d3 57 3e b3 16 16 3e 48 85 c5 be aa 59 e9 be
       0.21076831 0.14657097 -0.38578248 -0.4557622
0001e0 89 ee 9c be 9e cf 13 be cc 35 50 3d ef 0f 95 3a
       -0.30650738 -0.14434668 0.050832555 0.0011372546
0001f0 2e ec 13 3e 87 23 21 3f 2e 09 12 bf 2d bb 34 be
       0.14445564 0.62944835 -0.5704526 -0.17649527
000200 73 4a b8 3e be ec 23 bd 65 69 a5 be 4e e4 97 3d
       0.359943 -0.040020697 -0.32306972 0.074165925
000210 55 fa 07 bf 6f 49 af 3d eb 21 c3 3d 70 f1 ce be
       -0.5311635 0.08558928 0.09527954 -0.40418577
000220 cd 31 1f 3f 17 81 22 be 4e 58 23 be 91 67 8f be
       0.62185365 -0.15869556 -0.15951654 -0.28008702
000230 50 3b a8 3e 60 74 d8 be f3 1c e8 3d fc 10 a6 3b
       0.32857752 -0.42276287 0.113336466 0.0050679427
000240 5c ea 2d bf 55 c6 0f bf f6 9c e4 be 33 3f 94 3d
       -0.6793573 -0.56162006 -0.44651002 0.07238617
000250 f6 d5 45 be 32 56 be be 3a db 24 3f 16 53 9a 3e
       -0.19319901 -0.37175137 0.64397013 0.30141515
000260 95 90 0e be b1 8e 2c 3f 0f 7e 2a 3f f2 e0 93 bd
       -0.13922341 0.6740523 0.665986 -0.07220639
000270 18 64 c7 3e 0e f7 16 3e 8c a1 4b be e5 a2 0f 3c
       0.38943553 0.14742681 -0.19885844 0.008766864
000280 18 05 99 3e 5e 93 6b be d6 36 bd 3e 5b b0 ad 3e
       0.298867 -0.23005435 0.369559 0.3392361
000290 94 4e 3d be 9f 9f 9f be ea 05 7f 3e 34 42 37 be
       -0.18487006 -0.3117647 0.249046 -0.17896348
0002a0 33 2a 08 be 4e 3f 79 3c 0b 3a 51 3e e7 92 26 3e
       -0.13297348 0.015212847 0.20432298 0.16266976
0002b0 e2 db 21 3e 6f ad 87 be df 92 25 3f c0 48 98 3e
       0.15806535 -0.26499507 0.6467723 0.29743004
0002c0 fb 3f 96 3e f8 cd db 3e a4 94 cd 3e 63 ee 30 3e
       0.29345688 0.4293058 0.40152466 0.17278437
0002d0 3e 20 58 be 4c a9 a0 be 7c 93 75 3d d6 c9 6a 3e
       -0.2110605 -0.31379163 0.059955105 0.22928557
0002e0 f5 28 37 be d2 0d a8 bd 02 73 03 bf 3e 2d 10 3e
       -0.17886718 -0.08205761 -0.51347363 0.14079759
0002f0 71 51 bb be 99 64 10 be 3c 3d 12 bf df b0 3e be
       -0.36585572 -0.14100875 -0.57124686 -0.18622158
000300 23 11 07 3d 14 7c 01 bf 45 a9 26 bf d3 21 41 bf
       0.032975327 -0.50579953 -0.65102035 -0.75442237
000310 00 75 81 3c 7f 1a ba be 73 ca ad 3d e6 90 69 3e
       0.01580286 -0.3634834 0.0848588 0.2280918
000320 53 32 67 be bd ba 79 3e 81 69 ab 3e 58 6b 99 bd
       -0.22577791 0.24387641 0.3347893 -0.07491177
000330 6d 7e b4 bd 36 0e de 3e 34 e0 08 bd 6c c6 33 bc
       -0.08813176 0.43370217 -0.03341694 -0.0109726
000340 b9 c8 9f be 41 70 05 3e 04 3b f8 3d 61 7c d6 bd
       -0.31207827 0.13031103 0.12120631 -0.10472942
000350 65 54 91 bd 39 c1 28 3f ec 18 ce bc 10 57 ef 3d
       -0.07096175 0.65919834 -0.025158368 0.11686528
000360 86 95 9e 3d 07 68 5a 3e f5 f0 cc 3d 43 85 8d 3e
       0.07743363 0.21328746 0.100068964 0.27640733
000370 ed 9f 0c 3f 37 b8 f2 bd 28 60 f1 3d aa ea a9 3e
       0.5493153 -0.118515424 0.117859185 0.33186847
000380 2b ab e5 be 96 e0 21 bf c8 68 79 bd 65 fa 75 be
       -0.44857153 -0.63233316 -0.060890943 -0.24021299
000390 75 7b c4 be 76 7a 32 be b0 40 0e be ec 39 7d bf
       -0.3837544 -0.17429528 -0.13891864 -0.98916507
0003a0 a4 1f 44 bf f3 a0 14 be 5f f4 a6 3e a1 36 62 3d
       -0.7661078 -0.14514522 0.32608315 0.05522788
0003b0 5a e6 25 be 94 19 22 3e a1 50 9e be 6e e4 d8 be
       -0.16201153 0.1583007 -0.3092089 -0.42361778
0003c0 e3 58 46 3f e0 58 7c 3e 5e b0 ba 3d ae 01 ef be
       0.7747938 0.24643278 0.091156706 -0.4668097
0003d0 de a3 e9 3d 6c 49 9c be 26 f6 03 3f b3 36 17 be
       0.11408208 -0.30524766 0.5154747 -0.1476696
0003e0 20 3f 05 3f c8 18 8a 3e eb 17 82 3d 9c b3 5b 3d
       0.52049446 0.26972032 0.06352218 0.053638086
0003f0 1a 45 1a 3e eb ed bb 3e 72 cc 5a be 01 1c 0d 3f
       0.15065423 0.36704955 -0.21367052 0.55120856

initial.bias f4 [224]
000000 2c 83 71 bc 84 78 20 bf 0e dc 0f 3d e6 34 9f be
       -0.0147407465 -0.6268389 0.03512197 -0.31095046
000010 7d 61 59 be 47 ab 42 3e 6b b4 4b bf b3 2a 5a be
       -0.21228595 0.1901065 -0.7957217 -0.21305351
000020 a0 7e 6b 3e 17 fd 04 bd 85 ba 4a be ec 44 04 3f
       0.22997522 -0.032467928 -0.19797714 0.51667666
000030 cb 43 14 3e 2b 47 2a 3f 92 24 e5 3c ad 8b 90 be
       0.14478986 0.66514844 0.02797154 -0.28231564
000040 6a c0 d6 be 4f cc 31 3e f7 ab 02 3d c2 d6 66 bd
       -0.41943675 0.17363094 0.03190228 -0.056357153
000050 ab 03 35 bf 8a de 53 3e 25 62 22 3f 52 c0 0f bf
       -0.7070872 0.2069036 0.63431007 -0.5615283
000060 73 69 b0 3e 7a a7 2b be 0d 78 33 bf 22 a9 c5 be
       0.3445545 -0.16763106 -0.7010506 -0.386056
000070 db 77 01 3e dd 4d 2c bf e0 4c e1 3e 30 2b 01 bf
       0.12643377 -0.6730631 0.44003963 -0.50456524
000080 bb cf 92 3e 12 68 95 3c 85 80 85 be db c9 61 3e
       0.2867411 0.018238101 -0.26074615 0.22049658
000090 00 30 0c 3f 1b 7e 17 3d 05 f0 d9 3e cb 65 55 3b
       0.5476074 0.036985498 0.42565933 0.0032561894
0000a0 9c b0 37 3f 21 dd ce 3d 75 b1 e0 be 6a d5 0c be
       0.7175386 0.10100771 -0.4388539 -0.13753286
0000b0 44 14 8f 3e bf 3f 97 3e 5e b6 9a bd 19 67 13 bf
       0.2794515 0.29540822 -0.07554315 -0.5757919
0000c0 e3 0a 83 bf 4a 29 18 bf 12 c0 12 3f 8c 7f ea bd
       -1.0237697 -0.59438 0.57324326 -0.11450109
0000d0 a6 19 b6 be 23 22 4b 3d e1 3d 0f bf 60 15 24 be
       -0.35566443 0.049593102 -0.55953795 -0.16023779
0000e0 1c b7 c6 bd d4 90 92 3c 70 92 ea be 7b 40 ae be
       -0.09702894 0.017891325 -0.45814848 -0.3403357
0000f0 03 27 0c be 0f 50 1d bf 21 b1 e6 be 44 32 5e bf
       -0.13686757 -0.61450285 -0.45057014 -0.8679545
000100 98 c7 07 bf c6 c6 ca be 29 c3 0d bc 7e 1b 0d 3e
       -0.5303893 -0.39604777 -0.008652487 0.13780019
000110 05 82 3b 3f 1b bc 8f 3e c5 b5 66 be 84 35 23 bf
       0.7324527 0.280732 -0.22530277 -0.63753533
000120 a7 3e 90 be 17 04 c1 3e 5d 7b 05 bf 1d fb 0d bf
       -0.281728 0.37698433 -0.5214136 -0.55461293
000130 d7 ff ce 3d ef a6 b0 be e9 48 9a 3c 0a eb cc be
       0.10107391 -0.3450236 0.018833594 -0.4002307
000140 f3 f1 cc be 3e 2d 2a bf d7 3f c9 bc b5 2d 07 3f
       -0.40028343 -0.66475284 -0.024566574 0.5280412
000150 12 28 83 bd 4f db 25 3e 23 b4 ae be 94 79 57 be
       -0.06404127 0.16196941 -0.34121808 -0.21042472
000160 1b 3c ed 3a ed 1b 4e 3f 45 2c f7 3d c5 90 06 3f
       0.0018099578 0.8051136 0.120689906 0.5256465
000170 e2 3b 01 bf e8 1a ce be 09 98 12 bf 67 e8 39 3f
       -0.50482 -0.40254903 -0.5726324 0.7262024
000180 dc ac 1f 3e 25 dd b2 3d bb f6 00 bf 91 ef 20 bf
       0.15593284 0.08733586 -0.5037648 -0.6286555
000190 f3 5e fe 3e 0f d9 ca be ed c0 c2 3e 18 0d 00 3f
       0.49681816 -0.39618728 0.38037816 0.5001998
0001a0 99 89 56 bd cf 40 a3 be 4a 46 41 3e 5e 8f 30 bf
       -0.052377317 -0.31885383 0.1887447 -0.6896876
0001b0 75 45 4b be f3 72 35 be 2e 59 f1 bd a5 56 75 3d
       -0.19850715 -0.17719631 -0.11784588 0.059897084
0001c0 b8 ac 49 3c 0e 52 8c 3d f3 ce 0c bf 20 cb 9d 3d
       0.012309246 0.06851588 -0.5500328 0.07704759
0001d0 36 37 de 3c 88 39 50 bf e6 bd cc bd d9 d2 d6 be
       0.027125936 -0.81337786 -0.09997158 -0.4195774
0001e0 fd 1f 24 be b0 62 a9 3e 9e 1a f9 be 05 f2 20 bd
       -0.16027828 0.33083105 -0.4865312 -0.039293308
0001f0 9a 5b e0 3e e5 22 32 3e ef f5 37 bb e7 f3 09 be
       0.43819886 0.17396124 -0.0028070172 -0.13471948
000200 00 b3 d5 bc c2 9f 15 bf 82 c1 c6 be 94 14 f1 3d
       -0.02608633 -0.58446896 -0.3881951 0.11771503
000210 42 73 67 3e 52 7a 5c 3e cd b5 2b 3d 1b f4 df 3e
       0.22602561 0.21531036 0.041921426 0.43740925
000220 30 0f 13 be bf d5 ff 3e 95 fb b1 3e 1f f9 80 bf
       -0.14361262 0.49967763 0.34762254 -1.0076026
000230 76 1f 03 bf 77 56 b2 3e a5 3f 8a 3e 63 b3 15 3f
       -0.5121988 0.34831592 0.27001682 0.5847685
000240 42 29 83 be d4 07 3a bd ec 24 11 bf 73 3c 39 3f
       -0.25617415 -0.04541762 -0.56696963 0.72357863
000250 12 99 41 bc a6 f0 d2 3e 20 14 dd bd d0 ed 9c be
       -0.01181628 0.41199225 -0.10794854 -0.30650187
000260 b1 30 97 3e 35 60 d3 be a9 9f 4b bc 1e 4c a2 3e
       0.29529336 -0.41284338 -0.012428203 0.31698698
000270 ba f2 aa bd bb 8a 0f 3d ba 51 62 3e cd 0b 62 bd
       -0.08347078 0.035044413 0.22101489 -0.055187035
000280 cd b4 64 3e d2 a4 06 3f 01 99 c8 3e a4 f5 d7 3e
       0.22334595 0.52595246 0.39179233 0.42179596
000290 4c 0d 94 be 5c ee f2 be b6 28 b3 3e ec 81 4c 3f
       -0.28916395 -0.4744748 0.34991997 0.79885745
0002a0 a3 9a a7 bb 89 ca e0 be bf cc a0 be e4 68 47 3e
       -0.0051148697 -0.43904522 -0.3140621 0.19473606
0002b0 61 67 6f 3f 9d e8 48 3e 63 27 11 3e 14 05 65 be
       0.9351712 0.19619985 0.14175181 -0.22365218
0002c0 f2 99 41 bf 8d 77 39 3f 53 85 20 be ff f6 b1 3e
       -0.75625527 0.72448045 -0.15675859 0.34758756
0002d0 b8 0a 8f 3e a3 d2 89 3d cf d7 c7 3d 02 1d d0 3e
       0.27937865 0.06729629 0.09757959 0.4064713
0002e0 5d b0 ac 3b 9e 2b 3b 3f 52 6a 39 be 55 ca a2 3b
       0.0052700476 0.7311343 -0.18106964 0.0049679675
0002f0 a4 18 68 3e ad 95 98 bd 2e 03 ad 3e 71 47 61 3e
       0.2266565 -0.074504234 0.33791488 0.21999909
000300 64 fc e4 be b6 86 bb 3d eb a1 4f be eb d6 0e be
       -0.4472381 0.091565534 -0.2027661 -0.13949172
000310 95 1f 09 3d ab f1 91 3d 78 7b 10 3f 1a 17 32 3f
       0.033477385 0.07126173 0.564384 0.695665
000320 aa d0 21 be 26 ae 0a 3c b3 5d ec be 67 0d 9b 3e
       -0.15802255 0.008464372 -0.46165237 0.30283663
000330 98 64 0a bf 66 c5 8b be fd 62 5c 3e a9 20 b4 3c
       -0.54059744 -0.2729904 0.21522136 0.02198823
000340 2f 60 c8 be b6 a3 da bd f5 66 bb be 33 61 4a be
       -0.39135882 -0.10675757 -0.36601987 -0.19763641
000350 9b 15 d9 be 23 7a 89 bd b3 a6 cd 3e b0 3c cc bd
       -0.42399296 -0.06712749 0.40166244 -0.09972513
000360 a0 8f cf 3e aa a1 bd 3d 26 61 dc be b7 ea 06 bd
       0.40539265 0.092593506 -0.43042868 -0.032938685
000370 42 f9 10 bd 6c 3a 68 be ae 2b c2 be 8a fd 06 3f
       -0.03539396 -0.22678536 -0.3792395 0.5273062

readout.weight f4 [126, 224]
000000 68 45 a8 3e cd 0b 99 be 73 24 67 be 27 db 8f be
       0.32865453 -0.29891816 -0.22572498 -0.28096887
000010 ad 78 94 3a 2e 7d d8 bd d5 ba 74 be 2c c0 ad 3e
       0.0011327468 -0.10570751 -0.23899396 0.33935678
000020 86 45 85 3e aa 2d a7 be c6 75 98 3e 7a 27 f8 bd
       0.26029605 -0.32652026 0.29777354 -0.121169046
000030 ae a9 88 be ba 9a cd be 92 38 16 3e 77 dd 7b 3e
       -0.26691955 -0.4015711 0.14670017 0.24596201
000040 49 e3 86 3e 0f 91 8a be 0b fb 67 3e 26 87 b2 be
       0.2634528 -0.27063796 0.22654359 -0.34868735
000050 74 92 99 3e 72 b9 ad be 84 4b 22 be d7 8e c0 3e
       0.29994547 -0.33930546 -0.1584912 0.37608978
000060 c5 a6 b0 be 07 75 b5 3e 92 96 c9 3e 06 d7 3c be
       -0.34502235 0.35440847 0.3937269 -0.184414
000070 44 31 aa be 60 ce 83 be 8e 64 3d be 88 c1 a0 be
       -0.33240712 -0.2574339 -0.1849539 -0.31397653
000080 2c 11 00 be f9 68 96 be 6e 7d c6 3e 99 19 9d be
       -0.1250655 -0.29376963 0.3876757 -0.30683592
000090 eb d1 a4 3e 8b 3e a2 be 61 59 b0 be a1 1e d0 3e
       0.32191405 -0.31688341 -0.3444319 0.40648368
0000a0 76 d0 93 3e c8 bf b2 be 97 6f ba be 4e 5f ae 3e
       0.2886998 -0.34911942 -0.3641326 0.34057087
0000b0 ad 49 6c 3d b1 aa b3 be 4c 4d 64 3e 7c fe ac be
       0.05768745 -0.35091165 0.22295111 -0.33787906
0000c0 61 fd cb 3e b6 4b b3 3e 4d 78 96 be d9 7d 17 be
       0.3984175 0.350187 -0.29388657 -0.14794101
0000d0 14 15 95 3e 7a bb 83 be b8 96 8a be 65 fe 94 be
       0.29117644 -0.2572897 -0.27068114 -0.29100338
0000e0 c1 ca 9b be ab b7 c8 be 54 61 a2 be 1b 60 be be
       -0.30428126 -0.39202628 -0.3171488 -0.37182698
0000f0 26 ae 98 3e 72 67 9e 3e 37 f5 9c 3e c4 02 c3 3e
       0.29820365 0.30938298 0.30655834 0.38088048
000100 1d 49 9c 3e 03 59 7f 3e 21 59 8c be 87 c8 9b 3e
       0.3052453 0.24936299 -0.2741175 0.30426428
000110 94 3f ad be d5 72 ae 3e de 9e 82 3e 0b 3d 70 be
       -0.3383757 0.34071985 0.2551183 -0.23460786
000120 12 0c bb be af 64 cc be 25 ef 8b be 7b 03 5d be
       -0.36532646 -0.39920565 -0.2733089 -0.21583359
000130 97 68 94 3e 3e e4 f1 3e 41 c1 88 3e fb 13 c3 3e
       0.28986046 0.47244447 0.2670994 0.3810118
000140 1e e5 9d be ad cd 76 3e a8 0a 5c 3e 9e 1c 9a 3e
       -0.30838865 0.24101897 0.2148844 0.30099958
000150 69 7b 8f be 35 19 ad 3e bb 2d 9a 3e 8d bc cc 3e
       -0.28023842 0.33808294 0.30113015 0.39987603
000160 fc 2d 97 3e d8 d7 b9 be 7c cb b9 be b3 04 cc bb
       0.2952727 -0.36297488 -0.3628806 -0.006226146
000170 c9 c2 ca 3e bd b2 df be 3a 9d 50 3d 83 bd 3e 3d
       0.39601734 -0.43691054 0.050931193 0.04656745
000180 29 5f 90 be c3 f5 81 be 6f e5 89 be dd df 47 be
       -0.281976 -0.25382814 -0.26932856 -0.19518991
000190 91 00 b3 be 75 c7 8f 3e 5e be 51 be 15 ae 64 be
       -0.3496137 0.2808186 -0.20482776 -0.22332032
0001a0 c1 9c 77 3e 31 28 aa 3e 99 c0 74 3e ea 5a bf 3e
       0.2418089 0.3323379 0.23901595 0.3737405
0001b0 92 52 c8 be 48 97 db 3e db a5 a1 be 52 9f 7e be
       -0.39125496 0.42888856 -0.3157185 -0.24865463
0001c0 59 f8 a6 be 25 50 a9 be 3c 28 92 bd 18 29 81 3e
       -0.3261135 -0.33068958 -0.0713658 0.25226665
0001d0 df e7 ab 3e 6c e2 bf 3e 24 ea 8a 3e 2b 05 99 be
       0.3357534 0.37477434 0.2713176 -0.29886755
0001e0 91 8c a3 be b9 a6 81 be d8 98 98 be d6 84 8d 3e
       -0.3194318 -0.25322512 -0.2980411 0.27640408
0001f0 2a 61 79 be df bd b2 be 9e 3f a3 be 34 11 bd 3d
       -0.24353471 -0.34910485 -0.31884474 0.09231797
000200 75 02 a6 3e f6 fd 83 be 8b 42 89 be 86 39 5d 3e
       0.3242375 -0.25779694 -0.2680858 0.21603975
000210 f3 79 1a be 06 66 a9 be b5 e3 c4 3e 42 43 54 3e
       -0.15085582 -0.3308565 0.38454977 0.20728782
000220 7b 74 b5 3e 75 c5 a0 3e 6f 64 63 be 68 2c 91 3e
       0.3544043 0.31400648 -0.22206281 0.28354192
000230 2c 14 a9 be 5c e5 92 bd c2 26 d5 be 02 13 8b 3e
       -0.33023202 -0.07172653 -0.41631132 0.2716294
000240 17 f7 b0 3e ba f7 c9 be 8a 10 95 be a0 04 92 be
       0.34563515 -0.39446813 -0.2911418 -0.28519154
000250 ea 9d 29 3e b6 2e 5d be 6f 85 86 be 70 27 94 be
       0.16564146 -0.2159985 -0.26273677 -0.28936338
000260 6b e3 a2 3e d4 ab 69 be 7b a5 0a be 42 52 47 3e
       0.3181413 -0.22819453 -0.13539688 0.19464973
000270 f1 a2 b4 be a9 3f 7a 3e d2 1a 93 3e 71 6c 88 be
       -0.35280564 0.24438347 0.287314 -0.26645234
000280 6d ff 9f 3e 10 f9 94 be 9e 37 be 3e da 0f e3 3e
       0.31249562 -0.2909627 0.37151808 0.4434803
000290 bb 9b 90 3e cb b8 ba be 2f 5d 84 be b6 b8 66 be
       0.28243813 -0.3646911 -0.25852343 -0.22531399
0002a0 e0 2b 94 3e f1 5d 30 be bb 4f a4 3e 24 68 70 be
       0.28939724 -0.17223336 0.3209208 -0.23477226
0002b0 0f 4e d9 be 87 5e 07 be 8d 80 a9 bd e6 b3 b0 3e
       -0.42442366 -0.13219653 -0.08276472 0.34512252
0002c0 3d 38 e5 3e fa 22 a5 be 3c 4b 57 be 3f b2 a2 3e
       0.4476947 -0.32253247 -0.21024793 0.31776616
0002d0 6a bc 84 be e1 81 ac be f7 c9 9a 3e e9 d6 cd be
       -0.25925 -0.3369284 0.30232212 -0.40203026
0002e0 75 11 9c be 1e c1 6d be 33 93 1d 3e 88 22 b4 be
       -0.3048207 -0.232182 0.15388183 -0.35182595
0002f0 52 d6 9f 3e 0a 69 d9 bd b2 f4 a6 be c3 b9 8b 3e
       0.312182 -0.10615738 -0.32608563 0.27290162
000300 65 37 67 be bc f6 e3 be 9d a1 b0 bd f3 60 c3 3e
       -0.22579725 -0.4452418 -0.08624575 0.38159904
000310 c0 3d 74 3e bf d3 b4 3e 35 ae ac 3e ce 8b d5 be
       0.23851681 0.353178 0.3372666 -0.41708225
000320 61 15 84 be 34 e8 b6 3e c3 bb 8e 3e cf c8 a5 be
       -0.2579756 0.35724032 0.27877626 -0.32379767
000330 75 12 c5 3e 12 a8 23 be 4d 00 92 3e 1a 96 90 3e
       0.38490644 -0.15982082 0.28515854 0.28239518
000340 fb 84 97 3e 45 d9 a8 be c6 ba 8e 3e ad 75 c0 be
       0.29593644 -0.32978263 0.27876872 -0.3758978
000350 c1 12 b8 3e 3e d3 d0 3e a8 a6 65 be 75 43 86 be
       0.35951808 0.40786165 -0.22426856 -0.2622334
000360 b9 91 9e be 87 36 92 be d4 3c 8e 3e 26 c5 cc 3e
       -0.30970553 -0.28557226 0.27780783 0.39994162
000370 0b 98 91 3e 6a 17 6e 3e 90 0b 72 3d e3 e3 86 be
       0.28436312 0.2325112 0.059093058 -0.2634574
000380 cd 54 bd 3e 15 af ae be 68 1e 2c be c8 5e a8 be
       0.3697876 -0.34117952 -0.16808474 -0.32884812
000390 57 a1 12 3e e1 6c ad bd b8 64 38 be d6 5b 95 3e
       0.14319359 -0.08468033 -0.18007171 0.29171628
0003a0 7e d8 29 3e 7a 52 a7 be 56 e8 8b 3e 62 75 a6 be
       0.16586491 -0.32680112 0.27325696 -0.3251143
0003b0 25 50 a1 be 91 a8 4f be a8 30 84 3e 0f ed 6c 3e
       -0.31506458 -0.20279147 0.25818372 0.23137306
0003c0 86 5b 84 3e 4f cf c2 be ae f0 70 3e b4 b2 d9 be
       0.25851077 -0.3804879 0.23529312 -0.42519152
0003d0 33 1b 7f 3e 9e 5b 91 be 69 df 13 be 5e e7 a0 3e
       0.2491272 -0.2839021 -0.14440693 0.3142652
0003e0 e8 72 38 3d 2a fb 7f 3e 68 63 bc 3e 0a 22 80 be
       0.04503146 0.24998155 0.3679459 -0.2502597
0003f0 c4 4d b0 be 53 0d a5 be fe f8 72 be 1b 4a ae be
       -0.3443433 -0.32236728 -0.23727795 -0.34040913

readout.bias f4 [126]
000000 9d a8 a5 be 6e 9a c9 be a6 84 2b be 16 7f 61 3d
       -0.32355204 -0.39375633 -0.1674982 0.05505284
000010 a8 9a 49 be ee 1d c4 be 6a 4a 58 be a4 82 93 be
       -0.19687903 -0.38304085 -0.21122137 -0.28810608
000020 5a 7f cf be 0f bb 89 be 08 67 ed bb 42 f9 17 3d
       -0.4052685 -0.26900527 -0.0072449483 0.037102945
000030 01 87 6b be e7 db 7c be bf 51 94 be db 8e 97 be
       -0.23000719 -0.24693261 -0.28968617 -0.29601178
000040 db 87 80 be 2f d2 ca be 19 7a db be f7 ed 94 be
       -0.2510365 -0.39613482 -0.4286659 -0.29087803
000050 04 fd f6 bd 23 f6 dd be 9d b1 06 bf 9a 9e c0 be
       -0.12059978 -0.4335185 -0.52614766 -0.37621003
000060 04 32 a5 be d2 61 9d be 9f b6 d5 be 66 e5 b9 be
       -0.3226472 -0.30738693 -0.4174089 -0.3630783
000070 13 d6 ca be 26 53 94 be 8d 21 f9 be 45 ef a8 be
       -0.3961645 -0.28969687 -0.4865841 -0.32995048
000080 1c 49 a0 be d2 6d 09 bf ab 20 9b be 44 5b d6 be
       -0.31305778 -0.536832 -0.3029836 -0.41866505
000090 69 b8 c6 be 43 4e cc be c9 4b d6 be 70 52 d1 be
       -0.3881257 -0.3990346 -0.41854694 -0.40883207
0000a0 21 42 92 be 3e 7b c6 be 33 69 c6 be 56 84 f8 be
       -0.28566077 -0.387659 -0.38752136 -0.48538464
0000b0 a3 5a e5 be 47 8c e3 be 89 88 d1 be 78 71 be be
       -0.44795713 -0.4444296 -0.4092448 -0.37195945
0000c0 e2 22 a4 be 3b 6f c9 be 56 51 c2 be 9a 94 9e be
       -0.32057863 -0.39342675 -0.3795268 -0.3097275
0000d0 6f 6b 8a be fd 9c ca be 8d 5e c9 be 44 1b fc be
       -0.2703509 -0.39572898 -0.3932995 -0.49239552
0000e0 20 3c 11 be cd 77 a2 be 5f 98 c6 be 15 b0 c1 be
       -0.14183092 -0.31732026 -0.38788125 -0.37829652
0000f0 0f 11 f3 be d4 f7 ca be 3f 6c aa be 87 28 99 be
       -0.47473952 -0.39642203 -0.3328571 -0.29913732
000100 38 03 fb be 89 99 d9 be a4 c2 8e be 98 36 86 be
       -0.49025893 -0.4249995 -0.27882874 -0.26213527
000110 8d 7f b5 be a3 50 bd be b1 3c de be f4 7f da be
       -0.35448876 -0.36975583 -0.4340568 -0.42675745
000120 56 aa 02 bf 92 22 01 bf fa c8 86 be ad 5c 13 bf
       -0.5104116 -0.50443375 -0.26325208 -0.57563287
000130 2d ce be be 61 7b e6 be b2 cf b6 be 41 a5 c3 be
       -0.37266675 -0.45016006 -0.35705334 -0.38212016
000140 02 cb be be 4b 2f b4 be 6d 00 fb be 79 8d a0 be
       -0.37264258 -0.35192332 -0.49023762 -0.31357935
000150 cf 4a b7 be 39 cb a9 be 3b 19 a1 be 0a 01 73 be
       -0.35799262 -0.3316286 -0.31464562 -0.23730865
000160 05 90 98 be 89 df cf be 5c d7 8d be 62 1c b3 be
       -0.29797378 -0.4060023 -0.2770337 -0.34982592
000170 b5 00 fa be f2 2a 94 be 9e 28 a5 be 95 dc 64 bd
       -0.48828664 -0.28939015 -0.3225755 -0.055874426
000180 0b 6c 52 be 6c b9 56 be b9 ab 7a be 2d c7 ad be
       -0.20549028 -0.2096917 -0.2447957 -0.33941022
000190 ea 22 c4 bd f6 df e0 be c1 80 8e be 02 3a b9 be
       -0.09576972 -0.4392087 -0.27832606 -0.3617707
0001a0 68 54 11 bf 2b 7f a6 be 0b 61 c5 be 1e 5c c1 be
       -0.5676942 -0.32518896 -0.385506 -0.37765592
0001b0 5b 2f 06 bf 3f 63 ab be 70 7c 79 be 68 3d a4 be
       -0.5241601 -0.33474156 -0.24363875 -0.320781
0001c0 26 3a c1 be bc 6c af be 91 25 af be 0c 8d f1 be
       -0.37739676 -0.34262645 -0.34208348 -0.47177923
0001d0 71 e7 93 be 55 86 90 be ad ea fe be a2 24 d3 be
       -0.28887513 -0.28227487 -0.49788418 -0.41238886
0001e0 c0 0e 70 be e4 67 98 be 46 aa a1 be 1b 27 42 3d
       -0.23443127 -0.29766762 -0.3157522 0.047400575
0001f0 f9 52 ad be 46 f0 1c 3d
       -0.33852366 0.03831508
