cde/model/rk4/13.ckpt (torch, 581263 bytes, 8 tensors)

func.linear1.weight f4 [128, 224]
-0.020475231 -0.098157614 0.21071297 -0.07546133 -0.03354161 0.0069088945 0.05297252 0.5170279
-0.45077714 -0.39997196 0.15623978 0.34722137 0.22102614 0.009953931 -0.37685516 -0.0042670527
0.43864465 -0.26460546 0.0116136735 -0.3099808 0.17369546 0.34842846 -0.46591803 0.26798305
0.26041755 -0.27461272 0.40314487 0.20693944 -0.0588006 0.42726955 -0.21232402 -0.30615836
0.46488985 0.43600574 0.030598138 0.5124364 0.18911362 -0.041573476 -0.31899256 0.47057515
0.4875117 -0.25157803 -0.22643474 0.21700399 0.036893293 -0.42363647 0.33069044 -0.21504949
0.10377436 0.41070583 -0.33831888 -0.34058166 0.3010052 -0.41554967 -0.46676672 -0.077593654
-0.4695811 0.019629968 -0.05843611 -0.44034734 0.27635455 -0.046418995 0.5182323 0.4383902
0.526756 -0.25925192 -0.114288494 -0.039164416 -0.5898323 -0.114642866 0.2668171 0.35291556
-0.31967118 -0.35261595 -0.0055705765 -0.029266791 0.32995787 0.06253736 0.2085684 0.1225437
-0.15712045 -0.42250013 0.11734254 -0.396961 0.4998907 0.4155266 0.48667163 -0.15689693
0.4156223 0.35519853 0.008099288 -0.3796164 0.35037938 0.09496464 -0.4435531 0.23621464
-0.5115322 -0.16592479 -0.24859506 0.06847866 0.10886504 -0.08201118 -0.37920466 -0.06254612
0.31135166 0.4589316 0.18833843 0.29552862 -0.41510904 0.1354558 -0.4835996 -0.23965995
-0.2423796 -0.13487892 0.029609278 -0.027137622 0.253465 0.39226392 0.3790934 -0.49170852
-0.13608637 -0.25579914 0.053143356 0.4603407 0.4197831 -0.34985757 -0.1165667 -0.2723509
-0.15112185 -0.42784983 -0.007848267 -0.105749406 0.09707557 -0.14399284 0.31732136 -0.050793517
0.090756536 -0.13952291 0.015750013 0.5133575 0.40155873 0.11582171 -0.32067484 0.36874345
0.046993244 -0.37133372 -0.45632413 0.25424308 0.39573583 -0.33489114 -0.340634 -0.049901176
0.10564445 -0.18703613 -0.2004797 0.4417152 -0.47609195 -0.34754354 0.28113312 -0.27460444
0.12356259 -0.14350812 0.34349117 0.50320363 0.46621183 -0.038119677 -0.44443217 -0.32340905
0.013629761 -0.33609846 0.375622 0.41828653 -0.28471705 -0.50593054 -0.43129322 0.41573426
0.1273618 -0.41286933 0.35339093 0.05735694 -0.050105892 -0.36644766 0.2949883 0.019021355
0.29791513 0.016540356 -0.08282574 0.45063457 0.32206884 0.0682935 -0.0908282 0.5107938
-0.25044245 -0.09383951 0.22567879 0.0502081 0.29039937 -0.12502317 0.44781816 0.023014959
-0.23085046 -0.14681618 -0.33334357 -0.08669434 0.35297796 0.19167118 0.37880418 -0.110528074
0.03296898 0.055436175 0.098488875 -0.047297608 0.21027704 0.18736656 -0.02083017 -0.14834249
-0.1558266 -0.15090755 0.043889567 -0.2773736 0.11328372 -0.28545526 0.042976867 -0.48281914
-0.15186886 -0.5010969 0.51744044 -0.58866554 -0.09715786 0.46317604 -0.11988434 0.5346071
-0.25997713 0.055079415 -0.5279381 0.07453769 0.20593241 0.17303823 -0.44708207 -0.5171571
0.4706725 -0.22703663 -0.48044845 -0.28818586 0.5123942 0.16365318 -0.4519805 -0.1537959
0.46696493 0.554202 0.03318287 -0.5269002 0.029843133 0.19923782 0.58307874 0.16854528
00000000: acbb a7bc dc06 c9bd 24c5 573e 788b 9abd
00000010: ed62 09bd 0264 e23b b7f9 583d f15b 043f
00000020: 43cc e6be 20c9 ccbe 52fd 1f3e 00c7 b13e
00000030: ad54 623e d015 233c 29f3 c0be a2d2 8bbb
00000040: 0896 e03e 5e7a 87be 4747 3e3c ceb5 9ebe
00000050: 39dd 313e 3765 b23e cf8c eebe 1335 893e
00000060: 7355 853e 0a9a 8cbe 0169 ce3e efe7 533e
00000070: e6d8 70bd 13c3 da3e 786b 59be cac0 9cbe
00000080: 0b06 ee3e 253c df3e f2a8 fa3c 082f 033f
00000090: 00a7 413e f348 2abd fe52 a3be 3aef f03e
000000a0: 229b f93e d6ce 80be 82de 67be 4b36 5e3e
000000b0: 6c1d 173d e1e6 d8be 4250 a93e ef35 5cbe
000000c0: a787 d43d 0948 d23e 2238 adbe b860 aebe
000000d0: 5b1d 9a3e edc2 d4be 0cfc eebe 6ce9 9ebd
000000e0: ef6c f0be 07cf a03c b45a 6fbd 3575 e1be
000000f0: 587e 8d3e d821 3ebd dfaa 043f ae74 e03e
00000100: 7bd9 063f abbc 84be 1610 eabd de6a 20bd
00000110: 40ff 16bf e1c9 eabd 409c 883e 59b1 b43e
00000120: f1ab a3be 148a b4be 6289 b6bb e9c0 efbc
00000130: 3df0 a83e 9613 803d f492 553e 31f8 fa3d
00000140: 2fe4 20be f051 d8be 4951 f03d 793e cbbe
00000150: adf1 ff3e e7bf d43e 062d f93e 97a9 20be
00000160: 72cc d43e 95dc b53e e0b2 043c 155d c2be
00000170: ed64 b33e d27c c23d 6419 e3be 40e2 713e
00000180: c6f3 02bf 30e8 29be b48f 7ebe 8a3e 8c3d
00000190: a2f4 de3d 7af5 a7bd 1d27 c2be 2e18 80bd
000001a0: 7c69 9f3e 15f9 ea3e cadb 403e 874f 973e
000001b0: 2c89 d4be edb4 0a3e 5e9a f7be 6b69 75be
000001c0: 5c32 78be b31d 0abe 288f f23c b84f debc
000001d0: 2ac6 813e d1d6 c83e 8818 c23e 38c1 fbbe
000001e0: 3a5a 0bbe 1bf8 82be d9ac 593d c7b1 eb3e
000001f0: cfed d63e 8820 b3be 86ba eebd 9471 8bbe
00000200: b0bf 1abe 220f dbbe 0596 00bc 2593 d8bd
00000210: 8ecf c63d dc72 13be f277 a23e dd0c 50bd
00000220: 90de b93d 18df 0ebe 2c06 813c 666b 033f
00000230: 1b99 cd3e ef33 ed3d 7e2f a4be f1cb bc3e
00000240: fd7b 403d 741f bebe 51a3 e9be 262c 823e
00000250: e39d ca3e da76 abbe 9467 aebe 2d65 4cbd
00000260: 1e5c d83d 6686 3fbe 8d4a 4dbe 7f28 e23e
00000270: 53c2 f3be 3af1 b1be aef0 8f3e f498 8cbe
00000280: 620e fd3d cbf3 12be 13de af3e f4d1 003f
00000290: 51b3 ee3e 6123 1cbd 9d8c e3be df95 a5be
000002a0: 5c4f 5f3c 1915 acbe 8751 c03e a729 d63e
000002b0: 6fc6 91be aa84 01bf 77d2 dcbe 1fdb d43e
000002c0: 226b 023e 9c63 d3be a8ef b43e 1cef 6a3d
000002d0: d63b 4dbd 079f bbbe b508 973e acd2 9b3c
000002e0: 5588 983e a47f 873c 8ba0 a9bd 93b9 e63e
000002f0: 35e6 a43e 76dd 8b3d 2304 babd 62c3 023f
00000300: fe39 80be ee2e c0bd 5718 673e 02a7 4d3d
00000310: 3aaf 943e 1306 00be 6c48 e53e de89 bc3c
00000320: 1064 6cbe fb56 16be 02ac aabe cd8c b1bd
00000330: 87b9 b43e 7345 443e 9ff2 c13e 8b5c e2bd
00000340: 7b0a 073d 0b11 633d 89b4 c93d 23bb 41bd
00000350: dd52 573e 05dd 3f3e 08a4 aabc 18e7 17be
00000360: 0291 1fbe 8287 1abe 8cc5 333d ea03 8ebe
00000370: 4c01 e83d 3127 92be 8308 303d 1234 f7be
00000380: 8383 1bbe e347 00bf fa76 043f c9b2 16bf
00000390: b3fa c6bd 6925 ed3e ec85 f5bd 03dc 083f
000003a0: b91b 85be f49a 613d f426 07bf 37a7 983d
000003b0: f2df 523e ef30 313e f1e7 e4be 6864 04bf
000003c0: fcfb f03e 4a7c 68be 57fd f5be 198d 93be
000003d0: 442c 033f b394 273e fd69 e7be ac7c 1dbe
000003e0: 0716 ef3e 2fe0 0d3f c3ea 073d eee2 06bf
000003f0: 9679 f43c 0005 4c3e a644 153f 2297 2c3e

func.linear1.bias f4 [128]
-0.395083 -0.35599637 -0.057182338 0.08736098 -0.082658015 -0.4443687 -0.43114707 0.51681787
0.3722495 0.5276775 -0.36899835 -0.21980508 0.31404424 -0.5062987 -0.29008645 0.5586499
-0.39382115 -0.46253708 -0.29741627 -0.09997683 -0.3279243 -0.30371997 0.13030393 0.52462256
0.36258984 -0.52735 -0.41781262 -0.17799155 -0.2731934 0.42440265 0.36752555 -0.11841129
0.12182538 -0.112454176 -0.45744744 -0.43808088 0.56227344 0.012199079 -0.20849907 0.3927851
-0.18370563 0.31402722 0.4106482 -0.16319118 0.08312755 0.51170737 -0.41147897 0.30113295
-0.6044093 -0.44014844 -0.3456647 -0.35656834 -0.502958 0.1663291 0.35517836 0.48970643
-0.011774739 -0.6226599 -0.39908794 0.1347077 -0.43934628 0.20437895 -0.20229128 0.5468902
-0.022471892 0.15572494 -0.07316216 -0.52137685 -0.39819053 0.3811761 0.2379717 0.25851837
-0.36984298 0.3196032 -0.46384236 -0.34091344 0.47211403 -0.26040632 0.029889407 -0.3051038
0.5556269 0.1034115 0.10677454 -0.32706487 0.2648737 0.29044303 0.23620819 -0.16570921
-0.3570323 0.16459791 -0.1786402 0.23917834 -0.14113574 0.059943214 -0.3108151 -0.28656232
-0.05011042 -0.26545691 0.47553182 -0.39608437 0.18849036 0.010100946 -0.2279304 0.43847436
0.34479097 -0.14974648 -0.10886829 -0.35938194 0.21799406 -0.39041352 -0.1272079 -0.41451794
-0.32038358 -0.4139176 0.34748444 -0.120106034 -0.37524137 -0.33701235 0.26697224 0.35941544
0.36919484 0.56819874 0.27627853 0.37195277 -0.26659405 0.03968404 -0.027598668 -0.37741363
00000000: 5248 cabe 2845 b6be 0738 6abd 50ea b23d
00000010: 9b48 a9bd 4b84 e3be 4fbf dcbe 2d4e 043f
00000020: 7d97 be3e df15 073f 5aed bcbe 9514 61be
00000030: 68ca a03e cb9c 01bf 3686 94be ae03 0f3f
00000040: eda2 c9be a9d1 ecbe f246 98be a7c0 ccbd
00000050: b2e5 a7be 2f81 9bbe 656e 053e aa4d 063f
00000060: 60a5 b93e 6900 07bf 89eb d5be 6b43 36be
00000070: 01e0 8bbe 4e4b d93e 4f2c bc3e 9e81 f2bd
00000080: 967f f93d 604e e6bd 8d36 eabe 234c e0be
00000090: 27f1 0f3f a5de 473c c880 55be 211b c93e
000000a0: 541d 3cbe 2dc8 a03e 7b40 d23e 971b 27be
000000b0: c73e aa3d 41ff 023f 5fad d2be 192e 9a3e
000000c0: 91ba 1abf 235b e1be f7fa b0be 2090 b6be
000000d0: dbc1 00bf 2d52 2a3e f0d9 b53e cdba fa3e
000000e0: d6ea 40bc a466 1fbf 4155 ccbe d1f0 093e
000000f0: fff1 e0be b748 513e 7225 4fbe ff00 0c3f
00000100: f916 b8bc 5c76 1f3e 0bd6 95bd f478 05bf
00000110: a1df cbbe 8429 c33e daae 733e 855c 843e
00000120: 0f5c bdbe 08a3 a33e bf7c edbe 358c aebe
00000130: eeb8 f13e fa53 85be a1da f43c 9136 9cbe
00000140: 913d 0e3f 69c9 d33d 9cac da3d 0c75 a7be
00000150: 879d 873e f3b4 943e 8fe0 713e adaf 29be
00000160: f0cc b6be 5b8c 283e 75ed 36be 2beb 743e
00000170: e385 10be 0487 753d 2823 9fbe 4cb8 92be
00000180: 9540 4dbd f8e9 87be e878 f33e 92cb cabe
00000190: 9e03 413e 707e 253c 9666 69be b67f e03e
000001a0: 7188 b03e 2457 19be 57f6 debd e900 b8be
000001b0: d639 5f3e 48e4 c7be ca42 02be b23b d4be
000001c0: 5109 a4be 02ed d3be 7be9 b13e 27fa f5bd
000001d0: a31f c0be e28c acbe 96b0 883e 4d05 b83e
000001e0: 1b07 bd3e 7975 113f 6174 8d3e 9870 be3e
000001f0: 047f 88be bb8b 223d 9a16 e2bc 5c3c c1be

func.linear2.weight f4 [672, 128]
0.28019127 0.41946855 0.4136461 0.35869274 0.4066879 0.34938845 0.32019293 0.3845585
0.38634476 0.2894022 0.29121515 0.41812417 0.26666528 0.3073557 0.28800842 0.355198
0.39925078 0.2843437 0.378166 0.28819862 0.3289499 0.37806138 0.41949776 0.42217875
0.37800825 0.364575 0.29457712 0.36098552 0.29109353 0.40135562 0.3804178 0.36399436
0.42189208 0.27853096 0.3894049 0.31397477 0.28002387 0.34852278 0.40078637 0.27152088
0.30266532 0.32173076 0.27371597 0.2782129 0.2855413 0.35872072 0.31997055 0.2766383
0.4222926 0.41635156 0.28733832 0.440453 0.3644261 0.38164985 0.32873318 0.42749578
0.3791811 0.32752922 0.28794652 0.38396594 0.29670006 0.35317063 0.28117886 0.29896787
0.29702866 0.27012357 0.42158708 0.44230872 0.3228482 0.35472915 0.3677816 0.272839
0.37264025 0.33468583 0.36582717 0.30792284 0.30322173 0.28921488 0.2790112 0.3815514
0.32825485 0.4350726 0.4409533 0.3684013 0.4410385 0.3436283 0.4011019 0.37176663
0.29962915 0.2863161 0.41367415 0.37820464 0.43502066 0.2926946 0.3628049 0.29614893
0.29136026 0.27138194 0.34295735 0.43629396 0.3934695 0.35521746 0.30079105 0.28831762
0.43668923 0.27258033 0.35322148 0.3043078 0.3062299 0.32828826 0.32722068 0.3308644
0.32948443 0.3039709 0.35393515 0.41475424 0.31086406 0.27290335 0.31176373 0.4386994
0.2728598 0.35343808 0.3953847 0.3722498 0.40471607 0.34549105 0.3914314 0.359291
0.35884678 0.3493437 0.29405504 0.35976577 0.28420302 0.39912388 -0.42008206 0.35542548
0.3100419 0.43133378 0.3421199 0.31368026 0.40052998 0.3463514 0.27850747 0.32926476
-0.30900392 0.32258338 0.3953565 0.4022607 0.43330568 0.33405507 0.342913 0.351043
0.3988746 -0.32272878 0.4221819 0.36692905 0.30187687 0.339834 0.35508403 0.27437556
0.3659784 0.35646695 0.4101658 0.27316996 0.375023 0.27144 0.30760336 0.39057574
0.286886 0.4365787 0.41783163 0.3959861 0.37349644 0.31806025 0.42117554 0.41414532
0.41576505 0.4200386 0.27758768 0.31743738 0.27198532 0.3450282 0.39084777 0.27676505
0.3498332 0.3210491 0.29873705 0.3881744 0.29338297 0.40120736 0.4245107 0.36975434
0.27148908 0.32233456 0.39440945 -0.4288787 0.38806856 0.3711413 -0.3989198 0.4373287
0.28319013 0.4411781 0.36289808 0.38180345 0.26934886 0.31483805 0.34805754 0.31094673
0.27263895 0.27020115 0.3986274 0.35926604 0.29479238 0.2990394 0.29723027 0.31928244
0.43095183 0.33672503 0.359309 -0.39601287 0.43094286 0.2956087 0.4249727 0.36971185
0.43285984 0.32158494 0.30466965 0.27268693 0.36756596 0.43408343 0.26851824 0.39125746
0.3003582 0.42412436 0.42646772 0.34354192 0.43066713 0.32485995 0.4120205 0.30089816
0.332806 0.3286174 0.27681184 0.37208086 0.34812337 0.40204698 0.30951077 0.3400882
0.32248116 0.30980614 0.42688853 0.2934267 0.41469166 0.3099566 0.4244515 0.34357628
00000000: 3b75 8f3e 95c4 d63e 6cc9 d33e 93a6 b73e
00000010: 6539 d03e 0be3 b23e 54f0 a33e dae4 c43e
00000020: fbce c53e 862c 943e 271a 953e 5f14 d63e
00000030: 5a88 883e ba5d 9d3e d775 933e 83dc b53e
00000040: 996a cc3e 7f95 913e f99e c13e c58e 933e
00000050: 1f6c a83e 4391 c13e 69c8 d63e d027 d83e
00000060: 4c8a c13e 93a9 ba3e d0d2 963e 18d3 b83e
00000070: 360a 953e 7c7e cd3e 1fc6 c23e 785d ba3e
00000080: 3d02 d83e 9c9b 8e3e 1460 c73e 4dc1 a03e
00000090: 4a5f 8f3e 9471 b23e df33 cd3e c904 8b3e
000000a0: f3f6 9a3e e5b9 a43e 8024 8c3e ec71 8e3e
000000b0: 7832 923e 3eaa b73e 2ed3 a33e 89a3 8d3e
000000c0: bc36 d83e 082c d53e 021e 933e 0e83 e13e
000000d0: 0f96 ba3e 9c67 c33e b74f a83e bae0 da3e
000000e0: 0624 c23e e9b1 a73e ba6d 933e 2f97 c43e
000000f0: 12e9 973e c8d2 b43e adf6 8f3e 5112 993e
00000100: 2414 983e a34d 8a3e 43da d73e 4a76 e23e
00000110: 5c4c a53e 0f9f b53e df4d bc3e 8eb1 8b3e
00000120: b4ca be3e f15b ab3e b34d bb3e 10a8 9d3e
00000130: e13f 9b3e f913 943e 8eda 8e3e b55a c33e
00000140: 0511 a83e d6c1 de3e a2c4 e13e 189f bc3e
00000150: cccf e13e 0cf0 af3e 3a5d cd3e 3258 be3e
00000160: fe68 993e 0698 923e 19cd d33e 0aa4 c13e
00000170: 07bb de3e 11dc 953e 90c1 b93e d5a0 973e
00000180: 2c2d 953e 93f2 8a3e 1b98 af3e ec61 df3e
00000190: d674 c93e 10df b53e 4901 9a3e 5e9e 933e
000001a0: bb95 df3e a68f 8b3e 72d9 b43e 3bce 9b3e
000001b0: 2aca 9c3e 6615 a83e 7889 a73e 0f67 a93e
000001c0: 2fb2 a83e 13a2 9b3e fd36 b53e ab5a d43e
000001d0: 9329 9f3e fdb9 8b3e 7f9f 9f3e 359d e03e
000001e0: 48b4 8b3e d6f5 b43e dd6f ca3e 8797 be3e
000001f0: f236 cf3e 34e4 b03e b269 c83e fdf4 b73e
00000200: c4ba b73e 2ddd b23e 628e 963e 3833 b83e
00000210: 0f83 913e f759 cc3e ff14 d7be 54fa b53e
00000220: d0bd 9e3e c8d7 dc3e 572a af3e b39a a03e
00000230: 4412 cd3e f854 b13e 8898 8e3e 6495 a83e
00000240: c335 9ebe a629 a53e 2b6c ca3e 1df5 cd3e
00000250: 3eda dd3e 4409 ab3e 4b92 af3e e8bb b33e
00000260: 4b39 cc3e b53c a5be 3a28 d83e 20de bb3e
00000270: 9b8f 9a3e b9fe ad3e 93cd b53e f47a 8c3e
00000280: 8561 bb3e d682 b63e 4001 d23e efdc 8b3e
00000290: 0403 c03e 2ffa 8a3e 307e 9d3e 8bf9 c73e
000002a0: b9e2 923e 3e87 df3e 07ee d53e b1be ca3e
000002b0: ed3a bf3e cbd8 a23e 52a4 d73e db0a d43e
000002c0: 28df d43e 4d0f d73e f91f 8e3e 2787 a23e
000002d0: a941 8b3e 89a7 b03e 331d c83e 26b4 8d3e
000002e0: 561d b33e 8c60 a43e 10f4 983e ccbe c63e
000002f0: 4b36 963e 0d6b cd3e 7759 d93e 7150 bd3e
00000300: 9e00 8b3e 0909 a53e 09f0 c93e fd95 dbbe
00000310: ecb0 c63e 3c06 be3e 373f ccbe 8ce9 df3e
00000320: 4cfe 903e 19e2 e13e c7cd b93e be7b c33e
00000330: 18e8 893e 7432 a13e 9934 b23e 6934 9f3e
00000340: 5597 8b3e ce57 8a3e e418 cc3e b8f1 b73e
00000350: 07ef 963e b11b 993e 912e 983e fd78 a33e
00000360: b8a5 dc3e 3967 ac3e 59f7 b73e 33c2 cabe
00000370: 8ba4 dc3e 065a 973e 0696 d93e df4a bd3e
00000380: ce9f dd3e c8a6 a43e a9fd 9b3e 9f9d 8b3e
00000390: 9b31 bc3e 2f40 de3e 397b 893e e652 c83e
000003a0: 8dc8 993e d426 d93e fa59 da3e bae4 af3e
000003b0: 6780 dc3e 0b54 a63e 5af4 d23e 530f 9a3e
000003c0: 8c65 aa3e 8a40 a83e 48ba 8d3e 6281 be3e
000003d0: 3a3d b23e 1ad9 cd3e 3278 9e3e 0a20 ae3e
000003e0: 401c a53e e99e 9e3e 2291 da3e 063c 963e
000003f0: 7752 d43e a2b2 9e3e b551 d93e 3be9 af3e

func.linear2.bias f4 [672]
0.42811963 0.44072312 -0.43897223 -0.32286122 -0.38244817 0.41165668 -0.30537844 -0.018020768
0.37854153 -0.3659823 -0.29372984 -0.2787196 -0.41115704 -0.28158772 -0.34060898 -0.43306977
-0.33397222 0.42011902 -0.3673693 -0.327368 -0.43272975 -0.37112832 -0.28826824 0.2888093
0.43387476 0.3777184 -0.26721126 0.43942043 0.41528505 0.38309836 0.37878346 0.36523116
0.6168127 0.10426066 -0.38538456 0.377788 -0.303017 0.15455787 0.5538377 0.49936637
0.38181925 -0.3707026 0.3038453 0.20191503 -0.12339718 0.27595752 0.38342956 0.42959547
0.3991446 -0.34940237 0.40419832 -0.3511724 0.05384789 -0.35502282 0.42558128 0.38894582
0.4049142 0.36182553 0.31367645 0.41236916 -0.36223114 -0.28744462 0.45454818 -0.4030128
-0.28371766 0.44026327 -0.28927535 0.5013041 -0.45841095 -0.3072548 -0.40443465 -0.31731206
-0.32117763 -0.1442875 0.3099654 0.3951792 0.346956 0.39967334 -0.29629865 -0.288115
-0.30042982 -0.411561 -0.0942575 -0.33781555 -0.35495168 -0.4557326 -0.11811398 -0.41265118
-0.3172103 0.3393869 -0.27036336 -0.36598852 0.25718182 -0.34045294 -0.0026900675 -0.2648661
-0.31323418 -0.27768964 0.31230122 -0.3185025 -0.2723272 0.28345516 0.27854148 0.42345268
-0.4200097 -0.28635228 -0.39277723 -0.2654349 0.41906878 0.30385467 0.25220188 -0.30575377
-0.35559314 -0.32240412 -0.43516657 -0.36174276 0.29436994 -0.37401834 -0.23988037 0.2865255
0.38235375 -0.49918628 0.30249476 0.4088376 0.34937477 0.4423768 0.42487508 0.31284574
-0.32913834 0.3395731 0.41484895 0.3165734 0.41632155 0.015336683 0.37647536 0.35633475
0.3259937 0.46835086 0.37044156 0.35547054 0.3823044 -0.20906675 -0.35099477 -0.27598295
-0.3898487 0.3732064 -0.33081722 0.44175568 0.13788871 0.29554394 0.30302033 0.30907527
0.38834324 0.30147144 0.11880037 0.24956219 0.39124563 0.3163816 0.12947021 0.4285852
0.46662542 0.4001382 0.21043071 0.401325 -0.276358 -0.37786466 -0.4214404 0.3717081
-0.39710346 -0.26145607 -0.4103943 -0.29960954 -0.23607653 0.43184474 -0.31741884 -0.28804654
-0.39242998 0.3705299 0.34628877 -0.45563468 -0.2768831 -0.22002688 0.33044627 0.41938552
0.41290215 0.35649636 0.4407305 -0.307387 0.38194424 -0.33841085 -0.380042 -0.39041016
-0.33314592 0.26355943 0.44454896 0.26853824 0.284236 0.33644295 -0.35549828 -0.3201923
-0.40352935 0.38671252 0.39120397 0.43125963 0.3475348 0.28322777 -0.30872998 -0.2849835
-0.43950954 -0.35387662 0.43797472 -0.27489844 0.49164343 -0.3346529 -0.05495618 0.40859362
0.31952593 0.2911669 0.3773041 0.3116341 0.33063334 0.31286478 0.30591914 0.28781477
0.41736075 -0.39511222 -0.41196212 0.32866937 0.28884625 -0.23316777 0.3423873 -0.29674917
0.3246737 0.3744266 0.4400652 0.4854564 0.30966944 0.37211454 0.26691195 0.37969887
0.43937498 -0.4519891 0.39686158 -0.39512736 0.13285531 -0.3218473 0.38432845 -0.3499271
0.42502257 0.35868147 0.27474132 -0.43703124 0.31159082 -0.43548036 0.396552 0.3486197
00000000: 7f32 db3e 76a6 e13e f8c0 e0be 114e a5be
00000010: 3fd0 c3be aac4 d23e 905a 9cbe 4aa0 93bc
00000020: 32d0 c13e 0862 bbbe c263 96be 56b4 8ebe
00000030: 2d83 d2be 442c 90be 4d64 aebe 52bb ddbe
00000040: 68fe aabe d719 d73e d417 bcbe c79c a7be
00000050: c18e ddbe 8804 bebe e597 93be d0de 933e
00000060: d524 de3e 4e64 c13e eacf 88be b7fb e03e
00000070: 3ea0 d43e 7825 c43e e8ef c13e 94ff ba3e
00000080: 70e7 1d3f 9d86 d53d 2051 c5be 6e6d c13e
00000090: 0b25 9bbe 6b44 1e3e 4fc8 0d3f f3ac ff3e
000000a0: d07d c33e bbcc bdbe 9c91 9b3e d0c2 4e3e
000000b0: a9b7 fcbd 4e4a 8d3e e150 c43e f0f3 db3e
000000c0: ae5c cc3e dee4 b2be 15f3 ce3e decc b3be
000000d0: 9b8f 5c3d 8dc5 b5be cae5 d93e e823 c73e
000000e0: ea50 cf3e 3241 b93e 339a a03e 0d22 d33e
000000f0: 5c76 b9be f12b 93be 8aba e83e b257 cebe
00000100: 7143 91be 306a e13e e61b 94be 7755 003f
00000110: d7b4 eabe 8050 9dbe 0f12 cfbe ba76 a2be
00000120: 6571 a4be 1ac0 13be c9b3 9e3e ee54 ca3e
00000130: 38a4 b13e fca1 cc3e 75b4 97be cf83 93be
00000140: f0d1 99be 20b8 d2be 130a c1bd 29f6 acbe
00000150: 3abc b5be c955 e9be bee5 f1bd 0447 d3be
00000160: 6369 a2be 1fc4 ad3e 116d 8abe d962 bbbe
00000170: 56ad 833e d94f aebe d84b 30bb 889c 87be
00000180: 3b60 a0be 562d 8ebe f2e5 9f3e c212 a3be
00000190: 796e 8bbe 0921 913e fd9c 8e3e cace d83e
000001a0: 830b d7be c49c 92be 191a c9be 15e7 87be
000001b0: 2f90 d63e d792 9b3e 9b20 813e c28b 9cbe
000001c0: 4e10 b6be 2712 a5be 27ce debe 5936 b9be
000001d0: a8b7 963e 557f bfbe 33a3 75be 78b3 923e
000001e0: dfc3 c33e 5895 ffbe 98e0 9a3e 2953 d13e
000001f0: 40e1 b23e 367f e23e 3a89 d93e 512d a03e
00000200: d284 a8be 86dc ad3e 1567 d43e e915 a23e
00000210: 1928 d53e b646 7b3c 61c1 c03e 8271 b63e
00000220: a5e8 a63e afcb ef3e 84aa bd3e 3c00 b63e
00000230: 67bd c33e 9815 56be 96b5 b3be a34d 8dbe
00000240: 409a c7be e914 bf3e e060 a9be cd2d e23e
00000250: b332 0d3e 8951 973e 7b25 9b3e 1d3f 9e3e
00000260: edd4 c63e 775a 9a3e 9c4d f33d 3b8d 7f3e
00000270: 5951 c83e c5fc a13e d793 043e 856f db3e
00000280: 87e9 ee3e eade cc3e 267b 573e 787a cd3e
00000290: cc7e 8dbe 7a77 c1be 09c7 d7be 8650 be3e
000002a0: 2551 cbbe 92dd 85be 341f d2be 6c66 99be
000002b0: 0cbe 71be c11a dd3e b984 a2be d67a 93be
000002c0: 95ec c8be 18b6 bd3e c34c b13e f348 e9be
000002d0: 9fc3 8dbe ba4e 61be 4130 a93e b3b9 d63e
000002e0: e967 d33e b186 b63e 6ea7 e13e d461 9dbe
000002f0: 328e c33e 3044 adbe dd94 c2be d7e3 c7be
00000300: 1a92 aabe 43f1 863e ec9b e33e d87d 893e
00000310: 6287 913e 4042 ac3e df03 b6be 3ff0 a3be
00000320: 669b cebe 2fff c53e e34b c83e 10ce dc3e
00000330: 15f0 b13e 3b03 913e db11 9ebe 5be9 91be
00000340: 6507 e1be 512f b5be 393e e03e 7dbf 8cbe
00000350: b0b8 fb3e a057 abbe bb19 61bd 2f33 d13e
00000360: e798 a33e d413 953e 012e c13e 818e 9f3e
00000370: c648 a93e d02f a03e 6fa1 9c3e 755c 933e
00000380: 4fb0 d53e 264c cabe b3ec d2be 5a47 a83e
00000390: a8e3 933e 88c3 6ebe 634d af3e 82ef 97be
000003a0: a23b a63e d8b4 bf3e 3a50 e13e be8d f83e
000003b0: fe8c 9e3e cc85 be3e afa8 883e e467 c23e
000003c0: c2f5 e03e 1e6b e7be 7131 cb3e 224e cabe
000003d0: 390b 083e 2bc9 a4be b3c6 c43e a529 b3be
000003e0: 8f9c d93e 19a5 b73e e5aa 8c3e 8fc2 dfbe
000003f0: d588 9f3e 48f7 debe dd08 cb3e 487e b23e

initial.weight f4 [224, 3]
-0.2489061 0.20151927 -0.25992757 -0.17074068 -0.2819388 0.16378085 0.2933663 0.19053875
-0.46990305 -0.098207675 0.24739693 -0.012572164 -0.43723112 -0.6812364 -0.009327923 -0.12310257
0.056573432 -0.64658254 0.13418846 0.22833055 -0.30541217 0.38709772 -0.3186325 0.10288034
-0.6392518 0.5398282 -0.17185792 -0.26846 -0.3245473 0.1840247 0.1596525 -0.29686046
-0.24528806 -0.28646877 0.01729996 0.05991274 0.28444064 0.13836671 0.33667737 0.3771343
-0.19992837 0.58091205 0.16108777 -0.051593367 0.17103477 -0.52631176 -0.2606105 0.39075243
0.15598613 -0.18877506 -0.28403914 0.07259671 0.3143282 0.24810229 -0.1912646 -0.40816826
0.6615366 0.5229505 -0.10788322 0.5927949 -0.5232551 -0.45487794 -0.44932133 0.59941864
0.25595823 -0.13997307 0.39087424 0.34727383 -0.7008274 -0.11549668 -0.3668771 0.08299921
-0.12197686 -0.54631364 0.23228225 -0.44068077 0.30279958 -0.25896764 -0.15887728 -0.5608426
0.5021148 -0.07550076 -0.29894015 0.17846969 -0.16603293 -0.18341903 0.029315606 -0.14012504
0.17379242 -0.031735808 0.11146985 -0.0060188356 -0.36864057 0.2415846 -0.16491927 0.0348556
-0.021006342 -0.2664487 -0.37197 -0.22695501 0.048780248 0.2625258 -0.28322765 -0.22653376
0.14116885 -0.2818788 0.37359142 -0.19594473 0.33961767 -0.23919918 0.17644621 0.63724405
0.33837837 -0.39713645 0.7445098 0.18990503 0.20112257 0.14889628 -0.37308913 -0.4408924
-0.29838613 -0.13096136 0.06519706 0.044712212 0.12803584 0.6080637 -0.5615256 -0.16074488
0.37693042 -0.046945155 -0.32206586 0.07678227 -0.53733575 0.080765225 0.08995391 -0.42230153
0.6181802 -0.16219743 -0.1969716 -0.2577458 0.3544734 -0.4196114 0.105514914 -0.004486515
-0.69827706 -0.55943173 -0.4426233 0.031361658 -0.17844674 -0.35329717 0.64345956 0.28705668
-0.15497287 0.67790806 0.67342895 -0.06525644 0.34811154 0.1540815 -0.189369 -0.028947754
0.2769195 -0.25002125 0.38521478 0.32740042 -0.1991044 -0.30949685 0.2400755 -0.1890833
-0.12581064 0.0047177565 0.1918796 0.20251536 0.1594354 -0.26545158 0.67739624 0.28768948
0.28100574 0.41934842 0.38922668 0.15930122 -0.20740813 -0.32077545 0.053135313 0.18351695
-0.18488415 -0.08568711 -0.5205397 0.14924063 -0.3554359 -0.14873873 -0.5653979 -0.17782862
-0.007231727 -0.4954358 -0.6366846 -0.7965969 0.016056716 -0.36002177 0.12191828 0.23656271
-0.21917933 0.2269912 0.32433736 -0.08483145 -0.0827247 0.42927158 -0.040154416 -0.02976831
-0.27562037 0.17065735 0.08222741 -0.08068696 -0.041772723 0.7051603 -0.0426248 0.09710911
0.10808912 0.1895049 0.07371847 0.26609692 0.5314315 -0.13729356 0.16134152 0.26403987
-0.5167271 -0.6293268 -0.06252252 -0.24204694 -0.39791065 -0.1630838 -0.12515314 -1.0521578
-0.77297336 -0.14781472 0.30803683 0.057424266 -0.15766072 0.122196995 -0.30076241 -0.4117076
0.78138256 0.22383878 0.065642156 -0.49997398 0.15764022 -0.2588127 0.52170885 -0.12757462
0.5442721 0.23144206 0.07142846 0.06313991 0.1667906 0.36124974 -0.22129504 0.5468622
00000000: 3ee1 7ebe 115b 4e3e 3a15 85be a5d6 2ebe
00000010: 485a 90be 2bb6 273e 1c34 963e 971c 433e
00000020: 2297 f0be 1b21 c9bd 9f55 7d3e 7afb 4dbc
00000030: c2dc dfbe 8265 2ebf 25d4 18bc 331d fcbd
00000040: 8bb9 673d 6f86 25bf b368 093e 7ccf 693e
00000050: fc5e 9cbe ac31 c63e cd23 a3be edb2 d23d
00000060: 02a6 23bf 2e32 0a3f 86fb 2fbe 9773 89be
00000070: 102b a6be f970 3c3e f27b 233e 18fe 97be
00000080: cb2c 7bbe 09ac 92be a5b8 8d3c 1067 753d
00000090: 34a2 913e 01b0 0d3e fa60 ac3e bf17 c13e
000000a0: 06ba 4cbe a7b6 143f 31f4 243e 9153 53bd
000000b0: bd23 2f3e 5ebc 06bf bd6e 85be b410 c83e
000000c0: d4ba 1f3e 404e 41be 946d 91be 95ad 943d
000000d0: a0ef a03e 870e 7e3e deda 43be 6efb d0be
000000e0: 765a 293f 15e0 053f e1f1 dcbd 68c1 173f
000000f0: 0cf4 05bf c3e5 e8be 720d e6be 8073 193f
00000100: f50c 833e 1a55 0fbe ab20 c83e e0cd b13e
00000110: 6d69 33bf 8689 ecbd 51d7 bbbe 7dfb a93d
00000120: 01cf f9bd 36db 0bbf 66db 6d3e e9a0 e1be
00000130: 8c08 9b3e 6897 84be bab0 22be 6193 0fbf
00000140: 988a 003f 24a0 9abd af0e 99be c2c0 363e
00000150: 8904 2abe 33d2 3bbe 4827 f03c f07c 0fbe
00000160: a4f6 313e 68fd 01bd 4e4a e43d a739 c5bb
00000170: 75be bcbe f461 773e 99e0 28be bfc4 0e3d
00000180: 7e15 acbc f76b 88be da72 bebe e566 68be
00000190: cccd 473d c869 863e 3703 91be 77f8 67be
000001a0: 918e 103e 6b52 90be 6047 bf3e bca5 48be
000001b0: 5ee2 ad3e a1f0 74be 51ae 343e 6d22 233f
000001c0: ee3f ad3e 7855 cbbe 3298 3e3f 7776 423e
000001d0: 13f3 4d3e 4478 183e 8a05 bfbe a6bc e1be
000001e0: 11c6 98be bc1a 06be 0986 853d 2724 373d
000001f0: d41b 033e 10aa 1b3f 24c0 0fbf 4e9a 24be
00000200: 06fd c03e 9049 40bd d1e5 a4be 0640 9d3d
00000210: d68e 09bf 3d68 a53d c139 b83d e837 d8be
00000220: 0f41 1e3f 1517 26be ecb2 49be 42f7 83be
00000230: 8a7d b53e 4ed7 d6be 3418 d83d 9e03 93bb
00000240: 49c2 32bf eb36 0fbf 859f e2be 1575 003d
00000250: beba 36be 5ee3 b4be c4b9 243f 18f9 923e
00000260: 35b1 1ebe 628b 2d3f d765 2c3f 2ba5 85bd
00000270: ad3b b23e 8ac7 1d3e f2e9 41be d723 edbc
00000280: 65c8 8d3e c902 80be df3a c53e 07a1 a73e
00000290: 06e2 4bbe 5f76 9ebe 5ad6 753e 0d9f 41be
000002a0: 81d4 00be 6997 9a3b 167c 443e 3060 4f3e
000002b0: 0943 233e 45e9 87be d769 2d3f 094c 933e
000002c0: fcdf 8f3e d6b4 d63e b848 c73e dc1f 233e
000002d0: cc62 54be ae3c a4be 6aa4 593d deeb 3b3e
000002e0: 4552 3dbe b97c afbd 1742 05bf 89d2 183e
000002f0: b2fb b5be f74e 18be ebbd 10bf b518 36be
00000300: 1ff8 ecbb c3a9 fdbe c3fd 22bf c6ed 4bbf
00000310: 6089 833c c654 b8be 4bb0 f93d 7f3d 723e
00000320: 8c70 60be 6270 683e 8c0f a63e 1cbc adbd
00000330: 916b a9bd 7cc9 db3e f578 24bd acdc f3bc
00000340: 1d1e 8dbe cdc0 2e3e d866 a83d 343f a5bd
00000350: e019 2bbd 6385 343f 5897 2ebd 24e1 c63d
00000360: d45d dd3d 930d 423e b6f9 963d db3d 883e
00000370: e50b 083f af96 0cbe b636 253e 3c30 873e
00000380: 3a48 04bf 901b 21bf cf0b 80bd 27db 77be
00000390: f2ba cbbe 71ff 26be 2528 00be 1bad 86bf
000003a0: 95e1 45bf be5c 17be 01b7 9d3e b535 6b3d
000003b0: d071 21be 6b42 fa3d 88fd 99be 57cb d2be
000003c0: b008 483f fe35 653e 656f 863d 97fc ffbe
000003d0: 706c 213e 1983 84be b68e 053f eca2 02be
000003e0: 6b55 0b3f 26ff 6c3e 1649 923d 7f4f 813d
000003f0: 28cb 2a3e baf5 b83e 2b9b 62be 29ff 0b3f

initial.bias f4 [224]
-0.025238968 -0.6462067 0.04302764 -0.29861277 -0.21656188 0.1944219 -0.79407364 -0.22193658
0.22129104 -0.035523392 -0.22156386 0.52872837 0.15331239 0.6946565 0.013673426 -0.3040249
-0.4264544 0.18616496 0.011403527 -0.04700924 -0.716831 0.23149481 0.6318287 -0.55867666
0.35138395 -0.18386826 -0.703174 -0.38538486 0.13183923 -0.6790113 0.4624143 -0.50226533
0.3080066 0.034324303 -0.26792982 0.23998296 0.5367496 0.06329553 0.44453102 -0.0060681286
0.71000904 0.1191575 -0.41219035 -0.15644595 0.26257434 0.30852753 -0.08350099 -0.5592096
-1.0493813 -0.61140513 0.5836172 -0.08913643 -0.3824917 0.0249665 -0.5483204 -0.14750677
-0.08515682 0.044523496 -0.43854555 -0.32762203 -0.15462776 -0.645243 -0.46588483 -0.88880354
-0.55520844 -0.4288508 0.016765093 0.116161406 0.75249493 0.27505797 -0.23143595 -0.6268269
-0.26882774 0.387089 -0.5401837 -0.5413864 0.086214006 -0.39018953 -0.0018767079 -0.42237043
-0.3903731 -0.6636834 -0.018626785 0.50645 -0.043921296 0.15371042 -0.35071585 -0.25981632
0.008194808 0.82217425 0.1456175 0.5022621 -0.52752286 -0.38749596 -0.597632 0.7031543
0.158632 0.10455801 -0.4910145 -0.6174204 0.5202411 -0.41351637 0.38658333 0.51995754
-0.08075719 -0.33510214 0.1574597 -0.7003708 -0.18162905 -0.18757384 -0.10461033 0.07968881
0.039540358 0.10186078 -0.53746563 0.053903367 0.0132856965 -0.82972246 -0.07491443 -0.40984762
-0.14560841 0.3554991 -0.46852234 -0.04669801 0.46220326 0.19060172 0.015157425 -0.14906491
-0.07054691 -0.5764667 -0.3721147 0.08765112 0.2058933 0.22610128 0.03720861 0.42081752
-0.15867363 0.5028424 0.36940962 -1.0265125 -0.48365644 0.37381208 0.2825969 0.5747864
-0.270382 -0.039611623 -0.56070435 0.72411376 0.021630889 0.42682657 -0.115407 -0.29200318
0.27593383 -0.39893046 -0.008461365 0.30629963 -0.07705365 0.028725125 0.2522677 -0.031601705
0.20467818 0.5427417 0.38115314 0.41415173 -0.292953 -0.46874812 0.3510244 0.8152136
-0.023100095 -0.42871323 -0.3264877 0.24105708 0.9633976 0.21643797 0.17018823 -0.2245697
-0.7856922 0.748333 -0.13513404 0.34053257 0.2960988 0.078821614 0.087378666 0.3971541
0.034436453 0.72277236 -0.20741029 0.010702821 0.21659347 -0.09454693 0.3127022 0.19051704
-0.43662876 0.11867389 -0.13897909 -0.15958792 0.035174124 0.042833608 0.5588741 0.7259783
-0.14053975 -0.033366866 -0.47871187 0.31911 -0.54891264 -0.2660941 0.21271655 -0.007143717
-0.4203824 -0.08687672 -0.3818474 -0.1870032 -0.44912428 -0.07594169 0.4307924 -0.07714666
0.41902888 0.10893036 -0.4499059 -0.076347664 -0.02499112 -0.24230552 -0.41126174 0.5398438
00000000: f4c1 cebc cd6d 25bf c03d 303d c6e3 98be
00000010: 66c2 5dbe 8916 473e 6948 4bbf 5843 63be
00000020: 1e9a 623e fa80 11bd a3e1 62be be5a 073f
00000030: ecfd 1c3e 02d5 313f 8106 603c 27a9 9bbe
00000040: 3b58 dabe 07a2 3e3e dcd5 3a3c c38c 40bd
00000050: 3d82 37bf fa0c 6d3e 87bf 213f 6f05 0fbf
00000060: 99e8 b33e f647 3cbe 3603 34bf 2a51 c5be
00000070: dd00 073e afd3 2dbf 91c1 ec3e 7694 00bf
00000080: 0bb3 9d3e a497 0c3d 192e 89be 18be 753e
00000090: 6c68 093f 16a1 813d 9299 e33e 27d7 c6bb
000000a0: 27c3 353f d908 f43d 9d0a d3be 5e33 20be
000000b0: 2570 863e 52f7 9d3e 9102 abbd 5c28 0fbf
000000c0: 2052 86bf 0c85 1cbf f067 153f 298d b6bd
000000d0: f4d5 c3be 8c86 cc3c ba5e 0cbf 040c 17be
000000e0: b366 aebd 455e 363d 0b89 e0be 13be a7be
000000f0: bd56 1ebe a52e 25bf 7588 eebe a188 63bf
00000100: 2422 0ebf 5592 dbbe f356 893c 08e6 ed3d
00000110: 82a3 403f 66d4 8c3e 8cfd 6cbe ba77 20bf
00000120: caa3 89be 8830 c63e 7b49 0abf 4d98 0abf
00000130: f890 b03d ecc6 c7be defb f5ba f040 d8be
00000140: fcde c7be 28e7 29bf 3397 98bc b5a6 013f
00000150: d1e6 33bd 4466 1d3e 0791 b3be a506 85be
00000160: 8443 063c 037a 523f c11c 153e 4094 003f
00000170: bd0b 07bf df65 c6be 69fe 18bf ec01 343f
00000180: 6d70 223e 8322 d63d 4166 fbbe 430f 1ebf
00000190: 852e 053f 6bb8 d3be 40ee c53e f01b 053f
000001a0: 0764 a5bd 8292 abbe 1e3d 213e 804b 33bf
000001b0: f7fc 39be 5b13 40be f13d d6bd e333 a33d
000001c0: 12f5 213d 629c d03d 5997 09bf c7c9 5c3d
000001d0: 40ac 593c b168 54bf bd6c 99bd 8cd7 d1be
000001e0: 5f1a 15be fa03 b63e 29e2 efbe 6a46 3fbd
000001f0: e8a5 ec3e 192d 433e d956 783c 79a4 18be
00000200: e67a 90bd 5293 13bf d185 bebe 6e82 b33d
00000210: b1d5 523e 1887 673e 0e68 183d 6575 d73e
00000220: 577b 22be 48ba 003f 4223 bd3e c364 83bf
00000230: d1a1 f7be 4c64 bf3e 8ab0 903e 3425 133f
00000240: 826f 8abe cc3f 22bd 528a 0fbf 855f 393f
00000250: 4333 b13c 0389 da3e 815a ecbd 7181 95be
00000260: 3347 8d3e 9d40 ccbe 89a1 0abc 4ed3 9c3e
00000270: 4ece 9dbd f450 eb3c 3b29 813e ca70 01bd
00000280: 2897 513e 1ff1 0a3f 8126 c33e b20b d43e
00000290: f0fd 95be c1ff efbe 78b9 b33e d7b1 503f
000002a0: 693c bdbc 4d80 dbbe 6529 a7be abd7 763e
000002b0: 3aa1 763f eaa1 5d3e d345 2e3e 99f5 65be
000002c0: 2023 49bf c092 3f3f 9460 0abe 495a ae3e
000002d0: 439a 973e 3a6d a13d 96f3 b23d c857 cb3e
000002e0: 3d0d 0d3d 9c07 393f 5d63 54be e35a 2f3c
000002f0: aeca 5d3e d2a1 c1bd 811a a03e e616 433e
00000300: ce8d dfbe 4c0b f33d 8950 0ebe 046b 23be
00000310: be12 103d 4b72 2f3d 5f12 0f3f b7d9 393f
00000320: a7e9 0fbe b2ab 08bd b919 f5be 6362 a33e
00000330: 8a85 0cbf 7c3d 88be 5ed2 593e d715 eabb
00000340: 5d3c d7be 6cec b1bd 8181 c3be c47d 3fbe
00000350: 9ef3 e5be 5187 9bbd d290 dc3e 11ff 9dbd
00000360: f48a d63e e116 df3d 115a e6be 2a5c 9cbd
00000370: 2dba ccbc f01e 78be e690 d2be 3433 0a3f

readout.weight f4 [126, 224]
0.35007074 -0.33040676 -0.21373029 -0.3019505 0.042214677 -0.069079846 -0.23711699 0.39211798
0.24087097 -0.36289188 0.31792107 -0.13648592 -0.29440954 -0.43490425 0.14319102 0.23493187
0.2922921 -0.3015041 0.1897927 -0.39077836 0.3369033 -0.35753793 -0.1482132 0.4186739
-0.3790697 0.3672848 0.43608144 -0.18345864 -0.35067225 -0.27946994 -0.14343664 -0.32750195
-0.08030158 -0.31789598 0.41070795 -0.31760138 0.32588288 -0.32432798 -0.36286303 0.4454165
0.30851915 -0.40240148 -0.38988876 0.3638705 0.033386007 -0.4046091 0.2353273 -0.3680164
0.43446562 0.37853366 -0.32180804 -0.19061598 0.3105183 -0.31550127 -0.29245725 -0.3111124
-0.32871765 -0.40831193 -0.34315637 -0.4083339 0.32460475 0.3287302 0.3316319 0.4278365
0.34337795 0.2595218 -0.28308904 0.29276282 -0.3788027 0.3800424 0.28017724 -0.25050926
-0.39357305 -0.441727 -0.30806848 -0.21413906 0.3122044 0.51682377 0.28195536 0.40795073
-0.3416443 0.2869243 0.21898906 0.3019766 -0.29715934 0.35471022 0.33019122 0.43539923
0.3237602 -0.3988461 -0.38242662 -0.040828325 0.4482582 -0.50251245 0.08438103 0.0056523005
-0.3188573 -0.27174926 -0.29931504 -0.17563516 -0.3600494 0.30107066 -0.22116694 -0.22377966
0.2583078 0.37259644 0.2506483 0.41600624 -0.4340816 0.46882582 -0.33354664 -0.2558383
-0.34517285 -0.35768658 -0.025919285 0.26760954 0.37599492 0.42385626 0.31778365 -0.32541493
-0.33170602 -0.26677862 -0.29224187 0.2965456 -0.24513374 -0.37640792 -0.3454238 0.06915
0.34025013 -0.2808117 -0.2691952 0.21308184 -0.12979773 -0.3849797 0.4312119 0.21049905
0.36974463 0.32678276 -0.22418196 0.32542655 -0.34710997 -0.041562207 -0.45963594 0.2944512
0.3454424 -0.44194427 -0.2934325 -0.3305118 0.20431906 -0.23035641 -0.2981857 -0.28387335
0.3404457 -0.24086225 -0.1482928 0.19839269 -0.38685533 0.25834662 0.33304155 -0.28644252
0.34219113 -0.30894688 0.39163584 0.48865622 0.29967862 -0.3894669 -0.27483082 -0.267951
0.2979728 -0.17113018 0.3639034 -0.23378947 -0.466374 -0.118402846 -0.06936084 0.37189668
0.5031261 -0.35807443 -0.1809173 0.36039692 -0.27816597 -0.36420655 0.34451744 -0.44699055
-0.3310045 -0.26635763 0.19869214 -0.36253703 0.35698208 -0.07114349 -0.3744375 0.31247273
-0.20394418 -0.49385434 -0.056213677 0.4248376 0.2614631 0.36501756 0.3640884 -0.45497525
-0.2696694 0.35186166 0.28456324 -0.32068968 0.4336166 -0.12479173 0.2920537 0.2900453
0.3057466 -0.33285975 0.3044277 -0.4244475 0.36969137 0.4600373 -0.22655489 -0.27944863
-0.33243376 -0.30915686 0.29969737 0.40411422 0.2997324 0.19345485 0.018292509 -0.30987418
0.39844063 -0.37588587 -0.17408442 -0.3557621 0.1504096 -0.07705906 -0.19109012 0.30989924
0.17524734 -0.338128 0.30481786 -0.3526424 -0.3388934 -0.20987108 0.26940212 0.25043237
0.28081173 -0.40556002 0.23667458 -0.4551245 0.27203342 -0.31116894 -0.12763534 0.34140554
0.05574719 0.27406567 0.3877892 -0.26193282 -0.3708424 -0.34931976 -0.23506881 -0.35740623
00000000: 793c b33e 132b a9be 1ddc 5abe 4299 9abe
00000010: 4ce9 2c3d bc79 8dbd ccce 72be b0c3 c83e
00000020: e1a6 763e f7cc b9be 8dc6 a23e f7c2 0bbe
00000030: d9bc 96be c5ab debe aba0 123e fb91 703e
00000040: 4fa7 953e bf5e 9abe 0459 423e 1a14 c8be
00000050: 977e ac3e 360f b7be 33c5 17be 6d5c d63e
00000060: 6c15 c2be c10c bc3e 1146 df3e 95dc 3bbe
00000070: 508b b3be af16 8fbe 0ee1 12be 56ae a7be
00000080: 2875 a4bd 43c3 a2be 5048 d23e a69c a2be
00000090: 1fda a63e 510e a6be 2fc9 b9be a20d e43e
000000a0: 39f6 9d3e 9107 cebe 809f c7be 3c4d ba3e
000000b0: c4bf 083d ed28 cfbe a4f9 703e a56c bcbe
000000c0: 4772 de3e 2acf c13e 06c4 a4be d630 43be
000000d0: 41fc 9e3e 6289 a1be f5bc 95be 204a 9fbe
000000e0: ae4d a8be 430e d1be 31b2 afbe 2411 d1be
000000f0: 9832 a63e 534f a83e a8cb a93e 630d db3e
00000100: 3ccf af3e 0be0 843e 0cf1 90be 02e5 953e
00000110: 6df2 c1be eb94 c23e 6473 8f3e c042 80be
00000120: 6882 c9be 0b2a e2be 27bb 9dbe 4547 5bbe
00000130: 41d9 9f3e 904e 043f 745c 903e ebde d03e
00000140: 00ec aebe bee7 923e ab3e 603e ad9c 9a3e
00000150: 4525 98be 949c b53e d30e a93e a6ec de3e
00000160: e6c3 a53e 8e35 ccbe 6ccd c3be 9a3b 27bd
00000170: 1982 e53e a8a4 00bf f6cf ac3d ef36 b93b
00000180: 4441 a3be b822 8bbe d23f 99be b4d9 33be
00000190: 6558 b8be ef25 9a3e 9679 62be 7f26 65be
000001a0: ec40 843e f6c4 be3e f954 803e c5fe d43e
000001b0: f23f debe f009 f03e a0c6 aabe 3dfd 82be
000001c0: 7fba b0be b222 b7be ae54 d4bc 1e04 893e
000001d0: 6882 c03e b003 d93e 8ab4 a23e c99c a6be
000001e0: 5fd5 a9be 3597 88be baa0 95be d3d4 973e
000001f0: 5704 7bbe 8ab8 c0be 63db b0be 849e 8d3d
00000200: 4435 ae3e 8dc6 8fbe f4d3 89be 2032 5a3e
00000210: b2e9 04be 0f1c c5be cec7 dc3e 108d 573e
00000220: 2b4f bd3e 1250 a73e f58f 65be 4f9e a63e
00000230: 66b8 b1be 223d 2abd 6755 ebbe 4fc2 963e
00000240: d4dd b03e 8546 e2be c93c 96be d838 a9be
00000250: 0439 513e 8de2 6bbe ccab 98be d957 91be
00000260: e64e ae3e 98a4 76be 11da 17be 7427 4b3e
00000270: e711 c6be 0246 843e 6c84 aa3e 98a8 92be
00000280: ad33 af3e 492e 9ebe 7e84 c83e 2631 fa3e
00000290: 7a6f 993e 3568 c7be a0b6 8cbe e030 89be
000002a0: e48f 983e c03c 2fbe 8c51 ba3e 8266 6fbe
000002b0: 93c8 eebe 317d f2bd 0e0d 8ebd 3e69 be3e
000002c0: dfcc 003f 8855 b7be 6242 39be f285 b83e
000002d0: c56b 8ebe 4879 babe 9764 b03e f2db e4be
000002e0: 6c79 a9be 0760 88be f475 4b3e 749e b9be
000002f0: 5bc6 b63e aeb3 91bd 46b6 bfbe 6dfc 9f3e
00000300: bed6 50be 7ada fcbe 5040 66bd 5084 d93e
00000310: 7ede 853e 95e3 ba3e cb69 ba3e 84f2 e8be
00000320: 1c12 8abe 3627 b43e 46b2 913e 7031 a4be
00000330: ff02 de3e ce92 ffbd 1088 953e d180 943e
00000340: d18a 9c3e 986c aabe f3dd 9b3e 2f51 d9be
00000350: 3048 bd3e 028a eb3e 01fe 67be e413 8fbe
00000360: c234 aabe cf49 9ebe ef71 993e 0fe8 ce3e
00000370: 8676 993e 0719 463e 2cda 953c d4a7 9ebe
00000380: 6900 cc3e 1d74 c0be 3043 32be 7326 b6be
00000390: f904 1a3e 24d1 9dbd 21ad 43be 1dab 9e3e
000003a0: 0a74 333e 1d1f adbe 1611 9c3e 8b8d b4be
000003b0: 7083 adbe 72e8 56be 13ef 893e ac38 803e
000003c0: 8ec6 8f3e 90a5 cfbe d25a 723e 1406 e9be
000003d0: f747 8b3e 8951 9fbe d7b2 02be b5cc ae3e
000003e0: 2a57 643d 5652 8c3e 4e8c c63e 0f1c 86be
000003f0: 0edf bdbe 0ada b2be e1b5 70be f3fd b6be

readout.bias f4 [126]
-0.36053225 -0.42703465 -0.14321093 0.038523097 -0.19950391 -0.41721982 -0.20425655 -0.31387457
-0.43493706 -0.2757005 0.0038518547 0.0026603956 -0.23980087 -0.24257363 -0.31444415 -0.33453664
-0.27325884 -0.42799443 -0.47916812 -0.32489416 -0.12018139 -0.48245606 -0.5804432 -0.4099727
-0.34911996 -0.3370697 -0.46217936 -0.39870656 -0.42700166 -0.32104596 -0.5483567 -0.3620049
-0.3421306 -0.602095 -0.3366933 -0.45750275 -0.4183158 -0.4287508 -0.45938483 -0.44874522
-0.3187892 -0.42575124 -0.42138377 -0.5410752 -0.5041929 -0.5138547 -0.4473226 -0.4115887
-0.34782013 -0.4588526 -0.4134974 -0.34209117 -0.2956737 -0.4386912 -0.42808086 -0.547202
-0.10581763 -0.35764503 -0.41660243 -0.4346649 -0.5275259 -0.43269882 -0.36879802 -0.32453886
-0.5691657 -0.46428907 -0.30862904 -0.28049073 -0.39006078 -0.43558115 -0.47636998 -0.47704607
-0.5718248 -0.58553797 -0.29447886 -0.6552856 -0.4054604 -0.5116555 -0.38938564 -0.4074666
-0.4035535 -0.3845657 -0.5437024 -0.335023 -0.41795442 -0.3657614 -0.33415547 -0.24084684
-0.32279935 -0.4374028 -0.30209556 -0.38005576 -0.5658256 -0.32125077 -0.35227966 -0.06265593
-0.19178514 -0.2201901 -0.26179567 -0.3386726 -0.10764441 -0.46444523 -0.30474687 -0.38853073
-0.64221555 -0.34396607 -0.41330433 -0.3997816 -0.59125936 -0.35990632 -0.24982458 -0.35274872
-0.39896533 -0.37639296 -0.37158108 -0.5203767 -0.31655145 -0.310375 -0.54633904 -0.46861166
-0.22636932 -0.31216893 -0.33234784 0.06320785 -0.37613648 0.040936347
00000000: af97 b8be 49a4 dabe e3a5 12be 65ca 1d3d
00000010: c14a 4cbe d69d d5be a128 51be 2bb4 a0be
00000020: 12b0 debe 9e28 8dbe 666f 7c3b 085a 2e3b
00000030: 5c8e 75be 3965 78be d3fe a0be 6348 abbe
00000040: 95e8 8bbe 1622 dbbe 8655 f5be 8758 a6be
00000050: a921 f6bd 7b04 f7be ed97 14bf f1e7 d1be
00000060: dabf b2be 6694 acbe c6a2 ecbe 4423 ccbe
00000070: f69f dabe 2360 a4be 1b61 0cbf b558 b9be
00000080: be2b afbe e622 1abf 1063 acbe cd3d eabe
00000090: 7d2d d6be 3a85 dbbe 7d34 ebbe efc1 e5be
000000a0: 5738 a3be 11fc d9be 9dbf d7be e883 0abf
000000b0: c912 01bf fb8b 03bf 7807 e5be c1bb d2be
000000c0: 7b15 b2be baee eabe eeb5 d3be 9326 afbe
000000d0: 8b62 97be 229c e0be 6a2d dbbe 6e15 0cbf
000000e0: eab6 d8bd 401d b7be ea4c d5be 668c debe
000000f0: f00b 07bf b38a ddbe 18d3 bcbe f529 a6be
00000100: d8b4 11bf 4cb7 edbe a004 9ebe 7b9c 8fbe
00000110: 0cb6 c7be 7e04 dfbe c4e6 f3be 623f f4be
00000120: 1c63 12bf d1e5 15bf efc5 96be ccc0 27bf
00000130: 8198 cfbe dbfb 02bf 8e5d c7be 769f d0be
00000140: 909e cebe cce5 c4be 1530 0bbf 2288 abbe
00000150: 1ffe d5be 1445 bbbe 6d16 abbe 8ea0 76be
00000160: f545 a5be 43f3 dfbe 45ac 9abe ab96 c2be
00000170: f2d9 10bf fb7a a4be 005e b4be c151 80bd
00000180: 5363 44be 8379 61be 150a 86be 7f66 adbe
00000190: ac74 dcbd c4cb edbe c807 9cbe 80ed c6be
000001a0: 3d68 24bf 521c b0be a09c d3be 2db0 ccbe
000001b0: c65c 17bf a445 b8be 04d2 7fbe 7b9b b4be
000001c0: 2f45 ccbe 94b6 c0be e03f bebe 6837 05bf
000001d0: 0813 a2be 79e9 9ebe e0dc 0bbf deed efbe
000001e0: 5ccd 67be 9bd4 9fbe 7f29 aabe 1e73 813d
000001f0: f694 c0be dfac 273d
