cde/model/rk4/14.ckpt (torch, 581263 bytes, 8 tensors)

func.linear1.weight f4 [128, 224]
000000 63 d5 7e bd b0 3d e2 bd 17 e3 76 3e 2f 64 9c bd
       -0.06221522 -0.11046922 0.24110065 -0.07636296
000010 bb 47 59 bc 85 5c eb 3c a9 8e 94 3d ff 9b 11 3f
       -0.013261731 0.02873064 0.07253773 0.56878656
000020 4d 03 00 bf dd 53 d9 be ef d4 15 3e a7 23 c7 3e
       -0.50005037 -0.42446795 0.14632009 0.38894388
000030 cc d6 82 3e 3d 94 13 3c d6 eb d4 be c0 94 b5 bc
       0.25554502 0.009007511 -0.4158618 -0.022165656
000040 53 b1 f8 3e 1a 77 97 be 13 72 8e bc 60 cf ac be
       0.48572788 -0.29583055 -0.01738838 -0.33751965
000050 f9 aa 34 3e 08 86 c8 3e b5 9e ff be 97 c6 8e 3e
       0.17643346 0.39164758 -0.4992577 0.27885887
000060 3d 1c 90 3e 22 07 93 be 9f 3d d6 3e 2b 4e 51 3e
       0.28146544 -0.2871638 0.41843888 0.20439975
000070 c8 5e 15 bd 4b fc f3 3e b2 9e 57 be 86 e2 a4 be
       -0.036467344 0.47653422 -0.21056631 -0.32204074
000080 02 67 03 3f 01 c8 f6 3e bb 96 e7 bb ad b3 10 3f
       0.5132905 0.48199466 -0.007067529 0.56524163
000090 4b ca 50 3e 60 d1 3f bd 78 81 a1 be 45 e7 04 3f
       0.20389669 -0.046830535 -0.3154409 0.5191539
0000a0 24 9b 08 3f ab 5f 89 be 9c 70 78 be 91 54 6e 3e
       0.53361726 -0.268308 -0.24261707 0.23274447
0000b0 b8 7e 21 3d 95 33 e1 be 73 94 bd 3e a2 d1 5d be
       0.03942749 -0.43984666 0.3702732 -0.21662
0000c0 3e c3 a9 3d 96 2a e7 3e e7 03 b5 be 46 2a be be
       0.082891926 0.45149678 -0.3535454 -0.37141627
0000d0 fe 1f 9d 3e 81 d6 dd be 79 5f 03 bf 4d ab 42 bd
       0.3068847 -0.43327716 -0.51317555 -0.047526646
0000e0 ed 34 04 bf 59 c6 5a 3d 34 39 f3 bc a9 27 f3 be
       -0.5164326 0.053411815 -0.029690363 -0.47491196
0000f0 30 98 a1 3e 50 99 60 bd 17 d0 10 3f 00 01 f1 3e
       0.31561422 -0.05483371 0.5656752 0.47071075
000100 6e 7b 12 3f f1 7c 9b be 88 09 fe bd ab 71 24 bd
       0.5721959 -0.3036876 -0.12404162 -0.040147465
000110 35 41 24 bf c9 cd ed bd 2a 07 9e 3e 16 97 ca 3e
       -0.64162 -0.11611516 0.3086484 0.39568394
000120 c8 29 aa be e4 9e bd be ec a1 60 bc c7 52 1e bb
       -0.33235002 -0.37035286 -0.01371048 -0.0024158226
000130 48 da b8 3e 0a 3c 72 3d ef fe 55 3e d5 0a 02 3e
       0.36104035 0.05913929 0.2089803 0.12699445
000140 99 21 0e be f3 b0 ea be 29 c2 05 3e 80 ad e2 be
       -0.13880004 -0.45838127 0.13062347 -0.44272995
000150 e2 b9 0a 3f 29 4e ea 3e 84 f1 09 3f 29 5e 0a be
       0.54189885 0.45762756 0.5388415 -0.13512482
000160 8c 2a e4 3e 5f f4 c7 3e fb 5d 27 3d 1a 46 c9 be
       0.4456371 0.39053628 0.04086111 -0.39311296
000170 dd 92 c3 3e 23 22 c5 3d 11 e9 f8 be 7b 78 80 3e
       0.38197985 0.09625652 -0.48615316 0.2509192
000180 df c4 0e bf 6f 58 30 be 51 3c 8c be 55 58 94 3d
       -0.5576915 -0.17221235 -0.27389768 0.072434105
000190 46 a9 19 3e 14 ce fb bd 89 4a d7 be 74 b4 7b bd
       0.15005979 -0.12295166 -0.42049053 -0.06145139
0001a0 16 24 ad 3e 51 95 02 3f 3c d6 47 3e fe a0 9f 3e
       0.33816594 0.5100909 0.19515318 0.31177515
0001b0 3b 5d df be 5e f2 eb 3d b0 b7 07 bf 9c 10 87 be
       -0.43625817 0.11520837 -0.5301466 -0.2637986
0001c0 d3 30 84 be 44 56 11 be 2d 04 54 3d 6c 67 19 bd
       -0.258185 -0.14193064 0.051761795 -0.037452146
0001d0 59 68 8f 3e 06 55 d9 3e 40 57 d1 3e b2 ce 09 bf
       0.28009298 0.4244768 0.4088688 -0.53831017
0001e0 de 60 1f be c4 52 8a be 5f ff b3 3d cd d4 fc 3e
       -0.15564296 -0.2701627 0.087889425 0.49381104
0001f0 cc 58 ef 3e 3b da c7 be 47 b6 fd bd 13 18 8e be
       0.46747434 -0.39033684 -0.12388282 -0.27752742
000200 ca e1 23 be 3e 48 f1 be 6b 77 99 3c c2 55 e6 bd
       -0.160041 -0.4712543 0.0187337 -0.11246826
000210 87 c1 cc 3d 66 1a 2d be 90 74 b1 3e 76 65 97 bd
       0.0999785 -0.16904601 0.34659243 -0.07392399
000220 94 cc ca 3d 6e 34 28 be 40 72 a4 3c 90 26 10 3f
       0.099023014 -0.1642625 0.02007401 0.5630884
000230 04 64 dd 3e 45 16 15 3e d7 6b ac be ba 75 c8 3e
       0.43240368 0.14559276 -0.33676025 0.39152318
000240 f3 ed f0 3c 35 76 c8 be e9 79 02 bf a6 e2 7a 3e
       0.029410338 -0.39152685 -0.5096727 0.24500522
000250 e1 eb d1 3e 7d ae b4 be 87 6b b7 be 01 5c 5e bd
       0.41000274 -0.35289374 -0.35824224 -0.05428696
000260 9f b0 e5 3d 12 9b 4d be d0 de 70 be 11 e3 f8 3e
       0.112153284 -0.20078686 -0.23522496 0.48610738
000270 40 90 07 bf 99 74 c5 be 3c ad 9d 3e 3a 4d 93 be
       -0.52954483 -0.3856552 0.3079623 -0.28769857
000280 52 bb 01 3e a4 4e 02 be f0 b3 ba 3e 48 7d 09 3f
       0.12669113 -0.12725312 0.36465406 0.5370679
000290 66 3c 03 3f 8e a7 0b b9 3a 50 f3 be 2a 82 b5 be
       0.51264036 -0.00013318492 -0.47522146 -0.3545087
0002a0 7e 7d 4b bc 64 9f b7 be 39 aa c3 3e 33 20 e8 3e
       -0.012420056 -0.35863793 0.38215807 0.45337066
0002b0 08 e4 93 be 03 ed 0c bf 8d a2 eb be f2 b8 e1 3e
       -0.28884912 -0.5504915 -0.46022454 0.44086415
0002c0 8c 85 ff 3d 2f f5 e8 be c4 72 bf 3e 12 3c 82 3d
       0.12476644 -0.4549956 0.37392247 0.06359114
0002d0 8f cc 98 bc 05 64 c0 be 94 86 9b 3e f4 04 a6 3c
       -0.018652229 -0.3757631 0.30376112 0.020266034
0002e0 73 8b b0 3e 6e 01 cc 3c b8 fd 90 bd 8f 83 f1 3e
       0.3448139 0.024903025 -0.07079643 0.47170684
0002f0 10 95 ab 3e 9e 79 a9 3d 74 72 a6 bd 96 93 0e 3f
       0.33512163 0.0827515 -0.08127299 0.5569395
000300 35 b8 7e be df 65 c6 bd 7e 60 89 3e 3c 58 5c 3d
       -0.24874957 -0.09687399 0.2683143 0.053795084
000310 dd 5b 9b 3e 1e e6 14 be f0 e0 ef 3e 96 b8 ce 3c
       0.30343524 -0.14540908 0.468513 0.025234502
000320 55 b6 69 be 16 bb 0b be 40 ed b2 be c5 44 be bd
       -0.2282346 -0.13645586 -0.34946632 -0.092904605
000330 e0 0e cb 3e 9b ba 56 3e bf 00 d7 3e a9 af f2 bd
       0.39659786 0.20969622 0.41992757 -0.11849911
000340 3e e7 01 3d bc 24 82 3d a3 76 f1 3d 3e 0d d4 bc
       0.03171467 0.06354663 0.11790206 -0.02588522
000350 4c 38 6b 3e 2f 57 55 3e 30 02 c1 bb b2 01 1c be
       0.22970694 0.20834039 -0.0058901533 -0.15235022
000360 b2 6a 27 be 77 f3 25 be 4a 47 c9 3c 1e c7 9f be
       -0.16349295 -0.16206156 0.024570126 -0.31206602
000370 26 a0 ea 3d 6a 53 9d be b2 f2 f9 3c fc ac 08 bf
       0.11456327 -0.30727702 0.030511234 -0.53388953
000380 56 fe 3d be 30 26 09 bf aa 25 10 3f 6a ca 22 bf
       -0.18554053 -0.53573895 0.5630747 -0.6359011
000390 62 6d 8f bd 08 7d 02 3f fe d5 bf bd 2d e2 13 3f
       -0.07003285 0.5097203 -0.09366988 0.5776699
0003a0 23 dc 99 be 2a de b2 3d e8 df 11 bf 6b c3 db 3d
       -0.30050763 0.08733781 -0.5698228 0.107306324
0003b0 e9 3c 7b 3e 93 f0 47 3e b4 0b f9 be 4a b5 0e bf
       0.24534954 0.19525366 -0.4864174 -0.55745375
0003c0 52 6b 04 3f 6f 56 89 be fb b0 05 bf 8b ec a4 be
       0.5172626 -0.26823756 -0.52223176 -0.32211718
0003d0 c1 ff 0f 3f bf d1 4b 3e 26 86 fc be 3e f9 3f be
       0.56249624 0.1990423 -0.49321097 -0.18747422
0003e0 00 09 03 3f f7 25 19 3f 5d 85 f3 3b dd 98 11 bf
       0.5118561 0.59823555 0.0074316696 -0.56873876
0003f0 86 fe 73 3d 3a 66 72 3e fe 86 21 3f 01 43 52 3e
       0.059568904 0.23671809 0.63096607 0.20533372

func.linear1.bias f4 [128]
000000 f0 14 d3 be c3 4f b9 be bb a6 9e bd 2a df 79 3d
       -0.41226912 -0.36193666 -0.07746645 0.06100384
000010 92 26 90 bd a9 a3 ff be 09 ae eb be 9e 0e 12 3f
       -0.07038607 -0.4992955 -0.46031216 0.57053554
000020 61 0a d8 3e 3d 12 14 3f 0f d4 d0 be dc 90 5f be
       0.42195418 0.5784033 -0.40786788 -0.21832603
000030 27 fc aa 3e 9a 20 0a bf 9f 14 99 be ad b0 1b 3f
       0.33395502 -0.53955996 -0.29898545 0.6081646
000040 a7 fc e0 be 59 89 fc be 75 c9 93 be 09 1f 06 be
       -0.43942758 -0.49323538 -0.28864637 -0.13097776
000050 ae e1 af be ef ae a3 be 4b 3c 05 3e 5e 80 0e 3f
       -0.34351867 -0.319694 0.13011281 0.5566462
000060 0b a8 bf 3e 8d 17 11 bf a2 64 e2 be 43 66 3f be
       0.37432894 -0.5667656 -0.44217402 -0.18691353
000070 ac 82 94 be 44 a9 e6 3e b6 d5 c3 3e 8a 9b be bd
       -0.29005945 0.45051014 0.38248986 -0.093070105
000080 f5 71 15 3e ef 8d 02 be 32 e0 f9 be dc 16 f6 be
       0.14594252 -0.12749456 -0.4880386 -0.48064315
000090 ff 02 1b 3f 24 a4 d6 3c 51 9d 44 be f0 dd d1 3e
       0.60551447 0.026201315 -0.19200636 0.40989637
0000a0 03 21 27 be 96 9a aa 3e 23 c5 e5 3e 52 02 1f be
       -0.16321187 0.33321065 0.44876966 -0.15528229
0000b0 6f 88 87 3d 45 bf 08 3f 6d ba de be cc b3 a6 3e
       0.066178195 0.53416854 -0.43501607 0.3255905
0000c0 d0 55 2a bf 96 ff ef be c7 63 c6 be b2 01 c1 be
       -0.6653719 -0.46874684 -0.38748 -0.37696606
0000d0 57 6f 0b bf 1e 62 5e 3e 8b e3 bd 3e 07 9e 09 3f
       -0.54466766 0.21717116 0.37087664 0.53756756
0000e0 b0 35 b5 bc ac 57 31 bf 3a d4 d3 be 3b 98 00 3e
       -0.022120327 -0.692744 -0.41372854 0.12558071
0000f0 11 49 eb be a8 69 59 3e c0 aa 40 be ba f2 12 3f
       -0.45954183 0.21231711 -0.18815136 0.5740162
000100 de 41 10 bd e4 7d 23 3e e0 3d 76 bd 00 55 0e bf
       -0.035219066 0.15965992 -0.060117602 -0.5559845
000110 7b 84 db be 69 a4 d0 3e 64 dc 73 3e b2 a9 8b 3e
       -0.42874512 0.40750435 0.23814541 0.27277905
000120 7b 6b c6 be 4f 2b b8 3e f2 4c 01 bf 8e db bd be
       -0.38753876 0.35970542 -0.50508034 -0.3708157
000130 b5 c4 02 3f 63 d3 9e be 50 e6 15 3d 9a 23 98 be
       0.510814 -0.3102065 0.036596596 -0.29714662
000140 75 a4 16 3f da cf 0d 3e e1 d5 04 3e 68 73 af be
       0.5884469 0.1384882 0.12972213 -0.34267735
000150 61 7f 93 3e 30 2d 9d 3e 00 1d 82 3e e8 c5 40 be
       0.2880812 0.30698538 0.2541275 -0.18825495
000160 d5 33 c2 be e3 f0 27 3e de 95 1b be 0c e5 67 3e
       -0.3793017 0.16400485 -0.15193889 0.22645968
000170 60 f3 f8 bd 42 6e b4 3d d8 3b b1 be 8d 49 9f be
       -0.12155795 0.088100925 -0.3461597 -0.31110802
000180 e7 62 07 bd 7b fd 8d be 6e 4d 06 3f 79 61 de be
       -0.033053305 -0.27732453 0.524619 -0.4343374
000190 dc 56 3c 3e 00 f7 0e 3d f8 e3 71 be c0 81 ef 3e
       0.18392509 0.034903526 -0.2362212 0.4677868
0001a0 0d 20 be 3e 8e 0c 23 be f3 3b fe bd c3 f2 c5 be
       0.37133828 -0.15922758 -0.12413778 -0.38661775
0001b0 56 a3 67 3e a8 10 d2 be c0 b6 de bd 0c ca ec be
       0.22620901 -0.41028333 -0.108747005 -0.462479
0001c0 f7 71 ae be 16 11 e6 be 74 f0 bf 3e 78 71 b5 bd
       -0.34071323 -0.4493491 0.3748814 -0.08859533
0001d0 62 6c c6 be aa 9c b3 be 33 e2 9d 3e fb 2e bb 3e
       -0.38754565 -0.35080463 0.3083664 0.3655928
0001e0 62 a0 c6 3e 05 32 1d 3f 35 76 85 3e 06 bf c8 3e
       0.38794237 0.6140445 0.26066747 0.3920824
0001f0 ec 85 9a be 75 2c 87 3d 6b a4 00 bc 68 ca d2 be
       -0.301803 0.066002764 -0.0078517 -0.4117005

func.linear2.weight f4 [672, 128]
000000 fd a3 9b 3e bb f2 e2 3e 38 f8 df 3e 58 d5 c3 3e
       0.3039855 0.44325814 0.43744063 0.38248706
000010 3a 68 dc 3e cc 11 bf 3e af 1d b0 3e a2 13 d1 3e
       0.4304827 0.37318265 0.34397647 0.4083529
000020 57 fd d1 3e ac 57 a0 3e f5 48 a1 3e 32 43 e2 3e
       0.41013595 0.31316888 0.31500974 0.4419189
000030 fb b6 94 3e 21 8c a9 3e e1 a3 9f 3e 1d 0b c2 3e
       0.29045853 0.33114722 0.31179717 0.37899104
000040 b9 98 d8 3e 44 c4 9d 3e c4 cd cd 3e 5e bd 9f 3e
       0.42304018 0.308138 0.4019605 0.31199163
000050 e6 9a b4 3e f9 be cd 3e 1d f7 e2 3e 5e 56 e4 3e
       0.35274428 0.40184763 0.44329157 0.44597143
000060 f1 b8 cd 3e 8e d3 c6 3e 8f 01 a3 3e ec 01 c5 3e
       0.40180162 0.38833278 0.31837127 0.3847803
000070 d4 38 a1 3e 35 ad d9 3e f1 f4 ce 3e 31 8c c6 3e
       0.3148867 0.4251496 0.4042125 0.38778833
000080 0b 31 e4 3e 65 ca 9a 3e 68 8e d3 3e 1f f0 ac 3e
       0.44568667 0.3023254 0.41319585 0.33776948
000090 0f 8e 9b 3e 41 a0 be 3e 07 5f d9 3e 9d 33 97 3e
       0.3038182 0.3723164 0.42455313 0.29531565
0000a0 a4 25 a7 3e a8 e8 b0 3e 43 53 98 3e 5d a0 9a 3e
       0.32645905 0.34552503 0.29751024 0.30200472
0000b0 d1 59 9e 3e 5b d8 c3 3e 8e 01 b0 3e 1b d2 99 3e
       0.309279 0.38251004 0.34376186 0.3004311
0000c0 7c 65 e4 3e dc 5a e1 3e d1 4c 9f 3e c8 b1 ed 3e
       0.44608676 0.44014633 0.31113294 0.464247
0000d0 aa c4 c6 3e 68 96 cf 3e 80 7d b4 3e 83 0f e7 3e
       0.38821918 0.40544438 0.35252 0.45129022
0000e0 cc 52 ce 3e 62 e0 b3 3e 5a 9b 9f 3e 9b c5 d0 3e
       0.40297544 0.35132128 0.3117321 0.4077576
0000f0 cd 17 a4 3e 98 01 c1 3e 10 24 9c 3e 20 41 a5 3e
       0.3204941 0.37696528 0.30496264 0.3227625
000100 ed 42 a4 3e 5e 7c 96 3e b4 08 e4 3e e6 a4 ee 3e
       0.3208231 0.2939176 0.4453789 0.46610183
000110 2f 7b b1 3e df cd c1 3e 32 7c c8 3e 2f e0 97 3e
       0.34664294 0.3785238 0.39157254 0.29663226
000120 47 f9 ca 3e 9b 8a b7 3e 4f 7c c7 3e d6 d6 a9 3e
       0.3964331 0.35847935 0.38962027 0.3317172
000130 76 6e a7 3e 52 41 a0 3e e5 06 9b 3e 21 89 cf 3e
       0.32701463 0.31299835 0.30278698 0.4053431
000140 d4 3f b4 3e ab f0 ea 3e 74 f3 ed 3e 51 cd c8 3e
       0.35204947 0.4588674 0.46474802 0.39219144
000150 9e fe ed 3e d8 1e bc 3e 8a 8b d9 3e bd 86 ca 3e
       0.4648332 0.36742282 0.42489272 0.39555922
000160 43 97 a5 3e d5 c6 9e 3e e1 fb df 3e fc d1 cd 3e
       0.32341966 0.31011072 0.43746856 0.40199268
000170 b9 e8 ea 3e 97 03 a2 3e 4a f0 c5 3e 97 cf a3 3e
       0.45880678 0.31643364 0.38659889 0.31994316
000180 fa 5b a1 3e 67 21 97 3e dc c6 bb 3e dd 8f eb 3e
       0.31515485 0.2951767 0.36675155 0.46008196
000190 ea a1 d5 3e e4 0d c2 3e 1d 30 a6 3e 2b cd 9f 3e
       0.41725093 0.37901223 0.32458583 0.31211218
0001a0 42 c4 eb 3e 53 be 97 3e b5 07 c1 3e 0e fd a7 3e
       0.4604817 0.29637393 0.37701192 0.32810253
0001b0 a8 f8 a8 3e 10 44 b4 3e 49 b8 b3 3e 34 95 b5 3e
       0.3300221 0.35208178 0.35101536 0.35465395
0001c0 e6 e0 b4 3e e2 d0 a7 3e cd 65 c1 3e 76 89 e0 3e
       0.35327834 0.32776552 0.3777298 0.43854874
0001d0 55 58 ab 3e 6c e4 97 3e 43 ce ab 3e e0 cb ec 3e
       0.3346583 0.2966646 0.33555803 0.46249294
0001e0 11 e3 97 3e 8b 24 c1 3e a4 9e d6 3e bb c5 ca 3e
       0.29665425 0.37723193 0.41917908 0.3960398
0001f0 7f 65 db 3e ff 12 bd 3e 7b 98 d4 3e 0e 22 c4 3e
       0.42850873 0.36928555 0.41522583 0.38307232
000200 93 e9 c3 3e 49 0a bf 3e 32 bd a2 3e 03 62 c4 3e
       0.3826414 0.37312534 0.3178497 0.38356027
000210 e3 b1 9d 3e c7 88 d8 3e 68 43 e3 be 16 29 c2 3e
       0.3079978 0.42291853 -0.44387364 0.3792197
000220 45 ec aa 3e 86 06 e9 3e 05 59 bb 3e 85 c9 ac 3e
       0.33383384 0.4551279 0.36591354 0.33747497
000230 16 41 d9 3e bf 83 bd 3e 51 c7 9a 3e 2d c4 b4 3e
       0.4243247 0.37014577 0.3023019 0.3530592
000240 f3 63 aa be 77 58 b1 3e fd 9a d6 3e e6 23 da 3e
       -0.3327938 0.34637806 0.41915122 0.42605513
000250 0b 09 ea 3e 0a 38 b7 3e 0f c1 bb 3e b4 ea bf 3e
       0.45710024 0.35784942 0.3667073 0.37483752
000260 15 68 d8 3e 50 6b b1 be 00 57 e4 3e f4 0c c8 3e
       0.42266908 -0.34652185 0.44597626 0.39072382
000270 5b be a6 3e 84 2d ba 3e 65 fc c1 3e 48 a9 98 3e
       0.32567105 0.3636285 0.37887874 0.2981665
000280 4b 90 c7 3e a6 b1 c2 3e 00 30 de 3e c2 0b 98 3e
       0.38977274 0.3802616 0.43395996 0.2969647
000290 c1 31 cc 3e 9a 28 97 3e f9 ac a9 3e 5f 28 d4 3e
       0.3988171 0.29523164 0.3313978 0.4143705
0002a0 87 11 9f 3e 0b b6 eb 3e d8 1c e2 3e 43 ed d6 3e
       0.3106806 0.46037325 0.4416263 0.4197789
0002b0 b9 69 cb 3e 67 07 af 3e 13 d3 e3 3e aa 39 e0 3e
       0.39729097 0.34185335 0.44496974 0.43793994
0002c0 f3 0d e1 3e 21 3e e3 3e c6 4e 9a 3e e6 b5 ae 3e
       0.43955955 0.44383338 0.30138224 0.34123152
0002d0 74 70 97 3e 50 d6 bc 3e eb 4b d4 3e e1 e2 99 3e
       0.29577982 0.36882257 0.4146417 0.30055907
0002e0 15 4c bf 3e 50 8f b0 3e 98 22 a5 3e 94 ed d2 3e
       0.37362733 0.3448434 0.32252955 0.41196883
0002f0 18 65 a2 3e da 99 d9 3e 22 88 e5 3e 3f 7f c9 3e
       0.31717753 0.42500192 0.44830424 0.39354894
000300 65 2f 97 3e d8 37 b1 3e d3 1e d6 3e 39 c4 e7 be
       0.29528347 0.34612918 0.41820392 -0.45266894
000310 b4 df d2 3e 07 35 ca 3e ec 6d d8 be 45 18 ec 3e
       0.41186297 0.39493582 -0.42271364 0.46112266
000320 19 2d 9d 3e d6 10 ee 3e ff fb c5 3e 8c aa cf 3e
       0.3069847 0.4649722 0.3866882 0.40559804
000330 cd 16 96 3e 3e 61 ad 3e 51 63 be 3e 32 63 ab 3e
       0.2931427 0.33863252 0.37185147 0.33474118
000340 24 c6 97 3e a1 86 96 3e b4 47 d8 3e 70 20 c4 3e
       0.29643357 0.2939959 0.42242205 0.38305998
000350 db 1d a3 3e 7f 4a a5 3e 5c 5d a4 3e ba a7 af 3e
       0.31858715 0.32283399 0.32102478 0.34307653
000360 ae d3 e8 3e 07 96 b8 3e 23 26 c4 3e 67 ef d6 be
       0.45474 0.36051962 0.38310346 -0.41979524
000370 56 d3 e8 3e d5 88 a3 3e c2 c4 e5 3e 9d 79 c9 3e
       0.45473737 0.31940332 0.44876677 0.39350596
000380 8d ce e9 3e 98 d5 b0 3e 74 2c a8 3e e7 cb 97 3e
       0.45665398 0.3453796 0.32846415 0.29647753
000390 63 60 c8 3e 01 6f ea 3e 0e aa 95 3e b8 81 d4 3e
       0.39136037 0.45787814 0.29231304 0.41505218
0003a0 34 f7 a5 3e 93 55 e5 3e ba 88 e6 3e 8d 13 bc 3e
       0.32415164 0.4479185 0.4502619 0.36733666
0003b0 34 af e8 3e cd 82 b2 3e 27 23 df 3e 14 3e a6 3e
       0.4544617 0.34865418 0.43581507 0.32469237
0003c0 3d 94 b6 3e 55 6f b4 3e 15 e9 99 3e 2f b0 ca 3e
       0.35659972 0.3524119 0.3006064 0.39587542
0003d0 f8 6b be 3e d7 07 da 3e fd a6 aa 3e d1 4e ba 3e
       0.3719175 0.42584106 0.33330527 0.36388257
0003e0 03 4b b1 3e 80 bd aa 3e e7 bf e6 3e cc 6a a2 3e
       0.34627542 0.33347702 0.45068285 0.31722105
0003f0 38 81 e0 3e 66 e1 aa 3e 88 80 e5 3e 69 16 bc 3e
       0.43848586 0.3337509 0.44824624 0.36735848

func.linear2.bias f4 [672]
000000 3c 61 e7 3e 2f d5 ed 3e c0 ef ec be c2 7c b1 be
       0.4519137 0.4645171 -0.46276665 -0.34665495
000010 f5 01 d4 be 51 97 d9 3e 58 89 a8 be e0 9b 2b bc
       -0.41407743 0.42498258 -0.32917285 -0.010474175
000020 bb fe cd 3e c7 90 c7 be 92 92 a2 be 27 e3 9a be
       0.40233406 -0.38977644 -0.3175245 -0.30251428
000030 fb b1 de be 11 5b 9c be 6f 41 b8 be 02 ea e9 be
       -0.43495163 -0.30538228 -0.35987422 -0.45686346
000040 2b 2d b7 be 70 04 e8 3e 9b 46 c8 be 86 cb b3 be
       -0.35776648 0.45315886 -0.39116368 -0.35116214
000050 86 67 e9 be 38 33 ca be a4 c6 9f be 53 bf 9e 3e
       -0.45586795 -0.39492202 -0.31206238 0.31005344
000060 a5 53 ea 3e fa 92 cd 3e c5 fd 94 be 33 2a ed 3e
       0.4576694 0.40151197 -0.2909986 0.46321258
000070 fa ce e0 3e c4 4d d1 3e b1 1e ce 3e 5a 2e c7 3e
       0.4390791 0.40879643 0.4025779 0.3890255
000080 f0 33 2c 3f 77 6a f7 3d 6b 04 d2 be 35 9c cd 3e
       0.6726675 0.120808534 -0.41018996 0.4015824
000090 ee 88 a7 be 69 9b 3c 3e 59 d4 16 3f 71 e6 06 3f
       -0.32721657 0.1841866 0.58917767 0.52695376
0000a0 47 8d cf 3e a2 b4 c6 be 4f c0 a7 3e 85 c0 46 3e
       0.40537474 -0.38809687 0.32763907 0.19409378
0000b0 5e af f0 bd e9 78 99 3e c2 1e d0 3e 2f 19 e8 3e
       -0.11752199 0.2997506 0.40648466 0.45331714
0000c0 7b 8b d8 3e 10 13 bf be e2 21 db 3e 7c fb bf be
       0.42293915 -0.3731923 0.42799288 -0.37496555
0000d0 fe 76 aa 3d 5b f4 c1 be 53 14 e6 3e 96 52 d3 3e
       0.08323477 -0.3788174 0.4493738 0.41273946
0000e0 c9 1e cc 3e e7 6f c5 3e e3 c8 ac 3e 0f 16 db 3e
       0.39867237 0.38561937 0.33747014 0.42790267
0000f0 fd a4 c5 be b4 5a 9f be e3 c5 f8 3e fa 88 da be
       -0.3860244 -0.31123888 0.48588476 -0.4268263
000100 fd 71 9d be dd 98 ed 3e 72 49 a0 be 8c 2d 09 3f
       -0.3075103 0.46405688 -0.31306034 0.53585124
000110 00 1a fa be 45 7f a9 be ad 40 db be 84 a5 ae be
       -0.4884796 -0.3310491 -0.4282278 -0.34110653
000120 de 9f b0 be 73 3e 1b be 78 e2 aa 3e a4 83 d6 3e
       -0.3449697 -0.15160541 0.33375907 0.4189731
000130 dd d2 bd 3e aa d0 d8 3e 2c e3 a3 be 95 b2 9f be
       0.37074938 0.42346698 -0.32009256 -0.31190935
000140 b1 00 a6 be ef e6 de be 15 dd d1 bd b0 34 bc be
       -0.32422403 -0.43535563 -0.10247246 -0.36758947
000150 0c eb c1 be ff 05 fb be fa ea e9 bd d8 75 df be
       -0.3787464 -0.49028012 -0.11421771 -0.43644595
000160 a6 fa a9 be d7 f2 b9 3e 49 8b 96 be 8c 91 c7 be
       -0.33199042 0.36318085 -0.2940314 -0.3897823
000170 03 06 8c 3e 94 7e ba be a9 7d 02 bd c8 70 8e be
       0.27348337 -0.36424696 -0.03185812 -0.2782042
000180 be 8e ac be 03 5c 9a be d6 9a ab 3e dc 3f af be
       -0.33702654 -0.30148324 0.33516568 -0.34228408
000190 2f 9d 97 be d7 4f 9d 3e c3 cb 9a 3e 90 fd e4 3e
       -0.2961211 0.30724975 0.30233583 0.44724703
0001a0 58 39 e3 be 94 cb 9e be e4 48 d5 be 16 ba 90 be
       -0.44379687 -0.31014693 -0.41657174 -0.28266972
0001b0 00 bf e2 3e a8 c1 a7 3e f7 16 8b 3e 2b c9 a8 be
       0.44286346 0.32764935 0.27165958 -0.3296598
0001c0 de 3c c2 be e2 40 b1 be dc fc ea be 1e 65 c5 be
       -0.37937063 -0.34619814 -0.4589604 -0.3855371
0001d0 be 72 a1 3e 9b ad cb be 03 2d 7b be 2d e2 9e 3e
       0.31532854 -0.39780888 -0.2452889 0.31031933
0001e0 ad f2 cf 3e 7a 6c 08 bf ad d1 a8 3e 93 81 dd 3e
       0.40614834 -0.5329052 0.3297247 0.4326292
0001f0 5d 0e bf 3e b6 81 f7 3e db b7 e5 3e 70 5b ac 3e
       0.37315646 0.4834115 0.44866833 0.3366351
000200 00 ba b4 be 3d 0b ba 3e 7d 37 e5 3e 48 44 ae 3e
       -0.35298157 0.363367 0.44768897 0.3403647
000210 bb 56 e1 3e 3c b6 97 3a b5 ef cc 3e 34 a0 c2 3e
       0.44011483 0.0011574696 0.40026632 0.3801285
000220 49 17 b3 3e f2 56 ff 3e 45 d9 c9 3e ce 0e bd 3e
       0.34978703 0.49871022 0.39423576 0.36925358
000230 06 ec cf 3e 1f 3d 6b be 78 68 c3 be 7e 21 96 be
       0.4060976 -0.22972535 -0.3816564 -0.29322428
000240 f7 c8 d3 be ed 42 cb 3e 92 8f b5 be 90 5c ee 3e
       -0.41364262 0.39699498 -0.35461098 0.46554995
000250 93 7a 0b 3e 90 46 a3 3e 03 54 a7 3e 6f 86 a3 3e
       0.13620977 0.31889772 0.32681283 0.31938502
000260 ab 03 d3 3e 44 89 a6 3e 84 70 04 3e c5 24 88 3e
       0.41213736 0.325266 0.12933546 0.26590553
000270 22 80 d4 3e 8d 2b ae 3e 16 35 04 3e 4d 9e e7 3e
       0.41504008 0.34017602 0.12910876 0.4523796
000280 ab 77 02 3f df 41 d6 3e eb 56 67 3e 96 82 de 3e
       0.5096385 0.4184713 0.2259175 0.43459004
000290 8a ad 99 be 1f a6 cd be ba f5 e3 be 14 7f ca 3e
       -0.30015212 -0.40165803 -0.44523412 0.39550078
0002a0 ed 7f d7 be cf 0f 84 be 02 4e de be 5a d6 9a be
       -0.42089787 -0.2579331 -0.4341889 -0.30241662
0002b0 fd 06 3e be 8f 49 e9 3e ea 1d af be 9d a9 9f be
       -0.18557353 0.45563933 -0.3420251 -0.31184092
0002c0 0f 1b d5 be 9f e4 c9 3e 73 7b bd 3e 95 ca f2 be
       -0.41622207 0.39432237 0.37008247 -0.47420183
0002d0 62 9c 98 be ad 5a 74 be e3 5e b5 3e 7c e8 e2 3e
       -0.2980681 -0.23862715 0.35423955 0.44317997
0002e0 ac 96 df 3e 77 b5 c2 3e 6c d5 ed 3e f5 8f a9 be
       0.4366964 0.38029072 0.4645189 -0.33117643
0002f0 fe bc cf 3e f3 72 b9 be 99 c3 ce be e1 30 d5 be
       0.40573877 -0.36220512 -0.40383604 -0.41638854
000300 8c c0 b6 be 2e c2 8e 3e 69 66 f8 3e a3 ac 95 3e
       -0.35693777 0.27882522 0.48515633 0.29233274
000310 0c b6 9d 3e 9c 9a b5 3e 98 32 c2 be f1 1e b0 be
       0.30802953 0.3546952 -0.37929225 -0.34398606
000320 30 ca da be fd 2d d2 3e af 7a d4 3e dd fc e8 3e
       -0.42732382 0.4105071 0.4149985 0.4550542
000330 59 1e be 3e b5 31 9d 3e 98 40 aa be c6 16 9e be
       0.37132528 0.30701986 -0.33252406 -0.3087675
000340 7c d0 f1 be d5 59 c1 be f3 6c ec 3e 93 ed 98 be
       -0.47229373 -0.3776385 0.46176872 -0.29868755
000350 44 00 08 3f ca b2 ba be a1 6c 2f bd 7e dd e0 3e
       0.53125405 -0.3646453 -0.042828206 0.43918985
000360 56 c7 af 3e 6f 09 99 3e c4 5c cd 3e 44 bd ab 3e
       0.3433177 0.2989001 0.40109837 0.33542836
000370 7a 77 b5 3e 81 5e ac 3e 28 d0 a8 3e 3b 8b 9f 3e
       0.35442716 0.3366585 0.3297131 0.31160912
000380 0d df e1 3e ea 7a d6 be 7d 1b df be 7d 01 b5 3e
       0.44115487 -0.4189065 -0.4357566 0.35352698
000390 61 12 a0 3e 99 40 85 be 2c 7c bb 3e 19 1e a4 be
       0.31264022 -0.26025847 0.36618173 -0.32054213
0003a0 a5 69 b2 3e 53 e3 cb 3e db 7e ed 3e 2e 66 04 3f
       0.34846225 0.39821872 0.46385846 0.51718414
0003b0 95 a2 a3 3e 97 b4 ca 3e 53 d7 94 3e ab 96 ce 3e
       0.31959978 0.39590904 0.2907053 0.40349326
0003c0 ed 21 ed 3e 1c 32 04 bf 40 60 d7 3e 75 7c d6 be
       0.46314946 -0.5163896 0.4206562 -0.41891828
0003d0 e3 ff 2b 3e e6 f7 b0 be 81 f5 d0 3e dc 05 be be
       0.16796832 -0.34564131 0.40812305 -0.37113845
0003e0 63 cb e5 3e d9 d3 c3 3e 91 d9 98 3e 34 f1 eb be
       0.44881734 0.38247564 0.2985349 -0.4608246
0003f0 49 b7 ab 3e 77 25 eb be 54 1a d9 3e 06 ad be 3e
       0.33538273 -0.4592702 0.424029 0.3724138

initial.weight f4 [224, 3]
000000 4a 93 8c be 3b 23 70 3e c1 81 65 be 65 f5 28 be
       -0.27456123 0.2345094 -0.22412778 -0.1649986
000010 16 9c a7 be 83 c5 ec 3d 79 ae 97 3e 60 fc 23 3e
       -0.32736272 0.1156111 0.296253 0.16014242
000020 35 7b 00 bf 61 ea 70 bd 8b 16 65 3e 34 74 22 bd
       -0.50188 -0.05881727 0.2237188 -0.0396616
000030 52 d2 e7 be 44 c5 23 bf 8d 6f 11 3d 01 19 fd bd
       -0.4527765 -0.6397288 0.035506774 -0.12358285
000040 6d 11 30 3d 06 2f 29 bf 83 68 1b 3e 09 e6 52 3e
       0.04298537 -0.6608738 0.15176587 0.20595564
000050 da 85 a8 be 15 d1 d1 3e 82 1c 96 be b5 5a 04 3e
       -0.3291462 0.4097983 -0.29318625 0.12925227
000060 31 e7 2e bf f9 89 10 3f 18 5a 15 be 5e 1d 9b be
       -0.6832152 0.5646053 -0.1458515 -0.30295843
000070 bc 31 ba be 35 68 14 3e 96 d9 0b 3e b1 2a 8d be
       -0.3636607 0.14492877 0.13657221 -0.27571633
000080 36 c3 63 be d1 e6 90 be 2d 4f 87 3a c5 c7 37 3d
       -0.22242436 -0.283011 0.0010323279 0.04486825
000090 27 57 a2 3e 20 4b d2 3d 15 c7 98 3e 29 5f d3 3e
       0.31707117 0.10268235 0.29839388 0.4128354
0000a0 88 46 64 be 71 6d 0e 3f ed b1 f1 3d 92 4a ec bc
       -0.2229253 0.55635744 0.11801515 -0.028844152
0000b0 ce cb 49 3e 90 eb 0b bf 73 76 80 be d8 ed cc 3e
       0.19706652 -0.54656315 -0.2509037 0.4002521
0000c0 c6 45 1b 3e 26 43 1f be b0 6a 7d be 58 e7 cc 3d
       0.15163335 -0.15552959 -0.2474773 0.10005063
0000d0 37 99 93 3e 8a 16 61 3e 8a 2e 2d be dd 96 ca be
       0.2882783 0.21981254 -0.16912284 -0.39568225
0000e0 ab 35 2c 3f bb 3d 03 3f df 71 0e be f4 65 0f 3f
       0.6726939 0.5126607 -0.13910626 0.56014943
0000f0 63 bb 0e bf c7 ba d9 be ad b3 d4 be 8d 38 22 3f
       -0.5575468 -0.42525312 -0.41543332 0.6336754
000100 8f c5 70 3e ec f7 26 be b6 09 be 3e a1 04 a2 3e
       0.23512863 -0.16305512 0.37116784 0.31644157
000110 1b b8 3b bf 83 a1 09 be d7 1d a3 be 4d 1f 08 3e
       -0.733278 -0.13440518 -0.31858703 0.1329319
000120 ff 4b bd bd 77 5d 12 bf 68 7b 51 3e d6 e2 fc be
       -0.09243011 -0.57173866 0.20457232 -0.49391812
000130 c3 48 9f 3e ca d3 7b be c3 b9 2e be 16 9e 04 bf
       0.311102 -0.2459251 -0.1706305 -0.5180372
000140 b3 f8 0b 3f fa be 32 bd 04 d1 a8 be 51 54 12 3e
       0.5467636 -0.04363916 -0.32971966 0.14289977
000150 84 48 1c be 76 04 60 be 02 54 11 bc fb f8 f8 bd
       -0.15262038 -0.21876702 -0.008870127 -0.12156864
000160 55 de 01 3e f8 eb a4 bd bd e7 fa 3d a4 62 ab bc
       0.12682469 -0.0805282 0.12251232 -0.020921059
000170 8c f3 c4 be c5 fe 5d 3e 94 64 4c be 0e de fd b9
       -0.38467062 0.21679218 -0.19960243 -0.00048421364
000180 06 89 3a bd 1e e7 80 be 5f 12 b7 be d3 3d 43 be
       -0.045540832 -0.25176328 -0.35756204 -0.19066553
000190 0d e4 9e 3c 61 fb 6c 3e dc ca 9e be 53 21 41 be
       0.019395852 0.23142768 -0.31014144 -0.18860368
0001a0 90 51 3a 3e e4 b8 7e be e0 23 b2 3e d2 1d 66 be
       0.18195176 -0.24875218 0.34792995 -0.22472313
0001b0 53 c9 a9 3e 7c 7c 5a be bc dd 50 3e 4b 10 26 3f
       0.3316141 -0.2133655 0.20397085 0.6486861
0001c0 22 5d a8 3e 02 a5 d0 be c6 d9 43 3f 0a c0 28 3e
       0.32883555 -0.4075089 0.7650417 0.16479507
0001d0 ea 90 32 3e 9a 27 21 3e 1e 82 b0 be 25 65 d2 be
       0.17438093 0.15737763 -0.34474272 -0.41092792
0001e0 ee d9 8e be ba f8 ce bd af 77 c4 3d 06 bb b0 3d
       -0.27900642 -0.101060346 0.0959314 0.08629422
0001f0 ff 1d d4 3d 4f 7e 14 3f 4d 05 0f bf 06 68 25 be
       0.10357284 0.5800523 -0.55867463 -0.16152963
000200 15 9c c1 3e 84 05 3b bd 44 cc 9b be 43 27 c4 3d
       0.37814394 -0.045659557 -0.3042928 0.09577801
000210 3e 1f 07 bf 36 5e c3 3d 2a 95 d5 3d 94 74 e3 be
       -0.52782047 0.09539454 0.104288414 -0.4442488
000220 fc 92 18 3f cb 06 3c be bd 54 6a be fa e3 6c be
       0.5959928 -0.18361966 -0.22883888 -0.23133841
000230 4b a2 c4 3e 5e 0a d8 be 51 a4 ac 3d b7 ea dc bc
       0.3840507 -0.4219541 0.08429778 -0.02696739
000240 31 35 36 bf 05 5e 0a bf 2b 68 d8 be c8 c9 89 bb
       -0.71174914 -0.5404971 -0.42266974 -0.0042049624
000250 56 b8 1e be 40 6c a7 be b5 a9 22 3f 04 76 82 3e
       -0.15500006 -0.32699776 0.635402 0.25480664
000260 02 86 40 be 61 9c 2c 3f 3e 22 29 3f 5e 41 a0 bd
       -0.1880112 0.67426115 0.66067874 -0.07824968
000270 4a 41 9e 3e e9 9b 31 3e 26 fd 2b be f8 08 8e bd
       0.30909187 0.17344631 -0.16795787 -0.069353044
000280 15 ac 77 3e ac d0 90 be a5 f9 c7 3e 09 19 9a 3e
       0.24186738 -0.28284204 0.3905765 0.30097225
000290 d5 ed 68 be 2a 36 a1 be b8 31 5b 3e 69 11 5d be
       -0.22746976 -0.31486636 0.21405685 -0.21588673
0002a0 76 b0 01 be 97 16 9f bc 28 42 2a 3e 99 69 70 3e
       -0.12664971 -0.019419951 0.16626799 0.23477782
0002b0 ac 59 15 3e a3 8f 8f be 3a 36 33 3f 80 9f 85 3e
       0.14584988 -0.28039274 0.7000462 0.2609825
0002c0 77 2e 81 3e 3f 56 ce 3e 08 67 b8 3e 7e a6 04 3e
       0.25230762 0.40300176 0.36016107 0.12954137
0002d0 d0 53 48 be 40 0b 9f be a8 52 81 3d d8 b2 15 3e
       -0.19563222 -0.3106327 0.063145936 0.14619005
0002e0 17 ac 34 be 10 32 9a bd a2 a6 04 bf 39 d7 31 3e
       -0.17643772 -0.0752908 -0.5181676 0.17367257
0002f0 b0 b8 a8 be ea 2a 1b be 72 41 0b bf ea 3a 1e be
       -0.32953405 -0.15153089 -0.54396737 -0.15452161
000300 0c e3 2e bd 07 b5 f0 be 19 bb 1b bf ad 78 55 bf
       -0.042696998 -0.47013113 -0.60832363 -0.8338726
000310 6e 4b fe 3c ed 6b af be 19 73 1b 3e 10 22 70 3e
       0.031041827 -0.34262028 0.15180625 0.23450494
000320 89 07 64 be 04 71 61 3e ce 00 a7 3e ca af a9 bd
       -0.222685 0.22015768 0.326178 -0.08285482
000330 34 aa a7 bd b0 7d d2 3e c1 d1 75 bd 17 0e 20 bd
       -0.081867605 0.41111517 -0.06001449 -0.039075937
000340 be ac 65 be ad 28 66 3e c0 81 44 3d 89 c7 44 bd
       -0.22429177 0.22476454 0.0479753 -0.048041854
000350 53 45 a4 bb 9f 69 3f 3f dc d7 88 bd e8 2b 92 3d
       -0.005013147 0.7477054 -0.06681797 0.07137281
000360 fc 6a 06 3e 6c 3a 1b 3e c0 ad 0b 3d 51 68 80 3e
       0.13126749 0.15159005 0.034101248 0.25079587
000370 53 5e fe 3e ef 50 30 be ee dc 50 3e 63 46 43 3e
       0.4968134 -0.17218374 0.20396778 0.19069819
000380 d4 f8 16 bf 22 09 23 bf 68 a8 a2 bd b6 86 84 be
       -0.5897343 -0.6368581 -0.07942277 -0.25884026
000390 a9 2d ce be fd 5e 0c be 77 c8 c6 bd 47 83 8e bf
       -0.4026921 -0.1370811 -0.097062044 -1.1133813
0003a0 4f a2 44 bf c4 04 10 be 57 9a 97 3e d6 07 94 3d
       -0.76810163 -0.14064318 0.2960994 0.07228057
0003b0 1d 8f 10 be 80 96 bd 3d ef 1d 8e be ad 6a c5 be
       -0.14117093 0.09257221 -0.27757213 -0.3855795
0003c0 f6 22 49 3f 44 38 3f 3e 64 bc d9 3c d8 76 07 bf
       0.7856897 0.18673807 0.02657909 -0.52915716
0003d0 e5 0b 5a 3e 68 e2 4e be e5 df 08 3f 37 30 cc bd
       0.212936 -0.20203555 0.53466636 -0.09970134
0003e0 82 60 13 3f 25 c1 4d 3e a5 4d be 3d d6 5d af 3d
       0.57569134 0.2009321 0.09292153 0.0856282
0003f0 bb 79 3c 3e 2a 2a ad 3e 38 96 7a be b0 fb 0d 3f
       0.18405811 0.3382123 -0.24471366 0.5546217

initial.bias f4 [224]
000000 f1 1b cd bc d8 cf 2a bf 3c 34 1c 3d f0 2c 95 be
       -0.025037738 -0.66723394 0.038135752 -0.29135847
000010 10 15 56 be 75 bf 3f 3e 8f 3c 4b bf ff cd 5b be
       -0.20906472 0.18725379 -0.7938928 -0.214653
000020 b4 56 5b 3e 2c 0c 66 bd c5 49 6d be 6d 7e 07 3f
       0.21419793 -0.05616395 -0.23172672 0.52927285
000030 a7 80 1b 3e 98 e3 36 3f bb bf c3 39 e9 18 a0 be
       0.15185796 0.7144103 0.0003733615 -0.31269005
000040 f1 29 d9 be a3 81 41 3e 64 b9 0c 3c 20 d3 4e bd
       -0.4241481 0.18897109 0.008589122 -0.050494313
000050 f8 14 38 bf 0e d7 7a 3e fc a7 1e 3f 83 d2 0b bf
       -0.71906996 0.244961 0.61975074 -0.5461809
000060 d1 0e b6 3e 31 a4 54 be ca c0 30 bf 41 48 c4 be
       0.3555818 -0.20765759 -0.6904417 -0.38336375
000070 cd 58 00 3e be 94 31 bf 01 66 f2 3e b9 b3 03 bf
       0.12533875 -0.6936759 0.47343448 -0.5144611
000080 59 fa a2 3e c1 e6 1b 3d ef cc 86 be 05 58 80 3e
       0.31831625 0.03806186 -0.26328227 0.25067154
000090 17 a9 09 3f 87 79 9d 3d 11 b3 e5 3e 86 92 19 bb
       0.53773636 0.07689195 0.4486318 -0.0023433282
0000a0 39 b5 37 3f 46 7d 08 3e 17 46 cb be b3 16 26 be
       0.717609 0.13329038 -0.39701912 -0.16219597
0000b0 d1 ae 86 3e c7 81 9c 3e 00 d5 b6 bd fd a1 0d bf
       0.2630525 0.30567762 -0.08927345 -0.553253
0000c0 5b fb 87 bf 3c 4d 1f bf 27 dd 13 3f e3 c7 a6 bd
       -1.0623583 -0.62227225 0.57759327 -0.08143594
0000d0 6b 6a cd be 9d f2 1a bc 92 92 0c bf 1d 1d 19 be
       -0.40120253 -0.009457258 -0.5491115 -0.14952512
0000e0 56 5c ac bd 19 d4 73 3d 7e c3 dd be 85 9c a8 be
       -0.08416049 0.059528444 -0.4331321 -0.32931915
0000f0 e9 2a 22 be 48 7d 2a bf 89 c1 ef be 25 a1 65 bf
       -0.15836681 -0.66597414 -0.46827343 -0.8969901
000100 d6 a9 11 bf 46 df e7 be 28 5c 10 3d a6 6c d5 3d
       -0.56899774 -0.45287532 0.035244137 0.10421114
000110 c1 2e 43 3f aa 0a 92 3e 17 d9 6d be fd e5 1e bf
       0.76243216 0.2852376 -0.23227344 -0.62069684
000120 6d 64 89 be 87 db c3 3e 87 74 10 bf 6e 9f 0a bf
       -0.2683443 0.38253424 -0.56427807 -0.5414952
000130 03 c0 ac 3d 7b b9 dc be 19 77 57 bc c6 fa dd be
       0.08435061 -0.4311026 -0.013150954 -0.43355387
000140 2c 01 c9 be 3a 22 27 bf 74 17 e5 bb 58 1a fe 3e
       -0.39258707 -0.652866 -0.006991321 0.49629474
000150 fe 8e 0b bd c3 79 22 3e ab e6 b1 be 32 00 a1 be
       -0.034071915 0.15866761 -0.34746298 -0.31445462
000160 2e 57 ed 3c b5 03 54 3f a1 be 24 3e 9c 95 f0 3e
       0.028972235 0.82818156 0.16088344 0.46989143
000170 d4 f8 09 bf 63 71 c3 be 87 5b 1a bf 7f ad 2d 3f
       -0.53895307 -0.38172445 -0.6029591 0.6784286
000180 03 ee 1c 3e 2f da e1 3d 5b 4a fa be 06 29 1e bf
       0.1532517 0.11027943 -0.48884854 -0.61781347
000190 24 a4 07 3f c8 8c d7 be a4 43 c6 3e 7c 09 07 3f
       0.52984834 -0.42099595 0.3872348 0.52748847
0001a0 81 db cd bd fd 9b ad be cf 3c 06 3e b4 20 32 bf
       -0.10051633 -0.33908072 0.13109134 -0.6958115
0001b0 bb 10 36 be b9 66 42 be 7a 62 d3 bd 87 98 be 3d
       -0.1777982 -0.18984498 -0.10321517 0.09306436
0001c0 4f 80 59 3d f9 10 06 3e 7a 69 0a bf 01 2c 17 3d
       0.05310088 0.13092412 -0.54067194 0.0369072
0001d0 53 01 3a 3c f9 31 55 bf df 87 0f bd 70 bb d2 be
       0.011352855 -0.8327938 -0.035041686 -0.41158628
0001e0 74 57 04 be 42 03 bd 3e ae 2e ea be f9 a4 1f bd
       -0.12923986 0.36916548 -0.4573874 -0.03897569
0001f0 14 37 f5 3e 5c a7 47 3e aa f3 97 3c ef 01 1b be
       0.47893584 0.19497436 0.018548805 -0.15137456
000200 65 8b f2 bd 41 79 14 bf c4 51 b9 be 95 cd 74 3d
       -0.11842994 -0.5799752 -0.36195195 0.05976637
000210 f1 f3 3b 3e 2c 60 67 3e a6 ca 2b 3d 30 1d d5 3e
       0.18354775 0.2259528 0.041941307 0.4162383
000220 81 08 28 be 77 8d 04 3f da 3a c2 3e f9 7f 84 bf
       -0.16409494 0.5177836 0.37935525 -1.0351554
000230 bc 63 ee be 38 13 d4 3e 42 54 90 3e 02 a4 12 3f
       -0.46560466 0.41420913 0.28189284 0.57281506
000240 db 1e 8b be 64 fd 34 bd 83 a1 0f bf 2b 74 39 3f
       -0.27171978 -0.044186965 -0.5610582 0.72442883
000250 6f 58 83 3d 1f 7e db 3e 45 a9 0c be 5d ba 92 be
       0.06413352 0.4286966 -0.13736446 -0.2865781
000260 8a d8 88 3e fa 5e ca be 2e 6b cc bc dd 06 9d 3e
       0.26727706 -0.39525586 -0.024953451 0.306693
000270 1d bf a3 bd bf 47 03 3d 17 b3 94 3e 5b 1e 81 bc
       -0.07995436 0.032050844 0.29042885 -0.015761545
000280 63 12 4a 3e 71 9d 0a 3f f5 ab c1 3e ba 4b d5 3e
       0.19733576 0.54146487 0.37826505 0.41659337
000290 37 a9 94 be 74 7a f2 be ba ec ad 3e 8c 7b 50 3f
       -0.2903535 -0.4735905 0.3396967 0.8143852
0002a0 65 05 e7 bc 04 39 dd be a5 85 a7 be f1 3c 92 3e
       -0.028200815 -0.43207562 -0.3271915 0.2856212
0002b0 da 6d 7b 3f 9d 82 67 3e 4c 3c 32 3e e3 99 58 be
       0.98214495 0.22608419 0.17405814 -0.21152453
0002c0 0c 0e 4e bf d0 45 43 3f f0 e1 ca bd 61 0a af 3e
       -0.80490184 0.762784 -0.099063754 0.34187606
0002d0 e0 76 9b 3e f1 e4 9b 3d 2d 7d b3 3d 77 6d c0 3e
       0.30364132 0.076120265 0.0876411 0.37583515
0002e0 ad 2b 6c 3d 99 11 36 3f 2a 8f 6e be 6a a3 40 3c
       0.05765884 0.711206 -0.232968 0.011757711
0002f0 50 5a 66 3e 75 dc ea bd 60 c7 97 3e 40 e8 26 3e
       0.22495389 -0.1146783 0.296443 0.16299534
000300 89 15 e2 be 9b 62 fe 3d fb e6 96 bd 83 3e 2e be
       -0.44157055 0.12421151 -0.07368275 -0.17016034
000310 a5 2b 45 3d 40 88 d8 3c cd cc 10 3f 04 0e 40 3f
       0.048137326 0.026432157 0.565625 0.75021386
000320 4d e2 0c be 39 17 a7 bd 14 94 fb be 94 bd a7 3e
       -0.13758202 -0.08158726 -0.49136412 0.32761824
000330 07 a1 0b bf f0 0a 8a be d3 25 62 3e 7d 34 de bc
       -0.54542583 -0.2696147 0.22084741 -0.027124638
000340 27 03 e4 be a7 7f 90 bd 51 14 c6 be d0 15 40 be
       -0.44533655 -0.07055598 -0.38687375 -0.18758321
000350 7c 48 f1 be 7d 06 9d bd 65 2f ed 3e cb 79 85 bd
       -0.47125614 -0.07667253 0.46325222 -0.06517371
000360 cc 91 d7 3e 2b 9d ef 3d d8 d4 ea be 57 23 e7 bd
       0.42103422 0.11699899 -0.45865512 -0.112860374
000370 e8 2e b9 bb 4c 98 82 be 80 81 e2 be 61 d7 08 3f
       -0.0056513436 -0.25506818 -0.44239426 0.5345364

readout.weight f4 [126, 224]
000000 df d0 ba 3e 88 b0 b3 be 10 1c 47 be b9 aa a5 be
       0.3648748 -0.3509562 -0.19444299 -0.32356814
000010 bd f9 8e 3d a3 c0 23 bd 2d 13 74 be f3 16 de 3e
       0.069812275 -0.039978635 -0.2383544 0.43376884
000020 92 72 59 3e 37 35 c3 be 52 ee ac 3e 9a b2 0b be
       0.21235111 -0.38126537 0.33775574 -0.1364235
000030 4d 9c a1 be df 58 e9 be cd c6 15 3e 35 b1 69 3e
       -0.3156456 -0.45575616 0.14626618 0.22821505
000040 f6 f7 a3 3e 1c 16 aa be 18 69 16 3e fa 42 d8 be
       0.32025117 -0.33219993 0.14688528 -0.422386
000050 3a cf be 3e 6c 7a bc be 53 6e 17 be 06 d0 e6 3e
       0.37267476 -0.3681215 -0.14788179 0.45080584
000060 5f d0 c3 be dd ae c4 3e c6 13 ed 3e bf 47 42 be
       -0.38244912 0.3841466 0.46304148 -0.18972681
000070 1d 07 b9 be 1f 4c 97 be ca 28 e2 bd c3 54 aa be
       -0.3613824 -0.29550263 -0.11042936 -0.33267793
000080 d8 ef 3c bd 54 ed ab be 82 c7 da 3e 11 c2 a8 be
       -0.04612717 -0.33579504 0.42730337 -0.3296056
000090 49 92 aa 3e 73 4e ac be 3a d8 c2 be f3 11 f7 3e
       0.33314732 -0.33653602 -0.38055593 0.48255882
0000a0 f5 04 a9 3e 9b 12 e4 be e5 5d d7 be 27 3e c6 3e
       0.33011594 -0.44545445 -0.42063823 0.38719293
0000b0 cc ea ba 3c 09 33 e2 be ab 6f 82 3e 30 9f c8 be
       0.022817038 -0.44179562 0.2547582 -0.3918395
0000c0 7a 0f ed 3e 5a 46 d0 3e 9b b0 ad be ef 66 63 be
       0.4630087 0.40678674 -0.33923802 -0.22207235
0000d0 11 e4 a4 3e dd 46 b4 be 07 e0 a1 be 7e 23 a6 be
       0.3220525 -0.35210314 -0.31616232 -0.32448953
0000e0 85 63 b5 be 29 ee d2 be 44 d6 b9 be 84 56 e0 be
       -0.3542749 -0.41197327 -0.36296284 -0.43816006
0000f0 a3 d2 b6 3e 87 10 b3 3e 31 21 b7 3e b8 83 ee 3e
       0.35707578 0.34973547 0.3576751 0.46584868
000100 e6 56 c2 3e e3 b6 8a 3e 35 c1 97 be 59 e8 94 3e
       0.37956923 0.27092656 -0.29639593 0.29083517
000110 7e 1d d8 be 49 b7 cf 3e 32 24 9d 3e df bd 84 be
       -0.4221 0.40569523 0.30691677 -0.2592611
000120 e5 e5 d1 be 3b 68 f2 be 9a 1a a6 be bb 6c 51 be
       -0.40995708 -0.47345147 -0.3244217 -0.20451634
000130 3b 67 ac 3e 75 27 10 3f 86 de 94 3e bd 04 de 3e
       0.3367251 0.56310207 0.29076022 0.4336299
000140 52 90 bb be f0 6a a2 3e cb 6e 6d 3e 40 a5 96 3e
       -0.36633545 0.31722212 0.23186795 0.2942295
000150 12 57 98 be b7 9f bf 3e ba b8 b7 3e db ce f6 3e
       -0.2975393 0.3742654 0.35883123 0.48204693
000160 5b 1d ad 3e 7f fc d8 be 60 b0 c6 be f5 73 6f bd
       0.3381146 -0.4238014 -0.38806438 -0.058460195
000170 a4 3d fb 3e 69 36 0d bf 73 7f cd 3d cf 6e c5 bc
       0.49070466 -0.5516115 0.10034075 -0.02410069
000180 88 d9 b8 be 6f c3 94 be e0 29 a9 be f3 f0 2a be
       -0.36103463 -0.29055354 -0.3303976 -0.16693477
000190 e3 c3 b8 be 3e dd a0 3e c3 28 78 be 6d 1f 6c be
       -0.3608695 0.31418794 -0.242343 -0.23058863
0001a0 93 f7 8e 3e 3c 54 d4 3e 9e 44 88 3e 1d a9 e4 3e
       0.2792326 0.41470516 0.2661485 0.44660273
0001b0 4c a7 ed be 28 98 fd 3e 43 d4 b6 be 66 dd 88 be
       -0.464167 0.49530149 -0.35708818 -0.26731414
0001c0 61 23 bd be a8 ce c8 be ef 75 b5 3c 25 d0 90 3e
       -0.36941054 -0.39220166 0.022150962 0.28283802
0001d0 46 e9 d0 3e 8d 42 ec 3e e4 16 b3 3e 1b 35 b4 be
       0.40802974 0.46144524 0.34978402 -0.35196766
0001e0 1a e9 b2 be b7 dd 90 be bf 44 8d be 86 39 a2 3e
       -0.34943467 -0.28294155 -0.27591512 0.31684512
0001f0 63 05 73 be cb eb ce be 7b e5 bd be aa e7 69 3d
       -0.23732524 -0.4041427 -0.37089142 0.057105698
000200 b5 4b b8 3e 25 ce 9b be 6e a9 85 be 66 7c 5f 3e
       0.3599526 -0.30430713 -0.26105827 0.21824798
000210 36 0e bb bd b9 92 e0 be 82 0f f4 3e 93 10 56 3e
       -0.0913357 -0.4386194 0.47668082 0.2090476
000220 8b 5a c6 3e ad e4 a8 3e 61 53 6e be d0 93 bc 3e
       0.38740954 0.32986966 -0.23273994 0.36831522
000230 0f 30 ba be b9 0c a3 bc c7 6e fc be 82 be a2 3e
       -0.3636479 -0.019903528 -0.49303266 0.3178597
000240 fa a9 ac 3e a1 de f3 be af 7c 99 be c5 b5 bb be
       0.33723432 -0.4763079 -0.2997794 -0.36662117
000250 a2 98 68 3e 93 79 7b be 0e e7 a1 be e5 71 92 be
       0.22714475 -0.24558096 -0.31621593 -0.2860252
000260 d8 bd b9 3e 76 9a 83 be 5e b9 37 be 69 3c 57 3e
       0.36277652 -0.25703782 -0.17941806 0.21019138
000270 ab dd db be ed f6 87 3e 03 96 c3 3e 01 60 9d be
       -0.42942557 0.26555577 0.38200387 -0.30737308
000280 ea f4 bd 3e cf 34 9e be 93 c7 d2 3e c4 ed 04 3f
       0.37100917 -0.30899665 0.41167888 0.519253
000290 f8 9b a4 3e 87 b3 d0 be 66 01 8e be 9f f7 97 be
       0.32150245 -0.40761968 -0.27735442 -0.29681107
0002a0 af b1 98 3e 78 fa 36 be 89 2a c9 3e 7c 37 72 be
       0.29823062 -0.17868984 0.39290264 -0.23653978
0002b0 45 26 00 bf 68 b8 f4 bd da c1 84 bd 85 60 c8 3e
       -0.50058395 -0.11949235 -0.06482287 0.3913614
0002c0 5f a5 0b 3f 5d 35 c9 be aa 41 2c be 8b a9 c5 3e
       0.5454921 -0.39298525 -0.16821924 0.38605914
0002d0 e0 b4 94 be f7 ac c4 be 5d 9e c0 3e a6 b2 f4 be
       -0.29044247 -0.38413212 0.37620822 -0.47792548
0002e0 9c a4 b2 be fe e4 93 be ea 91 6b 3e d5 cb bf be
       -0.34891212 -0.28885645 0.2300488 -0.374602
0002f0 8f bb c5 3e 45 41 ec bc eb b3 ce be f2 a8 b6 3e
       0.38619658 -0.028839717 -0.40371642 0.3567577
000300 10 a9 41 be 3f 26 04 bf 8d cf 2a bd 1d c3 ea 3e
       -0.18912148 -0.5162086 -0.041701842 0.45851985
000310 23 b2 8d 3e 2a bc c1 3e 42 ee c4 3e 29 24 fc be
       0.2767497 0.3783887 0.38463026 -0.49246338
000320 dc 8f 89 be b0 93 b8 3e 62 96 95 3e 52 72 a6 be
       -0.26867568 0.36050177 0.29216295 -0.32509094
000330 6c e1 f8 3e b1 a9 c8 bd 9d 5a 9c 3e b9 55 9b 3e
       0.48609483 -0.09797991 0.30537882 0.3033884
000340 4e cf a3 3e 61 43 af be de 0f aa 3e d5 0e ec be
       0.31994098 -0.34231094 0.3321523 -0.46105066
000350 52 d1 c5 3e 08 8d 00 3f 4a 09 6d be da e1 98 be
       0.3863626 0.50215197 -0.23148075 -0.2985981
000360 d5 a7 b5 be 3c 30 aa be 72 2b a4 3e 4a 91 c9 3e
       -0.35479608 -0.33239925 0.32064396 0.3936866
000370 57 e7 9c 3e da 45 18 3e 39 6b 46 bc 4a f5 b0 be
       0.30645248 0.14870396 -0.012110525 -0.3456214
000380 0d be d5 3e 07 e1 cd be a8 15 30 be 98 00 c2 be
       0.4174656 -0.40210745 -0.17195761 -0.37891078
000390 67 5b 2d 3e 53 aa 54 bd ee b9 43 be 80 a8 ac 3e
       0.16929398 -0.051920246 -0.19113895 0.33722305
0003a0 22 cb 2d 3e 03 0c b3 be 16 37 aa 3e 87 83 bb be
       0.1697202 -0.34970102 0.33245152 -0.36623785
0003b0 eb 74 b8 be 4c b8 5c be c3 9a 90 3e 6a bc 83 3e
       -0.360267 -0.21554679 0.28243074 0.25729686
0003c0 54 03 9c 3e 14 83 dd be 03 59 65 3e 1b 2f f7 be
       0.3047129 -0.43264067 0.22397237 -0.48278126
0003d0 79 a9 98 3e 8b 87 a7 be a5 e1 fa bd 4a c1 bb 3e
       0.29816797 -0.327206 -0.122500695 0.36670905
0003e0 0a 3e 86 3d d4 a9 96 3e 09 5a d0 3e f3 61 8c be
       0.06554802 0.29426444 0.4069369 -0.2741848
0003f0 60 fb c5 be 06 0f bf be b5 ca 5c be 91 5b bd be
       -0.38668346 -0.3731615 -0.21561702 -0.36983922

readout.bias f4 [126]
000000 f3 3a c9 be 58 1e ea be 48 55 e0 bd a1 54 d5 3c
       -0.39302787 -0.45726275 -0.10953766 0.02604133
000010 79 79 3e be 1d 6b e6 be 05 fe 3e be 25 57 ac be
       -0.18601026 -0.45003596 -0.18651588 -0.33660236
000020 85 03 ec be 3c 44 8c be 07 72 de 3c a7 f4 32 bc
       -0.46096435 -0.2739581 0.027153982 -0.0109225875
000030 b3 28 75 be c3 5b 66 be 68 a7 a9 be 64 76 b8 be
       -0.23941307 -0.22495942 -0.33135533 -0.36027825
000040 83 74 94 be 22 68 e7 be e2 a8 04 bf 67 47 b6 be
       -0.2899514 -0.45196635 -0.51820195 -0.3560135
000050 f4 d6 d2 bd a9 8e 07 bf 08 66 21 bf 6a 25 e1 be
       -0.10294905 -0.5295206 -0.6304631 -0.43973857
000060 ed 24 bf be a3 fc b9 be ca 6b 01 bf 28 28 dc be
       -0.3733286 -0.3632556 -0.505551 -0.42999387
000070 13 bd e8 be 62 a9 b2 be 45 41 1b bf d4 2d c8 be
       -0.45456752 -0.34894854 -0.6064647 -0.39097464
000080 e1 85 bc be af 5a 29 bf 25 47 bb be b2 42 fc be
       -0.36820891 -0.66154 -0.36577716 -0.49269634
000090 6c eb e3 be 90 08 e9 be ea c8 fe be ae 23 f6 be
       -0.4451555 -0.45514345 -0.4976266 -0.48074096
0000a0 68 0e b2 be eb ef e9 be b0 72 e7 be d4 47 17 bf
       -0.34776616 -0.45690855 -0.45204687 -0.59093976
0000b0 76 e5 0e bf 58 0c 14 bf 1a 64 f6 be 22 f1 e4 be
       -0.5581888 -0.57831335 -0.48123246 -0.4471522
0000c0 47 40 be be e4 25 04 bf ab 7e e3 be 61 29 be be
       -0.37158415 -0.51620317 -0.44432577 -0.37140945
0000d0 65 44 9d be d6 10 f4 be b7 44 eb be 43 f7 18 bf
       -0.30716243 -0.47669095 -0.45950863 -0.5975229
0000e0 10 94 b1 bd 3c da ca be f7 3f e2 be 9e db f9 be
       -0.08670819 -0.39619625 -0.44189426 -0.48800367
0000f0 3b 9d 13 bf 85 5d ee be b3 29 cd be 79 14 ae be
       -0.5766179 -0.46555725 -0.40070876 -0.33999994
000100 4d a5 24 bf ba 0d 00 bf 80 83 ab be c5 43 96 be
       -0.6431473 -0.50020945 -0.33498764 -0.2934858
000110 ac 48 d8 be bb 3b fc be de 16 04 bf c6 24 05 bf
       -0.42242944 -0.4926432 -0.5159739 -0.52009237
000120 fb 73 20 bf 6c 39 2a bf 14 a0 a2 be 54 12 3a bf
       -0.6267697 -0.6649387 -0.31762755 -0.72684216
000130 17 72 de be d0 52 11 bf 47 7a d6 be c8 e9 da be
       -0.4344642 -0.56766987 -0.41890165 -0.42756486
000140 6e f7 dc be 39 5d d3 be ee 00 18 bf f3 1e b3 be
       -0.43157524 -0.4128206 -0.5937642 -0.3498455
000150 a4 61 f1 be 7a e9 ca be 5a e2 b2 be 6d 5c 70 be
       -0.47144806 -0.39631253 -0.34938318 -0.23472758
000160 a5 ac b0 be 9a 81 ee be a8 68 a5 be c7 c3 ce be
       -0.34506717 -0.46583253 -0.3230641 -0.4038374
000170 02 95 23 bf 2d 19 b3 be b6 5a c1 be 61 8c 54 bd
       -0.6389924 -0.34980145 -0.3776452 -0.05189169
000180 17 68 2b be ac 1f 64 be 28 28 8a be 4c 42 a3 be
       -0.16738926 -0.22277707 -0.26983762 -0.31886518
000190 48 cb eb bd 1e 4d f6 be 7e b1 a6 be b0 f3 d2 be
       -0.11513382 -0.4810571 -0.3255729 -0.41201544
0001a0 a3 59 33 bf 1e 8f b7 be 2a 28 e0 be d0 9c d6 be
       -0.7005865 -0.35851377 -0.43780643 -0.41916513
0001b0 59 3e 27 bf 7c d9 c2 be 2c 88 7c be b1 57 c3 be
       -0.6532951 -0.38056552 -0.2466132 -0.3815284
0001c0 16 c3 d4 be cf b2 ce be eb e9 c9 be 70 c1 10 bf
       -0.4155509 -0.40370795 -0.39436278 -0.5654516
0001d0 93 5c af be 87 82 ab be ce b3 16 bf 78 08 05 bf
       -0.34250316 -0.33498022 -0.5886811 -0.5196605
0001e0 fc 05 56 be 3f 77 a3 be bf 83 af be b1 48 cb 3d
       -0.2090072 -0.31926915 -0.34280202 0.09925974
0001f0 3a e2 d1 be be e8 87 3d
       -0.4099291 0.06636189
