cde/model/rk4/29.ckpt (torch, 581263 bytes, 8 tensors)

func.linear1.weight f4 [128, 224]
000000 d2 36 83 bd 40 a7 cd 3c e4 c6 2e 3d dc 9c c1 3c
       -0.064069405 0.025104165 0.042670146 0.023634367
000010 d3 8d 15 3d d5 be ac bc 16 31 de 3a 34 ca 17 bd
       0.036512207 -0.02108709 0.0016951885 -0.03705807
000020 49 70 c9 bc 3d 2f 18 bd e2 37 df 3c 37 0c 70 3c
       -0.024589675 -0.037154425 0.027248327 0.01465135
000030 98 fb 81 3d f4 01 07 bd 66 56 f6 3c ba 77 66 3d
       0.06346816 -0.032960847 0.030070495 0.056266524
000040 8f f7 00 bd 14 0a 34 3d 30 6f 48 3b 13 1a a3 3c
       -0.03148609 0.043954924 0.003058385 0.019909894
000050 d4 d1 05 3d a6 aa 0c bc 8b 2f 8a bd 13 4a 6c bc
       0.03267081 -0.008585608 -0.06747349 -0.014421958
000060 61 16 ad 3c d5 2c 73 3d b2 85 96 bc d2 ca 08 bd
       0.021128835 0.059368927 -0.018374298 -0.03339655
000070 8d f4 05 3d bc 7a 36 bd fc c1 3c bc 45 46 a8 3a
       0.032703925 -0.044550642 -0.011520859 0.0012838325
000080 07 15 50 3d 0c 76 dd bc ca e9 09 3d 0c 87 3f 3d
       0.050801303 -0.027033828 0.033670224 0.04675965
000090 f2 a9 8b 3d 31 1e 9f bb 2d fd 21 bd e1 d1 4c 3d
       0.06819524 -0.004855894 -0.039548088 0.050004844
0000a0 b6 1a 2a bd 86 1b 47 bd 21 8b 52 3d a1 40 03 3d
       -0.04152938 -0.048610233 0.051402215 0.032044057
0000b0 51 9a 5a bd 96 6a 70 bd bc 90 2a bb e7 3b ed bc
       -0.053369824 -0.0586954 -0.002602621 -0.028959228
0000c0 3d 7e 19 3d 82 95 2f bd 11 c6 64 bd 17 c7 57 3d
       0.037473906 -0.04286719 -0.055852953 0.0526801
0000d0 08 9e a7 3b 28 21 9f b9 0c f9 7b 3d 13 78 f6 3b
       0.0051152743 -0.00030351547 0.061516806 0.007521638
0000e0 1b 3c 5e 3c 3c 29 fa 3c bb 6a a0 3c 49 a0 e3 bc
       0.013564135 0.03053724 0.019582143 -0.02778639
0000f0 20 4e 91 3b fd 6c ce bc be 6c d6 bc 87 33 34 bd
       0.004434362 -0.025198454 -0.0261749 -0.043994453
000100 09 d2 71 bd a5 7f c0 bc a8 23 e8 bc 23 3e 7e 3c
       -0.059038196 -0.023498366 -0.028337315 0.015517744
000110 76 9e 03 3d 71 b2 3e 3d 0a 4b 40 3c 21 8d cd bc
       0.032133542 0.046556894 0.011736641 -0.02509171
000120 42 43 03 bd 2a 46 0d 3d 9e a1 15 bd 18 fb 57 bb
       -0.032046564 0.03449074 -0.036531083 -0.003295606
000130 70 d6 90 3d 72 f3 2a 3d d9 97 e6 3c 78 f8 52 3c
       0.07072151 0.041736074 0.028148578 0.012876622
000140 f3 19 c9 3c 19 00 a6 bc 3c c8 c2 3c d8 ca 25 3d
       0.024548506 -0.020263718 0.02377712 0.04047665
000150 91 73 5e 3d 36 46 38 3d 56 b0 54 bd 91 6c 2d bd
       0.05430943 0.044988833 -0.05192598 -0.042339865
000160 87 cc 81 bc 2e 92 58 bd ea 82 bf bb 2c 1d 4a bd
       -0.015844597 -0.052873783 -0.0058444636 -0.049344227
000170 70 7d d0 3c 48 20 8c bd 17 4a 74 bc 0d cc 03 3c
       0.025450438 -0.06842095 -0.0149102425 0.008044255
000180 c5 94 81 3c 1a c4 a1 3b 62 dd 4d bd d9 da 38 bd
       0.01581801 0.004936707 -0.050259955 -0.045130584
000190 c7 4a 83 bb fd 88 1b 3d cc 83 77 3d ba 4d d5 bc
       -0.004006717 0.03797244 0.060428426 -0.02603804
0001a0 9e b7 ac bc e0 22 37 3d 2c cd 95 bc 12 91 c5 bc
       -0.02108365 0.044710994 -0.01828631 -0.024117026
0001b0 65 7e 67 bd b6 e5 47 bb 1d da dc bc 42 76 7c 3d
       -0.056517024 -0.0030501909 -0.026959473 0.061636217
0001c0 37 a4 e3 b9 77 74 d3 bc 7c cd 2d 3d 5f 10 e1 bc
       -0.00043419164 -0.02581237 0.042432293 -0.027473627
0001d0 35 06 dc 3c 0a 89 63 3d 46 e4 80 bd 11 72 26 3d
       0.026858428 0.055550613 -0.0629354 0.040636126
0001e0 62 15 84 bd 47 86 9b 3c 3b 08 89 bd 9d cf 9f 3c
       -0.06449391 0.018984927 -0.06691023 0.019508177
0001f0 eb 36 95 3c dd 14 54 3d f9 35 7a 3d e0 76 43 bd
       0.018214663 0.05177771 0.06108663 -0.04772079
000200 77 9d 6f bd 37 1c 83 3d 17 b4 36 bd 80 a2 8b bb
       -0.05849978 0.06401866 -0.04460534 -0.004261315
000210 95 5c 17 3d 34 5b 15 bd 2f dc 7f 3d 7b 87 10 bd
       0.036953527 -0.03646393 0.062465843 -0.035285454
000220 48 9b 34 3d 8f a0 2e 3d 70 4d a1 3c fd 8a 38 bc
       0.0440934 0.04263359 0.019690245 -0.011263606
000230 a3 ce 89 bb 58 ac 5a bc 92 00 4f 3d 71 d0 c1 3c
       -0.004205541 -0.013346754 0.050537653 0.023658963
000240 bb a8 3e bc f9 4f 61 3d e7 90 cf 3b 59 aa 0d 3d
       -0.011636908 0.05500791 0.0063344124 0.034586284
000250 11 e2 1c 3d 18 d0 74 3b bd 73 88 3d bf 71 cd 3c
       0.03830153 0.003735548 0.066627 0.025078652
000260 9d 66 7f 3d fb 2c bc bc b1 28 73 3d f8 a4 46 bd
       0.06235372 -0.022970667 0.05936498 -0.04849717
000270 17 9a 66 bd b5 28 ab 3c e9 6e 5f 3c d0 c0 4e bd
       -0.056299295 0.020893434 0.013637283 -0.05047685
000280 e4 14 7b bd 61 e3 94 bc f3 55 76 bd 34 61 f9 bb
       -0.06129922 -0.018174829 -0.06014056 -0.0076104645
000290 ea 3c e6 bc 19 dc 4a 3d e2 b5 4f bd 9f 82 06 3d
       -0.028105218 0.049526308 -0.050710566 0.032839414
0002a0 a1 2f 8b bd 15 fa e3 3c 2a d2 9d bc 52 e8 67 bd
       -0.06796194 0.02782921 -0.019265253 -0.056618042
0002b0 bf 6e 76 3c bf 1c d5 3b 61 8e f7 bc 58 03 01 3d
       0.015041052 0.006503671 -0.030219259 0.03149733
0002c0 06 d1 ba 3c b7 4a ae bc 2f e9 80 bd 14 df 4a 3d
       0.022804748 -0.021275861 -0.06294476 0.04952915
0002d0 cb 3c 88 3d 96 67 48 3c 43 ad ca 3b 97 b3 3c 3c
       0.0665222 0.012231728 0.006185205 0.011517427
0002e0 9a e9 69 bc a4 1b 01 3d 19 d4 78 3d a4 83 45 3c
       -0.014276886 0.0315205 0.060749147 0.012055311
0002f0 e7 7c bc 3b 6a c8 6c bd 54 91 63 bc ae 5d ae bb
       0.005752194 -0.057808317 -0.013889629 -0.005321226
000300 c1 ad 89 bd 74 0a 02 bd 04 c6 42 bc 6e c6 c2 3c
       -0.06722594 -0.03174825 -0.011888031 0.02377626
000310 1a 55 81 3d e4 7d 0e 3d 02 c9 32 3d 18 aa 14 bc
       0.0631506 0.034788027 0.043648727 -0.009073757
000320 7c 64 4f 3d 42 c8 1a 3d f8 48 8f bb ae 9e 30 3c
       0.05063294 0.037788637 -0.004372712 0.01078002
000330 07 fa 6b 3d 20 f0 2f 3c 29 49 80 3d bb 34 65 3c
       0.05761149 0.010738403 0.06263954 0.013989623
000340 b3 60 fb bb ad 90 eb bc 60 54 10 bc 42 7a 42 3d
       -0.0076714396 -0.02875551 -0.008809179 0.047479875
000350 da c7 5d 3d 14 3d 56 bd 4b a0 ab 3c 6d b4 1d 3d
       0.05414567 -0.052304342 0.020950457 0.038502146
000360 a9 33 e1 3c a4 e9 37 3c f0 30 0c 3d 5f 31 5f 3d
       0.027490454 0.011225138 0.034226358 0.054490443
000370 49 c7 bd 3c ef 54 ca bc 4a 4c cd bc f6 91 3e 3d
       0.023166316 -0.024698703 -0.025060792 0.046525918
000380 f4 c8 6a bd 40 d6 71 bc 48 e2 41 bd 5e 91 47 bd
       -0.05732055 -0.014760554 -0.04733494 -0.048722617
000390 0b 32 0b 3c 8d 80 fa bc 73 2c d3 bc 28 75 4b bd
       0.008495818 -0.030578876 -0.025778031 -0.049672276
0003a0 60 7e a9 bc 00 fc f7 bc 1e 15 e1 3c e1 d4 75 3c
       -0.020690143 -0.03027153 0.02747589 0.015004368
0003b0 3e 63 9c 3c 87 7c 19 bd b8 8c 48 3d 0a 3d de 3c
       0.019090291 -0.037472274 0.048962325 0.027128715
0003c0 7f a7 74 3b 23 36 37 bc 08 2c c0 3c d7 2a 4f 3d
       0.003733128 -0.011182341 0.023458496 0.050577965
0003d0 70 ef 03 3c 9d aa 7e 3d cf 84 47 bd b8 b4 c0 bc
       0.008052692 0.06217443 -0.04871064 -0.023523673
0003e0 5f ef b0 3a 3d da 4b bc 61 c9 98 3c 16 4e 0a 3c
       0.0013499073 -0.012442169 0.018650712 0.008441469
0003f0 e5 22 dc bc 7c f7 06 bd d8 dd a3 bb 03 b8 91 3c
       -0.026872108 -0.032950863 -0.005000811 0.017787939

func.linear1.bias f4 [128]
000000 aa 37 b3 bc 31 03 50 bd 33 0f b2 bc 25 c1 c9 bc
       -0.021877129 -0.050784294 -0.021735763 -0.024628231
000010 96 83 12 3d 39 ec 12 3d 8e 09 6b 3d 8b f6 45 3d
       0.03577002 0.03586981 0.05738216 0.048330825
000020 07 94 fc bc a7 1e 5e 3d 68 48 69 3d ed 85 7d bd
       -0.030832304 0.05422845 0.056953818 -0.0618953
000030 e8 9c 20 bd 82 5d b7 3b 34 2d d4 3c a3 96 0e bc
       -0.039212137 0.005595864 0.02590046 -0.008702907
000040 e4 fa ed bc 85 9e f9 3c f4 6a 35 3d 6a 8b ff bb
       -0.029050298 0.030471096 0.04429145 -0.007798602
000050 c8 aa 53 bd 45 d3 02 3d 7f 36 fd bc 98 1d 01 bd
       -0.05167654 0.031939764 -0.030909775 -0.031522363
000060 7a d6 f6 3c 7e 4f 1b bd e4 43 98 bb e3 bb 89 3d
       0.030131567 -0.037917607 -0.004646765 0.0672529
000070 b5 bc 56 3b 93 d4 68 bd 73 e7 ab 3c b3 e7 89 bb
       0.0032766287 -0.05684335 0.020984387 -0.004208529
000080 66 a5 81 3d 20 f5 81 bd a5 2c ef bc 03 4a ab 3c
       0.063303754 -0.06345582 -0.029196093 0.020909315
000090 68 52 7d bd df f6 7f bd 77 84 71 3c 7d 6f 85 bc
       -0.061846167 -0.062491294 0.014741055 -0.016288513
0000a0 f0 1d 6f 3d 33 2e 84 bd 0b 59 21 3c 20 22 15 3d
       0.05837816 -0.06454124 0.00984789 0.036409497
0000b0 c0 73 07 bd 69 8a bc bc 0f 92 6a bc 0b 06 86 bd
       -0.033069372 -0.023015218 -0.01431705 -0.06544121
0000c0 8a 2f 21 3d f1 2f 91 3d 14 b4 28 3d 93 96 3f 3d
       0.039351977 0.07089222 0.04118736 0.04677446
0000d0 60 1f 32 bc 07 fa 95 3d fb 9c 08 bd 60 56 66 bd
       -0.010871738 0.073230796 -0.033352833 -0.056234717
0000e0 51 23 3f bd 42 11 61 3c 62 07 81 3c 8a b8 27 bd
       -0.04666454 0.013737025 0.01575059 -0.040947475
0000f0 fa 39 ec b7 d3 dd 33 3d ce e5 16 bd 80 9f 96 3c
       -2.816039e-05 0.04391272 -0.036840253 0.018386602
000100 5e 2e a5 3c e5 22 f6 bc 24 4a 33 bd a3 96 0f 3b
       0.020163711 -0.030045936 -0.043771878 0.0021909855
000110 78 01 1b 3b c3 f7 59 bd 27 19 e9 bb 43 2f 41 bc
       0.0023651998 -0.0532148 -0.007113594 -0.011791053
000120 47 0c 65 bd 08 df 03 bc 8a fa 28 3c 36 e0 8c 3c
       -0.05591991 -0.00804878 0.010313639 0.017196756
000130 2c dc 39 3d 2e c6 57 bd 82 2e 55 bc c5 89 19 3d
       0.045375988 -0.052679233 -0.013011577 0.037484903
000140 b4 04 eb 3c 7f e4 47 3d ad 31 db 3a 9e 60 3c 3d
       0.028688766 0.048801895 0.0016723179 0.04599058
000150 4e 4d 06 3d 25 44 09 3d 74 0d d4 bc 93 ed 4e 3c
       0.032788567 0.033512253 -0.025885321 0.012629884
000160 3a 24 fe bc 7e 77 96 3d 60 bb 8d bb e6 52 7d bd
       -0.031023134 0.0734701 -0.0043253154 -0.061846636
000170 0c 59 a8 3c fc f9 01 bd 35 10 31 bd 77 58 3e bd
       0.020550273 -0.031732544 -0.043228347 -0.046471085
000180 5b 7d 11 3d 3e 8c ec 3c 12 a3 18 3d 81 f1 54 bd
       0.03551994 0.028875466 0.03726489 -0.05198813
000190 cc e0 4f bd 6c d3 9f bc 41 d2 1a 3d 19 93 30 bb
       -0.050751492 -0.019509993 0.03779817 -0.0026943146
0001a0 75 6f 86 3c f6 72 54 3c a7 86 a8 bc d2 be c1 bb
       0.016410569 0.012966862 -0.02057202 -0.00591264
0001b0 a5 20 04 bd 03 ec e2 bc 4a eb 60 bc 29 de 13 3b
       -0.032257695 -0.02770043 -0.013727972 0.0022562838
0001c0 3f 8f 6e 3d 64 db 6f 3c 10 c0 fa bc 4f b7 76 3c
       0.05824208 0.014639709 -0.03060916 0.015058353
0001d0 9f 2a d9 bc 61 6b 1c bd 34 56 b3 bb d7 a5 35 bd
       -0.026509581 -0.038188342 -0.0054729227 -0.04434761
0001e0 85 c8 5a 3d 40 7c 7d bd e6 57 26 3d ca 79 4a bd
       0.053413887 -0.061886072 0.04061117 -0.049432553
0001f0 25 6f 8d bc f8 d7 c2 3c 2c 01 19 bc 44 77 3c 3d
       -0.017264912 0.023784623 -0.009338658 0.046012178

func.linear2.weight f4 [672, 128]
000000 b5 72 60 bb 4f a7 89 bd a3 82 6e 3d 99 0c 8a 3d
       -0.0034248058 -0.06721365 0.058230054 0.06740684
000010 f1 db 89 3d 04 91 89 3d 50 5d 92 3b 86 c0 ae bd
       0.067314036 0.06717113 0.00446669 -0.08532815
000020 64 fe 52 bc 0c 8a 8a 3c ea ac 99 bd 00 45 68 3d
       -0.012878034 0.016911529 -0.07503684 0.05670643
000030 ed b2 10 bd dd 39 35 ba c6 a2 50 3d b3 69 44 bd
       -0.035326887 -0.00069132244 0.050936483 -0.047952365
000040 29 0f be bd bf a2 95 bd 9f 58 d8 3c 13 e7 cc bd
       -0.09280235 -0.07306432 0.026409445 -0.100050114
000050 42 d7 b8 bd a7 f4 3d 3d d6 99 05 3d 5b 30 73 bc
       -0.09025432 0.046375897 0.032617413 -0.014843072
000060 6d 58 88 3d fd 61 0e bb e3 7d 04 bd 8f 66 3b bd
       0.06657491 -0.0021725886 -0.032346617 -0.045752104
000070 ad e8 73 3d 1f 4d ab bc c2 e8 0c 3c 7d d5 69 3d
       0.05954807 -0.020910798 0.008600416 0.057088364
000080 4f ef 9f bd e5 38 84 3d 92 0e 9e bc dc d8 71 bd
       -0.07809316 0.06456164 -0.019294057 -0.059044704
000090 a8 05 32 3d 82 b2 90 bd 91 56 67 3d 51 11 a0 3b
       0.043462425 -0.07065298 0.05647904 0.004884877
0000a0 14 35 30 3c 40 d6 0a bd 80 8e 92 bd 6d fe 25 3d
       0.010754842 -0.03389573 -0.07156086 0.040525842
0000b0 ed 43 b2 bd 71 27 14 3c 1b 96 18 3c 42 1a 26 3d
       -0.08704362 0.009042607 0.009313132 0.040552385
0000c0 7f cf 91 3d 7d 99 84 bd ce 81 9d 3c 81 48 9c 3d
       0.07119655 -0.06474588 0.019226935 0.076310165
0000d0 45 a7 2b 3c 1d f4 af bd ff f4 65 3d 88 c5 82 3d
       0.010476892 -0.08591483 0.05614185 0.06385332
0000e0 fd f2 db 3b c5 34 2f 3d ab 69 97 bd 31 2c 95 bd
       0.006712316 0.042774934 -0.073932014 -0.072838195
0000f0 32 55 42 3d 10 20 bd 3c 87 a6 a7 3c 03 36 36 3d
       0.04744453 0.023086578 0.020465149 0.044485103
000100 61 db b5 3c 87 02 85 bd ca 4a 96 3b 1b a7 7c 3d
       0.022199335 -0.06494623 0.0045865523 0.0616828
000110 5d 91 d3 bc 37 40 a0 bd 9f c2 ef 3c 06 f1 96 3b
       -0.02582615 -0.07824748 0.029267607 0.004606369
000120 9e 4f ab 3d 06 f2 98 3d 11 ab 69 bd 73 b3 0a bd
       0.08364795 0.07468037 -0.057047907 -0.033862542
000130 7d f4 91 bd 78 49 20 bd e3 30 8d 3d a0 c5 8f bc
       -0.071267106 -0.039132565 0.0689409 -0.01755029
000140 99 a0 b8 3c 40 ee 9d bc 5b 10 b4 bd d2 f8 c2 bc
       0.022537516 -0.019278646 -0.08792182 -0.023800287
000150 f2 be 9d 3d 7c 00 73 3d 16 d0 bf bd ba 94 92 bd
       0.077024356 0.059326634 -0.09365861 -0.071572736
000160 63 14 f5 3c 89 09 71 bc 8a 31 8b bd 8f 1f 90 bd
       0.029916948 -0.014711746 -0.06796558 -0.07037269
000170 03 73 b3 bc d9 42 5f 3d 52 59 39 bc dc 3e 97 3d
       -0.021905428 0.05450711 -0.0113127995 0.07385036
000180 49 79 66 bd a4 77 b9 bd 12 ae 89 bb 86 3e b2 bd
       -0.05626801 -0.09056023 -0.004201659 -0.08703332
000190 68 6d ac bc 62 d5 de bc cb 7c 72 3c d6 4e b7 3c
       -0.021048263 -0.027201358 0.014800261 0.02237646
0001a0 c6 fa 93 3d 68 8b bb bd f6 c7 86 bd 52 28 8f bd
       0.072255656 -0.09157449 -0.06581108 -0.06990112
0001b0 44 ff ba bd 6a c4 94 bc 6b 40 84 bd 33 9a 89 bc
       -0.09130719 -0.018160064 -0.06457599 -0.01679716
0001c0 c8 ef 77 bc 7b b4 6b 3d d1 53 1e bc 6c 82 e4 bc
       -0.015132852 0.057545166 -0.009663538 -0.027894221
0001d0 e3 86 87 3c c2 4d 0a bd b3 ae a9 bd e5 bb 98 bd
       0.016543811 -0.033765562 -0.08285274 -0.07457713
0001e0 cf 65 9e bb b4 1a 6e bc 9d 65 c9 3b 2d 1d a9 bd
       -0.004833914 -0.014532734 0.0061461465 -0.08257518
0001f0 e6 d7 8d 3d bc 9a b6 bd 88 32 bd bd 17 5e 7d bd
       0.06925945 -0.08916232 -0.09238154 -0.06185731
000200 aa e9 91 3d 2e 5b 7c bc 64 6b bd 3c b1 7d 9c bd
       0.07124646 -0.015402598 0.023122497 -0.07641161
000210 60 3d bd 3d 95 83 4a bd e9 cc 6d bd 75 13 f4 3c
       0.09240222 -0.049441893 -0.058056746 0.029794434
000220 1b 1d ce 3c aa a0 7e 3d b1 bc 18 3d b7 11 3a bd
       0.025160363 0.06216494 0.037289325 -0.04542705
000230 bf c6 e0 3c de da 6b bc 3b c8 09 3d dc 7c 7c bd
       0.02743852 -0.014395444 0.03363822 -0.061642513
000240 f3 53 10 bd 0e 0e a9 bd 2e 2f 39 3d eb 0e 6e bc
       -0.03523631 -0.08254634 0.04521101 -0.014529924
000250 68 1f 64 3c fa db 92 3d ac 93 44 3c 41 37 a8 3d
       0.013923503 0.071708634 0.011998098 0.08213664
000260 c5 22 29 bd e8 87 ac 3d 4b 71 45 3d 3e 18 80 bc
       -0.041292924 0.084243596 0.048203748 -0.01563656
000270 14 dd af 3d 57 2b b3 bc 07 d3 d6 3c 68 76 c6 b8
       0.08587089 -0.021871252 0.026223673 -9.4634306e-05
000280 73 f0 be 3c 3d 1a 15 bd 8a 9e bb 3d 86 a5 65 3d
       0.023308014 -0.036401976 0.09161098 0.05606606
000290 6e c6 37 3d 46 46 62 3d eb 6f 99 3b 17 56 b0 3d
       0.04486697 0.0552428 0.004682531 0.0861017
0002a0 37 13 b2 bc fd e4 0b bd 2d 3d 3b 3d ed a0 58 3c
       -0.021737678 -0.034153927 0.04571264 0.013221961
0002b0 82 7a dd bc 76 0f a3 bd 90 19 40 3d aa a8 c9 3c
       -0.027035955 -0.07961933 0.04689938 0.024616558
0002c0 40 0c 81 bd 33 22 5e 3d b3 ac 0a 3d 5d 90 29 bd
       -0.063011646 0.054231834 0.033856105 -0.04139744
0002d0 a4 8f 81 3b 32 81 c4 3d ff 1f 88 bd 8f bf 74 bd
       0.003953891 0.095949546 -0.06646728 -0.059752997
0002e0 14 87 98 3d f1 38 37 bd 9f 40 b0 3c e5 ad 65 3d
       0.07447639 -0.044732038 0.021515189 0.056074042
0002f0 e1 07 b0 3c 4b e1 6e bd 90 90 23 3d e3 c0 97 bc
       0.021488132 -0.058320325 0.039932787 -0.018524593
000300 8e d5 9a bd c5 b4 33 bd 66 87 93 bc fb 4e aa bd
       -0.075602636 -0.043873567 -0.018008899 -0.083158456
000310 fa 48 6f bd a9 3a 05 3d 1a 12 61 bd e1 f9 43 bd
       -0.058419205 0.032526646 -0.054948904 -0.047845725
000320 d5 a5 9e 3d 00 93 a0 bd 33 f3 79 bd b2 94 94 3d
       0.07746474 -0.07840538 -0.06102295 0.07254924
000330 f2 a1 a1 bc 52 d9 94 3a da 87 2a bd 25 c8 ee 3c
       -0.019730542 0.001135627 -0.041633464 0.02914817
000340 cf d5 89 bd a4 46 e1 bc f0 28 ab 3d fd e6 36 3c
       -0.06730234 -0.027499504 0.083574176 0.01116347
000350 11 65 40 bc 01 6b b2 3d 59 b5 a4 3d c0 1e 17 3d
       -0.011742846 0.087118156 0.08042402 0.03689456
000360 30 18 f1 3c ee 3c 9c bd a2 cf 8e bd b0 76 15 3c
       0.029430479 -0.07628809 -0.069731966 0.009122536
000370 3a 78 1c bd 4b d9 09 bd fe ea 98 3d 8c f5 80 3c
       -0.038200594 -0.033654492 0.07466696 0.015742086
000380 71 0d df bc a3 72 3e 3d 56 9e 3f 3b 53 4e 4e 3d
       -0.027228089 0.046496045 0.0029238663 0.050367665
000390 ac 0c ad bc cd b8 c6 3d 30 c9 c5 bc 50 38 9f 3d
       -0.021124206 0.09703217 -0.024143785 0.07774413
0003a0 d5 cc 96 3d 6e 88 9e bb 98 1a 7b bd 98 35 a6 3d
       0.07363287 -0.004838041 -0.06130466 0.08115691
0003b0 3e 8f 63 bc 0d 28 04 bd 92 b8 a0 3d a3 af 89 bd
       -0.013889132 -0.032264758 0.07847704 -0.06722953
0003c0 ec 69 3c 3d 62 e4 bf 3c 64 c3 0d 3d a1 06 8c 3d
       0.045999452 0.023424331 0.034610167 0.06837202
0003d0 83 d4 b3 3d 7d c8 46 3c 16 aa ad 3d 97 e7 c4 bc
       0.08780768 0.012132761 0.08479707 -0.024036212
0003e0 ff 4d 94 3c 6e 1e b5 bc e2 35 44 bd 9e 60 58 3c
       0.018103598 -0.022109237 -0.04790295 0.013206629
0003f0 bb 7d 9b 3b 09 6c b9 3d 4e 4b 66 bd 99 d5 72 bc
       0.004745213 0.09053809 -0.05622416 -0.014821433

func.linear2.bias f4 [672]
000000 cc f1 7e bd 60 ac 87 bd 79 92 b2 bd 89 53 a0 bc
       -0.062242314 -0.06624675 -0.08719344 -0.019571083
000010 bb 18 63 3d 04 d0 32 3d 79 9d 7a 3c 76 df 98 bd
       0.055443507 0.04365541 0.0152963335 -0.07464497
000020 02 1e d5 bd 27 60 82 bd 4d 72 0d bd 89 94 60 3c
       -0.10406114 -0.06365996 -0.034532834 0.013707289
000030 f9 28 e9 bc d2 02 d9 3c 5a 3a 36 38 ab 97 41 3c
       -0.02846192 0.026490603 4.3446526e-05 0.011815946
000040 e3 5f 8f 3c 7f aa 91 3c 1d 45 f5 3c 23 eb e5 3c
       0.017501777 0.017781494 0.029940182 0.028066223
000050 59 6f bd 3a 37 d5 32 3d 20 e3 f0 ba 30 26 67 bd
       0.001445274 0.04366037 -0.0018378235 -0.056432903
000060 16 bb 94 3c 71 6e 9b bd 61 06 9e 3d ee 2d 1b 3b
       0.018155616 -0.075894244 0.077160604 0.00236785
000070 05 ab 12 3d e1 b2 73 bb a2 be 4e bd 62 41 d5 3b
       0.03580763 -0.0037185478 -0.05047477 0.0065080384
000080 eb d2 4c 3d 42 32 6b bc c6 99 9f bd 92 c6 7a 3c
       0.050005835 -0.014355244 -0.07793002 0.015306132
000090 7a e7 09 3d 13 d9 c6 bd 91 07 3b 3c a7 c7 00 bc
       0.03366802 -0.09709372 0.011415378 -0.007860101
0000a0 bd 6a d3 bc 0c 3d fb 3c af 93 e5 bb 6c 90 1e 3d
       -0.025807733 0.030668758 -0.0070061306 0.03871195
0000b0 1d 7a a7 bd e5 17 bd 3d bc 98 b3 bb 61 15 b3 3d
       -0.08177588 0.09233073 -0.005480854 0.08744312
0000c0 b3 b4 0d bd a4 3c 41 3d 3f 39 91 3d 01 4c aa bd
       -0.034596156 0.047176972 0.07090997 -0.08315278
0000d0 fe a5 ed 3a c0 79 9c bd 16 ff dc 3c a9 fc 2d bd
       0.0018131135 -0.076404095 0.026977103 -0.042477284
0000e0 70 ca ab 3c 48 83 1a 3c fa aa 95 bd ef ab ab bd
       0.020970553 0.009430714 -0.07308002 -0.08382403
0000f0 00 15 0d bc 90 0b 5b bc 41 13 41 bd 1e 3a 5e 3d
       -0.008610964 -0.013369456 -0.047137503 0.054254644
000100 08 d4 20 bc 53 c5 83 bd dc d2 b9 3d 70 c4 7b bd
       -0.009816177 -0.06434121 0.09073421 -0.061466634
000110 00 25 5a 3d 97 60 ac 3c 65 aa 72 3d a3 c1 83 3d
       0.053257942 0.021042151 0.059244532 0.06433418
000120 72 58 be 3d b3 c7 3c 3d 8d de 1b bc ee 62 2d bd
       0.09294213 0.046088886 -0.009513509 -0.042330675
000130 ee c6 dc 3c e4 e3 da 3c 32 31 bf bc 0a 02 cc bc
       0.026950326 0.026719995 -0.023338888 -0.024903316
000140 c9 ee 97 3c 5a 50 a9 bd b7 68 59 3d 90 dc ee 3c
       0.018546479 -0.08267279 0.05307838 0.029157907
000150 f3 99 97 3c b2 e9 e2 3c fe 4c a2 3d 97 2f 5c bd
       0.018506026 0.027699325 0.07924841 -0.053756323
000160 c8 98 94 bd f7 e7 0c 3d 31 49 64 bd da c4 9c 3d
       -0.07255703 0.034400906 -0.055733863 0.07654734
000170 4f 08 e5 3b 1c 94 de bc ff f7 20 bd 45 e8 d4 3b
       0.006989516 -0.027170233 -0.039299008 0.0064974152
000180 85 76 52 39 5e 1a a8 3d ee a5 3c 3d 84 80 65 bd
       0.00020071313 0.08208154 0.04605668 -0.056030765
000190 fa 5f d4 bc 17 1f 47 bc c1 6f 2d bd 10 7c 8a 3d
       -0.025924671 -0.0121534085 -0.042342905 0.06761944
0001a0 e8 71 96 bd 8b 78 c9 bc 4c 03 4f 3d 50 44 9f bd
       -0.07345945 -0.024593612 0.050540254 -0.077767015
0001b0 d5 56 90 bc 4e 35 b4 3c 81 67 82 3d f0 4c 87 ba
       -0.01761953 0.021998074 0.06367398 -0.0010322612
0001c0 21 7d 45 3c d3 65 84 3d 27 75 ac bd 8a e2 17 3d
       0.012053759 0.06464734 -0.084207825 0.03708128
0001d0 0a 7d 99 3d b1 4f d0 3c aa bb 09 bb f0 90 ab 3d
       0.074945524 0.025428625 -0.0021016398 0.08377254
0001e0 cc c8 d5 3c ef ce 9e 3d 54 2a 8b bd 2b 8f df 3c
       0.026096724 0.07754313 -0.06795183 0.027289947
0001f0 19 af c3 bb 9a f9 8b bd 2d f6 7d bd d7 98 a3 3c
       -0.005971801 -0.06834717 -0.06200235 0.01997034
000200 ac 18 8c 3d 62 37 58 3d b9 f7 12 3d cf d5 a6 bd
       0.06840643 0.052787192 0.035880778 -0.081462495
000210 ce 66 62 3d e7 30 aa bd c3 c1 bb 3d c3 cf 8b 3d
       0.055273823 -0.08310109 0.091678165 0.06826737
000220 97 e3 9e bc 7c 90 73 bd 1c 16 8d bd f4 e1 17 3d
       -0.019395633 -0.059463963 -0.06888983 0.03708072
000230 9f d5 0d bb 58 4d 44 bd 67 ce d7 bc 8f 94 87 bd
       -0.002164222 -0.047925323 -0.026343537 -0.06620132
000240 4c fc 2f bd bb f1 0d bd d3 df dc bc 5b b3 43 bd
       -0.04296522 -0.03465436 -0.026962196 -0.04777847
000250 38 05 bd 3d e4 84 c9 3c d7 30 8e ba 6a 3d 48 bd
       0.09229511 0.0245995 -0.0010848296 -0.048886694
000260 7b 77 8b bd 7b 37 b3 bc 74 09 17 3d 54 14 ed bc
       -0.068098985 -0.021877041 0.03687425 -0.028940357
000270 29 cc 0b bd 0b fd f5 3c 35 5b 73 3d 00 61 ae 3d
       -0.03413025 0.030027887 0.059413154 0.08514595
000280 34 1e b0 3d de 5d 28 bd 6a d4 06 3d 50 20 30 3c
       0.08599511 -0.041105144 0.032917418 0.010749891
000290 ea 6c a2 bc 4d bb 3d bc 9a 08 93 bd c8 e1 94 3d
       -0.019827325 -0.0115803005 -0.07179375 0.07269627
0002a0 75 a0 ba bc 4c 71 9e bc e6 03 92 bd b6 7f 78 bd
       -0.02278159 -0.019341134 -0.0712965 -0.06066867
0002b0 15 23 69 bb a9 ae 3f 3d 70 92 94 bc e6 ab 81 3c
       -0.003557389 0.04679743 -0.018136233 0.015829038
0002c0 39 b1 2d 3d 56 bf 96 bd 7f 0c 9b 3d 88 b7 d3 bc
       0.04240534 -0.07360713 0.07570743 -0.02584435
0002d0 94 60 0f bd 40 39 3b bd 3d f8 5a bd 7c 04 02 bd
       -0.035004213 -0.045708895 -0.053459395 -0.031742558
0002e0 23 64 5e 3d ee 76 bf bc 05 9b 96 bd b2 82 af 3d
       0.054294717 -0.02337214 -0.073537864 0.0856985
0002f0 5f 5c 69 bd c8 55 a1 bc 49 6c 84 bd 2f 07 a4 bd
       -0.056972858 -0.019694224 -0.06465966 -0.08009183
000300 f9 17 06 bd 02 f1 7c bd 8b 10 c5 bc 6e 18 46 bd
       -0.032737706 -0.06175328 -0.02405574 -0.04836314
000310 d9 93 72 bd 51 1b 47 3d 0b 07 34 bd 31 6d 24 bd
       -0.05922303 0.048610035 -0.04395203 -0.040143196
000320 19 dc 54 3d 09 6c 7e 3b 87 1c 88 bd 15 16 2d 3d
       0.051967714 0.0038821718 -0.06646066 0.042257387
000330 52 15 7b 3d 6f 69 ad 3d 75 6d b5 bc b9 27 ae bd
       0.06129963 0.084673755 -0.02214692 -0.0850367
000340 d2 76 f5 bc c2 5f 18 bd 22 95 8b bd 4d a8 63 bd
       -0.029963885 -0.037200697 -0.06815554 -0.055580426
000350 71 34 24 bd 68 3b bf bd e0 42 cf bb af 82 f5 bb
       -0.040089075 -0.09337503 -0.006325111 -0.0074923853
000360 ed e2 92 bd 0c 3f f1 bc a3 31 d4 bc 7e 29 18 bc
       -0.07172189 -0.029449008 -0.025902575 -0.009287236
000370 27 5e 4e bc 5d c7 6b bd 0c 22 ca 3c 78 85 e2 3c
       -0.01259569 -0.057563175 0.024674438 0.027651533
000380 7c ab 2e bd 69 b8 4f bc 3e 3c 8a 3d 40 86 8b 3b
       -0.04264401 -0.012678244 0.067497715 0.004257947
000390 23 d4 59 bd 4c 41 f2 3c e3 93 f3 3c 57 03 1f 3d
       -0.053180825 0.029572152 0.029733604 0.038821544
0003a0 0f c4 32 3d c7 76 22 bc b2 ee 8a 3d 18 8c 08 3c
       0.043644007 -0.009916014 0.06783809 0.008334182
0003b0 ab b8 de 3c f1 3f 13 3d a2 88 5f bd 43 b8 99 3d
       0.027187666 0.03594965 -0.054573663 0.07505848
0003c0 8d 30 b2 3d 9f 87 0b bc 19 3c 07 bd 86 f9 7a 3d
       0.087006666 -0.008516221 -0.033016298 0.06127312
0003d0 90 41 c4 bd da 56 af ba ef 08 80 3d 3e 49 90 3d
       -0.095828176 -0.0013377324 0.06251704 0.0704522
0003e0 8b 75 33 3d e8 33 a0 bb 72 c3 9b bd c8 5d af 3d
       0.04381327 -0.004889 -0.076056376 0.08562809
0003f0 6f 29 aa bd f1 4a 5f 3d 36 7e 26 3d 91 21 dd bc
       -0.08308684 0.05451483 0.040647708 -0.026993545

initial.weight f4 [224, 3]
000000 5a 22 f5 be fe de b1 bd 1e ec 01 3e 9f 97 c8 bc
       -0.4787777 -0.086851105 0.12687728 -0.024486361
000010 27 d9 ab be a6 cd d2 3d 5f 01 03 3e 3b 2b 24 3d
       -0.33564112 0.102931306 0.12793492 0.04008029
000020 7f 67 e0 be 8c 1d 04 3e 4c 60 ad be 78 92 c3 be
       -0.4382896 0.12901896 -0.3386253 -0.38197684
000030 f5 7c 0e 3f db a6 a7 3e 8e e8 11 3f ef 5e b0 3e
       0.5565942 0.32744488 0.56995475 0.3444743
000040 29 30 a9 bd c7 6a cd be 6c 9d 3c be 13 53 cc 3e
       -0.08261139 -0.40120527 -0.18419427 0.3990713
000050 0a 6c a7 3e c4 67 9e be 2d e0 07 3e 82 af ec be
       0.32699615 -0.30938542 0.1326911 -0.46227652
000060 7a bb e4 3e 76 b6 04 bf e6 83 de 3e 64 c7 e8 3e
       0.44674283 -0.51840913 0.43460006 0.45464623
000070 29 7f cc 3e d8 ea e4 be da b2 00 be 60 35 06 bf
       0.39940766 -0.44710422 -0.12568226 -0.52425194
000080 13 71 10 bf 17 d2 b2 be a8 47 8a be 64 a6 02 3d
       -0.5642254 -0.3492591 -0.27007794 0.031896964
000090 25 47 97 bd de d1 8e 3e ba bf 2d 3c d1 f8 01 bf
       -0.073866166 0.2789449 0.010604793 -0.5077029
0000a0 2f 80 c2 be 75 74 13 3f 57 db 0d 3f c6 27 ff 3e
       -0.3798842 0.57599574 0.5541281 0.49835032
0000b0 86 74 be be 12 b5 da 3d 70 42 56 3e 47 21 0c be
       -0.37198275 0.10679068 0.20923781 -0.1368457
0000c0 47 1c bf 3d 31 98 a2 be 46 8e 01 3f 99 f5 d3 be
       0.09331565 -0.31756738 0.5060772 -0.41398314
0000d0 58 79 04 bf 79 32 61 be 36 69 ca bd a4 84 fe be
       -0.51747656 -0.2199191 -0.09883349 -0.49710572
0000e0 67 e4 1b be 37 93 48 3d 16 87 f3 bd 6a d4 d4 bd
       -0.15223847 0.04896852 -0.11891 -0.10392077
0000f0 6e 3d d0 3d a9 ad 79 3e 1a 08 df be 8b 23 80 bd
       0.10167967 0.24382652 -0.43560869 -0.06256779
000100 1d 32 dd be 60 f6 0d bf 67 4b 04 3f 41 f8 0a 3f
       -0.43202296 -0.55454063 0.51677555 0.54285055
000110 73 2b c3 3e 49 ff 00 3e 83 ad b3 3e 7f a4 0e 3e
       0.38119087 0.12597384 0.35093316 0.13929938
000120 d0 4b c6 3e 09 dd 07 bf 21 44 cc 3e 6a 1f 00 3f
       0.38729715 -0.5307165 0.39895728 0.50047934
000130 cf 28 d8 be 96 2e 14 3b 08 b9 cf 3e 11 dd 66 be
       -0.42218634 0.0022610775 0.40570855 -0.22545268
000140 9f 6b 0b 3f 68 e9 97 be ac 09 49 be f1 b1 53 3e
       0.5446109 -0.29670262 -0.19632596 0.20673348
000150 71 19 9f 3e d7 88 64 be 1c e6 02 3e 90 9a 02 3f
       0.31074098 -0.22317825 0.12783092 0.51017094
000160 e0 96 c2 be 9c 37 e8 3d 55 f2 5c bd e2 f2 92 be
       -0.38005733 0.11338732 -0.053942043 -0.2870093
000170 63 80 a2 bd 2c cb e9 be 04 96 f5 be b2 2e 0a 3f
       -0.07934644 -0.4566282 -0.47966015 0.539775
000180 6d 7e eb be 81 dd e0 3e 7c fa 24 bd c8 06 02 3e
       -0.45994893 0.43918994 -0.040277943 0.126979
000190 e1 57 08 3f 38 fd a3 3e a5 a4 33 be 00 08 83 3e
       0.5325909 0.32029128 -0.17543276 0.2559204
0001a0 95 10 a9 3e 3f 60 bd 3e 0f 33 2c be 83 79 8c be
       0.33020464 0.36987492 -0.16816352 -0.27436456
0001b0 3b a4 82 3e 58 68 7f bc ea 85 63 3e 55 78 9c be
       0.25515923 -0.015588842 0.22219053 -0.30560556
0001c0 12 2d 83 be ef 92 c1 3d 31 15 7a 3e 08 7e d4 3d
       -0.25620323 0.094518535 0.24422146 0.10375601
0001d0 0e 94 8d be e1 4b ff be af de 04 bf c0 56 eb bc
       -0.2765202 -0.4986258 -0.5190229 -0.028727889
0001e0 f4 1a f4 be e7 eb 5a 3e 1d fe f7 3d 87 cb 05 bf
       -0.47676814 0.21379052 0.12109015 -0.52263683
0001f0 0f 4c 83 be b4 ae 69 3c 87 cd 15 3f 56 41 e4 3e
       -0.25643966 0.014262844 0.58516735 0.44581097
000200 99 98 13 3f 10 7c a3 be 69 1e 08 3d fb 63 44 3d
       0.5765472 -0.3193059 0.033232126 0.04794691
000210 11 3f 8c be b2 f8 cd 3e f8 5a 15 3f d1 5c f5 3e
       -0.27391866 0.40228802 0.5834193 0.47922376
000220 0f 21 0b 3e d3 84 92 3d 19 c4 11 be 29 05 e2 be
       0.1358683 0.071542405 -0.14234962 -0.44144562
000230 c3 e1 e9 be 67 d1 9b 3e 46 04 b3 be c9 b5 7d be
       -0.45680055 0.304332 -0.34964198 -0.24776377
000240 b2 cb e9 3e 39 65 bf 3e cc 90 ad be f9 14 c4 3e
       0.4566322 0.37381914 -0.33899534 0.3829725
000250 9a 15 03 3f bc a0 13 3f 99 63 c6 be e4 52 c5 3d
       0.51204836 0.57667136 -0.38747862 0.09634951
000260 13 9d 24 3e 6e 6f 0a bf b0 cf 30 bd d7 78 0c 3f
       0.16075544 -0.5407628 -0.043166816 0.54871887
000270 a5 a4 9f be ac ae 9a be 50 12 ad be cb 8c d7 3d
       -0.311803 -0.3021139 -0.33803034 0.10524901
000280 c5 7b ad 3d 6a 91 b7 be ca a4 1e 3e b3 6d a6 be
       0.08470873 -0.3585313 0.1549255 -0.3250557
000290 87 9a 4a be d8 46 f5 be 88 4b d2 be 11 8a 0d bf
       -0.1978551 -0.47905612 -0.4107325 -0.552888
0002a0 f4 e0 eb be 9c 09 50 be f9 bd 55 bd 08 46 02 be
       -0.46070063 -0.20316166 -0.052183125 -0.12722027
0002b0 a8 e9 44 3d a9 40 99 3d 54 25 5b be be cc 06 bd
       0.048074394 0.07483036 -0.21400958 -0.0329101
0002c0 b7 d1 be be 60 94 fe 3c 9a 84 24 3e 4f 78 88 3d
       -0.37269375 0.03107661 0.16066208 0.06663572
0002d0 33 bd 05 bf 44 84 e3 bd db 05 e9 bd f6 20 cc 3e
       -0.5224182 -0.11109212 -0.1137807 0.39868897
0002e0 6d c1 07 bf e2 77 34 3d fc a3 7f 3e 90 03 0e bf
       -0.5302952 0.04405964 0.24964899 -0.55474186
0002f0 24 2f e8 be 57 06 4d be bc 15 af be d4 91 cc bd
       -0.45348465 -0.2002195 -0.3419627 -0.09988752
000300 53 0f da be 21 52 fc 3e 01 b4 01 be 1d 92 8e 3d
       -0.42589816 0.4928141 -0.12666322 0.06961463
000310 49 a5 db be f4 6e e7 3d 72 3b ec 3e 7e dd 46 3e
       -0.4289954 0.113004595 0.46139103 0.1942043
000320 86 cf 05 bf d5 5c cb 3e dc 1d 26 3e 40 e5 05 3f
       -0.5226978 0.39719263 0.16222328 0.5230293
000330 c7 91 53 3e 75 91 f3 be 80 27 da 3d 7c 9e cb be
       0.20661078 -0.47571912 0.10652065 -0.3976935
000340 fb 8d d1 be 06 51 ab 3e 91 39 ac 3e 3f e3 f7 3e
       -0.40928635 0.33460253 0.3363767 0.48415563
000350 b5 c2 a2 3e 0e 9a 86 3e b6 a2 0f 3e 14 4d cc 3e
       0.31789175 0.2628941 0.14026913 0.39902556
000360 2f 12 d3 3d 46 67 db 3e c2 ab 07 3f a3 aa 6b 3e
       0.103062026 0.4285223 0.52996457 0.23014311
000370 4a 33 7f 3d 04 24 43 3e 25 29 da 3e f1 ef 8f be
       0.062304772 0.19056708 0.42609516 -0.28112748
000380 db d3 80 3c 88 4b 21 3e 59 19 de be c6 13 e8 3e
       0.01572602 0.15751469 -0.43378714 0.45327586
000390 98 f7 bf 3e 53 f5 ba be 0e fa d0 3e d7 00 c9 be
       0.37493587 -0.36515293 0.40815777 -0.39258453
0003a0 5d 17 ba 3e 4c b9 46 be 80 e1 fc 3e 9f 73 84 3c
       0.3634595 -0.19406623 0.49390793 0.016168414
0003b0 86 27 90 3d 26 04 65 be 3c 30 05 3f 39 76 82 3e
       0.070387885 -0.22364864 0.52026725 0.25480822
0003c0 d9 df 85 be 30 da f1 be 4f 6a 03 be 25 6f 6d 3e
       -0.26147345 -0.47236776 -0.12833522 0.2318693
0003d0 99 d2 9a be 54 c3 6c 3e 92 d1 11 3e 7d 4e a6 3d
       -0.30238798 0.23121387 0.14240101 0.08120439
0003e0 cf 74 c7 be 84 d2 c1 be 1d 6e 25 be 78 58 10 be
       -0.38956305 -0.37855923 -0.16155286 -0.14096248
0003f0 00 3a 0b 3f da a8 18 be 2f 45 4e 3e a9 3a 2c 3d
       0.54385376 -0.14908162 0.20143579 0.04204813

initial.bias f4 [224]
000000 8b b3 41 3e 5f c0 43 bb f0 29 ff be 87 74 aa be
       0.18916146 -0.00298693 -0.49836683 -0.33292028
000010 ac 03 ce bd d0 9b 38 3e 1c 08 f7 3c 69 95 db 3e
       -0.10059294 0.18028188 0.030155234 0.42887428
000020 9b fb f6 be 4a 98 65 bd e9 91 b8 3e 10 6c 01 3f
       -0.48238835 -0.056053437 0.3604882 0.50555515
000030 9a 6a 98 bd 1b 69 7e be 2e 57 2d 3d 03 03 df be
       -0.07442208 -0.24844782 0.04231947 -0.43556985
000040 4b dc ab be d3 59 63 be e3 f4 19 be cf fa 74 be
       -0.33566508 -0.22202234 -0.15034823 -0.23923801
000050 54 3b 0f bf 1e 4a 06 3f 9f ed b2 3e e1 14 1c 3e
       -0.559499 0.52456844 0.34946916 0.1524234
000060 50 c0 80 3d 4f 5d eb 3e 2a 93 66 3e 86 74 89 3e
       0.06286681 0.45969626 0.22517076 0.26846713
000070 4e 76 ab 3e a4 63 59 3e 36 6f 8e bc 78 1a b9 3e
       0.33488697 0.21229416 -0.017387014 0.36153007
000080 c2 ca 92 be 60 ee 9e bd de c1 49 be fa e0 ac 3e
       -0.28670317 -0.0776031 -0.1970286 0.33765393
000090 04 31 4d 3d d3 ba ac 3e 64 a7 11 bf 8f c1 4a be
       0.050095573 0.33736286 -0.5689604 -0.19800399
0000a0 f5 3f e0 bc e3 fc 42 be 60 56 a4 be 08 d8 e3 3e
       -0.027374247 -0.19041781 -0.3209715 0.44500756
0000b0 56 a8 5a be 50 19 89 3d 7d 4f bc bc cd e8 5c be
       -0.21353278 0.06694281 -0.022987122 -0.21573181
0000c0 b1 f6 90 3e b5 b4 29 3e 09 e6 b7 be 00 7e f7 3e
       0.2831321 0.1657284 -0.3591769 0.48338318
0000d0 3e 7c 05 bd 7f 7d ff 3e 73 62 31 3e 6e 5c 86 3e
       -0.03258919 0.49900433 0.17322712 0.26242393
0000e0 70 10 28 be 02 a5 c3 bd 97 07 96 be 6a 84 e6 be
       -0.1641252 -0.09552957 -0.29302666 -0.450229
0000f0 4c e8 0e 3f f6 e7 3d 3e d1 7f cc bb 4a c3 3a 3d
       0.55823207 0.18545517 -0.006240823 0.0455964
000100 26 ee f9 bd a7 29 dd 3e 78 05 f3 be d6 45 0c 3f
       -0.12203626 0.4319584 -0.4746511 0.5479406
000110 c1 bd d2 be 47 77 e7 3e c6 57 b6 3e a0 ba a4 3d
       -0.41160396 0.4520819 0.3561384 0.080434084
000120 97 70 c0 bd 9c 91 3c 3e 99 d1 1f 3e b7 95 7d 3d
       -0.09396475 0.1841492 0.15607299 0.061910357
000130 3d 91 07 bf 65 ff 73 be 6e b0 a1 bd 96 a5 20 3d
       -0.5295599 -0.23827894 -0.078949794 0.039220415
000140 44 6c fa be 3a 9f 43 be c0 38 63 3b cd 52 13 be
       -0.48910725 -0.19103709 0.0034671277 -0.14387055
000150 34 41 57 3e b8 ea 88 be ec 24 ac bd be 87 ae 3e
       0.21020967 -0.26741576 -0.0840548 0.34087938
000160 ae be a0 3d 50 2d 0a bf c8 ca 8b 3e ad 12 4f be
       0.07848869 -0.5397539 0.27303147 -0.20221968
000170 ea 3a 33 be 12 19 4e bc 60 b6 bf bc 04 b0 b4 be
       -0.17502943 -0.012579219 -0.023402393 -0.3529054
000180 0e 8d 6f be b8 5d b4 3d 81 d3 07 3f 72 dc 67 3e
       -0.23393652 0.08806938 0.53057104 0.22642687
000190 66 1e 83 3d 33 01 34 be fe 29 39 be c1 cd de be
       0.064022824 -0.17578582 -0.18082425 -0.43516353
0001a0 df 74 81 3d 72 f7 3e bd 9c eb fe 3e bc 65 85 be
       0.063211195 -0.0466227 0.4978913 -0.2605418
0001b0 c4 8a 01 bf cf 86 ec 3e c5 93 03 be b7 6f fb 3d
       -0.50602365 0.461966 -0.12849338 0.12277167
0001c0 da c6 83 be fe 8d 2d bd eb 61 6b 3e c4 84 03 bf
       -0.2573765 -0.042371742 0.22986571 -0.5137446
0001d0 c8 fb f9 bd 19 78 f7 bc 70 42 0a 3f b2 0a f0 bb
       -0.122062266 -0.030208634 0.54007626 -0.0073254937
0001e0 0a 83 da 3e 91 74 6c 3e 13 4b f6 3e 5c f4 b9 3e
       0.426781 0.23091342 0.48104152 0.36319244
0001f0 72 83 52 be da b2 0d bf 8e 14 17 3f fe ce 8c bd
       -0.20557955 -0.5535103 0.5901574 -0.06875418
000200 94 0c 09 3f 8d 90 19 3e 71 60 a7 be f5 92 28 3d
       0.5353482 0.14996548 -0.32690766 0.041155774
000210 12 3c c2 be fc 96 11 3f bf fd 0b bf d7 4e 0f bf
       -0.37936455 0.5687101 -0.5468406 -0.55979675
000220 ca 66 93 3e c8 f2 94 bb 0a 0f 21 be c9 77 e1 be
       0.2878936 -0.0045455433 -0.15728393 -0.440367
000230 be 6b ec 3d 23 fa b9 3d c3 c0 15 3b 05 e4 cd 3e
       0.11543988 0.09080913 0.002285049 0.40213028
000240 80 b4 f3 3e 91 fb bf be 3c ed a6 3d f4 04 28 3e
       0.47598648 -0.37496617 0.081507176 0.1640814
000250 19 e0 b6 3d c0 7a 02 bf 27 ab 27 3e 0f 9a 13 bf
       0.08929462 -0.5096855 0.16373883 -0.5765695
000260 69 b3 9d ba 7a 66 e9 3d 65 c5 d7 3e cf bc 83 3e
       -0.0012031618 0.11396499 0.42142788 0.25729987
000270 e2 87 e0 37 20 4a 99 be ea 9e 10 bf 7c e5 17 be
       2.6766156e-05 -0.29939365 -0.56492484 -0.14833635
000280 0f a1 12 bf 69 55 67 be 90 93 c3 be b0 1f c5 be
       -0.57277006 -0.22591175 -0.3819852 -0.38500738
000290 ed f7 4a 3e d9 28 f0 be 4d 7a 9a be 07 7f fa be
       0.19821139 -0.46906164 -0.30171433 -0.4892504
0002a0 95 14 07 3f 4a 03 0b bd e8 fe f6 3c eb 28 22 be
       0.5276578 -0.033938684 0.030150846 -0.15835921
0002b0 c2 b0 af be bf 6c 90 3e 61 d0 af 3d a5 63 13 bf
       -0.34314543 0.28207967 0.08584667 -0.5757392
0002c0 50 b8 0f 3d e0 7b a2 be 1e f7 ad be 41 82 ee 3e
       0.035087883 -0.31735134 -0.33977598 0.4658375
0002d0 48 33 3a be 9c 51 fc 3e c3 89 3f 3e 37 84 df 3d
       -0.18183625 0.49281013 0.18704896 0.1091389
0002e0 cc ec e5 3e 26 e2 aa be f0 56 36 3e a4 48 a0 3e
       0.44907224 -0.33375663 0.17806602 0.3130542
0002f0 cd d3 8e 3e 25 53 a1 be 2f 45 01 be e2 79 e5 3e
       0.27895966 -0.31508747 -0.12624048 0.44819552
000300 42 c7 72 be 8a a6 c8 3e 71 21 d0 be ef 9a af be
       -0.23708823 0.3918956 -0.40650514 -0.34297892
000310 32 de 28 3e 22 13 e6 be 40 3d 16 bd 44 fd cc bd
       0.16491011 -0.44936472 -0.036679506 -0.10009244
000320 c3 5d 03 be bc 84 be 3d a1 ac 6c be 50 90 f9 be
       -0.12828736 0.09302661 -0.23112728 -0.48742914
000330 3f cb 4f 3e ac 4e 2c bd 80 d1 ca be d4 70 05 bf
       0.20292376 -0.042067215 -0.3961296 -0.5212529
000340 07 40 c5 3e dd 27 ea 3e f3 21 e3 be 19 f1 05 3f
       0.3852541 0.45733538 -0.4436184 0.5232101
000350 46 72 b6 be 25 80 a8 3e 72 2d 52 3e c4 58 07 3e
       -0.3563406 0.32910267 0.20525149 0.13217455
000360 81 27 db be 15 20 a7 be 01 1a 9b bb 24 7c 0f 3f
       -0.42803577 -0.32641664 -0.0047333245 0.560488
000370 5d 71 0b 3f 23 c4 fd 3e 15 fe 9e 3e 5d 9b 87 3e
       0.54469854 0.49563703 0.31053224 0.2648572

readout.weight f4 [126, 224]
000000 ef d1 88 3c c8 5a 54 3d 24 5a 9f 3d d4 54 94 bc
       0.016701667 0.05184439 0.07780865 -0.018106855
000010 5e d0 53 bd 06 7e 48 3d b2 b3 98 bb 26 82 e9 bc
       -0.051712386 0.04894831 -0.004660093 -0.028504442
000020 83 56 42 bd 7f b1 9f ba de 45 3d 3d e5 48 8a 3d
       -0.047445785 -0.0012183635 0.04620921 0.06752185
000030 98 9e 03 bd d8 98 69 bd 20 06 65 bb 98 66 57 bd
       -0.03213367 -0.05703053 -0.0034946278 -0.052588075
000040 d2 11 d8 3c 27 15 39 3d c1 2a 87 bc 47 5d e5 3c
       0.026375685 0.045186188 -0.016499879 0.02799858
000050 de 14 72 3c 26 a6 ee 3c 53 c1 89 bd fe 32 61 bd
       0.014775483 0.02913196 -0.06726327 -0.05498027
000060 3e 01 e9 bc 7d 0a 2b 3d 03 ff 9f bd 3d 81 18 3d
       -0.028442975 0.04175805 -0.078123115 0.037232626
000070 2a a1 19 bd 5d 40 3b 3c a2 54 ef bc 2a 8a 1a 3a
       -0.037507214 0.01142892 -0.02921516 0.0005895222
000080 98 95 83 bd 55 1a 55 3b 3c 04 56 bc b9 8e d3 ba
       -0.06425017 0.0032516916 -0.013062533 -0.0016140557
000090 67 d1 05 3d 4f 8d 9b ba a8 81 94 3d fa fa 10 bd
       0.032670405 -0.0011867675 0.072512925 -0.0353956
0000a0 2b c9 b4 bb 16 e3 f3 3b 61 36 6f bd ac 11 37 bd
       -0.005517145 0.0074428422 -0.05840147 -0.044694588
0000b0 44 bf 98 bc 14 f1 c9 3c 71 2b dc 3c 06 71 98 3c
       -0.01864589 0.024651088 0.026876183 0.018608581
0000c0 c2 6b 4b bd 7e ec 7f bc e0 77 89 bd 3d 5a 70 bd
       -0.049663313 -0.015620349 -0.067123175 -0.058679808
0000d0 75 38 16 3d f9 31 15 bd ed 06 ad bc 82 fc 4a bd
       0.036674935 -0.03642461 -0.021121467 -0.049557216
0000e0 41 78 17 bd ec bc 34 3c c3 26 5f 3d fc e9 99 bd
       -0.036979917 0.011031371 0.054480325 -0.07515332
0000f0 c1 2f d7 3c 19 13 39 bd 8d 53 1d b9 3b 3a 54 bd
       0.026267888 -0.04518423 -0.00015003812 -0.051813345
000100 5a 4f 28 bd 32 53 4e bd 96 b2 77 3d 20 64 dd 3c
       -0.0410913 -0.05037231 0.060473047 0.027025282
000110 0e 8d 25 3d 8d aa ae bc 91 98 ad bc 3c aa 34 3d
       0.040417723 -0.02132156 -0.021190913 0.04410766
000120 2b d5 92 bd d2 53 d0 bb 2c c5 4c 3d b0 d7 53 bc
       -0.07169565 -0.0063576484 0.049992725 -0.012929842
000130 52 06 e6 3c e4 3a 57 bc a5 09 15 3d 24 9d 05 bb
       0.028079186 -0.013136599 0.03638615 -0.0020387853
000140 55 f0 d3 3c 75 06 a2 bc ca a5 e1 bb 2f bf 3d bd
       0.025871435 -0.01977847 -0.0068862187 -0.046324905
000150 34 25 32 bd 7f 1e 16 3d 66 22 c4 3c f9 6c 8c 3d
       -0.04349251 0.036650177 0.023942184 0.068567224
000160 19 f0 36 bd bc 10 08 ba 56 42 17 bc cd 52 07 3d
       -0.04466257 -0.0005190482 -0.009232124 0.03303795
000170 92 68 dd bb 6d af 0b bd 24 91 9e 3c 25 64 4b bc
       -0.0067568505 -0.034102846 0.019356318 -0.012414013
000180 f4 73 52 3d d2 4d a2 bd a2 f7 f2 bc f4 e8 12 3d
       0.051380113 -0.07924999 -0.029659096 0.035866693
000190 b9 8a 64 3d 4f 37 9f bd ca 36 7a 3c ab ba 84 bc
       0.05579636 -0.07774221 0.015271852 -0.016202291
0001a0 8e dc 65 3c 4e 7a 82 bc e8 9f 98 bc 6e 11 8d 3b
       0.014029635 -0.01592746 -0.018630937 0.0043050563
0001b0 a1 f2 3c 3d e2 3e 0d bd 8d 65 a4 bc ef 7b 01 3d
       0.046129826 -0.034483798 -0.020067954 0.031612333
0001c0 49 6d ef 3c b7 2c 0a 3d f7 6b 88 bc 96 e6 67 bd
       0.029226916 0.03373405 -0.016653044 -0.05661639
0001d0 fb 71 71 ba 6c ff 7d 3b a9 55 8f bc 8f 31 1e bd
       -0.0009210405 0.003875698 -0.0174969 -0.03862148
0001e0 d5 61 3e bd d3 31 87 bc a5 9b fa bc 1b 27 8e bd
       -0.04648002 -0.01650325 -0.030591795 -0.069410525
0001f0 4b a0 d3 3c e4 f4 b2 3c 6f 8f d1 bc 71 c6 c5 3c
       0.02583327 0.021845289 -0.02558109 0.024142476
000200 e3 66 0c bd 3a eb 4a 3d 7c 18 df 3c 23 4b 98 3b
       -0.034277808 0.049540736 0.027233355 0.004647629
000210 fd ae 7e 3c 4b 69 33 ba 70 36 cc bc 3c a2 43 3c
       0.01554465 -0.0006843998 -0.024928302 0.011940535
000220 15 f7 ce 3c f7 74 3e bc ff e4 d2 ba 52 f2 47 3d
       0.025264302 -0.011624566 -0.0016089975 0.04881508
000230 da 18 b4 bc 11 18 0d bd 8f 3e 48 bd 80 80 f0 bc
       -0.021984506 -0.03444678 -0.048887786 -0.029358149
000240 e9 74 4d bd 16 19 76 3d 05 45 ae 3c 0d 99 fa 3c
       -0.050160322 0.060082518 0.021273145 0.030590558
000250 ef 29 44 bd 5b 36 bb 3b 49 bc 7b 3d 82 2d 82 ba
       -0.047891553 0.005713267 0.06145886 -0.0009931775
000260 23 28 4e bd 72 72 4f bd f2 80 4b 3d b6 b3 9d bc
       -0.050331246 -0.050646253 0.04968352 -0.019250732
000270 e0 4f e2 3b b1 e1 2e bd c4 cd 9f 3b 72 e0 12 3d
       0.0069064945 -0.042695705 0.004876824 0.03585858
000280 1c 8d 8b 3d 33 d3 56 bd d5 37 80 3d c0 ec 42 3d
       0.06814024 -0.05244751 0.06260649 0.047589064
000290 1c 53 16 bd f2 b9 8a 3a d9 18 81 3c 67 ec 35 3d
       -0.036700353 0.001058398 0.015758919 0.044414904
0002a0 25 c6 33 bc b5 b4 49 3c 7c 1c 25 3c ea 4d 98 bc
       -0.010972534 0.01231115 0.010077592 -0.01859184
0002b0 4c fa 0c 3d 19 6e 88 bd 12 95 ce 3c 10 6a 35 39
       0.03441839 -0.066616245 0.025217567 0.00017301016
0002c0 5d 83 41 3d 16 9b 87 bc bc 9c cf bc 6a de 83 bd
       0.04724442 -0.016553443 -0.025343291 -0.064389065
0002d0 d1 b4 1f 3d 50 b1 b7 3b 94 56 00 3c 0c ca 03 bb
       0.0389908 0.005605854 0.007833142 -0.0020109443
0002e0 f5 64 15 bd dd 56 c6 bb 0f 33 81 3d 9c fb 4b bc
       -0.036473233 -0.0060528354 0.06308567 -0.012450125
0002f0 9b 06 23 bd 25 8d ea 3b 18 db f2 3c fe 5c b1 3c
       -0.03980122 0.007157939 0.029645488 0.021650787
000300 12 43 e8 ba 0e 81 ed 3c f4 df 0a 3d 72 bd 6b bd
       -0.0017720184 0.028992202 0.033904985 -0.057553716
000310 cc e4 0a bd 90 8e 87 bd d3 29 0f bb bb 9a 2b bd
       -0.033909604 -0.066189885 -0.0021844998 -0.04189561
000320 7f 2a a2 bc c9 26 81 3d d4 04 96 3d e6 15 17 bd
       -0.019795654 0.06306226 0.0732514 -0.03688612
000330 5c ad 77 3c 24 4b 39 3d 23 8b a5 3c 33 71 4c bd
       0.015117016 0.045237675 0.020207947 -0.049912643
000340 de 8f 21 3d 2c ac 40 bd 07 17 81 bd 2f 1b 7d 3d
       0.039443843 -0.047039196 -0.0630322 0.061793502
000350 62 8a 51 3d 7e bb f3 bc a2 d4 ce 3c a0 fa 44 3d
       0.051157363 -0.02975249 0.025247876 0.048090577
000360 bb ba 89 bd e8 55 0a bd 01 4e 38 3c e8 7d 87 bc
       -0.06725069 -0.033773333 0.011249066 -0.016539529
000370 39 93 50 3d b3 89 18 bd 92 0a 02 3d 18 a5 ed bc
       0.050921652 -0.037240695 0.031748362 -0.029009387
000380 31 52 28 bd c3 2b 29 3d 94 59 50 bd 7f 1a 0f bd
       -0.04109401 0.0413015 -0.05086668 -0.034937378
000390 c4 22 5b bd 5a 1f 46 3d ff 1e 56 3c 6d 3a 2d bd
       -0.053499952 0.048369743 0.0130689135 -0.042292047
0003a0 46 7d 85 bc e9 22 63 3d e9 cc 5e 3d 1f 56 03 3d
       -0.016295087 0.055453215 0.054394636 0.032064553
0003b0 e5 de 7a 3d ba e2 83 bd df 5f 15 bc ff b6 47 bd
       0.061247725 -0.06439729 -0.009117096 -0.048758503
0003c0 50 56 4a bd 04 b8 93 bc 2d 42 33 bd 4d 66 b0 3c
       -0.04939872 -0.018032081 -0.043764282 0.021533156
0003d0 92 29 d4 bc 20 0e fd 3c 03 03 20 bd d7 94 fc bc
       -0.025898729 0.030890524 -0.039065372 -0.030832691
0003e0 28 f2 bc ba 11 fe 96 3d 18 0a 5b bc 24 10 cf bc
       -0.001441543 0.07372678 -0.013369106 -0.025276251
0003f0 f9 1c 12 3d 17 41 7c 3d 52 6e 80 bd 55 e7 49 3c
       0.03567216 0.061585512 -0.06271042 0.01232322

readout.bias f4 [126]
000000 bd b4 58 bc b8 1e 2e 3d d0 1b 1b bc 77 3e 6f 3d
       -0.013226685 0.042509764 -0.00946708 0.05840918
000010 76 ea da 3b 73 d7 5e 3d 9b 55 21 3d 43 3b e1 bc
       0.006680782 0.054404687 0.03938828 -0.027494079
000020 aa d9 96 bc 7e 85 bd bc c3 11 79 3c bc 1a 35 3d
       -0.018414337 -0.023134943 0.015201989 0.04421495
000030 27 c1 00 bd ca 01 75 bd d6 26 68 bd 37 67 8e bd
       -0.031434204 -0.05981616 -0.05667766 -0.069532804
000040 6f 4d 1b bd e2 87 4d ba 10 62 a1 bd 15 fb a7 bc
       -0.037915643 -0.00078403775 -0.07880032 -0.020505467
000050 43 f1 16 bb 4a 70 42 3d eb fc a0 bd e6 cd 0e 3d
       -0.0023031987 0.04747037 -0.0786074 0.03486433
000060 62 5b 59 bd a8 3a 40 bd 03 ee 5c bd d5 37 3a 3d
       -0.053065665 -0.04693094 -0.053937923 0.0454634
000070 13 3f 01 bd da 26 4c 3c 48 08 b2 bc e6 32 55 bd
       -0.031554293 0.012460435 -0.021732464 -0.052050494
000080 e5 6c 30 bc e8 c2 a9 3c 6b 4c 0e bd c2 ce 85 3c
       -0.01076815 0.020722821 -0.034740847 0.016333941
000090 b0 9c 91 bd fc 31 d7 bc ae a6 7e bd d0 50 55 3c
       -0.07109964 -0.026268952 -0.062170677 0.0130197555
0000a0 5f 05 66 bd 07 fd 59 3d ee 6e df 3c 1e 82 7b bd
       -0.056157466 0.05321982 0.027274575 -0.061403386
0000b0 d2 29 05 3d 7a 53 32 3d b7 f1 31 3d d4 6a 2c 3d
       0.032510586 0.04353664 0.043443408 0.042094067
0000c0 1d c1 11 3d 6d c7 41 bd b3 5a 3e 3d c5 14 92 bd
       0.035584558 -0.047309328 0.046473216 -0.07132868
0000d0 22 26 a2 3c 01 bc e6 bc 0e 91 46 3d 1f 68 5c 3c
       0.019793574 -0.02816582 0.04847818 0.013452559
0000e0 35 f9 33 3d 03 3a a0 bc 8d 09 32 ba 40 63 a0 bd
       0.043938834 -0.019558912 -0.00067915843 -0.078314304
0000f0 60 78 82 bd ec db 20 3d bc c9 0b 3d da ba 86 3c
       -0.06370616 0.039272234 0.034127936 0.01644652
000100 cc b5 8b bd 98 10 c9 3c d8 e7 27 bc c0 88 a8 bb
       -0.068217844 0.024544045 -0.010248147 -0.005143255
000110 34 63 49 3c ff e8 5a bd 8f 2d 12 3d 25 9d 5c 3d
       0.012291718 -0.05344486 0.03568798 0.053860802
000120 49 5d 39 3d 29 76 56 bc 6d de ac bc a6 9f 6b bd
       0.04525498 -0.013089695 -0.021102155 -0.0575253
000130 ca 78 f1 3c 68 6d 9a bd fe 02 db ba 77 1e 13 bd
       0.029476542 -0.07540399 -0.0016709266 -0.035917725
000140 e4 4c b8 3c 98 74 0b bd 12 b9 d1 bc c8 7f 35 3d
       0.022497602 -0.03404674 -0.025600944 0.044311315
000150 f3 39 c7 bc 60 f9 b4 bc 74 da 57 3c 16 04 19 bd
       -0.024319625 -0.022091568 0.013174642 -0.037357412
000160 92 16 85 bd 63 3f 13 bd 6e d9 3f bd 99 f7 26 3d
       -0.064984456 -0.035949122 -0.046838216 0.04076347
000170 f0 bf 06 3d ec 73 95 bc 7d 2f 76 bc 1f b2 1a bd
       0.03289789 -0.018243752 -0.0150259705 -0.037767526
000180 15 14 75 bd cd e8 82 3d cb bb 52 3d 10 cd e8 3c
       -0.059833605 0.063920595 0.051448625 0.028418094
000190 ff 82 a7 ba 3d 6b 1c 3d 15 fa 35 3c 6b 70 8c bc
       -0.0012780129 0.038188208 0.0111069875 -0.017143449
0001a0 e5 3a f8 3b aa 9d 94 bd cc a8 01 bd 08 5a c9 bc
       0.00757538 -0.072566345 -0.031655118 -0.024579063
0001b0 30 28 29 3d 30 e1 fc bc d9 2d 69 bd 73 ef 36 3d
       0.04129809 -0.030869097 -0.05692849 0.04466195
0001c0 7b 63 53 3d e7 a9 72 bc b3 f5 ee ba 98 bf 3d 3c
       0.051608544 -0.014811016 -0.0018231183 0.011581324
0001d0 e6 8d bb bb aa 69 07 bd ab 45 47 bd 4d 79 94 bd
       -0.0057237027 -0.033059753 -0.048650425 -0.07249699
0001e0 a2 c7 b4 3c c4 af 92 bd 41 8f 34 bb de 47 f6 3c
       0.022067849 -0.07162431 -0.0027551206 0.030063566
0001f0 63 5a 34 3d 82 fd 91 bc
       0.044031512 -0.017821077
