cde/model/rk4/7.ckpt (torch, 581263 bytes, 8 tensors)

func.linear1.weight f4 [128, 224]
0.1642352 0.048024986 0.056867797 -0.09981098 -0.16066292 -0.1410352 -0.058128793 0.0927668
-0.04855263 -0.08525291 0.12468972 0.04598864 -0.09353979 -0.06697738 -0.15111536 0.10951215
0.039960284 -0.093335226 0.07930152 -0.078579344 0.13239007 0.13072859 -0.15891159 0.0497692
0.07516923 -0.06817654 0.16085207 0.041297883 -0.049216554 0.04059012 -0.045408733 -0.03978356
0.08750461 0.077082045 0.15279108 0.050548334 0.112281695 -0.03577946 -0.1622596 0.064708576
0.10919526 -0.13808276 -0.1098677 0.0639701 0.10440264 -0.15328643 0.12784556 -0.15169658
0.09085895 0.06052394 -0.06407292 -0.033415467 0.076799296 -0.13118349 -0.083871424 -0.14302166
-0.07751546 -0.076409034 -0.10772266 -0.12274118 0.035761304 0.100043386 0.12133753 0.13910727
0.12591957 0.10936037 -0.05019312 0.06468375 -0.15809458 -0.14498799 0.04846817 0.11914937
-0.08434665 -0.07392107 0.151229 -0.08301369 0.10812782 0.154692 0.102429934 0.07377754
-0.12684244 -0.14039752 0.09496791 -0.08573699 0.15721242 0.06163849 0.046378598 -0.10133909
0.071373686 0.1058401 -0.066185154 -0.14378664 0.069737464 0.07265742 -0.15708457 0.10985558
-0.13665101 -0.1171609 -0.13098815 -0.07509049 -0.051833034 0.07953113 -0.106934406 -0.13644461
0.13017188 0.035231374 0.15788473 0.03728722 -0.12983094 0.09456451 -0.13184014 -0.06433402
-0.10996573 -0.14633888 -0.13676754 0.04498696 0.048729647 0.10114032 0.11439649 -0.10024296
-0.087064885 -0.12868315 -0.046695564 0.1606007 0.04076103 -0.10191643 -0.03880686 -0.16545573
-0.054376114 -0.059651326 -0.046080872 0.047661997 0.11275062 0.051220287 0.056209564 0.139294
0.041250978 -0.07803261 -0.11476434 0.08435994 0.14863007 -0.13300206 -0.08042122 0.081481814
0.038024567 -0.060848255 -0.092663564 0.15285468 0.14589852 -0.086227655 -0.06761053 -0.06529854
0.060788043 -0.048126608 -0.0599079 0.08063843 -0.04191541 -0.11518999 0.071951166 -0.15565193
0.16355656 -0.093438946 0.12898761 0.15739885 0.08128732 -0.16137803 -0.10516083 -0.043199603
0.057671662 -0.11440631 0.14533538 0.10579204 -0.15017687 -0.14655644 -0.092545934 0.094015665
0.076172575 -0.03525939 0.06819811 -0.08226531 -0.12752324 -0.14695928 0.09245543 0.07380694
-0.069177836 0.047895417 -0.11508002 0.12848744 0.08860707 0.05037352 -0.07549386 0.08900719
-0.093657374 0.04991214 -0.1312653 -0.101969115 0.04617702 0.04121644 0.15868309 0.060266886
-0.05202322 -0.08214906 -0.0728046 -0.07865927 0.03615351 0.080205746 0.046071205 0.05107246
0.11239023 -0.11831719 0.059673816 -0.09086232 0.10733429 0.04697131 -0.12087095 -0.14360054
-0.07278468 -0.045264978 0.09287963 -0.07147377 0.12340124 -0.1377173 0.15157391 -0.03339348
0.03784082 -0.15965948 0.11238879 -0.15620929 -0.09339949 0.037721828 -0.101934984 0.16434784
0.06496702 -0.13152047 -0.16153085 -0.10812027 -0.14760269 -0.054746166 -0.10705622 -0.15997118
0.053459533 0.10560973 -0.12387127 -0.15675297 0.059398916 -0.059002813 -0.08430912 0.0496908
0.08277963 0.16090958 0.13560979 -0.14507875 -0.10218995 -0.11226812 0.1476438 -0.0681034
00000000: 462d 283e d9b5 443d 35ee 683d b369 ccbd
00000010: d284 24be 886b 10be 7518 6ebd 85fc bd3d
00000020: 1fdf 46bd 1499 aebd 535d ff3d 965e 3c3d
00000030: ca91 bfbd 702b 89bd fcbd 1abe e847 e03d
00000040: 65ad 233d 8a26 bfbd d668 a23d 35ee a0bd
00000050: 4391 073e b7dd 053e b8b9 22be cada 4b3d
00000060: 53f2 993d 24a0 8bbd 68b6 243e f827 293d
00000070: 4c97 49bd d341 263d 82fe 39bd 16f4 22bd
00000080: 9e35 b33d 31dd 9d3d 4475 1c3e c50b 4f3d
00000090: f2f3 e53d 7c8d 12bd 6127 26be ee85 843d
000000a0: c4a1 df3d 9165 0dbe 5102 e1bd c102 833d
000000b0: 0dd1 d53d 1ef7 1cbe f2e9 023e 5956 1bbe
000000c0: 4214 ba3d f3e7 773d aa38 83bd a8de 08bd
000000d0: f348 9d3d f754 06be c8c4 abbd 4574 12be
000000e0: 6dc0 9ebd 577c 9cbd b39d dcbd ba5f fbbd
000000f0: 727a 123d 8ce3 cc3d d07f f83d 2372 0e3e
00000100: 0ff1 003e 54f8 df3d 4d97 4dbd ea78 843d
00000110: 8ce3 21be bb77 14be 8f86 463d 9604 f43d
00000120: f0bd acbd ee63 97bd c6db 1a3e 1503 aabd
00000130: 1e72 dd3d 9467 1e3e c9c6 d13d ae18 973d
00000140: fce2 01be 5ec4 0fbe 897e c23d e096 afbd
00000150: 4bfc 203e a478 7c3d 7cf7 3d3d de8a cfbd
00000160: 5e2c 923d b2c2 d83d 158c 87bd ce3c 13be
00000170: 84d2 8e3d 6acd 943d c7da 20be f6fb e03d
00000180: 3eee 0bbe 0ef2 efbd c221 06be 0bc9 99bd
00000190: e04e 54bd 38e1 a23d 6d00 dbbd 23b8 0bbe
000001a0: c74b 053e c64e 103d 89ac 213e 7cba 183d
000001b0: 67f2 04be 0aab c13d 1a01 07be 8ec1 83bd
000001c0: b635 e1bd dcd9 15be ca0c 0cbe 3f44 383d
000001d0: bd98 473d a822 cf3d b548 ea3d 2e4c cdbd
000001e0: 134f b2bd 84c5 03be d943 3fbd 8374 243e
000001f0: 0af5 263d 90b9 d0bd f1f3 1ebd 3a6d 29be
00000200: 7db9 5ebd f354 74bd 4cbf 3cbd 3a39 433d
00000210: cce9 e63d 5dcc 513d 003c 663d 16a3 0e3e
00000220: c9f6 283d 90cf 9fbd 9109 ebbd e7c4 ac3d
00000230: 7b32 183e b131 08be e1b3 a4bd f0df a63d
00000240: a6bf 1b3d 053c 79bd 65c6 bdbd f085 1c3e
00000250: 6c66 153e 2098 b0bd 6477 8abd 3ebb 85bd
00000260: e2fc 783d 6820 45bd fc61 75bd c325 a53d
00000270: 7eaf 2bbd bbe8 ebbd 225b 933d 3863 1fbe
00000280: 5f7b 273e eb5c bfbd 5415 043e 2a2d 213e
00000290: f779 a63d 4840 25be 905e d7bd 11f2 30bd
000002a0: 1f39 6c3d db4d eabd ccd2 143e 7fa9 d83d
000002b0: f7c7 19be e412 16be b988 bdbd 498b c03d
000002c0: 5e00 9c3d 266c 10bd 73ab 8b3d b77a a8bd
000002d0: 7495 02be 7e7c 16be 4659 bd3d 1828 973d
000002e0: 1cad 8dbd fc2d 443d 13af ebbd 3692 033e
000002f0: a077 b53d 7754 4e3d 869c 9abd 6749 b63d
00000300: 70cf bfbd ac70 4c3d 696a 06be 2fd5 d0bd
00000310: 1d24 3d3d 92d2 283d d27d 223e 69da 763d
00000320: 4d16 55bd c43d a8bd 941a 95bd 1d18 a1bd
00000330: b415 143d e942 a43d 29b5 3c3d 5b31 513d
00000340: d92c e63d 4850 f2bd 886c 743d 0616 babd
00000350: 15d2 db3d fd64 403d 308b f7bd 050c 13be
00000360: 2210 95bd c567 39bd ad37 be3d d760 92bd
00000370: cab9 fc3d c405 0dbe 3136 1b3e 9ac7 08bd
00000380: fafe 1a3d c67d 23be 182c e63d 54f5 1fbe
00000390: 3b48 bfbd 3482 1a3d 4ac3 d0bd cd4a 283e
000003a0: 6e0d 853d 4dad 06be 5868 25be 296e ddbd
000003b0: 2925 17be 843d 60bd 4b40 dbbd 7ccf 23be
000003c0: 62f8 5a3d ea49 d83d 38b0 fdbd da83 20be
000003d0: 474c 733d efac 71bd 43aa acbd 9588 4b3d
000003e0: 5e88 a93d 7bc5 243e 4bdd 0a3e 868f 14be
000003f0: f748 d1bd d4ec e5bd f02f 173e cc79 8bbd

func.linear1.bias f4 [128]
-0.14010495 -0.16389665 0.08379229 0.14099357 -0.050858147 -0.050617516 -0.12375772 0.1477057
-0.0386444 0.11834487 -0.042341005 -0.088896945 0.110331945 -0.15229698 -0.1074358 0.100693166
-0.13342616 -0.11258848 -0.13128835 0.14885473 -0.0483678 -0.087016605 0.118052065 0.13366826
0.14748482 -0.12160041 -0.12744918 -0.10297706 -0.03649468 0.05645175 0.077611536 -0.13026625
-0.11956978 0.05383059 -0.09723921 -0.04031678 0.126698 -0.08766113 -0.09909247 0.104353584
-0.07501731 0.06428964 0.05381451 -0.09302525 0.051387683 0.07105291 -0.09730592 0.09038283
-0.13492507 -0.14656371 -0.035998113 -0.064971834 -0.058730077 -0.14919992 0.12815621 0.0524869
0.16366248 -0.076134086 -0.120892204 0.07682398 -0.15992543 0.05611812 -0.15499559 0.13691576
-0.037565775 0.05117252 -0.045362942 -0.07994024 -0.14141361 0.03935682 0.13925253 0.08128901
-0.11799552 0.12098591 -0.053318072 -0.049913343 0.039104592 0.06662007 0.07126261 -0.1631205
0.13717876 -0.13040246 0.14235766 -0.102631025 0.09951303 0.060110565 0.06664923 0.09109625
-0.10405689 0.09468872 -0.11300981 0.13025853 -0.112028085 -0.13935515 -0.07933392 -0.044264186
-0.10843265 -0.15391827 0.09919669 -0.072378665 0.070160195 -0.041389834 -0.075679645 0.1632107
0.0462675 -0.1664953 -0.038336057 -0.09353975 0.15182522 -0.1418045 -0.12700993 -0.04796411
-0.10599817 -0.13665906 0.08443765 -0.08607001 -0.14322576 -0.07852149 -0.07861159 0.05155978
0.09954524 0.12247725 0.1617569 0.05015282 0.07601155 -0.13787584 -0.16188031 -0.08630939
00000000: ac77 0fbe 86d4 27be 4b9b ab3d 9e60 103e
00000010: a250 50bd 5054 4fbd b074 fdbd 2a40 173e
00000020: 9749 1ebd cc5e f23d c36d 2dbd 9a0f b6bd
00000030: b7f5 e13d bdf3 1bbe 4d07 dcbd 3838 ce3d
00000040: dea0 08be ca94 e6bd 7470 06be 606d 183e
00000050: 501d 46bd c335 b2bd 48c5 f13d 55e0 083e
00000060: 4306 173e a309 f9bd 0a82 02be a3e5 d2bd
00000070: 727b 15bd f339 673d ccf2 9e3d 8464 05be
00000080: 00e1 f4bd 777d 5c3d 5a25 c7bd 3523 25bd
00000090: 1fbd 013e ae87 b3bd fef0 cabd 55b7 d53d
000000a0: ada2 99bd 49aa 833d 9b6c 5c3d 0684 bebd
000000b0: e47b 523d 3084 913d 5448 c7bd a21a b93d
000000c0: cc29 0abe cc14 16be c272 13bd f40f 85bd
000000d0: f38e 70bd ddc7 18be 623b 033e 81fc 563d
000000e0: 2397 273e 30ec 9bbd 5596 f7bd e455 9d3d
000000f0: 7ec3 23be 1ddc 653d 2ab7 1ebe a533 0c3e
00000100: 92de 19bd 479a 513d 7ece 39bd b5b7 a3bd
00000110: bbce 10be 9e34 213d 3798 0e3e da7a a63d
00000120: a3a7 f1bd 76c7 f73d 0d64 5abd ef71 4cbd
00000130: 232c 203d 1a70 883d 22f2 913d 0f09 27be
00000140: 9778 0c3e 3988 05be 35c6 113e 3730 d2bd
00000150: 7dcd cb3d 7f36 763d 647f 883d ac90 ba3d
00000160: c71b d5bd 29ec c13d b071 e7bd 7e62 053e
00000170: fb6e e5bd 1eb3 0ebe d279 a2bd 5d4e 35bd
00000180: f011 debd c09c 1dbe a227 cb3d 443b 94bd
00000190: 26b0 8f3d 6388 29bd eefd 9abd b520 273e
000001a0: fd82 3d3d be7d 2abe 4506 1dbd c591 bfbd
000001b0: 1278 1b3e 3335 11be e40e 02be 0476 44bd
000001c0: 9215 d9bd 5af0 0bbe a6ed ac3d 7945 b0bd
000001d0: c6a9 12be e0cf a0bd 1dff a0bd 5930 533d
000001e0: 60de cb3d 5ad5 fa3d 9aa3 253e 0b6d 4d3d
000001f0: f2ab 9b3d 532f 0dbe f4c3 25be fac2 b0bd

func.linear2.weight f4 [672, 128]
0.02520626 0.16451782 0.1586588 0.103707135 0.15169859 0.094403766 0.065286726 0.12957226
0.13138235 0.034620248 0.03622745 0.16313535 0.011687517 0.052390814 0.033063747 0.1002218
0.14430144 0.029358052 0.12317909 0.03322278 0.07396382 0.123135254 0.16451576 0.16720529
0.123029724 0.109858744 0.039592836 0.1059966 0.036116436 0.14637262 0.12542915 0.10901138
0.1669045 0.023544364 0.13444412 0.05898628 0.025038287 0.0935423 0.14600386 0.016531944
0.047684003 0.066745624 0.018730834 0.023245595 0.030973442 0.10377204 0.06500709 0.021663822
0.16730803 0.16136254 0.03235039 0.1854697 0.10944961 0.12666255 0.073802836 0.17250913
0.124195136 0.07256035 0.03302522 0.12899987 0.041716702 0.09818253 0.026271082 0.043979894
0.04204223 0.015140139 0.16661993 0.1873321 0.06785947 0.09974112 0.11282109 0.017861247
0.11766569 0.07970604 0.11085059 0.052936863 0.048246484 0.034309335 0.024162158 0.12658536
0.07326704 0.18008348 0.1859647 0.11344649 0.18604995 0.08864099 0.1461419 0.11679368
0.04467169 0.03132829 0.15868779 0.12326527 0.18009537 0.038116872 0.107821584 0.04116399
0.036372676 0.016393013 0.08797256 0.18135488 0.13857895 0.10022855 0.04580199 0.033330284
0.1817171 0.017599948 0.09826433 0.04931904 0.05125981 0.07330863 0.072232336 0.07591393
0.07450177 0.048982956 0.098946966 0.15976736 0.055879064 0.018161587 0.05677832 0.18371955
0.017873146 0.09845584 0.14039865 0.11729611 0.14974272 0.090504155 0.13644484 0.10440124
0.10385886 0.09445135 0.039066967 0.10477875 0.029214114 0.14413588 -0.16511664 0.10044032
0.055073727 0.17634961 0.087139264 0.058691863 0.14554149 0.09136531 0.023521021 0.07427834
-0.054051086 0.067595154 0.14036804 0.14727417 0.17831832 0.07906924 0.08792764 0.09605576
0.14388795 -0.06775236 0.16719612 0.11194016 0.04689223 0.08484709 0.10009549 0.019414678
0.110992536 0.101478815 0.15518127 0.018181145 0.120039105 0.01647403 0.05261671 0.13558681
0.03189843 0.18159117 0.16284333 0.14101167 0.118509255 0.06308365 0.16619067 0.15915751
0.16077799 0.1650497 0.022600204 0.06245305 0.016998403 0.09004203 0.13586493 0.021781705
0.094848916 0.06606373 0.043764748 0.13318805 0.03839553 0.14621995 0.16953069 0.11476674
0.016502872 0.06734668 0.13942264 -0.1739231 0.13308224 0.11615426 -0.14393753 0.18234566
0.028202623 0.18619423 0.10794334 0.1268158 0.014366783 0.05985122 0.093074635 0.05596012
0.017651148 0.015212506 0.1436393 0.10428336 0.03980355 0.0440519 0.04224316 0.06429848
0.17601165 0.08173733 0.10432209 -0.14111535 0.17595586 0.04062076 0.1699891 0.11472775
0.17787552 0.066596925 0.04968263 0.017728701 0.11257968 0.17909488 0.013529047 0.13626894
0.045379203 0.16914004 0.1714831 0.08855309 0.1756796 0.06987493 0.15703301 0.045913402
0.077824704 0.07363044 0.021824487 0.11709344 0.093139336 0.14706314 0.054523923 0.08510214
0.06749593 0.05573191 0.17190294 0.03844091 0.15970688 0.05497115 0.16946286 0.08868007
00000000: 5c7d ce3c 5c77 283e 7477 223e 6864 d43d
00000010: e056 1b3e c356 c13d 0cb5 853d 97ae 043e
00000020: 1889 063e f6cd 0d3d 3c63 143d f40c 273e
00000030: 007d 3f3c c097 563d da6d 073d 1641 cd3d
00000040: c2c3 133e 4c80 f03c 5245 fc3d 9c14 083d
00000050: 587a 973d 562e fc3d d276 283e dd37 2b3e
00000060: 02f7 fb3d 9ffd e03d 192c 223d bf14 d93d
00000070: d4ee 133d b4e2 153e 8070 003e 5c41 df3d
00000080: 03e9 2a3e 1ce0 c03c b8ab 093e 999b 713d
00000090: 181d cd3c 1b93 bf3d 0982 153e 006e 873c
000000a0: 4d50 433d eeb1 883d 6871 993c 8c6d be3c
000000b0: 04bc fd3c 6f86 d43d 7022 853d 5478 b13c
000000c0: cc52 2b3e 393c 253e d881 043d c5eb 3d3e
000000d0: 1e27 e03d d4b3 013e f125 973d 3ca6 303e
000000e0: 055a fe3d 859a 943d 7445 073d 8b18 043e
000000f0: 22df 2a3d ec13 c93d 7436 d73c 4324 343d
00000100: 7934 2c3d 580e 783c 6a9e 2a3e fcd3 3f3e
00000110: e8f9 8a3d 1345 cc3d be0e e73d c051 923c
00000120: b6fa f03d ec3c a33d a205 e33d 53d4 583d
00000130: 1b9e 453d f287 0c3d b8ef c53c 989f 013e
00000140: 080d 963d ce67 383e 886d 3e3e a256 e83d
00000150: e183 3e3e 6889 b53d 39a6 153e 8631 ef3d
00000160: a9f9 363d 1852 003d 0d7f 223e 8072 fc3d
00000170: ec6a 383e 7020 1c3d 90d1 dc3d 929b 283d
00000180: 84fb 143d a44a 863c f52a b43d 18b5 393e
00000190: a4e7 0d3e a044 cd3d de9a 3b3d 5685 083d
000001a0: 0c14 3a3e c42d 903c cf3e c93d c302 4a3d
000001b0: cef5 513d d622 963d 8cee 933d c378 9b3d
000001c0: 6294 983d 5aa2 483d b5a4 ca3d 0e9a 233e
000001d0: 72e1 643d 9cc7 943c 6290 683d fa20 3c3e
000001e0: b46a 923c 37a3 c93d aac4 0f3e f138 f03d
000001f0: 2856 193e 3e5a b93d 32b8 0b3e 51d0 d53d
00000200: f4b3 d43d b66f c13d af04 203d 3e96 d63d
00000210: 7052 ef3c 5b98 133e 5614 29be a8b3 cd3d
00000220: fd94 613d fe94 343e 1276 b23d e166 703d
00000230: d408 153e bc1d bb3d 28af c03c 3e1f 983d
00000240: ac64 5dbd 546f 8a3d a4bc 0f3e 0acf 163e
00000250: 1499 363e 0eef a13d 6813 b43d e2b8 c43d
00000260: 5d57 133e c0c1 8abd 7635 2b3e e240 e53d
00000270: 1112 403d 50c4 ad3d ddfe cc3d 880b 9f3c
00000280: 0e50 e33d 20d4 cf3d d7e7 1e3e a0f0 943c
00000290: 10d7 f53d 8cf4 863c 9f84 573d 45d7 0a3e
000002a0: eea7 023d 09f3 393e 67c0 263e 5d65 103e
000002b0: fbb4 f23d 0032 813d e32d 2a3e 30fa 223e
000002c0: fca2 243e ca02 293e 1024 b93c c5ce 7f3d
000002d0: 3c40 8b3c f567 b83d 2d20 0b3e 8c6f b23c
000002e0: 2640 c23d 6c4c 873d aa42 333d 7362 083e
000002f0: a244 1d3d afba 153e 7499 2d3e d30a eb3d
00000300: 0831 873c 0eed 893d cfc4 0e3e e618 32be
00000310: b646 083e 49e2 ed3d 5c64 13be d2b8 3a3e
00000320: 3009 e73c b3a9 3e3e 6611 dd3d 00dc 013e
00000330: a862 6b3c 8e26 753d ea9d be3d 7036 653d
00000340: 2499 903c e03d 793c 2e16 133e 8492 d53d
00000350: 0c09 233d c46f 343d 2a07 2d3d ecae 833d
00000360: 663c 343e e765 a73d d2a6 d53d 8b80 10be
00000370: c62d 343e f461 263d 9f11 2e3e 62f6 ea3d
00000380: 0025 363e f863 883d 0380 4b3d c83b 913c
00000390: 2d90 e63d a664 373e f0a8 5d3c 168a 0b3e
000003a0: 8bdf 393d 0c33 2d3e 4499 2f3e 535b b53d
000003b0: 5ae5 333e 961a 8f3d 43cd 203e b10f 3c3d
000003c0: 8f62 9f3d 8ecb 963d 44c9 b23c afce ef3d
000003d0: d6bf be3d b897 163e 7a54 5f3d 084a ae3d
000003e0: 4e3b 8a3d 2547 643d 5307 303e 3774 1d3d
000003f0: 338a 233e 6e29 613d ac87 2d3e e69d b53d

func.linear2.bias f4 [672]
0.17313577 0.18574016 -0.18398598 -0.067880034 -0.10072959 0.11712241 -0.05039212 -0.1751609
0.12356896 -0.11099803 -0.038741715 -0.023731306 -0.15616935 -0.02660022 -0.11480311 -0.17808867
-0.078987025 0.091100074 -0.112383135 -0.07238368 -0.1861681 -0.116147235 -0.033284 0.051671818
0.17888665 0.12273741 -0.0122769475 0.18445085 0.16030136 0.10771179 0.12379694 0.11024528
0.13848469 -0.07309539 -0.12240888 0.12280187 -0.04788171 -0.12575334 0.17512192 0.17106867
0.12131451 -0.15175435 0.048863657 0.18195438 -0.058819856 0.020981118 0.13635668 0.169796
0.14415708 -0.09444903 0.14921103 -0.096195266 -0.18443185 -0.10003513 0.17060882 0.1339652
0.08100746 0.10684347 0.05869539 0.16814739 -0.10725339 -0.032459423 0.13998824 -0.14781007
-0.028744534 0.1852828 -0.034387775 0.16136575 -0.1569756 -0.05226904 -0.14945759 -0.062325235
-0.06620863 -0.075544 0.054984532 0.14019692 0.0919773 0.14469272 -0.04131602 -0.03312827
-0.045445114 -0.1565732 -0.023819864 -0.018749118 -0.09996316 -0.08551145 -0.15986788 -0.15766227
-0.103620104 0.08440406 -0.015687428 -0.111006826 0.045148753 -0.085469484 0.03969088 -0.12193109
-0.058263093 -0.022709236 0.062464755 -0.06361075 -0.0173449 0.028467655 0.023555651 0.1684667
-0.16507094 -0.03136424 -0.13779013 -0.06550297 0.1640805 0.04886636 0.02611982 -0.049884483
-0.10074161 -0.0674206 -0.18018448 -0.10675719 0.047969658 -0.11906065 -0.17570168 0.031543344
0.12736617 -0.1453892 0.020366654 0.15387203 0.09448236 0.100023076 0.16989747 0.057896595
-0.0736288 0.08459057 0.062912025 0.061610244 0.1613435 0.17132184 0.12151449 0.10135331
0.07101518 0.14658241 0.1154567 0.1578139 0.12732704 -0.017523669 -0.0888894 -0.07862925
-0.13486606 0.11826324 -0.07583587 0.18677053 0.15145573 0.042301886 0.04804815 0.048819307
0.13335901 0.04648404 0.11855738 0.096318215 0.13625912 0.06139526 0.12968628 0.17359886
0.12354968 0.12955646 0.02107761 0.07151786 -0.021373935 -0.12288593 -0.16645905 0.11673447
-0.14211729 -0.16283867 -0.15540667 -0.16478033 -0.062450815 0.17685702 -0.06160724 -0.033060342
-0.13746078 0.11555798 0.09130772 -0.15599567 -0.03933487 -0.016535945 0.07546831 0.16439897
0.15791687 0.10151052 0.1857886 -0.05243738 0.12695694 -0.08342566 -0.12505823 -0.1095893
-0.07817851 0.07911141 0.03401468 0.013551287 0.029256426 0.1255965 -0.10051526 -0.06521086
-0.1485427 0.13172491 0.13621682 0.17627224 0.09257752 0.02825851 -0.053746067 -0.030073866
-0.08817827 -0.09889458 0.1829914 -0.019951195 0.14613459 -0.013239078 -0.1479342 0.080545604
0.06455909 0.12503947 0.12231893 0.056648917 0.07565132 0.0578834 0.05093604 0.032828927
0.16237673 -0.14012684 -0.15697531 0.06528346 0.03386324 0.053525396 0.087400846 -0.04177357
0.06973075 0.11945725 0.18508741 0.14544153 0.18212533 0.11712752 0.011933528 0.12471282
0.18453564 -0.03577614 0.14187379 -0.1401668 0.1630598 -0.06686468 0.12934078 -0.15766183
0.1700337 0.103696965 0.019761048 -0.18205266 0.05662302 -0.18052758 0.122346774 0.093635656
00000000: 814a 313e ab32 3e3e d266 3cbe b004 8bbd
00000010: 514b cebd e0dd ef3d f867 4ebd 615d 33be
00000020: b911 fd3d ef52 e3bd a2af 1ebd 2868 c2bc
00000030: dcea 1fbe b4e8 d9bc e51d ebbd e05c 36be
00000040: f3c3 a1bd ad92 ba3d 2129 e6bd e53d 94bd
00000050: daa2 3ebe 9ade edbd ce54 08bd d4a5 533d
00000060: 102e 373e c05d fb3d 4025 49bc afe0 3c3e
00000070: 0a26 243e 0098 dc3d 4089 fd3d 47c8 e13d
00000080: eece 0d3e 09b3 95bd 82b1 fabd 8c7f fb3d
00000090: 9d1f 44bd 7cc5 00be 2953 333e a02c 2f3e
000000a0: be73 f83d 7e65 1bbe 4225 483d 4052 3a3e
000000b0: 17ed 70bd 98e0 ab3c 16a1 0b3e 01df 2d3e
000000c0: ea9d 133e 7e6e c1bd c7ca 183e 0602 c5bd
000000d0: b4db 3cbe 38df ccbd 14b4 2e3e 2c2e 093e
000000e0: 3de7 a53d c0d0 da3d 946a 703d d42e 2c3e
000000f0: aaa7 dbbd 2cf4 04bd 1459 0f3e 865b 17be
00000100: a879 ebbc c6ba 3d3e 32da 0cbd 103d 253e
00000110: 36be 20be 1018 56bd 690b 19be bf48 7fbd
00000120: 6498 87bd d0b6 9abd 7637 613d c88f 0f3e
00000130: 985e bc3d 542a 143e fd3a 29bd 82b1 07bd
00000140: a824 3abd ba54 20be e021 c3bc c097 99bc
00000150: 7cb9 ccbd a120 afbd 68b4 23be 3872 21be
00000160: c736 d4bd 09dc ac3d ec82 80bc 8c57 e3bd
00000170: e6ed 383d a00a afbd e792 223d 02b7 f9bd
00000180: 48a5 6ebd b808 babc 0bdb 7f3d 5a46 82bd
00000190: e416 8ebc 0035 e93c c8f7 c03c 8982 2c3e
000001a0: 5b08 29be ca77 00bd db18 0dbe 6c26 86bd
000001b0: b804 283e 1828 483d 3cf9 d53c ac53 4cbd
000001c0: 9e51 cebd d013 8abd 4882 38be 83a3 dabd
000001d0: d57b 443d 12d6 f3bd 24eb 33be 9833 013d
000001e0: 476c 023e e8e0 14be f8d7 a63c a190 1d3e
000001f0: f87f c13d e6d8 cc3d 9af9 2d3e fb24 6d3d
00000200: b2ca 96bd d23d ad3d 05d8 803d 065b 7c3d
00000210: 3b37 253e fe6e 2f3e 97dc f83d 5392 cf3d
00000220: 6870 913d b319 163e 9074 ec3d f899 213e
00000230: 0562 023e cc8d 8fbc a50b b6bd 5f08 a1bd
00000240: 541a 0abe ff33 f23d d64f 9bbd c640 3f3e
00000250: 3617 1b3e be44 2d3d 23ce 443d c1f6 473d
00000260: 448f 083e 0c66 3e3d 36ce f23d 7c42 c53d
00000270: 8387 0b3e 9979 7b3d 7bcc 043e e6c3 313e
00000280: 9d07 fd3d 73aa 043e f4aa ac3c f577 923d
00000290: 6418 afbc 9eab fbbd 3e74 2abe 7b12 ef3d
000002a0: 3287 11be 2ebf 26be ed22 1fbe 2dbc 28be
000002b0: 6dcc 7fbd 021a 353e e057 7cbd 486a 07bd
000002c0: 85c2 0cbe aaa9 ec3d 8bff ba3d 54bd 1fbe
000002d0: 9a1d 21bd 6476 87bc 218f 9a3d 3458 283e
000002e0: f6b4 213e bfe4 cf3d 5e3f 3e3e 94c8 56bd
000002f0: 0001 023e 13db aabd 440f 00be 5b70 e0bd
00000300: 0e1c a0bd 2a05 a23d fa52 0b3d 3806 5e3c
00000310: 2cab ef3c 5e9c 003e f2da cdbd 458d 85bd
00000320: 941b 18be e5e2 063e 6c7c 0b3e b680 343e
00000330: 4899 bd3d 647e e73c d624 5cbd 785d f6bc
00000340: cf96 b4bd 3e89 cabd 1962 3b3e b070 a3bc
00000350: 4ea4 153e b8e8 58bc 107c 17be 18f5 a43d
00000360: 8e37 843d 590a 003e 5982 fa3d b208 683d
00000370: 14ef 9a3d 2517 6d3d 4fa2 503d a077 063d
00000380: 1646 263e 697d 0fbe 23be 20be 56b3 853d
00000390: 2eb4 0a3d 723d 5b3d 37ff b23d c31a 2bbd
000003a0: ffce 8e3d 01a6 f43d 8e87 3d3e a0ee 143e
000003b0: 107f 3a3e 8ee0 ef3d d884 433c 6f69 ff3d
000003c0: e9f6 3c3e 008a 12bd 5d47 113e e387 0fbe
000003d0: 26f9 263e 59f0 88bd e971 043e 1a72 21be
000003e0: 501d 2e3e 135f d43d ece1 a13c 036c 3abe
000003f0: 8aed 673d 39dc 38be f290 fa3d 0dc4 bf3d

initial.weight f4 [224, 3]
0.032743745 0.010061249 -0.46256328 -0.53009003 -0.12670395 0.33837923 -0.002793759 0.35562298
-0.29918054 -0.3767896 0.36408696 0.116480656 -0.3108925 -0.48963174 0.17146921 -0.34771824
0.21960716 -0.4798298 0.19961269 0.4673139 -0.05281678 0.44083133 -0.38076735 0.030486785
-0.36563626 0.36723596 -0.34987956 -0.24076 -0.14843667 0.36348408 0.4001574 -0.472421
-0.4257313 -0.3759542 0.14504018 0.18681523 -0.12809733 0.26951945 0.47685537 0.013890602
-0.118459284 0.6637836 0.27824265 -0.24162443 -0.031902418 -0.22009505 -0.35932416 0.29241097
0.35256243 -0.3483013 -0.45972818 -0.3199258 0.35452652 0.28786057 -0.18772073 -0.4514172
0.6282158 0.36376005 -0.05572129 0.6594871 -0.09298832 -0.46375644 -0.4802017 0.2585106
0.30263612 -0.09262963 0.22759831 0.3844353 -0.66082495 0.20618914 -0.5626618 -0.12246299
-0.26334193 -0.5096823 0.28242272 -0.24900848 0.11787118 -0.4721201 0.13471296 -0.631222
0.4173543 -0.14202523 -0.14130132 0.36111227 -0.32184997 0.051195376 0.2768587 -0.2786658
0.4529673 0.25375897 -0.13423437 0.09848784 -0.26119348 0.18141322 0.0351289 0.24129415
0.35465318 -0.12902328 -0.24448028 -0.62693405 0.18307108 0.39479655 -0.062453292 -0.43065763
-0.07162087 -0.577856 0.4604491 -0.09657555 0.4828859 -0.41463584 -0.005794272 0.39080703
0.43575725 -0.29699653 0.46990448 0.33158982 0.35604414 0.32149887 -0.48529407 -0.56168836
-0.30901965 -0.34696645 -0.15659676 -0.3977358 0.1020533 0.60276693 -0.6067178 -0.03130755
0.50788593 0.121279925 -0.4713615 -0.0817626 -0.3517355 -0.02030757 -0.011842318 -0.45931214
0.5917651 -0.19153349 0.002277322 -0.28092676 0.32402453 -0.56450725 0.2685951 0.16481364
-0.44453642 -0.5382511 -0.43043873 0.3984226 -0.22326034 -0.41195488 0.49625233 0.37410653
-0.0546533 0.524367 0.4631957 -0.27971888 0.581795 0.0601566 -0.28233877 0.24838905
0.30118468 -0.22567743 0.12826575 0.435737 -0.084906965 -0.438568 0.433334 0.0073184893
-0.20719355 0.15412787 0.3455769 -0.22273964 0.22064161 -0.2021792 0.3684807 0.44471556
0.446797 0.3164891 0.54968673 0.32333395 -0.22207382 -0.34418547 0.028004676 0.5691924
-0.185161 -0.08955735 -0.32883582 0.04415833 -0.4637888 0.0862067 -0.46064085 -0.08333855
0.36417148 -0.48964548 -0.64304423 -0.4501485 0.004458368 -0.37938923 -0.24602193 0.2580431
-0.1917068 0.41580144 0.24318457 -0.16910869 -0.020468637 0.46585035 0.0010721385 0.30907324
-0.4009695 0.03254193 0.45325497 -0.19858007 -0.18358031 0.28837863 0.078534275 0.2222889
-0.316149 0.2701776 0.15937443 0.16045079 0.63386536 -0.032037698 -0.30594486 0.57095623
-0.20017555 -0.61030376 0.10084433 -0.07893087 -0.1420204 -0.15099011 -0.12043137 -0.55263627
-0.58307433 0.03940215 0.54751545 -0.026328191 -0.24918099 0.44977102 -0.34562927 -0.46360707
0.6043257 0.4510184 0.3012612 -0.33182234 0.053690076 -0.3825744 0.37006715 -0.33011895
0.32814926 0.582038 -0.04634755 -0.054889552 0.26851684 0.5038447 -0.08138892 0.6051614
00000000: 4e1e 063d f0d7 243c 18d5 ecbe fbb3 07bf
00000010: aebe 01be 0b40 ad3e 8017 37bb 3714 b63e
00000020: 312e 99be 91ea c0be 9b69 ba3e 698d ee3d
00000030: 4d2d 9fbe 03b1 fabe a095 2f3e 2008 b2be
00000040: b3e0 603e 40ac f5be 4567 4c3e c443 ef3e
00000050: 6856 58bd a5b4 e13e f0f3 c2be 6cbf f93c
00000060: ad34 bbbe 5a06 bc3e 6a23 b3be ca89 76be
00000070: c8ff 17be 961a ba3e 6ee1 cc3e 2ae1 f1be
00000080: 74f9 d9be 127d c0be 6a85 143e 7e4c 3f3e
00000090: f22b 03be 74fe 893e 6326 f43e 6895 633c
000000a0: c89a f2bd b9ed 293f d275 8e3e 656c 77be
000000b0: 1cac 02bd 9960 61be 56f9 b7be e4b6 953e
000000c0: 1083 b43e 8c54 b2be 7e61 ebbe 51cd a3be
000000d0: 8084 b53e 7662 933e dd39 40be 2820 e7be
000000e0: c0d2 203f c23e ba3e 023c 64bd 26d4 283f
000000f0: a970 bebd 7c71 edbe ffdc f5be 805b 843e
00000100: 1ff3 9a3e 9ab4 bdbd 880f 693e b4d4 c43e
00000110: d32b 29bf 3f23 533e 9b0a 10bf e0cd fabd
00000120: c1d4 86be 8a7a 02bf b699 903e 14fc 7ebe
00000130: 7266 f13d bab9 f1be 32f2 093e c497 21bf
00000140: 76af d53e 106f 11be 4bb1 10be b5e3 b83e
00000150: 85c9 a4be 3eb2 513d 6cc0 8d3e 49ad 8ebe
00000160: 54eb e73e b2ec 813e bc74 09be feb3 c93d
00000170: 27bb 85be 63c4 393e 52e3 0f3d d015 773e
00000180: 1a95 b53e ae1e 04be 0a59 7abe c07e 20bf
00000190: fc76 3b3e c622 ca3e 06cf 7fbd 287f dcbe
000001a0: f6ad 92bd 5fee 13bf fcbf eb3e 67c9 c5bd
000001b0: d23c f73e 264b d4be e0dd bdbb dc17 c83e
000001c0: 931b df3e ee0f 98be 5297 f03e 24c6 a93e
000001d0: 6b4b b63e 809b a43e 7778 f8be cfca 0fbf
000001e0: d337 9ebe 96a5 b1be e75a 20be 07a4 cbbe
000001f0: 5201 d13d ef4e 1a3f dc51 1bbf 583c 00bd
00000200: d004 023f 9c61 f83d 4b56 f1be 2673 a7bd
00000210: ad16 b4be 105c a6bc 4806 42bc f62a ebbe
00000220: eb7d 173f 5b21 44be 203f 153b a2d5 8fbe
00000230: 8be6 a53e 8c83 10bf 4c85 893e e8c4 283e
00000240: 479a e3be d3ca 09bf 7762 dcbe 0cfe cb3e
00000250: 5c9e 64be c0eb d2be c914 fe3e e48a bf3e
00000260: 24dc 5fbd ea3c 063f fd27 ed3e 5037 8fbe
00000270: 84f0 143f c466 763d b58e 90be b359 7e3e
00000280: e134 9a3e fc17 67be 1958 033e ec18 df3e
00000290: b4e3 adbd fc8b e0be f4dd dd3e f0cf ef3b
000002a0: 8c2a 54be b2d3 1d3e 75ef b03e dc15 64be
000002b0: e0ef 613e 1008 4fbe 81a9 bc3e c2b1 e33e
000002c0: 94c2 e43e dc0a a23e 45b8 0c3f 078c a53e
000002d0: 5267 63be 1439 b0be 106a e53c 98b6 113f
000002e0: d89a 3dbe d869 b7bd 2b5d a8be 5ddf 343d
000002f0: ba75 edbe 238d b03d 1ed9 ebbe 67ad aabd
00000300: af74 ba3e d0b2 fabe 8c9e 24bf dd79 e6be
00000310: 8017 923b 4e3f c2be 2ced 7bbe 3a1e 843e
00000320: ca4e 44be ede3 d43e 6005 793e d42a 2dbe
00000330: d8ad a7bc f083 ee3e 0087 8c3a d93e 9e3e
00000340: e04b cdbe b04a 053d 0911 e83e 9358 4bbe
00000350: 7afc 3bbe 5da6 933e 94d6 a03d b49f 633e
00000360: 48de a1be b854 8a3e 0d33 233e 364d 243e
00000370: 0045 223f f639 03bd cea4 9cbe 302a 123f
00000380: d2fa 4cbe de3c 1cbf 7987 ce3d 82a6 a1bd
00000390: cc6d 11be 279d 1abe b9a4 f6bd 9279 0dbf
000003a0: 5c44 15bf 2664 213d f929 0c3f 38ae d7bc
000003b0: 4d29 7fbe 6348 e63e 52f6 b0be e85d edbe
000003c0: 17b5 1a3f e2eb e63e e83e 9a3e 9ee4 a9be
000003d0: 20ea 5b3d cbe0 c3be 7179 bd3e 5a05 a9be
000003e0: 2e03 a83e 7100 153f eed6 3dbd ded3 60bd
000003f0: 0a7b 893e f7fb 003f 3caf a6bd dceb 1a3f

initial.bias f4 [224]
-0.053867176 -0.64887786 0.09018011 -0.32414314 0.06558628 0.29338726 -0.63071555 -0.13770685
0.18284735 0.06535311 -0.2058584 0.6097424 0.09363422 0.4782104 -0.027385548 -0.34221643
-0.42625555 0.07045315 0.09198923 -0.17295505 -0.5770875 0.11145638 0.45758736 -0.6092784
0.26644996 -0.2650555 -0.5570762 -0.3496472 0.23595011 -0.55567753 0.42330068 -0.39026344
0.4703 -0.03199003 -0.30871487 0.15416315 0.49556705 0.039881505 0.39135158 0.040694125
0.6177833 -0.10421907 -0.32313722 -0.16026255 0.3074868 0.18909112 0.023723803 -0.5066976
-0.6259854 -0.44699275 0.42323318 -0.39634976 -0.2959218 0.08852145 -0.61821187 -0.036768384
-0.08597944 -0.047852136 -0.55493456 -0.39911386 -0.11812021 -0.45165628 -0.37900144 -0.59284496
-0.36446568 -0.252946 -0.061655574 0.112810895 0.5952464 0.42261854 -0.19719231 -0.6458576
-0.42271367 0.24073815 -0.46373335 -0.43098176 0.3065038 0.025106087 0.055497937 -0.26343238
-0.3167658 -0.59320414 -0.1566212 0.58101046 0.04458426 0.06395008 -0.24723297 -0.05434083
-0.07496612 0.5648394 0.15465254 0.6549142 -0.21508667 -0.39855728 -0.38861614 0.64132226
0.08039923 -0.02528803 -0.6232009 -0.539159 0.36528382 -0.39683008 0.32015464 0.4060579
0.08767623 -0.10166465 0.2562285 -0.5200295 -0.27923495 -0.1618471 -0.13149978 0.18983904
-0.0055813044 -0.016962394 -0.4475172 0.17560174 0.28774273 -0.5618453 -0.26347542 -0.4133144
-0.22527713 0.27849293 -0.2769544 -0.0847968 0.40566492 0.036040947 -0.13281843 -0.020286202
0.07955098 -0.6592824 -0.29427978 0.045010176 0.28297678 0.17166069 0.16606526 0.3205167
-0.20291728 0.40696108 0.3282867 -0.6257055 -0.5891066 0.45360866 -0.014558002 0.63023347
-0.30672574 -0.040778145 -0.61894786 0.632112 0.09941809 0.3925533 -0.13064149 -0.25096172
0.37110674 -0.31464356 0.05171849 0.2690452 -0.111409135 -0.046175465 0.17781703 -0.11432904
0.25809878 0.46457493 0.47606853 0.34109062 -0.30303922 -0.38131255 0.41091213 0.6039546
-0.06498469 -0.47018522 -0.25609842 0.10007039 0.6001147 -0.017429903 0.05768407 -0.25504288
-0.47864375 0.60817844 -0.43541107 0.37947994 0.33733884 -0.059830286 0.1262351 0.34296483
-0.121666245 0.5893024 0.21899834 0.0022105798 0.40294302 0.07588466 0.4683346 0.4587115
-0.33851326 -0.19908437 -0.30665937 0.036890447 -0.066569 0.13754204 0.53070515 0.50088525
-0.30852228 0.12347579 -0.373276 0.37349972 -0.6106046 -0.18551129 0.14653042 0.20531428
-0.33675587 -0.16063853 -0.33591533 -0.43027627 -0.2955442 0.08765137 0.40977073 -0.18062136
0.39247918 0.0386673 -0.3558649 -0.067663714 -0.017890595 -0.23159656 -0.3251999 0.30658448
00000000: d4a3 5cbd dc1c 26bf 59b0 b83d 17f6 a5be
00000010: 1952 863d db36 963e 9376 21bf 0603 0dbe
00000020: 563c 3b3e dad7 853d 8bcc 52be 1418 1c3f
00000030: 4cc3 bf3d fed7 f43e a857 e0bc fe36 afbe
00000040: 2b3e dabe be49 903d d964 bc3d 211b 31be
00000050: 02bc 13bf 3e43 e43d e448 ea3e abf9 1bbf
00000060: 216c 883e 5bb5 87be 8c9c 0ebf f504 b3be
00000070: e89c 713e e240 0ebf deba d83e 9cd0 c7be
00000080: 29cb f03e fa07 03bd e00f 9ebe f2dc 1d3e
00000090: f7ba fd3e ca5a 233d 3c5f c83e e2ae 263d
000000a0: 0c27 1e3f cf70 d5bd 3e72 a5be de1b 24be
000000b0: e96e 9d3e 1aa1 413e 6c58 c23c efb6 01bf
000000c0: 9440 20bf 3cdc e4be 05b2 d83e 5bee cabe
000000d0: 1083 97be bc4a b53d 2243 1ebf 729a 16bd
000000e0: fd15 b0bd 9a00 44bd 3110 0ebf a758 ccbe
000000f0: 02e9 f1bd 7e3f e7be 7a0c c2be b0c4 17bf
00000100: 3f9b babe 2382 81be 8e8a 7cbd 6609 e73d
00000110: 1162 183f 7561 d83e c8ec 49be ec56 25bf
00000120: ed6d d8be 1084 763e 756e edbe a4a9 dcbe
00000130: 11ee 9c3e 48ab cd3c ce51 633d 9ce0 86be
00000140: 202f a2be 3adc 17bf 4f61 20be 1abd 143f
00000150: fc9d 363d 42f8 823d a42a 7dbe 7d94 5ebd
00000160: d687 99bd 5199 103f 3c5d 1e3e 75a8 273f
00000170: ae3f 5cbe b30f ccbe b2f8 c6be b22d 243f
00000180: 5aa8 a43d d828 cfbc 188a 1fbf 5306 0abf
00000190: 7b06 bb3e 502d cbbe 4feb a33e d2e6 cf3e
000001a0: 988f b33d 8e35 d0bd 6230 833e a720 05bf
000001b0: e2f7 8ebe 3fbb 25be e1a7 06be 2a65 423e
000001c0: 60e3 b6bb b8f4 8abc f920 e5be f1d0 333e
000001d0: 0453 933e 18d5 0fbf 40e6 86be f29d d3be
000001e0: 0caf 66be a096 8e3e f8cc 8dbe f2a9 adbd
000001f0: 50b3 cf3e ac9f 133d 8e01 08be 402f a6bc
00000200: a0eb a23d bbc6 28bf d7ab 96be 975c 383d
00000210: 55e2 903e d2c7 2f3e 030d 2a3e c41a a43e
00000220: 8cc9 4fbe 345d d03e 3215 a83e 3c2e 20bf
00000230: b1cf 16bf 653f e83e b084 6ebc fb56 213f
00000240: 280b 9dbe fc06 27bd 5e73 1ebf 18d2 213f
00000250: b69b cb3d bffc c83e e2c6 05be 0e7e 80be
00000260: b401 be3e f618 a1be c4d6 533d 4bc0 893e
00000270: 792a e4bd 7c22 3dbd ab15 363e 5825 eabd
00000280: 8625 843e c4dc ed3e 41bf f33e 6ea3 ae3e
00000290: f527 9bbe 663b c3be 1363 d23e c59c 1a3f
000002a0: b116 85bd 1ebc f0be 551f 83be b4f1 cc3d
000002b0: 1ea1 193f 28c9 8ebc 2246 6c3d fb94 82be
000002c0: cb10 f5be 95b1 1b3f 33ee debe 324b c23e
000002d0: adb7 ac3e 9a10 75bd c643 013e 1699 af3e
000002e0: 272c f9bd 86dc 163f 1a41 603e 60df 103b
000002f0: 8c4e ce3e 6b69 9b3d 8dc9 ef3e 3cdc ea3e
00000300: 9c51 adbe c6dc 4bbe 7502 9dbe 701a 173d
00000310: 5455 88bd d2d7 0c3e 4bdc 073f 043a 003f
00000320: a2f6 9dbe e0e0 fc3d 081e bfbe 5b3b bf3e
00000330: 9550 1cbf acf6 3dbe 120c 163e e83d 523e
00000340: 446b acbe 6d7e 24be 18fd abbe 2c4d dcbe
00000350: 9251 97be 9082 b33d 78cd d13e cef4 38be
00000360: 08f3 c83e 9a61 1e3d ed33 b6be 4693 8abd
00000370: 4c8f 92bc a627 6dbe 9a80 a6be a4f8 9c3e

readout.weight f4 [126, 224]
0.10063035 -0.046651546 -0.16514064 -0.058586776 -0.05859179 -0.10515653 -0.09036035 0.06663105
0.14089152 -0.14436033 0.08601933 -0.052449748 -0.06455729 -0.15802094 0.049394708 0.10958397
0.040743366 -0.055026755 0.154185 -0.096735485 0.060633123 -0.116008796 -0.1313293 0.11982483
-0.15455303 0.14667247 0.16613121 -0.08463469 -0.09785462 -0.05907876 -0.13933015 -0.14416003
-0.14941575 -0.060957752 0.15640044 -0.10253086 0.13636674 -0.12471569 -0.12716714 0.14799552
0.11238728 -0.06507586 -0.10769332 0.104309335 0.04585493 -0.05536007 0.0831909 -0.09617722
0.13063647 0.1348461 -0.072701305 -0.13369723 0.059951104 0.08371215 -0.078664705 -0.06546569
-0.10162547 -0.15606946 -0.07950178 -0.13640851 0.056731716 0.08883594 0.10173185 0.10753152
0.05026851 0.044812106 -0.07913655 0.16131258 -0.103165574 0.11790824 0.05300702 -0.03725978
-0.14369242 -0.14445025 -0.13237011 -0.038755868 0.10551917 0.16560647 0.062079854 0.14524494
-0.051040668 0.11944492 0.10791735 0.115645066 -0.11044921 0.13486964 0.061670788 0.07645743
0.11299012 -0.1191513 -0.1283638 0.04872694 0.11455387 -0.10828532 -0.03474711 0.10495665
-0.06884669 -0.066096805 -0.051366612 -0.0876857 -0.13812657 0.05362508 -0.041283615 -0.105845705
0.042471264 0.09306005 0.03678137 0.12519425 -0.09397951 0.16411386 -0.12136411 -0.06396077
-0.10600658 -0.06360711 -0.12287055 0.04214896 0.10609524 0.1128472 0.045434114 -0.08591135
-0.08838454 -0.048105992 -0.122828834 0.07346085 -0.05372848 -0.12076604 -0.08369993 0.092435546
0.060790483 -0.054309826 -0.13009928 0.047009256 -0.07974298 -0.05155175 0.11242284 0.07476675
0.14462692 0.13054056 -0.04199252 0.03472966 -0.122581534 -0.053586625 -0.15448356 0.06333529
0.16458118 -0.06985598 -0.15435272 -0.045542855 0.041159943 -0.040561467 -0.15554631 -0.13833092
0.09350411 -0.04215028 -0.08905732 0.07857983 -0.1634253 0.061369758 0.10401619 -0.046434466
0.06574476 -0.063784 0.15976286 0.12988289 0.1146941 -0.12841296 -0.121740825 -0.09167464
0.086344235 -0.05681439 0.078295946 -0.054663632 -0.14112009 -0.10899031 -0.03629619 0.13418435
0.101378396 -0.04896693 -0.16154455 0.10694954 -0.037087515 -0.12460238 0.050037708 -0.1553919
-0.08139779 -0.058525763 0.050063565 -0.15560457 0.07666589 -0.037371233 -0.11867879 0.054281164
-0.09217614 -0.090603784 -0.058761492 0.119890004 0.04260263 0.16281395 0.121856585 -0.13881174
-0.07068667 0.15954202 0.0925077 -0.1579418 0.13455595 -0.08251772 0.14605314 0.0878016
0.097776994 -0.14777176 0.078447066 -0.0880406 0.1651294 0.13080473 -0.04537739 -0.04768435
-0.10897568 -0.05789349 0.050813355 0.14894524 0.12769221 0.15090647 0.056580488 -0.0898279
0.14267877 -0.11159588 -0.052819718 -0.11049014 -0.052746322 -0.10267368 -0.035589077 0.10907869
0.054110825 -0.11794432 0.044788767 -0.119822234 -0.09631351 -0.057928417 0.11683296 0.035736285
0.043152988 -0.15477124 0.13914333 -0.1442891 0.03715927 -0.06762806 -0.09353561 0.0653387
0.043207925 0.047919303 0.137829 -0.099895194 -0.13251027 -0.10460907 -0.12893564 -0.13967787
00000000: 4917 ce3d b115 3fbd a11a 29be b0f8 6fbd
00000010: f2fd 6fbd 4f5c d7bd d90e b9bd dc75 883d
00000020: de45 103e 32d3 13be e72a b03d 8cd5 56bd
00000030: 9d36 84bd 3ed0 21be 1b52 4a3d 8f6d e03d
00000040: 84e2 263d bc63 61bd ace2 1d3e 411d c6bd
00000050: 705a 783d 0596 edbd 307b 06be b866 f53d
00000060: 2643 1ebe 4f31 163e 4d1e 2a3e f454 adbd
00000070: 0168 c8bd 92fc 71bd 90ac 0ebe b09e 13be
00000080: 7100 19be d6ae 79bd 7027 203e b3fb d1bd
00000090: b9a3 0b3e f16a ffbd 1a38 02be 238c 173e
000000a0: 4d2b e63d 7e46 85bd 518e dcbd 22a0 d53d
000000b0: 61d2 3b3d 3ec1 62bd fe5f aa3d 90f8 c4bd
000000c0: 91c5 053e 1915 0a3e 6ce4 94bd ede7 08be
000000d0: 4a8f 753d 4771 ab3d f61a a1bd e012 86bd
000000e0: 0421 d0bd acd0 1fbe d4d1 a2bd acae 0bbe
000000f0: 845f 683d 9eef b53d ca58 d03d 7c39 dc3d
00000100: 5ae6 4d3d e68c 373d 5812 a2bd 202f 253e
00000110: 7948 d3bd e079 f13d e41d 593d b69d 18bd
00000120: 1b24 13be c4ea 13be 088c 07be 79be 1ebd
00000130: 6f1a d83d be94 293e 7247 7e3d 17bb 143e
00000140: 0510 51bd 8a9f f43d c603 dd3d 52d7 ec3d
00000150: 3233 e2bd 441b 0a3e 829a 7c3d b795 9c3d
00000160: 5d67 e73d 9905 f4bd cd71 03be e695 473d
00000170: 389b ea3d b2c4 ddbd fc52 0ebd 83f3 d63d
00000180: 7eff 8cbd c35d 87bd cc65 52bd 8f94 b3bd
00000190: 0d71 0dbe f9a5 5b3d 0219 29bd a2c5 d8bd
000001a0: 59f6 2d3d 4496 be3d 10a8 163d ec32 003e
000001b0: 5478 c0bd 770d 283e bf8d f8bd ddfd 82bd
000001c0: fa19 d9bd 7244 82bd 8ea3 fbbd 63a4 2c3d
000001d0: 7648 d93d 6f1c e73d 1f19 3a3d 4af2 afbd
000001e0: f402 b5bd ca0a 45bd af8d fbbd a472 963d
000001f0: 6512 5cbd 3054 f7bd de6a abbd d94e bd3d
00000200: 71ff 783d fb73 5ebd bf38 05be c78c 403d
00000210: 4a50 a3bd ee27 53bd f23d e63d 4f1f 993d
00000220: 1419 143e 6dac 053e 5900 2cbd b040 0e3d
00000230: 070c fbbd a67d 5bbd f030 1ebe efb5 813d
00000240: f887 283e a710 8fbd a40e 1ebe 258b 3abd
00000250: 5497 283d c823 26bd 8847 1fbe 9fa6 0dbe
00000260: 157f bf3d c6a5 2cbd af63 b6bd 76ee a03d
00000270: f658 27be db5e 7b3d 7106 d53d 1132 3ebd
00000280: 30a5 863d 30a1 82bd e098 233e 0500 053e
00000290: bee4 ea3d b07e 03be 4153 f9bd eabf bbbd
000002a0: 3fd5 b03d 35b6 68bd a059 a03d f9e6 5fbd
000002b0: c981 10be 5036 dfbd 50ab 14bd 9f67 093e
000002c0: 7a9f cf3d 8c91 48bd ef6b 25be 5c08 db3d
000002d0: 14e9 17bd 882f ffbd 57f4 4c3d 0e1f 1fbe
000002e0: e2b3 a6bd b6b8 6fbd 740f 4d3d ce56 1fbe
000002f0: 0203 9d3d 9412 19bd de0d f3bd ed55 5e3d
00000300: d8c6 bcbd 7a8e b9bd e4af 70bd e488 f53d
00000310: 1880 2e3d b3b8 263e f28f f93d aa24 0ebe
00000320: 2cc4 90bd fc5e 233e ad74 bd3d 7fbb 21be
00000330: 09c9 093e 0dff a8bd f48e 153e 53d1 b33d
00000340: 4e3f c83d 7b51 17be dba8 a03d a14e b4bd
00000350: ae17 293e adf1 053e a4dd 39bd aa50 43bd
00000360: a42e dfbd b921 6dbd aa21 503d 1a85 183e
00000370: bfc1 023e 3a87 1a3e f1c0 673d b1f7 b7bd
00000380: 621a 123e 618c e4bd 7d59 58bd a848 e2bd
00000390: 870c 58bd 9446 d2bd dac5 11bd a664 df3d
000003a0: 50a3 5d3d cb8c f1bd 6d74 373d 5c65 f5bd
000003b0: 0440 c5bd 5946 6dbd 1e46 ef3d 3660 123d
000003c0: 30c1 303d 5a7c 1ebe 977b 0e3e 86c0 13be
000003d0: 5234 183d 9580 8abd 998f bfbd 4cd0 853d
000003e0: cbfa 303d 0847 443d 0c23 0d3e da95 ccbd
000003f0: c6b0 07be 483d d6bd b407 04be b707 0fbe

readout.bias f4 [126]
-0.06433895 -0.14034462 -0.119431295 0.14816552 -0.10053946 -0.098986715 -0.09883413 -0.05574135
-0.1632825 -0.12699199 0.07740055 0.057021677 -0.039444666 -0.13289636 -0.06585186 -0.074703045
-0.037793443 -0.06693034 -0.07057609 -0.034363933 -0.083404325 -0.11492323 -0.119113825 -0.12449138
-0.081215635 -0.06911636 -0.074306965 -0.108806305 -0.1482182 -0.043401174 -0.14200878 -0.07913187
-0.06960335 -0.115500316 -0.055686265 -0.14251272 -0.14606665 -0.15900695 -0.1383095 -0.072959915
-0.037122548 -0.12181435 -0.12636724 -0.10027433 -0.119910136 -0.07788365 -0.14944841 -0.10479635
-0.09083859 -0.0614848 -0.1218684 -0.060900692 -0.06661435 -0.07377915 -0.12877476 -0.13616253
-0.13673636 -0.03350524 -0.15261711 -0.04294071 -0.15870562 -0.1270831 -0.056439925 -0.07771076
-0.09284383 -0.1413754 -0.033635385 -0.065818444 -0.093427286 -0.04278543 -0.14137912 -0.056232795
-0.09465179 -0.045144062 -0.11699698 -0.122785985 -0.122336574 -0.04446631 -0.10471066 -0.15273619
-0.13289152 -0.09731069 -0.14287156 -0.11667897 -0.052826215 -0.07357583 -0.10600064 -0.111013465
-0.07603346 -0.15511043 -0.051538326 -0.11511152 -0.036494218 -0.03748019 -0.08486361 -0.05028281
-0.09785676 -0.053913362 -0.078968234 -0.037820376 0.11472824 -0.11095342 -0.054294612 -0.12920323
-0.13133423 -0.12784861 -0.14989506 -0.1449986 -0.08815319 -0.10234425 -0.09573551 -0.07357431
-0.13162288 -0.08891245 -0.109087795 -0.14245006 -0.038392536 -0.04525718 -0.11601731 -0.0979044
-0.13024655 -0.10683331 -0.09082414 0.114805676 -0.079692364 0.11687028
00000000: 24c4 83bd 80b6 0fbe 6598 f4bd b4b8 173e
00000010: a2e7 cdbd 8cb9 cabd 8c69 cabd 0b51 64bd
00000020: 8733 27be 300a 02be 2e84 9e3d 908f 693d
00000030: bb90 21bd fc15 08be 57dd 86bd e9fd 98bd
00000040: 4ccd 1abd c612 89bd 328a 90bd 32c1 0cbd
00000050: e3cf aabd df5c ebbd f3f1 f3bd 56f5 febd
00000060: 6254 a6bd e18c 8dbd 402e 98bd d7d5 debd
00000070: 83c6 17be 6ec5 31bd c06a 11be e40f a2bd
00000080: 338c 8ebd 6e8b ecbd 4817 64bd dbee 11be
00000090: 7f92 15be b8d2 22be 01a1 0dbe 026c 95bd
000000a0: d00d 18bd cd79 f9bd 6a66 01be a15c cdbd
000000b0: 7293 f5bd 7781 9fbd 0109 19be 789f d6bd
000000c0: 9509 babd 7cd7 7bbd 2496 f9bd 0173 79bd
000000d0: 1b6d 88bd 8619 97bd 88dd 03be 316e 0bbe
000000e0: 9e04 0cbe ca3c 09bd a947 1cbe 99e2 2fbd
000000f0: ba83 22be 1222 02be 8d2d 67bd d226 9fbd
00000100: e824 bebd b6c4 10be 42c5 09bd d2cb 86bd
00000110: ce56 bfbd c63f 2fbd b0c5 10be 5c54 66bd
00000120: ccd8 c1bd fbe8 38bd 1d9c efbd 3877 fbbd
00000130: 998b fabd 4e22 36bd 8b72 d6bd e066 1cbe
00000140: b714 08be d44a c7bd ec4c 12be 62f5 eebd
00000150: 4d60 58bd edae 96bd dd16 d9bd 075b e3bd
00000160: 6eb7 9bbd 45d5 1ebe da19 53bd 97bf ebbd
00000170: f67a 15bd d484 19bd f9cc adbd 59f5 4dbd
00000180: 2069 c8bd 42d4 5cbd 19ba a1bd 8ae9 1abd
00000190: a4f6 ea3d 8c3b e3bd 0764 5ebd da4d 04be
000001a0: 7b7c 06be bfea 02be 177e 19be 837a 14be
000001b0: a989 b4bd dd99 d1bd fb10 c4bd 21ae 96bd
000001c0: 26c8 06be bb17 b6bd 6c69 dfbd 6ede 11be
000001d0: 7e41 1dbd 985f 39bd 7c9a edbd 1a82 c8bd
000001e0: 5a5f 05be 6ccb dabd 0202 babd 3d1f eb3d
000001f0: c035 a3bd af59 ef3d
