cde/model/rk4/8.ckpt (torch, 581263 bytes, 8 tensors)

func.linear1.weight f4 [128, 224]
00000000: 3c19 803e f780 8c3a 886f d73c 7a1a a6bd
00000010: 120a efbd 8ce1 c8bd 4c43 f0bc 2078 223e
00000020: becf d1bd 4256 3dbe 689f 1b3e 8c92 723d
00000030: 832c dabc 89bd 54bc b911 00be 6106 a73d
00000040: 18ed da3d 2ed6 abbd 7b5c 183e a76b 25be
00000050: 3e04 5e3e f21b 753d 81c0 7cbe 49c3 0c3e
00000060: 64ff 093e 973d 15be 5ebc 7e3e d432 083e
00000070: 96aa 0fbe 6463 a53d 47f2 14be 95c7 0dbe
00000080: c150 063e f6c5 ec3d ce4c 7d3e 39db 123e
00000090: bb42 e73d 7394 a9bc d5c1 76be 2502 073e
000000a0: 975d 283e 0ed4 65be 7820 fcbd b200 c83d
000000b0: eb70 933d ada3 81be 2522 893d baba 62be
000000c0: c0b1 333e e6bb f43d b71e 28be d491 04be
000000d0: 688f 2a3e d2bd 66be d13d 10be 25f7 62be
000000e0: c65c 10be f305 28be 6d84 41be 8632 64be
000000f0: 54a8 4b3c 3e57 2e3d d59a 3d3e ecd0 743e
00000100: 92ba 603e 01aa 323d ca2e 5cbd 70cf 123c
00000110: c1ee 67be 970a fabd dad3 a2bc a85f 893d
00000120: 522f 32be b5ee 31be 9129 b43d 5dcc 1dbe
00000130: b311 203e 1e67 e53d 4b5c 403e bb6f ac3d
00000140: 2ed0 67be 294c 1dbe 8f29 dd3d 8e31 a9bd
00000150: f7ad 4f3e 1b50 e53d 3b87 e43d 31f0 4cbe
00000160: 5ac5 2e3e 7de3 f83d 2bd3 28be ab27 6fbe
00000170: 465c 1b3e 2514 b03c 9952 15be 3270 e63d
00000180: bcc2 3fbe dd23 b4bd 0b51 12be e11b d3bb
00000190: 3ed4 1abe 04bf 353e e81d bfbd 54ad c8bd
000001a0: d8e5 f43d f94c d03d 5f8c 1b3e 9525 063e
000001b0: 1d3e 58be c908 473e fe56 1fbe 82c4 7bbd
000001c0: e56e 07be 9144 efbd a718 bcbd 785d b53b
000001d0: e34f eb3d f6d6 4c3e d2d2 5a3e 916a 28be
000001e0: f1d1 88bc 5f85 1cbe 612f 02be 1028 413e
000001f0: 1ebe ad3d eaf2 a5bd e79c 67bd 2f91 7fbe
00000200: 3eed 1cbe d9e8 f9bd f141 15be e43e 97bc
00000210: 0f78 eb3d fcd1 9abc c7d7 183e 2b5b c63d
00000220: 8053 283d 0245 7dbd bb41 5dbd 2280 1e3e
00000230: 0112 703e deed 77bd 46a8 2fbe 19db 1b3e
00000240: ccc9 dd3d 6f64 23be 70d7 dbbd 0c70 5d3e
00000250: 1120 773e f518 1ebe 944a 29be 8e10 2cbd
00000260: fd3e 813d ced2 d1bd e456 253c 1c2d 033e
00000270: 8f5d cebd 04bc b8bd c9ac 0c3e 7676 37be
00000280: 68db 073e 1562 33be 133a 463e aa23 823e
00000290: f408 0c3e e0e5 84be 1b27 4ebe a294 12be
000002a0: 2bbc 053e 3c20 12be bfcf 7a3e fc34 483e
000002b0: a526 7cbe 85ff 44be b230 39be 8ac9 463e
000002c0: 9149 2c3e 63bf bebd 7de9 273e 94b2 bbbc
000002d0: c742 53be c09a 75be 9f3d 363e 78f0 1d3d
000002e0: f3f2 01bd c3cb 8dbc 1104 e4bd 755c 5a3e
000002f0: 82ac 363e a03f 6b3d 4de4 1abe 36d1 3e3e
00000300: c3ec 27be 8801 08bc 93b4 88bd e041 e9bc
00000310: 69b4 103e 28f2 a9bb 0b4a 823e 523e 4738
00000320: cb35 19be 3cd6 28be f49f 28be d3cc 7ebd
00000330: 6896 373d 7a0e 103e 3581 a53d 7715 7cbc
00000340: 073e 903d 412e 3bbd 3dc8 373d 489e 2cbe
00000350: 7f38 113e 4daf da3d fae0 a1bd 1ac0 06be
00000360: 5f72 8fbd 577a 89bd 799c fa3d d243 84bd
00000370: 9f76 ef3d 5e62 5bbe 2e1d b23d 64ae fcbd
00000380: 79a8 f63c ef66 77be c73a 533e c6d9 82be
00000390: b5ab 32be de5d 093e 5e37 41be d9be 7a3e
000003a0: 4178 203b b86f f8bd 1da1 72be c09e ccbd
000003b0: f965 96bd 32e6 853b 9b4d 3cbe e4a5 70be
000003c0: 5f2f 173e cb15 233d eaad 4dbe 2110 f6bd
000003d0: e709 233e 02b0 1dbd 3997 25be 596e f93c
000003e0: 2b52 243e 3478 7f3e 9bf0 1d3e bcb9 70be
000003f0: b1ba ecbd 7eb3 3cbd a85d 7d3e 57c6 2fbd
0.25019252 0.0010719587 0.0262983 -0.08110519 -0.11671843 -0.09808645 -0.029328965 0.15866137
-0.10244702 -0.18489936 0.15197527 0.05922179 -0.026632553 -0.012984642 -0.1250676 0.081555136
0.10689753 -0.08390461 0.14879028 -0.16154347 0.21681306 0.059841104 -0.2468281 0.1374637
0.1347633 -0.14574276 0.24876544 0.1330064 -0.14029917 0.08075598 -0.14545546 -0.13845666
0.13116743 0.115611956 0.2473633 0.1434144 0.11292025 -0.020700669 -0.24097379 0.13184412
0.16441952 -0.22444174 -0.123108804 0.097657576 0.07199272 -0.25320187 0.06695966 -0.22141543
0.17548275 0.11949901 -0.16417967 -0.12946254 0.16656268 -0.22533348 -0.14086081 -0.2216459
-0.1409789 -0.1640852 -0.18898173 -0.22284898 0.012430269 0.04256367 0.18516095 0.23907822
0.21946171 0.04361916 -0.05375556 0.00896059 -0.22649671 -0.12209051 -0.01987641 0.06707698
-0.17400864 -0.17376216 0.08796991 -0.1540999 0.15631752 0.11201309 0.18785207 0.084197484
-0.22638008 -0.15361084 0.10798942 -0.08261405 0.20281206 0.111969195 0.11158606 -0.20013501
0.17067471 0.12152765 -0.16486804 -0.23354976 0.15171918 0.02149398 -0.1458229 0.11251868
-0.18726629 -0.08795903 -0.14288728 -0.0064425324 -0.15120026 0.17748648 -0.09331876 -0.09798685
0.11957902 0.10170931 0.15190266 0.13100274 -0.21117444 0.19436945 -0.15560529 -0.0614667
-0.13225897 -0.11683 -0.091843896 0.005534824 0.114898466 0.20003876 0.21369484 -0.16446902
-0.01670167 -0.15285252 -0.12713386 0.18862939 0.084835276 -0.08102973 -0.056546118 -0.24957727
-0.15324876 -0.12202615 -0.14575936 -0.018462606 0.11497509 -0.018898956 0.14926063 0.09685358
0.041095257 -0.06183339 -0.054017764 0.15478566 0.23444368 -0.060529582 -0.17154035 0.15220298
0.10829505 -0.15956281 -0.10734451 0.21624774 0.24133326 -0.15439208 -0.16532356 -0.042007975
0.06310842 -0.10245286 0.010091517 0.12810177 -0.10076439 -0.09020236 0.13737787 -0.17916283
0.1326729 -0.17517884 0.19358091 0.25417835 0.1367529 -0.2595663 -0.20132105 -0.14314511
0.13060062 -0.14270109 0.24493311 0.19551462 -0.24624117 -0.19238098 -0.18084982 0.19412819
0.16824938 -0.09313848 0.16397662 -0.022912301 -0.20630942 -0.23984814 0.17796944 0.038559407
-0.031725835 -0.017309075 -0.11133588 0.21324332 0.17839244 0.057433724 -0.15126152 0.18634495
-0.16398911 -0.008301146 -0.06675067 -0.028473794 0.14131321 -0.005186338 0.25447115 4.7503338e-05
-0.14961927 -0.16487974 -0.16467267 -0.062207054 0.044821173 0.14068022 0.08081285 -0.015385977
0.07043081 -0.045698408 0.044868696 -0.16857255 0.14181708 0.10677967 -0.07904239 -0.13159218
-0.070042364 -0.067127876 0.12236876 -0.06458248 0.11692547 -0.21424243 0.08696972 -0.1233795
0.03010963 -0.2416036 0.2062789 -0.25556773 -0.17448314 0.13414714 -0.18868777 0.24486865
0.002448574 -0.12130684 -0.23694272 -0.09991217 -0.073436685 0.0040862793 -0.18388979 -0.23500782
0.14764164 0.039815705 -0.20085874 -0.12014795 0.15921746 -0.038497932 -0.16170968 0.030448126
0.1604697 0.24948198 0.15423815 -0.23508352 -0.11559046 -0.046069615 0.24742758 -0.04291376

func.linear1.bias f4 [128]
00000000: 0a1b 68be 7cd9 81be 410f a93d b701 6a3e
00000010: 8768 bdbd 7a42 1abe 3401 57be b006 4b3e
00000020: 7040 0e3d 5dc4 513e 00ac f6bd 2e01 1fbe
00000030: f0fc 3a3e 339e 69be 51da 44be 4827 4b3e
00000040: 949c 0bbe d1a4 54be f709 60be 8e54 b23d
00000050: 705e 04be 52ef 24be c661 253e 92a1 6b3e
00000060: 05a2 7c3e 4920 5dbe 2966 54be c851 e2bd
00000070: 7dbb f4bd 3452 203e ec5f 2a3e 0c01 40be
00000080: 8018 d4bd c392 cc3c 388c 45be d5f6 05be
00000090: e176 643e d8e3 48bd 0bf4 4bbe 83d7 503e
000000a0: de36 14be 2f77 243e e1f7 003e 5b66 39be
000000b0: 865c 0d3e 8041 2d3e a603 49be 42e7 133e
000000c0: c9d0 68be f91f 75be 7746 93bd f533 28be
000000d0: ab0c 20be 6bb2 acbd 68e5 663e 86fe 1b3e
000000e0: 07c0 e53d 11f3 2fbe 8b54 62be 0448 313e
000000f0: 0cd5 70be a3ae 1f3e 1fa1 5cbe 2514 713e
00000100: 511a bc3c b76c e83d d1f3 14be ac1f 38be
00000110: 319e 56be 84bb d93d 6940 5c3e f9ff 853d
00000120: acca 5dbe a5c1 0e3e 3629 13be c43a 00be
00000130: cd70 0d3e fb78 233c 213e 343d 9685 83be
00000140: c8b7 663e d026 15be 211f a63d c97b 4fbe
00000150: 330e e83d 1369 123e 3ffe dc3d 435f 903c
00000160: 0cbd 44be 358c 053e 8c28 50be 7d82 6b3e
00000170: 4194 49be bbe4 22be 7ffd 68bd 855e e9bd
00000180: fad7 afbd 84b0 2dbe b94e 403e f783 03be
00000190: 0bea 2c3e d73e 9abd 643f 05be 3c2d 853e
000001a0: 6f90 ee3d a0bc 26be 8505 e0bb 77de 2abe
000001b0: 305d 473e f6ca 6abe 90f7 2ebe a5d7 16be
000001c0: c758 33be 6743 4dbe bf88 263e 485c 3cbe
000001d0: 1a4a 6abe c6ae 2abe 2eca e9bc 5250 1b3e
000001e0: e1a2 4b3e 5d99 633e 5014 863e 55ab 173e
000001f0: 0db8 373c 22aa 02be c919 0dbe 1115 27be
-0.22666565 -0.2536124 0.082548626 0.22852217 -0.09248453 -0.15064421 -0.20996553 0.1982677
0.03472942 0.20485063 -0.12044525 -0.15527794 0.1826055 -0.22814254 -0.19223906 0.19839203
-0.13633949 -0.20765997 -0.21878801 0.08707534 -0.1292665 -0.16106918 0.16150579 0.23010853
0.2467118 -0.21594347 -0.20742096 -0.11050755 -0.11949823 0.15656358 0.16638154 -0.187504
-0.103562355 0.024972325 -0.1929177 -0.1308244 0.22310974 -0.049045414 -0.19917314 0.20394711
-0.14474055 0.1606109 0.12594558 -0.18105452 0.13804826 0.16919518 -0.19630298 0.14443687
-0.22735895 -0.23937978 -0.071911745 -0.1642607 -0.15629832 -0.08432468 0.22548449 0.15233812
0.11218267 -0.17182566 -0.22102563 0.17312628 -0.23518771 0.15593962 -0.21545838 0.23542841
0.022961767 0.11348861 -0.14546134 -0.17980832 -0.20958783 0.10631469 0.21508946 0.065429635
-0.21659344 0.13941057 -0.1437119 -0.12522417 0.13812561 0.009977574 0.044004563 -0.25687855
0.22531044 -0.14565587 0.08111406 -0.20262064 0.11330833 0.14297895 0.10790681 0.01762355
-0.1921274 0.13041766 -0.20327967 0.22998996 -0.1968546 -0.15907566 -0.056882378 -0.11394981
-0.08586116 -0.16961867 0.1878003 -0.1284331 0.16886155 -0.07531517 -0.13012463 0.26011074
0.11648642 -0.16282892 -0.0068365955 -0.16686426 0.19469142 -0.22928986 -0.17086625 -0.147307
-0.17514335 -0.20045243 0.16263102 -0.18394578 -0.2287983 -0.16668233 -0.02853879 0.15167359
0.19886352 0.22226472 0.26187372 0.14811452 0.011213315 -0.12760213 -0.13779368 -0.1631663

func.linear2.weight f4 [672, 128]
00000000: 2cd9 bc3d 9012 6d3e 7c14 673e 26cf 2e3e
00000010: 01f4 5f3e 4748 253e 7f73 073e 904b 493e
00000020: e124 4b3e 7f0c d03d b86b d33d 0eaa 6b3e
00000030: ba28 a13d b183 f43d baec cc3d 043d 2b3e
00000040: e35e 583e f759 c53d abbf 423e 3643 cd3d
00000050: 245a 103e 23b1 423e 9513 6d3e 33d4 6f3e
00000060: 1898 423e 490e 353e ce4f da3d 7c27 313e
00000070: 7430 d33d 847f 5a3e 980d 453e 7e3d 343e
00000080: 0e86 6f3e 0372 b93d 6c47 4e3e fd03 013e
00000090: 2881 bc3d 3e66 243e d214 5a3e b915 ab3d
000000a0: 9ce1 ea3d e3f5 083e 3196 af3d 71d3 b83d
000000b0: 1b7f c83d 50de 2e3e 0e2d 073e dc96 b53d
000000c0: b0ef 6f3e 56d9 693e 0b7b cb3d 4c44 813e
000000d0: 0cb0 343e dc50 463e 272d 103e 3b43 753e
000000e0: f9c9 433e 5ee9 0e3e 30d6 cc3d 82b4 483e
000000f0: 3ca9 de3d 0727 293e b8ff be3d 414c e33d
00000100: 3554 df3d 773b a83d 703a 6f3e 3d38 823e
00000110: 0d1a 0a3e 9bbf 2a3e 0f23 383e 8acd ad3d
00000120: bf19 3d3e 1d3b 163e 4f1f 363e 16a4 f53d
00000130: e707 ec3d db75 cf3d 29a8 ba3d 8f3b 463e
00000140: 92a3 0f3e ed04 7d3e 5085 813e b9c6 383e
00000150: 7c90 813e bc61 1f3e e341 5a3e 1235 3c3e
00000160: e8b3 e43d 2763 c93d 081c 673e e2d3 423e
00000170: da04 7d3e 5021 d73d 9c05 333e 9b87 dd3d
00000180: d7b7 d33d e1cc aa3d 61b2 1e3e b74f 7e3e
00000190: d67f 523e 6c3f 2b3e ab07 e73d bb7c cd3d
000001a0: 51b0 7e3e ce44 ad3d ed3a 293e 953b ee3d
000001b0: 3d33 f23d 10ae 0f3e 5b94 0e3e 9157 123e
000001c0: fde6 103e 4d8b ed3d 6def 293e 1037 683e
000001d0: 8daa fb3d 6853 ae3d 1082 fd3d d15e 803e
000001e0: abd4 ad3d 626e 293e a161 543e d2b7 3c3e
000001f0: 7df2 5d3e 214a 213e 3055 503e 4f80 2f3e
00000200: 09f7 2e3e 2250 253e 7a3c d93d 23e8 2f3e
00000210: d40e c53d 6b35 583e 45b0 6dbe bf76 2b3e
00000220: a302 fa3d dd31 793e bbd7 1d3e ceb6 003e
00000230: eba5 593e d62b 223e c365 b93d 9bac 103e
00000240: f3e8 f7bd bdd4 093e ba59 543e 086c 5b3e
00000250: 1c36 7b3e 7c94 153e a3a6 1e3e 77f9 263e
00000260: 5df4 573e 5cfd 09be 6ad2 6f3e 8c3d 373e
00000270: d342 e93d 2a7f 1b3e 861c 2b3e 4cfa b03d
00000280: fc44 363e 2287 2c3e bb84 633e 5d76 ae3d
00000290: 6488 3f3e 10f5 aa3d 4efc f43d 6174 4f3e
000002a0: 0b8e ca3d 1390 7e3e 7b5d 6b3e bf01 553e
000002b0: 83f7 3d3e 7e35 053e cbca 6e3e 3d97 673e
000002c0: 0040 693e e69f 6d3e 1783 b73d 9390 043e
000002d0: 150a ac3d f3d0 203e fbbc 4f3e 8cd5 b53d
000002e0: f4bc 253e 2443 083e e4d9 e23d 6eff 4c3e
000002f0: 62dc d73d b857 5a3e 1e36 723e 7522 3a3e
00000300: 3506 ab3d 9693 093e d061 533e 58b4 76be
00000310: b0e3 4c3e 298e 3b3e 2301 58be a355 7f3e
00000320: 60fc c23d 47a3 813e 1a24 333e 0c79 463e
00000330: dea5 a63d a5e6 013e c4eb 233e 35d5 fb3d
00000340: 6460 ad3d ee61 a83d 3fb3 573e 0e66 2f3e
00000350: bcbe da3d f671 e33d 9fbd df3d 5274 063e
00000360: 12d7 783e 0050 183e 6b70 2f3e 1519 55be
00000370: c9ca 783e 196b dc3d 77ae 723e 0f18 3a3e
00000380: e1c1 7a3e 0ccf 083e 08fa ee3d 1986 ad3d
00000390: 11e5 373e bd01 7c3e 5def a43d 2d27 503e
000003a0: 0029 e63d edcf 713e 2936 743e c44a 1f3e
000003b0: 6482 783e 362a 0c3e 4d6a 653e a641 e73d
000003c0: 024e 143e ca02 103e 61ec b53d 6184 3c3e
000003d0: c9fc 233e 9234 5b3e 40e4 f83d fbc1 1b3e
000003e0: 94ba 093e 3d02 fb3d 44a4 743e 04f4 d73d
000003f0: 1a27 683e 98ce f93d c424 723e 6c67 1f3e
0.0922111 0.23151612 0.22566408 0.17071208 0.21870424 0.16140853 0.13227652 0.19657731
0.19838287 0.101586334 0.1032328 0.2301409 0.07869096 0.11939181 0.100060895 0.16722494
0.21129946 0.096363 0.19018428 0.10022585 0.14096886 0.19012885 0.23152001 0.23420791
0.19003332 0.1768123 0.10659753 0.17300218 0.10311976 0.21337706 0.19243467 0.17601582
0.23390982 0.09054949 0.20144433 0.12599178 0.09204322 0.16054627 0.21297005 0.08353753
0.11468813 0.13375048 0.085735686 0.09024704 0.097898684 0.17076993 0.13200781 0.08866665
0.23431277 0.22836813 0.09935578 0.2524742 0.17645282 0.19366783 0.14079724 0.23951428
0.19120015 0.1395621 0.100017905 0.19600108 0.10872123 0.16518794 0.09326118 0.11098529
0.10904733 0.08214467 0.23362136 0.2543353 0.134865 0.16674654 0.17982124 0.08486469
0.18466853 0.14670987 0.17785381 0.119941875 0.11524945 0.10129901 0.09114105 0.19358657
0.14027241 0.2470891 0.25297022 0.18044557 0.25305545 0.15564626 0.21314196 0.1837962
0.11167127 0.09833365 0.22569287 0.1902614 0.24708882 0.10504401 0.17482609 0.1081688
0.10337799 0.08339859 0.15497734 0.24835096 0.20556578 0.16723412 0.112807594 0.10033556
0.24871947 0.08460389 0.16526385 0.11632458 0.11826179 0.14031243 0.1392378 0.14291216
0.14150615 0.11598835 0.1659524 0.22677255 0.12288389 0.08512002 0.12378323 0.2507234
0.08487829 0.16546014 0.20740367 0.18429497 0.21674533 0.15750934 0.20344996 0.1713879
0.17086424 0.1614385 0.10607238 0.17178397 0.09621969 0.21114127 -0.23211773 0.16744517
0.12207534 0.24335428 0.15414326 0.12569734 0.21254699 0.15837035 0.09052613 0.14128344
-0.121049784 0.1346006 0.20737353 0.2142793 0.2453236 0.14607424 0.15493254 0.16306101
0.21089311 -0.13475555 0.2342011 0.17894572 0.11389699 0.15185228 0.167101 0.0864149
0.17799753 0.16848424 0.22218601 0.0851867 0.18704373 0.08347523 0.11962186 0.20259239
0.09890374 0.24859647 0.22984879 0.20801447 0.1855145 0.13008687 0.23319547 0.22616287
0.2277832 0.23205528 0.0896055 0.12945776 0.084003605 0.15704708 0.20286934 0.088786215
0.16185361 0.13306862 0.110767156 0.20019314 0.105400816 0.21322525 0.23653457 0.18177207
0.08350793 0.13435206 0.20642781 -0.24092233 0.20008731 0.18315949 -0.21094184 0.24935012
0.09520793 0.25319883 0.1749424 0.19382113 0.081371054 0.1268564 0.16007906 0.122965254
0.08465651 0.082218036 0.2106447 0.17128775 0.10680911 0.11105721 0.10924839 0.1313031
0.24300793 0.14874268 0.17132728 -0.2081035 0.24296106 0.10762615 0.23699366 0.1817324
0.24488021 0.13360232 0.116687834 0.08472843 0.17958476 0.24610038 0.080534674 0.20327444
0.11238289 0.23614474 0.23848785 0.15555865 0.2426849 0.13687977 0.22403832 0.11291818
0.14482883 0.14063564 0.08882976 0.18409874 0.16014399 0.21406773 0.1215291 0.15210716
0.1345008 0.12256286 0.23890787 0.10544589 0.22671166 0.12197608 0.23646837 0.15566796

func.linear2.bias f4 [672]
00000000: 5ce7 753e bd67 813e e681 80be 111f 0abe
00000010: adc6 28be 109f 5b3e f16d f0bd dc39 05be
00000020: 2725 433e 5846 36be f591 d8bd 32d4 b9bd
00000030: e987 64be 41b4 bfbd 1b5e 30be 98f9 7abe
00000040: e67e 15be 6743 323e 8ab1 37be d4bb 0ebe
00000050: 97a8 80be 058c 3bbe 2664 cdbd c70c f33d
00000060: 22cb 7b3e bc4b 423e 6b59 a2bd 6abe 803e
00000070: e3c2 683e 4766 383e 9d61 433e 1781 353e
00000080: 28ee 733e d1f7 d8bc 42f4 41be be5c 423e
00000090: 0349 ebbd 02da a2bd c79d 8c3e d2ae 873e
000000a0: 58fb 433e c5b8 51be 1e4c ed3d f92c 773e
000000b0: 3e22 20be 1d31 b43d 511d 4e3e ded6 743e
000000c0: f43a 583e 9452 25be ce67 5d3e 881d 27be
000000d0: 0598 36be a80c 2bbe 5e50 733e deca 4d3e
000000e0: 3719 173e 2405 323e 5cb7 003e e7cb 703e
000000f0: 6270 32be efb3 cbbd 58f3 533e ea07 5cbe
00000100: 0d17 c4bd bb2b 813e a599 cfbd 96d8 693e
00000110: a5aa 6dbe ef45 f4bd eda7 5dbe 316f 04be
00000120: 4f68 08be d1fe 12be 25d5 f93d 8f2c 543e
00000130: e5cb 223e 06c7 583e 16d7 ddbd dd12 cdbd
00000140: 204c e6bd c8f1 64be f483 4abd 8d1c d2bd
00000150: d5f9 2abe 732f 3bbe 1f78 18be 540f 66be
00000160: 742d 30be d30a 1b3e 425a a9bd 8548 36be
00000170: 1ce7 e03d 2622 1cbe 117e da3d c251 23be
00000180: 8a45 00be 8cbb b7bd d193 043e 6dbb 05be
00000190: 48bf acbd 5487 c33d da77 b93d 841f 713e
000001a0: a1a4 6dbe 0676 c9bd e0b5 51be c7ac 07be
000001b0: cca1 6c3e 344e ed3d 74b8 be3d ff61 efbd
000001c0: 74be 2bbe bfa6 09be 0d1f 7dbe b2ee 31be
000001d0: 917f e83d 9686 3ebe dee1 49be 57d3 c93d
000001e0: 5209 473e db61 6ebe 45f0 b23d 922c 623e
000001f0: 4558 253e 160e 2b3e 2596 723e bcc8 ff3d
00000200: 6026 10be b33b 1b3e 2f20 1f3e 94b2 033e
00000210: ccd3 693e b5da fc3d 010a 413e e665 2c3e
00000220: ca54 0d3e 8674 6b3e 30d7 3a3e 9c35 663e
00000230: 8dfe 463e 6943 a3bd fea1 1fbe b84d 81bd
00000240: 20b7 4ebe d2b4 3d3e a644 12be d9ee 813e
00000250: cac7 1a3e 80dc df3d 9d9f eb3d 7af1 ec3d
00000260: 242c 4d3e 166d e83d 63b9 cd3d 8a89 0f3e
00000270: 8124 503e 617b 033e 0559 063e e160 763e
00000280: b4eb 533e aee4 563e 3760 b43d b6d8 0d3e
00000290: d5ff b4bd 6972 42be fa10 6fbe 9625 3c3e
000002a0: 2b24 56be 5d59 6bbe f9bf 63be f753 6dbe
000002b0: 1e88 04be 0eb7 793e cab2 03be 16ef ccbd
000002c0: a45e 51be 17f1 3a3e 7c1c 223e db85 82be
000002d0: eaa0 d8bd 818c 97bd 21e4 113e 32f5 6c3e
000002e0: e451 663e 548f 2c3e 106d 813e 959a f4bd
000002f0: 089e 463e 760a 1abe 1eac 44be 4925 38be
00000300: 10aa 14be 0dde ee3d f5ce 023e cdfa a43d
00000310: 1424 c53d dbea 443e 498a 2bbe 5f63 07be
00000320: 93b8 5cbe f07f 4b3e 7119 503e be1d 793e
00000330: 2b68 233e db17 c33d 234c f7bd a9c9 c6bd
00000340: 8dd5 38be 90e1 29be edfe 7f3e 3a12 b2bd
00000350: 1641 5a3e 9617 c8bd 419f f8bd 97e1 2a3e
00000360: c8b7 063e e0a6 443e 18de 413e 313e fd3d
00000370: 4d14 123e 09c5 ff3d cb8a f13d b975 cc3d
00000380: f3e2 6a3e 581a 54be 245b 65be 8d76 073e
00000390: b893 ce3d 5ed2 9cbc 981c 1e3e 44c6 debd
000003a0: 4f02 0c3e 22ef 3e3e 0e12 813e 6e6d 703e
000003b0: b43f 3e3e 4b8d 3c3e c6a9 a13d af51 443e
000003c0: 45c6 803e 069d 09be 6be4 553e 9423 54be
000003d0: b249 c23d ea14 09be f50e 493e 0f8d 45be
000003e0: 6bba 723e 6dcc 2e3e d5b1 b13d 9a08 7fbe
000003f0: e12e fd3d 8877 7dbe 39f1 413e e47e 243e
0.24014038 0.2527446 -0.25099105 -0.13488413 -0.16482039 0.21447396 -0.1173972 -0.13010353
0.19057141 -0.17800272 -0.10574714 -0.09073676 -0.2231747 -0.093605526 -0.17223398 -0.24509275
-0.14599189 0.17408524 -0.1793882 -0.13938838 -0.25128624 -0.18315132 -0.100288674 0.118676715
0.24589208 0.18974203 -0.079272114 0.25145274 0.22730593 0.18007766 0.19080205 0.17725025
0.23821318 -0.026485356 -0.18940833 0.18980691 -0.11488535 -0.07951738 0.27464125 0.26500565
0.19138849 -0.2048064 0.11586784 0.2413825 -0.15638062 0.0879843 0.20128371 0.2391009
0.21116239 -0.16144782 0.2162163 -0.16319859 -0.17831428 -0.16704047 0.23761126 0.20096919
0.14755712 0.17384773 0.12569946 0.23515283 -0.17425683 -0.09946429 0.20698297 -0.21487394
-0.09574709 0.25228676 -0.10136727 0.22836527 -0.23209627 -0.11927401 -0.2164609 -0.12933041
-0.1332104 -0.14355017 0.12198857 0.20720123 0.15898092 0.21169671 -0.1083204 -0.100133635
-0.112449884 -0.22357857 -0.049442247 -0.10259352 -0.16696866 -0.18279819 -0.14889573 -0.22466785
-0.17204839 0.15140848 -0.082691684 -0.17801102 0.109815806 -0.15247402 0.106685765 -0.15949157
-0.12526527 -0.089713186 0.12947012 -0.13059779 -0.084349215 0.09547296 0.09056063 0.23547179
-0.23207332 -0.09836964 -0.20479536 -0.13249503 0.23108596 0.11587182 0.093125254 -0.11688613
-0.16771871 -0.13442515 -0.24718876 -0.17376211 0.11352456 -0.18606028 -0.19715068 0.09854763
0.19437149 -0.23279516 0.08737234 0.22087315 0.16146953 0.16704592 0.23690088 0.12489459
-0.14077139 0.15159492 0.15539621 0.12861091 0.228347 0.123464026 0.18851472 0.16835746
0.13801876 0.22993669 0.1824615 0.22481388 0.19433041 -0.07971842 -0.15589139 -0.06313652
-0.20187044 0.18526009 -0.14284 0.2537754 0.15115276 0.10930729 0.11505053 0.115694955
0.2003637 0.113489315 0.10045125 0.1401731 0.20326425 0.12840034 0.13119896 0.24060394
0.20695382 0.20985672 0.08807414 0.138522 -0.088378586 -0.18988957 -0.2334632 0.18373713
-0.20912234 -0.22983308 -0.222412 -0.23176561 -0.1294255 0.24386236 -0.12861171 -0.100065395
-0.20446259 0.18256031 0.15831178 -0.2549275 -0.10577567 -0.07399846 0.1424718 0.2314041
0.22492176 0.1685155 0.2527852 -0.11943547 0.19396222 -0.15043053 -0.19206282 -0.17982973
-0.14517999 0.116634466 0.1277426 0.08055649 0.09626022 0.19230215 -0.1675197 -0.13221501
-0.21554784 0.19873023 0.20322205 0.24327752 0.15957706 0.095260344 -0.12075069 -0.09706432
-0.18050213 -0.16589952 0.2499959 -0.08694883 0.21313891 -0.09770124 -0.1213975 0.16687618
0.13156044 0.19204283 0.18932378 0.12365378 0.14265557 0.12488753 0.11794051 0.09983391
0.22938137 -0.20713174 -0.22398049 0.13228817 0.10086769 -0.01914328 0.15440595 -0.1087766
0.13672756 0.1864591 0.25209087 0.23479244 0.18578988 0.18413274 0.0789371 0.19171785
0.25151268 -0.13438806 0.20887916 -0.20716697 0.094867125 -0.13386884 0.19634612 -0.19292091
0.23703925 0.1707017 0.08676497 -0.24905625 0.12362457 -0.24752629 0.18939675 0.1606403

initial.weight f4 [224, 3]
00000000: db16 4e3b 818d e13d 0498 b9be 68ff ebbe
00000010: b2f2 59be 57f3 803e dc74 7e3d 55d0 823e
00000020: 8272 ccbe 58cc c7be 12a7 873e 76b9 8c3c
00000030: 5cc8 8dbe 33fc 07bf 11d3 023e 44ed 8ebe
00000040: cbb7 f43d 5071 14bf 5ba8 de3d af5f bd3e
00000050: b1e5 19be ebc9 b83e f5bb cabe 064b 9f3c
00000060: 3492 bbbe f6ac eb3e c063 83be 11a0 1fbe
00000070: 8e3c 3ebe 3b4d a63e 7048 b73e 2f1d bfbe
00000080: 9f1d a7be 8957 8fbe 32c3 123e 6a3d 3c3e
00000090: c7dc 80bd 848a 3d3e 45e7 c83e 0826 b53d
000000a0: fef3 3abe 3f6c 193f 3550 be3e 5885 11be
000000b0: e68b 8a3d d8e2 92be 186d 86be c7e3 c63e
000000c0: 057a 9a3e 04bc 7fbe b8fc b8be 344d 81be
000000d0: f091 873e 4362 4b3e 1882 7ebe 1e8f d9be
000000e0: 6dfa 263f 4256 eb3e b736 5cbd 6c00 283f
000000f0: 780a 3dbe 7bdd d1be 2f37 dabe 7226 913e
00000100: 16ed 583e 3197 3bbe 6bd6 953e 7794 923e
00000110: e355 42bf 8315 dd3d 0e65 05bf 26c7 a4bd
00000120: 5df6 a5be c5c1 17bf 5cd1 4a3e 9e1f 27be
00000130: fad5 5d3e b821 bfbe 7c1f 693d 1d51 1abf
00000140: 25e2 e43e b784 68be 863a 77be 9ca1 853e
00000150: 59d2 9dbe 661c 3dbd 0b30 373e 0486 a4be
00000160: b087 b63e 5ffc 203e 5baa 67bd 15a1 2f3c
00000170: 0d30 b3be 363d 813e 3e7c 6fbd 7c84 173e
00000180: eb65 8b3e 5d95 53be 7fab a5be 001b 11bf
00000190: 3869 ae3d 8634 983e 78fd 43bd 75ca aabe
000001a0: 0cf1 d13c b7ae 12bf 1aa7 b83e a804 49be
000001b0: 31e9 eb3e ecde a1be 744f be3d f635 ed3e
000001c0: c149 b23e 88b7 c4be 78de 083f deb4 793e
000001d0: b7fe 873e 8c88 693e ebc0 dfbe c070 03bf
000001e0: 847a a2be 93cf 7cbe 9366 67bd 77b1 a0be
000001f0: c18d 433d 25cd 0b3f c5af 08bf a2f1 b6bd
00000200: a21f e63e 7635 503d 2700 c2be dc97 303c
00000210: af7b d8be a2fe 9e3d a158 b13d a685 babe
00000220: 6e72 2c3f 8e85 e0bd 6081 cb3d 4368 3fbe
00000230: 5217 d63e bb21 fbbe 97fc 383e 18e8 9c3d
00000240: 15b3 05bf dbcf 05bf 59c9 d0be 91ed aa3e
00000250: 36be 0ebe 97af a7be 9720 143f 200d be3e
00000260: 6871 82bd 17f6 1c3f 3100 103f 8ce5 38be
00000270: ed86 1c3f c99e 233e 241b 3bbe 092f 613e
00000280: 74dd b93e 8d1b 29be 0cf3 4a3e e3d5 b43e
00000290: a680 2abe 91c1 bbbe 6d97 b03e 17ce a4bd
000002a0: b447 55be 1d45 5d3d ff57 7b3e bd66 19be
000002b0: 29b1 0d3e a8b1 91be f586 dd3e d979 b23e
000002c0: e000 b33e 4693 cb3e 604d f93e cea6 853e
000002d0: 2d8f 9cbe 1a76 b7be cba5 513c 6837 013f
000002e0: 4547 b6bd da9f 053c 483d cabe 100a 063e
000002f0: efc5 c1be 9e13 53bc b340 f1be 243a bebd
00000300: 6c95 943e 6b3f d8be 148a 13bf b92f febe
00000310: 9e4e d33d 2c87 8fbe 0202 44be 564b 283e
00000320: 9b06 92be c242 bc3e abc1 ac3e f2e0 96bd
00000330: c3f9 b2bd f3d7 d43e 2531 3cbd ef6f 6b3e
00000340: 47b7 abbe ff7d c93d a05f d23e c55d cbbd
00000350: a6e4 acbd 9d56 b43e 3c35 e0bb 47fa 0c3e
00000360: f2f2 6cbe b03b 5d3e de89 d83d bcb7 783e
00000370: 75d5 1f3f 27aa 32bd 54f6 5fbe 05d2 033f
00000380: 8604 84be ca6a 17bf 6591 f43a 9ffe 35be
00000390: a3bf 59be 6bca 54bd 288a b2bc 3a3b 23bf
000003a0: 834b 15bf 7d55 163d 262f f33e 6185 7d3d
000003b0: a469 24be 957c c53e 4477 7bbe a81e babe
000003c0: 4761 2e3f b8a7 c23e f952 6b3e 2f0a 92be
000003d0: 4acf 883d 6e26 bcbe 4f8c ea3e c638 6ebe
000003e0: 0f04 da3e 2b4c 033f f4ea 5b3d 475d 383d
000003f0: 3923 4b3e 039f f83e 6af6 c2bd b44b 113f
0.0031446728 0.11013318 -0.3624879 -0.46093297 -0.21283987 0.25185654 0.062123165 0.2554957
-0.39931113 -0.3902309 0.26494652 0.017178278 -0.27691925 -0.531192 0.12775828 -0.27915394
0.11949118 -0.579854 0.10871955 0.36987063 -0.15029027 0.3609155 -0.39596525 0.019444954
-0.36634982 0.46030396 -0.2566204 -0.15588404 -0.18577787 0.32480797 0.35797453 -0.37326953
-0.32639787 -0.27996472 0.14332274 0.18382803 -0.0629211 0.18509871 0.39238945 0.088451445
-0.18257138 0.59930795 0.37170568 -0.14211023 0.06764965 -0.28688693 -0.26255107 0.38845655
0.3017122 -0.24974066 -0.3613031 -0.25254214 0.2647853 0.19861703 -0.24854314 -0.42492002
0.6522587 0.45964247 -0.053763118 0.65625644 -0.18461025 -0.4098929 -0.42620227 0.28349644
0.21184191 -0.18319394 0.2926515 0.28628895 -0.759123 0.10795119 -0.5210732 -0.08045797
-0.32414523 -0.59280044 0.19806427 -0.16320655 0.21663657 -0.37330413 0.05691479 -0.6028002
0.44703785 -0.22706877 -0.24143419 0.2609986 -0.30824545 -0.04616966 0.1788942 -0.32133496
0.35650396 0.15721272 -0.056558948 0.010719557 -0.34997597 0.25242013 -0.058468096 0.14796633
0.27226195 -0.20662446 -0.32357404 -0.56681824 0.08516163 0.29727572 -0.04784915 -0.33357587
0.025627635 -0.57297844 0.36064988 -0.19630682 0.46076348 -0.31615388 0.09292498 0.4633023
0.34821895 -0.38421273 0.5346446 0.24385402 0.2656152 0.22805995 -0.43701872 -0.5134392
-0.31734097 -0.24688558 -0.056494307 -0.31385395 0.04774261 0.546099 -0.53393203 -0.089328066
0.4494601 0.050832234 -0.3789074 0.010778394 -0.42281863 0.07763411 0.08659483 -0.3643009
0.67362106 -0.109629735 0.09936786 -0.18692116 0.41814667 -0.49049172 0.18065105 0.07661456
-0.5222638 -0.5227029 -0.40778616 0.33384374 -0.13939747 -0.32751152 0.5786223 0.3711939
-0.06369287 0.61313003 0.5625029 -0.18056315 0.6114338 0.1597854 -0.18272072 0.21990599
0.36301768 -0.16514416 0.19819278 0.35319433 -0.16650638 -0.36671117 0.3449053 -0.08047121
-0.20828134 0.05402099 0.24545287 -0.14980598 0.13837112 -0.28455853 0.43267027 0.34858587
0.34961605 0.39760798 0.48691845 0.26103824 -0.30577984 -0.35832292 0.012795876 0.5047517
-0.08900312 0.008155787 -0.3949988 0.13089776 -0.37846324 -0.012883095 -0.47119674 -0.09288433
0.2902025 -0.42235884 -0.57632565 -0.49645784 0.103177294 -0.28032815 -0.19141391 0.16434988
-0.28520665 0.36769682 0.33741507 -0.07367124 -0.087390445 0.41571006 -0.045945305 0.22991918
-0.33538267 0.09838485 0.4108858 -0.099299945 -0.08442049 0.3522233 -0.0068422835 0.13767348
-0.23139551 0.216048 0.10573171 0.24288839 0.62435085 -0.0436193 -0.2187131 0.5149234
-0.257847 -0.5914732 0.0018659054 -0.17772911 -0.2126451 -0.051950853 -0.021794394 -0.6376225
-0.58318347 0.03670262 0.4749691 0.06189478 -0.16055924 0.3857161 -0.24557215 -0.36351514
0.68117183 0.38018584 0.2298087 -0.28523394 0.06680162 -0.3674807 0.45810172 -0.23263845
0.4258122 0.512881 0.053690866 0.04501083 0.19837655 0.48558816 -0.09519656 0.5675614

initial.bias f4 [224]
00000000: ca30 333d e388 3cbf 2b17 78bb 5156 d6be
00000010: 35c2 fa3c 69e2 503e 10b1 3abf afd0 5dbe
00000020: 3019 8a3e c08f 393d f450 efbd 80dd 1c3f
00000030: de82 473b 41d8 db3e e370 943d db28 78be
00000040: 3cfc a6be 8512 e3bc 93c3 8d3d 20d6 0bbe
00000050: 2951 07bf cf63 823c c1ac d93e d7c5 12bf
00000060: 2b30 403e 2e5b 29be f18f 0dbf 1249 e6be
00000070: 9c21 103e 7835 26bf 11d3 a73e 49a1 f9be
00000080: 5bb7 c93e d76f 06be 5f7c 60be be33 793d
00000090: 58ad 163f ae7e 62bd a77d ab3e bfe8 9e3d
000000a0: e4d7 363f cb93 09be 9ded c3be 442b 83bd
000000b0: 39d9 ad3e 92a2 903e 7269 fa3d 0f76 1abf
000000c0: 7b83 38bf e72a cdbe 31fc ff3e 82ac 97be
000000d0: 39e0 50be eab8 193e 7e19 35bf 2f30 07be
000000e0: cdc5 3bbe 2f4e 0abe bb39 1dbf bf48 dfbe
000000f0: febc 16be 8cd1 c7be 66b9 8fbe fdd9 21bf
00000100: 170b 9abe 6fa3 33be 48c0 24be be63 483e
00000110: 35cc 0f3f 2e43 f43e d2c5 c6bd 6b20 3cbf
00000120: b310 edbe 4404 963e 9e8e 04bf d4f2 07bf
00000130: 1212 b43e 8a04 fdbc c523 173e 83a1 3fbe
00000140: 50fb c1be d990 12bf f381 6fbd 002f 2c3f
00000150: ba87 423c 7567 243e a3bb 23be 7bbd 01be
00000160: d91d 0d3b 6a26 103f d23e c93d 7485 363f
00000170: 8e0b 79be 546d d4be 9328 f8be 0095 203f
00000180: fdfb 743d 162d eabd 56e1 38bf 6326 23bf
00000190: e055 8b3e e08d 98be 1c7b 783e 47c3 a53e
000001a0: bd83 2c3e 6e12 08be c971 b63e 2796 04bf
000001b0: b2c3 a6be ec63 08be 2826 6dbe 19d1 ca3d
000001c0: 9d2d d1bc ae2f 89bc 1ada f1be fb5a 783e
000001d0: 5617 8b3e 87a3 11bf 12bf 66be dee4 01bf
000001e0: 101a a2be 5dca 553e 0c9c b1be c15c 763c
000001f0: 2672 9e3e 62f3 82bd 2385 5dbe 57f4 a03d
00000200: 3dca 033e 8741 42bf dc67 babe effe 133e
00000210: c922 3d3e 67e7 0a3e 41fd 863e 8867 d63e
00000220: ab99 d4bd 8297 013f 01c8 7d3e 801b 39bf
00000230: 1f7d 2fbf 92e6 ba3e 16e4 1e3d bae9 3a3f
00000240: 76ae 67be 4be3 89bd 487d 37bf 83d7 133f
00000250: 067e 083d 7022 a43e 24db 7abd 23c0 b3be
00000260: 0835 eb3e 341c d0be 30ad 08bd a253 bc3e
00000270: 1bab a3bc 4adf 503d 077d e93d f1d7 59be
00000280: 756a b73e 1587 103f 545c 0e3f da85 c03e
00000290: 0456 61be 5b83 f4be b461 a23e 7d9c 313f
000002a0: d541 e83c abb2 0ebf 66b1 61be c394 053c
000002b0: f276 283f c0dd 423b 9db0 1d3e d69b 2fbe
000002c0: 0253 fcbe ef0e 0c3f 3e36 babe 2a90 dc3e
000002d0: 0789 7b3e f065 22be 6f2d 253e f2ab a83e
000002e0: 701d 38be ccfa 0f3f 06ea 043e 1547 c8bd
000002f0: 7543 a63e 0b16 a7bc 2c75 e63e 96ee f73e
00000300: 9efe dfbe 4033 d6bd 8d55 96be a6d2 8a3d
00000310: 8158 093d 7e79 623e 7b86 203f e6ba f83e
00000320: 3e52 c0be 9d7b 483e 019b 8ebe e7a1 8e3e
00000330: 221b 0bbf 1cf4 8fbe 6ccd 753e 6f18 913e
00000340: ef98 73be b61b 83be c4f6 72be 034a d7be
00000350: d2b2 50be 8324 e93d 9ae7 9f3e 260a 8dbe
00000360: c035 983e 8472 fcbc f6a8 98be 77ad 033d
00000370: 9dab a73d 4984 0cbe 8c98 67be b226 c63e
0.0437477 -0.7364637 -0.0037855606 -0.4186273 0.030610183 0.20398869 -0.72926426 -0.21661638
0.26972342 0.045303106 -0.116853625 0.6127548 0.0030442993 0.42938426 0.07248094 -0.24234335
-0.32614315 -0.027718792 0.069220684 -0.13655901 -0.52858216 0.015916733 0.42514613 -0.5733313
0.18768375 -0.16538689 -0.5529776 -0.44977623 0.14075321 -0.64925337 0.32778218 -0.48755863
0.39397702 -0.13128601 -0.21922444 0.06084036 0.5885825 -0.055296592 0.33494303 0.077592365
0.7142317 -0.13435285 -0.38267222 -0.06404737 0.3395479 0.2824903 0.12227143 -0.60336393
-0.72075623 -0.40071794 0.49997094 -0.296238 -0.20398034 0.15011945 -0.70742023 -0.13201974
-0.18337174 -0.13506387 -0.61416215 -0.43610188 -0.14720532 -0.3902706 -0.28071135 -0.6322325
-0.30086586 -0.17542814 -0.16088974 0.19569299 0.5617097 0.47707504 -0.097057 -0.73486966
-0.46301803 0.2930013 -0.51780117 -0.531049 0.35170037 -0.030885953 0.14759739 -0.18713956
-0.3788705 -0.5725227 -0.05847354 0.67259216 0.01187318 0.1605509 -0.15989546 -0.12669937
0.0021532683 0.56308615 0.09826435 0.71297383 -0.24320814 -0.4148966 -0.48468456 0.62727356
0.059810627 -0.11434381 -0.72218835 -0.6373045 0.27213955 -0.29795742 0.24265712 0.32375547
0.16847129 -0.1328828 0.35633686 -0.51791614 -0.3257118 -0.13319367 -0.23159087 0.099031635
-0.025534445 -0.016746368 -0.4723671 0.24253456 0.2716624 -0.5689015 -0.22533825 -0.5073985
-0.3166051 0.20877977 -0.34689367 0.015036763 0.30946463 -0.06394078 -0.21632819 0.07859104
0.12870117 -0.75881237 -0.36407363 0.14452718 0.184703 0.13564835 0.26365092 0.41875863
-0.10380872 0.5062181 0.24783327 -0.72307587 -0.68550295 0.36504036 0.03879174 0.7301289
-0.22625145 -0.06732806 -0.7167554 0.5775072 0.03332331 0.32057524 -0.061244145 -0.35107526
0.45938897 -0.40646517 -0.03336829 0.36782557 -0.01997905 0.050994195 0.114008 -0.21273781
0.35823408 0.5645612 0.5560963 0.3760212 -0.22005469 -0.47756466 0.31715167 0.6937941
0.028351704 -0.55741376 -0.22040328 0.008153143 0.65806496 0.0029734224 0.15399404 -0.1714929
-0.4928208 0.54710287 -0.36369509 0.43078738 0.2456399 -0.15859199 0.16130613 0.32943684
-0.1797998 0.5624206 0.12979898 -0.09779183 0.3247334 -0.020396253 0.4501127 0.48424214
-0.43748945 -0.10458994 -0.29362145 0.06778459 0.03353167 0.22116658 0.627052 0.48580092
-0.37562746 0.19578405 -0.27852634 0.27857897 -0.54338276 -0.28115928 0.24004143 0.28338954
-0.23788808 -0.2560708 -0.23726946 -0.42048654 -0.20380715 0.11383917 0.31231385 -0.27546805
0.29728508 -0.030816324 -0.29816407 0.03214785 0.081870295 -0.13722338 -0.22616786 0.38701397

readout.weight f4 [126, 224]
00000000: d679 283e 0eb5 e8bd f5d2 6fbe 4aa2 fabd
00000010: df5a 2bbc 69c5 02be 3cac 12be aaa9 163e
00000020: fe51 383e 3ce9 6dbe 5dfd 183e ecd0 173c
00000030: 46fd 01be 16f5 65be 5e34 e13d 5cb2 283e
00000040: 23c3 e03d add7 f3bd 1e4e 423e 9fbf 2dbe
00000050: cfdf 053e 6cd5 36be de0d 69be 7f64 453e
00000060: 3924 45be f6c0 543e 725f 7c3e 61c5 0ebe
00000070: baee 28be 32df fcbd 47e3 3dbe f382 5cbe
00000080: d4af 10be d281 00be 4eed 613e 6371 29be
00000090: e49e 4b3e ea7d 3dbe 5dcb 44be 041f 5c3e
000000a0: f69e 363e 4db1 0ebe f8a9 2abe 322f 303e
000000b0: 8d55 ca3d 9fe6 0bbe 2436 213e 431a 24be
000000c0: bd87 483e 32fa 4f3e 2c80 16be 5c1e aabd
000000d0: 144f f73d 4113 853c a381 18be 5a2b 04be
000000e0: 07c5 2fbe 0d82 59be 92b5 13be d4cd 53be
000000f0: 9fe9 0d3e 9556 1b3e 05dd 2f3e 95fb 383e
00000100: 0a98 f13d d57e dd3d 4031 0fbe 9988 5c3e
00000110: 1ad2 36be 6d07 483e d1f8 fc3d 3bc8 d6bd
00000120: 379e 5fbe 6ad6 5ebe c16b 6dbe 3ef4 c5bd
00000130: 7f1d 313e 4b35 663e ad6d ff3d 366c 573e
00000140: 20b7 fabd d9c5 1c3e 148e 383e f873 313e
00000150: c525 e5bd ab24 523e d725 063e 5c37 0d3e
00000160: 8f9b 443e 02ec 39be a20f 35be f9b7 a9bb
00000170: 166d 453e 22e6 28be 8f5b 06be 7cce be3d
00000180: 6ef5 16be 733c 09be 12e1 f4bd ebbf 0dbe
00000190: c00e 4abe e78a ef3d 439e e8bd 1db6 26be
000001a0: 9da0 d53d 4ebf 2a3e 3a97 c83d 2768 4c3e
000001b0: 6ba0 2bbe 2f1f 6e3e 6de2 47be 04a6 00be
000001c0: e29f 29be c74b f1bd e80a ebbd 095f da3d
000001d0: c5ec 363e 8f30 3f3e a4a2 073e 1502 1fbe
000001e0: d4f2 1ebe a76f e2bd 5c51 30be ed6f 0e3e
000001f0: 0799 e2bd 186e 42be 8845 18be ceac 213e
00000200: f29e 023e 5847 fdbd 1873 3fbe a5fc d23d
00000210: 168e 1abe dddf 00be aa97 3f3e 9c53 0a3e
00000220: fb59 543e 9b1f 443e c815 cebd b6b6 dc3d
00000230: 8c55 3dbe a1d1 30bd 25b6 67be 13c0 083e
00000240: e43a 643e 5caa 12be 9a3d 67be 2635 f5bd
00000250: a03d 073e 3e0e ddbd 9fab 7abe cac7 45be
00000260: 58a0 213e a077 debd fbf2 08be 0c7c 1c3e
00000270: bc80 82be 930e ff3d 8d22 493e 9e64 e1bd
00000280: 3c8f 053e fbc3 e7bd 0b52 6a3e bfee 523e
00000290: 5064 3f3e cc59 45be 0647 4fbe 262c 40be
000002a0: 9e01 163e 2ac4 03be 0bb6 1d3e dc7d f0bd
000002b0: af3f 55be 7cb4 55be 7a3c c9bd 66e9 513e
000002c0: c171 2c3e 842c ecbd a97e 3abe a7b2 463e
000002d0: 1205 cebd 1ece 47be 6dbd f93d dbc1 6ebe
000002e0: e591 13be 0353 05be 14ef 063e 1f7e 60be
000002f0: 4b7d 213e b9ae 4abd 6e86 5ebe 6f64 093e
00000300: 3ad9 16be f7aa 2cbe 14b5 50bd 8c33 443e
00000310: 1a21 e93d 5b8f 653e 1d1c 443e be9b 52be
00000320: e564 0bbe 52d9 5a3e d230 1f3e 513e 5cbe
00000330: 1445 503e 1c2b 09be 90d9 5f3e 6555 163e
00000340: 5042 223e 2147 53be 61a6 143e f111 2abe
00000350: ad99 743e 5708 513e d451 dcbd 6233 e2bd
00000360: 2428 33be dfd5 fabd 8e2a ed3d 8870 5c3e
00000370: 27d1 4d3e 49b5 4a3e 88fe a83d e0f5 41be
00000380: e233 5e3e 9892 32be 17fa 09be fc9f 2dbe
00000390: 64c0 e13b 2104 fbbd aeb6 b5bd 2cd3 1f3e
000003a0: 18e2 1d3e 67d8 5abe 2dd1 e63d 79e5 59be
000003b0: f5b2 2abe f281 f2bd 9736 483e 397f d73d
000003c0: ebb7 d83d eaf1 5cbe 6fed 723e ee5c 66be
000003d0: a72f cd3d 289e 13be 3093 10be b86f 163e
000003e0: 3254 b8bc d677 ce3d f415 683e c99c 17be
000003f0: c65b 52be 1d66 37be 024c 67be 5142 5abe
0.16452727 -0.113626584 -0.23420317 -0.122379854 -0.010458677 -0.12770618 -0.14323515 0.14713159
0.18000028 -0.23233503 0.149404 0.009266119 -0.12694272 -0.22456774 0.109963164 0.16474289
0.109747194 -0.11906371 0.18975112 -0.16967629 0.13073657 -0.17854851 -0.22759196 0.19276617
-0.19252099 0.20776734 0.24645784 -0.13942482 -0.16497317 -0.123472586 -0.1854373 -0.21534328
-0.14129573 -0.12549523 0.22063181 -0.1654716 0.1988483 -0.18505064 -0.19218202 0.21496207
0.17834076 -0.13934822 -0.166664 0.17205504 0.09879599 -0.13662194 0.1574331 -0.16025643
0.1958303 0.20310286 -0.14697331 -0.08306572 0.1207563 0.016244533 -0.14893202 -0.12907162
-0.17165004 -0.21241017 -0.14424732 -0.20683986 0.1385865 0.15169747 0.17174156 0.18064721
0.11796577 0.10815207 -0.13983631 0.21536483 -0.17853585 0.19534083 0.123521455 -0.1048741
-0.21837698 -0.2176148 -0.23185636 -0.09665726 0.17296408 0.22481267 0.12472091 0.21037373
-0.122419596 0.15309848 0.18022949 0.17329395 -0.111888446 0.205218 0.13100372 0.13790649
0.19199966 -0.18156436 -0.17681745 -0.005179402 0.19279894 -0.16494039 -0.13120864 0.093167275
-0.14742061 -0.13401966 -0.11956991 -0.13842742 -0.19732189 0.116964154 -0.11358311 -0.16280408
0.10431025 0.1667454 0.09794469 0.19961606 -0.16760413 0.23254083 -0.19519968 -0.1256333
-0.16564897 -0.117820315 -0.114766896 0.10662658 0.17863758 0.18670867 0.13245636 -0.15528138
-0.15522319 -0.11056452 -0.17218536 0.13909884 -0.11064344 -0.1898731 -0.14870274 0.15788576
0.12755945 -0.12367123 -0.18696249 0.10302094 -0.15093264 -0.12585397 0.18710199 0.13508457
0.2073745 0.19152682 -0.10062748 0.10777037 -0.18489665 -0.043168668 -0.22628076 0.1335452
0.2228809 -0.143228 -0.22582093 -0.11973028 0.13207102 -0.10793732 -0.24479531 -0.19314495
0.15783823 -0.108626604 -0.1337394 0.15281695 -0.25488842 0.12453952 0.19642086 -0.11005519
0.13042921 -0.11316677 0.2288286 0.20598887 0.1869061 -0.19272536 -0.20241937 -0.18766841
0.14649054 -0.128678 0.15401475 -0.11742756 -0.20825075 -0.2086963 -0.09825988 0.2049919
0.16840269 -0.11531928 -0.1821238 0.19404088 -0.10059561 -0.19512221 0.12194333 -0.23316137
-0.14411123 -0.13019948 0.13177139 -0.21923111 0.15770452 -0.049483035 -0.21730968 0.13417219
-0.14731303 -0.16862093 -0.05095394 0.19160289 0.11383267 0.22417967 0.1915135 -0.20567223
-0.13612707 0.21371964 0.15545967 -0.21508147 0.20338851 -0.13395351 0.21860337 0.14681013
0.15845609 -0.20632602 0.14516594 -0.16608407 0.23886748 0.20413338 -0.10757795 -0.11044957
-0.17495781 -0.12247824 0.11580382 0.21527302 0.20099317 0.19795717 0.08251673 -0.1894145
0.21699479 -0.17438734 -0.13474308 -0.1695556 0.00688939 -0.12256647 -0.08872734 0.156079
0.15418279 -0.21371613 0.11270366 -0.21278943 -0.16669829 -0.11841191 0.19552074 0.10522313
0.105819546 -0.21576658 0.23723386 -0.22496387 0.100188546 -0.144158 -0.14118648 0.14691055
-0.022501085 0.10081451 0.22664624 -0.14805903 -0.20542821 -0.17910047 -0.22587588 -0.2131436

readout.bias f4 [126]
00000000: 2231 07be 5995 56be fd7d 0dbe df91 b03d
00000010: 130a e0bd 420a 2ebe 3377 00be 465c fcbd
00000020: 1d5b 6cbe abb4 36be 0d1c 383c a6e3 903c
00000030: 4d9d b6bd cb9c 1ebe b46f 03be 1fb0 e0bd
00000040: 7609 d5bd bfbe 25be 2bad 25be 7b02 d4bd
00000050: 6756 87bd 1bc5 3ebe 1b35 5abe 77db 45be
00000060: 0a79 1abe 3e56 0cbe 7d7b 1fbe b964 35be
00000070: 61dd 5dbe b6bc e4bd c09b 58be e702 18be
00000080: e48f 0dbe de82 5cbe 97ca fbbd 2766 5bbe
00000090: 92d1 5abe 7241 68be ab08 52be 9cd4 14be
000000a0: d500 d9bd 20de 46be e74f 4abe 8264 49be
000000b0: 30bf 45be f534 1fbe 13e8 5ebe 236f 32be
000000c0: fea0 20be 1f57 ffbd 6706 44be f896 04be
000000d0: 80f0 c7bd 7aba 1ebe 0269 4cbe 2c0e 61be
000000e0: b6b8 2abe 842c d5bd dcbb 60be 75b3 f4bd
000000f0: eaf7 6bbe 7470 4abe a5ce 01be 27d3 09be
00000100: dc5b 2bbe b15a 59be 2c4b d0bd eb41 02be
00000110: bd54 24be 9b56 dabd 34cb 57be daff 0dbe
00000120: 4eb3 46be 38e2 08be d1f8 20be 7c83 61be
00000130: 375c 44be 71f2 13be cf01 32be 86b4 61be
00000140: b0d8 4cbe 7db2 2bbe a137 62be 453b 32be
00000150: 719f eabd 8962 11be 9fa6 2dbe 865f 1ebe
00000160: 2659 10be 746d 64be a91f eebd f9af 37be
00000170: 63fd 02be 4bc9 dabd 48b9 1abe b77a 60bc
00000180: b259 07be 8983 d4bd bed3 05be debe 00be
00000190: c43e 273d 7b60 47be df7d eebd 66c5 48be
000001a0: fcaf 6abe 37d3 41be 2d1f 5fbe 7699 58be
000001b0: 3821 3ebe ed22 2dbe d2fd 0abe 5d03 11be
000001c0: b199 50be 3fee 21be 5c64 34be a4c5 56be
000001d0: 4504 e2bd 8fd1 e8bd 170b 50be 2522 2bbe
000001e0: fcfc 29be 6e40 29be 7a33 22be bd04 3f3d
000001f0: f246 18be f21a 843d
-0.13202336 -0.20955409 -0.13817592 0.08621573 -0.109394215 -0.169961 -0.12545471 -0.12322287
-0.23081632 -0.17842357 0.011237157 0.017686676 -0.089167215 -0.154895 -0.1283558 -0.109710924
-0.10402195 -0.16186045 -0.1617934 -0.103520356 -0.06608277 -0.18629877 -0.2130932 -0.19322
-0.15085235 -0.13704774 -0.15574451 -0.17714204 -0.2166648 -0.11168806 -0.21153164 -0.14844857
-0.13824421 -0.21534297 -0.122945 -0.21425687 -0.21369007 -0.22681215 -0.20511119 -0.14534229
-0.10595862 -0.19420671 -0.19757043 -0.19667247 -0.19311213 -0.15547545 -0.21768217 -0.17425208
-0.15686414 -0.12467789 -0.19143067 -0.12948215 -0.097626686 -0.15500823 -0.19961932 -0.21978062
-0.16672024 -0.10408881 -0.21946663 -0.11948291 -0.2304379 -0.1976946 -0.12676485 -0.13459454
-0.1673426 -0.21226002 -0.10170588 -0.12720458 -0.1604795 -0.1066105 -0.2107361 -0.13867131
-0.19404337 -0.13367546 -0.15719916 -0.22022814 -0.19175802 -0.14447953 -0.17383502 -0.2204152
-0.20004535 -0.16767307 -0.22091533 -0.17405422 -0.11456192 -0.14197744 -0.16958092 -0.15466127
-0.14096507 -0.22307378 -0.116271324 -0.17938222 -0.12791972 -0.10682925 -0.15109742 -0.0137011325
-0.1321781 -0.10376651 -0.13069054 -0.1257281 0.040831342 -0.19470398 -0.11645102 -0.19606552
-0.22918695 -0.18928228 -0.21789236 -0.2115229 -0.1856736 -0.16907854 -0.13573387 -0.14161439
-0.20371129 -0.1581354 -0.17616409 -0.20973831 -0.110359706 -0.11368095 -0.2031673 -0.16712244
-0.16600412 -0.16528484 -0.15839949 0.04663538 -0.14870813 0.06450452
