cde/model/rk4/9.ckpt (torch, 581263 bytes, 8 tensors)

func.linear1.weight f4 [128, 224]
0.20932446 -0.01967369 0.051490564 -0.061871458 -0.13900141 -0.107583694 -0.052234054 0.23101166
-0.17820737 -0.26695052 0.20685875 0.11396092 0.022801934 0.0033166069 -0.16150561 0.09049198
0.17377874 -0.09137407 0.16596818 -0.16158965 0.1656501 0.110597886 -0.27902672 0.2124707
0.13608721 -0.21157378 0.32322755 0.22574116 -0.17807372 0.15107024 -0.21323772 -0.21649434
0.20219555 0.18151082 0.23718068 0.21997724 0.109234035 -0.0039916467 -0.32913268 0.1996187
0.22793041 -0.16807666 -0.13251165 0.120959535 0.013432948 -0.33671635 0.109721884 -0.20270212
0.2186077 0.18595879 -0.24663582 -0.16775647 0.25993592 -0.31761557 -0.20614661 -0.24072532
-0.20602322 -0.16595027 -0.21441495 -0.2512057 0.05613825 -0.0076225665 0.25156423 0.26060233
0.27698168 -0.013439601 -0.05206017 -0.041000478 -0.30165654 -0.099089764 0.033814 0.11428911
-0.24947052 -0.25683668 0.03274576 -0.17346278 0.15739773 0.078899026 0.1904421 0.08948344
-0.25525498 -0.21205075 0.049793836 -0.14508565 0.2634138 0.1769684 0.19197504 -0.2864913
0.251777 0.1543437 -0.17346407 -0.30991775 0.17811273 0.07399022 -0.20748562 0.15072754
-0.25690117 -0.1283973 -0.109360516 0.053621497 -0.11736573 0.14316861 -0.14885947 -0.091642246
0.15352443 0.17415498 0.14237173 0.20977028 -0.30000213 0.2595574 -0.222073 -0.096324705
-0.14829269 -0.09284404 -0.089403756 0.027065009 0.11092624 0.21596716 0.21603161 -0.22939865
-0.019667659 -0.16853422 -0.1362848 0.25297815 0.15609352 -0.124648616 -0.06776349 -0.2444039
-0.10330693 -0.18707196 -0.15214714 -0.075881876 0.082459256 -0.009924297 0.15604515 0.07802157
0.036711197 -0.006368068 -0.0007406972 0.2387169 0.23499401 -0.045643087 -0.24894296 0.23526433
0.1392774 -0.25869164 -0.1689821 0.29532436 0.3212761 -0.23012616 -0.24682137 -0.018846191
0.061054233 -0.10310127 -0.0082286345 0.1928174 -0.17902198 -0.1310775 0.13757685 -0.19432722
0.1030292 -0.23203789 0.21912026 0.3087357 0.20603304 -0.24672772 -0.27569145 -0.1536345
0.1535981 -0.20974845 0.32964128 0.22534186 -0.25870153 -0.25603014 -0.2638097 0.2721464
0.14308923 -0.1702229 0.24380194 0.029464202 -0.22097759 -0.31434765 0.2515574 0.0048327516
0.034066718 -0.028404241 -0.14403039 0.28507787 0.25449175 -0.004472813 -0.15342164 0.25599843
-0.24786234 -0.08068203 -0.010060048 0.03581966 0.2171981 -0.006615186 0.33006486 0.011287422
-0.24648051 -0.21284452 -0.23981328 -0.044098828 0.10805268 0.09825174 0.14580409 -0.073427245
0.03196691 0.017184606 -0.007275684 -0.17349987 0.10353298 0.074856915 -0.092471845 -0.1175879
-0.11211984 -0.08128445 0.14756319 -0.08469226 0.10880047 -0.17289838 0.102344856 -0.19928584
0.03454371 -0.30342638 0.26498172 -0.32198468 -0.2403831 0.20644245 -0.26086128 0.29897687
-0.036291476 -0.12607044 -0.2932054 -0.10742674 -0.018621808 0.04811445 -0.22741 -0.2918199
0.21282744 -0.00045541069 -0.25071895 -0.10668077 0.23561294 -0.03287093 -0.2194399 0.037754692
0.21469589 0.30481157 0.1788264 -0.2917735 -0.13361035 -0.013599594 0.32079124 -0.03395123
00000000: 2759 563e b82a a1bc c5e7 523d ed6c 7dbd
00000010: 6356 0ebe d754 dcbd 60f3 55bd 528e 6c3e
00000020: fe7b 36be bdad 88be c8d2 533e 5864 e93d
00000030: 1fcb ba3c 6e5b 593b ba61 25be dc53 b93d
00000040: 0ef3 313e 5422 bbbd 90f3 293e c277 25be
00000050: 2ea0 293e 2581 e23d 97dc 8ebe eb91 593e
00000060: 725a 0b3e cca6 58be 157e a53e b128 673e
00000070: f558 36be 28b2 1a3e fd5a 5abe b1b0 5dbe
00000080: 5a0c 4f3e f9dd 393e 7edf 723e b741 613e
00000090: 18b6 df3d 5ccc 82bb 1484 a8be d868 4c3e
000000a0: 9766 693e 4a1c 2cbe 22b1 07be a2b9 f73d
000000b0: de15 5c3c 1666 acbe deb5 e03d 2591 4fbe
000000c0: b2da 5f3e fb6b 3e3e 1a8e 7cbe 5ac8 2bbe
000000d0: 5216 853e 829e a2be 1918 53be b380 76be
000000e0: c0f7 52be deee 29be 988f 5bbe 099e 80be
000000f0: 39f1 653d b9c6 f9bb 07cd 803e ab6d 853e
00000100: 8bd0 8d3e c631 5cbc 0b3d 55bd 1ef0 27bd
00000110: ba72 9abe 93ef cabd 8d80 0a3d 6910 ea3d
00000120: 3375 7fbe 1980 83be 6b20 063d 3aa0 31be
00000130: df2c 213e d095 a13d 4103 433e 1843 b73d
00000140: c8b0 82be d523 59be 9ff4 4b3d 5591 14be
00000150: 2cde 863e 3437 353e 1b95 443e fdae 92be
00000160: eae8 803e 460c 1e3e 91a0 31be 8aad 9ebe
00000170: 2f63 363e 2f88 973d 1c77 54be 5258 1a3e
00000180: 8d88 83be 957a 03be 68f8 dfbd 37a2 5b3d
00000190: 725d f0bd cb9a 123e 9e6e 18be eeae bbbd
000001a0: 8235 1d3e af55 323e e5c9 113e 05ce 563e
000001b0: e199 99be b5e4 843e 1b67 63be e345 c5bd
000001c0: 0ada 17be 0425 bebd 5119 b7bd 70b7 dd3c
000001d0: 4c2d e33d 7f26 5d3e 6437 5d3e 7be7 6abe
000001e0: 121e a1bc 3c94 2cbe 3e8e 0bbe 5a86 813e
000001f0: fbd6 1f3e c647 ffbd 96c7 8abd 0445 7abe
00000200: 9592 d3bd cb8f 3fbe 76cc 1bbe f567 9bbd
00000210: 66e0 a83d 8599 22bc 4dca 1f3e c6c9 9f3d
00000220: 7b5e 163d 3aab d0bb 592b 42ba 3472 743e
00000230: 45a2 703e 3ff4 3abd e7ea 7ebe 22e9 703e
00000240: bc9e 0e3e 3b73 84be a509 2dbe c134 973e
00000250: 4d7e a43e 31a6 6bbe bebe 7cbe 5463 9abc
00000260: 0114 7a3d c226 d3bd 65d1 06bc ed71 453e
00000270: 8a51 37be 2e39 06be f2e0 0c3e b7fd 46be
00000280: f900 d33d 579b 6dbe 1061 603e 9b12 9e3e
00000290: 53fa 523e 31a6 7cbe 6e27 8dbe 5d52 1dbe
000002a0: d248 1d3e 4cc8 56be bec6 a83e 04c0 663e
000002b0: 8774 84be 6216 83be 1112 87be c656 8b3e
000002c0: fc85 123e e94e 2ebe 37a7 793e e95e f13c
000002d0: f347 62be 2df2 a0be 22cc 803e 0f5c 9e3b
000002e0: 8b89 0b3d 03b0 e8bc b47c 13be baf5 913e
000002f0: be4c 823e ad90 92bb 901a 1dbe 3a12 833e
00000300: a0cf 7dbe 9f3c a5bd e6d2 24bc a3b7 123d
00000310: 2e69 5e3e 34c4 d8bb 43fe a83e e1ee 383c
00000320: 6365 7cbe eaf3 59be 9d91 75be f9a0 34bd
00000330: b94a dd3d 3538 c93d ab4d 153e 0661 96bd
00000340: bcef 023d bbc6 8c3c dc68 eebb f3a9 31be
00000350: 1909 d43d 954e 993d e161 bdbd edd1 f0bd
00000360: 169f e5bd 7678 a6bd ce1a 173e 2373 adbd
00000370: c8d2 de3d 460c 31be 2e9a d13d 9611 4cbe
00000380: b57d 0d3d b45a 9bbe afab 873e 2ddb a4be
00000390: fd26 76be a665 533e 9c8f 85be 7f13 993e
000003a0: 5fa6 14bd 9c18 01be 051f 96be 8d02 dcbd
000003b0: c38c 98bc a813 453d 2bde 68be 6b69 95be
000003c0: 70ef 593e 30c4 eeb9 3c5e 80be 737b dabd
000003d0: 8544 713e aba3 06bd dab4 60be aaa4 1a3d
000003e0: 3dd9 5b3e 4310 9c3e 451e 373e 5663 95be
000003f0: 27d1 08be d5d0 5ebc c03e a43e 7210 0bbd

func.linear1.bias f4 [128]
-0.29882106 -0.33164415 0.030294022 0.18609786 -0.13485803 -0.18755643 -0.27749684 0.2723277
0.10455757 0.2924295 -0.19046807 -0.21742113 0.22326158 -0.2831368 -0.20223483 0.29196244
-0.15387373 -0.25464028 -0.31126335 0.04955383 -0.20892577 -0.14574651 0.20557432 0.30802277
0.34447777 -0.30815038 -0.2765892 -0.13658766 -0.18680435 0.25579107 0.24236877 -0.2640964
-0.04071434 -0.040658288 -0.28964114 -0.22474268 0.31481767 -0.023183897 -0.23034638 0.23985095
-0.21123794 0.19252002 0.19790038 -0.23041184 0.14631629 0.26796573 -0.2931585 0.15449463
-0.3180652 -0.30035 -0.13776982 -0.2554697 -0.25238058 -0.05619665 0.29317236 0.25095448
0.043389484 -0.26940387 -0.3193363 0.1695736 -0.2932471 0.17865512 -0.2135703 0.3306519
0.08752549 0.16887996 -0.17426069 -0.27969572 -0.25485763 0.18848567 0.29467446 0.113520324
-0.28423026 0.1515665 -0.21224976 -0.18571231 0.22698471 -0.048627652 0.014080706 -0.32640296
0.30173826 -0.08817356 0.018841911 -0.19959196 0.12192049 0.20708376 0.13091885 -0.018680872
-0.23350932 0.13883601 -0.29622102 0.3278366 -0.23759076 -0.10376651 -0.096343786 -0.1755788
-0.13777672 -0.16317612 0.2266498 -0.20396349 0.22358942 -0.10796462 -0.17283212 0.27905762
0.16741319 -0.1674253 0.042816244 -0.21899115 0.17289859 -0.3099086 -0.20105994 -0.17934643
-0.23450522 -0.24511051 0.18122995 -0.27787015 -0.3143038 -0.2593648 0.026301881 0.2504691
0.28666013 0.31740397 0.34863997 0.22076538 -0.045777705 -0.12437792 -0.12538832 -0.18948005
00000000: 13ff 98be 43cd a9be 2b2b f83c 7090 3e3e
00000010: 3918 0abe cb0e 40be 1114 8ebe 896e 8b3e
00000020: 4722 d63d 52b9 953e 100a 43be a5a3 5ebe
00000030: af9e 643e 4ff7 90be a616 4fbe 1a7c 953e
00000040: 1391 1dbe 3660 82be e95d 9fbe f5f8 4a3d
00000050: a3f0 55be 933e 15be 1382 523e 29b5 9d3e
00000060: 645f b03e e3c5 9dbe 1a9d 8dbe a3dd 0bbe
00000070: a449 3fbe 0cf7 823e 852f 783e a537 87be
00000080: 14c4 26bd 4e89 26bd d84b 94be f222 66be
00000090: c82f a13e 28ec bdbc ecdf 6bbe 7d9b 753e
000000a0: c24e 58be f823 453e 66a6 4a3e 15f1 6bbe
000000b0: f0d3 153e ce32 893e df18 96be d733 1e3e
000000c0: 71d9 a2be 7ac7 99be 8813 0dbe edcc 82be
000000d0: 0738 81be 752e 66bd b01a 963e 1b7d 803e
000000e0: 2cb9 313d 4eef 89be 0c80 a3be b4a4 2d3e
000000f0: 7c24 96be 5ef1 363e 2cb2 5abe 354b a93e
00000100: 9040 b33d deee 2c3e 6571 32be 4734 8fbe
00000110: b37c 82be 6302 413e 92df 963e 587d e83d
00000120: a186 91be 4034 1b3e 0058 59be 5e2b 3ebe
00000130: ae6e 683e ca2d 47bd c3b2 663c 4a1e a7be
00000140: 707d 9a3e 5794 b4bd 5a5a 9a3c d661 4cbe
00000150: 73b1 f93d c40d 543e 970f 063e a108 99bc
00000160: 111d 6fbe 072b 0e3e 48aa 97be 33da a73e
00000170: fe4a 73be 8983 d4bd e44f c5bd eeca 33be
00000180: 5715 0dbe a417 27be e316 683e cedb 50be
00000190: a0f4 643e 8e1c ddbd e7fa 30be a4e0 8e3e
000001a0: 5d6e 2b3e 8a71 2bbe 1660 2f3d 373f 60be
000001b0: 540c 313e 57ac 9ebe a8e2 4dbe 97a6 37be
000001c0: 2322 70be 40fe 7abe 5894 393e ff44 8ebe
000001d0: 6dec a0be 77cb 84be 0b77 d73c 7c3d 803e
000001e0: 1ec5 923e c682 a23e f080 b23e 5210 623e
000001f0: 6781 3bbd dab9 febd cc65 00be 0f07 42be

func.linear2.weight f4 [672, 128]
0.14400585 0.2833047 0.27745923 0.22250694 0.27049977 0.21320322 0.18405704 0.24837229
0.25017354 0.15334441 0.15502805 0.28193635 0.1304844 0.17118293 0.15184836 0.2190181
0.26308778 0.14815786 0.24197938 0.15201895 0.1927638 0.24191296 0.28331423 0.28600058
0.24182689 0.22855851 0.15839215 0.22479765 0.15491308 0.26517144 0.24423008 0.22781022
0.28570503 0.14234453 0.25323468 0.17778715 0.14383808 0.2123402 0.26472822 0.13533299
0.16648221 0.18554525 0.13753046 0.1420386 0.14961809 0.22255813 0.18379867 0.1404595
0.28610745 0.28016362 0.15115106 0.30426863 0.22824603 0.245463 0.19258213 0.29130933
0.24299507 0.19135393 0.15180115 0.24779242 0.16051568 0.21698324 0.14504199 0.16278057
0.16084234 0.13393913 0.28541288 0.30612856 0.18666042 0.21854185 0.23161156 0.13665813
0.23646139 0.19850369 0.22964704 0.17173679 0.16704243 0.1530794 0.14291124 0.2453779
0.19206767 0.2988846 0.3047656 0.23223487 0.30485085 0.20744143 0.2649322 0.23558877
0.16346104 0.1501289 0.27748787 0.2420479 0.2988728 0.1567652 0.22662053 0.15996353
0.1551732 0.13519405 0.20677204 0.30013743 0.25734347 0.21902958 0.16460307 0.15213074
0.3005119 0.13639781 0.21705356 0.16812001 0.17005385 0.19210622 0.19103315 0.19470069
0.19330049 0.16778363 0.21774772 0.27856764 0.17467865 0.13687085 0.17557806 0.3025172
0.13667333 0.21725439 0.2591986 0.23608407 0.26853797 0.20930444 0.255245 0.22316544
0.22265951 0.2132165 0.15786768 0.22357908 0.14801514 0.26293656 -0.28390893 0.21923994
0.17386705 0.29514888 0.20593722 0.17749271 0.26434237 0.21016529 0.14232114 0.19307844
-0.17283873 0.18639593 0.2591689 0.26607433 0.29711878 0.19786914 0.20672736 0.21485616
0.26268816 -0.18654875 0.285996 0.23074117 0.16569167 0.20364738 0.21889639 0.1382053
0.22979243 0.22027956 0.27398068 0.13698213 0.23883829 0.13526654 0.17141691 0.25438786
0.15069896 0.30039167 0.28164414 0.25980732 0.23730963 0.1818801 0.2849902 0.27795812
0.27957833 0.28385073 0.1414007 0.18125239 0.1357987 0.20884204 0.2546637 0.14058067
0.21364823 0.18486343 0.16255961 0.25198814 0.15719602 0.26502043 0.2883284 0.23356728
0.1353029 0.18614733 0.25822288 -0.29271176 0.25188228 0.23495461 -0.26273608 0.3011445
0.14700313 0.3049934 0.22673169 0.24561636 0.13316528 0.17865148 0.21187343 0.1747603
0.13645177 0.13401344 0.26244003 0.22308208 0.15860455 0.1628524 0.16104352 0.18309766
0.2947946 0.2005379 0.22312237 -0.25988245 0.29475617 0.15942143 0.28878814 0.23352699
0.29667485 0.18539761 0.16848294 0.13651834 0.23137975 0.2978958 0.13233018 0.25506982
0.16417655 0.28793937 0.29028255 0.20735408 0.29448012 0.18867452 0.27583352 0.16471289
0.19662291 0.19243075 0.14062494 0.23589392 0.21193856 0.26586226 0.1733242 0.20390211
0.1862956 0.17419305 0.29070273 0.15724078 0.27850637 0.1737709 0.28826377 0.20744668
00000000: 4576 133e 500d 913e 230f 8e3e dcd8 633e
00000010: f27e 8a3e f251 5a3e 7379 3c3e 4e55 7e3e
00000020: bf16 803e 5106 1d3e acbf 1e3e f659 903e
00000030: b49d 053e 944a 2f3e 237e 1b3e 4846 603e
00000040: 71b3 863e b2b6 173e 71c9 773e dbaa 1b3e
00000050: e063 453e 08b8 773e 900e 913e ab6e 923e
00000060: 78a1 773e 3e0b 6a3e 8d31 223e 5b31 663e
00000070: 89a1 1e3e 8dc4 873e 7317 7a3e 1547 693e
00000080: ee47 923e c4c2 113e faa7 813e d60d 363e
00000090: 4a4a 133e b66f 593e 758a 873e bb94 0a3e
000000a0: 507a 2a3e 93ff 3d3e c9d4 0c3e 9172 113e
000000b0: 7c35 193e 47e6 633e b835 3c3e 9dd4 0f3e
000000c0: ad7c 923e 9b71 8f3e 58c7 1a3e 19c9 9b3e
000000d0: 54b9 693e a75a 7b3e 4034 453e 7f26 953e
000000e0: b3d3 783e 49f2 433e c371 1b3e 4cbd 7d3e
000000f0: 395e 243e db30 5e3e e385 143e f3af 263e
00000100: dbb3 243e 5727 093e a321 923e e2bc 9c3e
00000110: e923 3f3e 6fc9 5f3e 952b 6d3e 1cf0 0b3e
00000120: ef22 723e 8d44 4b3e 9828 6b3e c5db 2f3e
00000130: 2c0d 2b3e d9c0 1c3e 5357 123e 5844 7b3e
00000140: 63ad 443e 6707 993e 3d0a 9c3e face 6d3e
00000150: 6915 9c3e 876b 543e 31a5 873e 2f3e 713e
00000160: 5562 273e 64bb 193e e412 8e3e 68db 773e
00000170: db05 993e 0e87 203e 360f 683e 7bcd 233e
00000180: b9e5 1e3e 4f70 0a3e 0dbc 533e 9dab 993e
00000190: 86c2 833e 4a49 603e b58d 283e 29c8 1b3e
000001a0: b2dc 993e deab 0b3e 4a43 5e3e a727 2c3e
000001b0: 9922 2e3e 7eb7 443e 329e 433e 9e5f 473e
000001c0: 90f0 453e 79cf 2b3e 42f9 5e3e 6ba0 8e3e
000001d0: f6de 323e df27 0c3e bcca 333e 89e3 9a3e
000001e0: 18f4 0b3e ef77 5e3e aeb5 843e 06c0 713e
000001f0: cf7d 893e e753 563e 79af 823e 7b85 643e
00000200: db00 643e 6d55 5a3e 11a8 213e eaf1 643e
00000210: 4891 173e 9f9f 863e 835c 91be 6f80 603e
00000220: 340a 323e c11d 973e 35e1 523e a6c0 353e
00000230: e257 873e 9235 573e a2bc 113e 5bb6 453e
00000240: a3fc 30be 93de 3e3e c9b1 843e e53a 883e
00000250: f41f 983e 359e 4a3e 56b0 533e 4103 5c3e
00000260: 107f 863e a306 3fbe 116e 923e 6a47 6c3e
00000270: 14ab 293e f088 503e 6026 603e b185 0d3e
00000280: b54e 6b3e f790 613e 3247 8c3e 0b45 0c3e
00000290: 0692 743e 5083 0a3e ea87 2f3e 203f 823e
000002a0: d450 1a3e f0cc 993e a933 903e 7705 853e
000002b0: 4c01 733e c73e 3a3e 3cea 913e 8750 8e3e
000002c0: e424 8f3e e254 913e 58cb 103e 3a9a 393e
000002d0: d00e 0b3e b0da 553e 4863 823e 61f4 0f3e
000002e0: 9ac6 5a3e d74c 3d3e 0776 263e 9704 813e
000002f0: fef7 203e c2b0 873e c89f 933e 432c 6f3e
00000300: d88c 0a3e 689d 3e3e ca35 843e 51de 95be
00000310: b7f6 803e f197 703e 5885 86be 9d2f 9a3e
00000320: fd87 163e 1828 9c3e 5a2c 683e db82 7b3e
00000330: 7b5c 083e 6af0 363e 59f5 583e 5df4 323e
00000340: 03ba 0b3e d23a 093e 8a5e 863e a16f 643e
00000350: 3b69 223e c8c2 263e 98e8 243e f47d 3b3e
00000360: 51ef 963e cf59 4d3e 317a 643e 500f 85be
00000370: 48ea 963e 5f3f 233e 0adc 933e b321 6f3e
00000380: c4e5 973e dfd8 3d3e cb86 2c3e 77cb 0b3e
00000390: d0ee 6c3e cc85 983e 9081 073e 8398 823e
000003a0: e61d 283e ca6c 933e ea9f 943e a154 543e
000003b0: 19c6 963e e533 413e 0d3a 8d3e 7faa 283e
000003c0: 8457 493e 910c 453e fcff 0f3e 2d8e 713e
000003d0: 6c06 593e 191f 883e e67b 313e b7cb 503e
000003e0: 46c4 3e3e aa5f 323e fdd6 943e ba03 213e
000003f0: 6398 8e3e 00f1 313e 4f97 933e e76c 543e

func.linear2.bias f4 [672]
0.2919349 0.30453897 -0.30278602 -0.1866782 -0.21844025 0.28089315 -0.16919218 -0.095543146
0.24236391 -0.22979733 -0.15754247 -0.14253211 -0.27496994 -0.14540073 -0.21989886 -0.2968868
-0.19778667 0.23815913 -0.23118316 -0.19118302 -0.3014823 -0.23494536 -0.15208328 0.16575488
0.29768738 0.24153659 -0.13105771 0.3032447 0.27910045 0.23601653 0.24259707 0.22904515
0.33756015 0.009541731 -0.24340752 0.24160185 -0.16662511 -0.015021718 0.35156944 0.33145505
0.2435443 -0.26113957 0.16766198 0.23822148 -0.1509093 0.1397775 0.2514717 0.29196075
0.2629576 -0.21323687 0.26801145 -0.21499193 -0.11434614 -0.2188357 0.28940374 0.25276315
0.21030028 0.22564195 0.1774935 0.28411597 -0.22605027 -0.15125908 0.27519515 -0.2667135
-0.14753969 0.3040807 -0.15314232 0.30357024 -0.29013792 -0.17106889 -0.26825422 -0.18112549
-0.18500227 -0.14302771 0.17378257 0.2589955 0.21077453 0.26349068 -0.16011472 -0.15192875
-0.16424458 -0.27537382 -0.06741306 -0.16740513 -0.21876405 -0.25800076 -0.14041428 -0.2764633
-0.22290494 0.20320284 -0.13448589 -0.22980517 0.1466605 -0.20426849 0.1559317 -0.18852578
-0.1770575 -0.14150712 0.18070297 -0.18237568 -0.13614348 0.14726818 0.14235553 0.2872668
-0.28386292 -0.15016493 -0.2565905 -0.16901504 0.2828813 0.16766717 0.14483422 -0.16892612
-0.21948865 -0.18621963 -0.29898298 -0.22555697 0.16442046 -0.2378501 -0.20892428 0.15034187
0.2461667 -0.3061961 0.14664558 0.2726644 0.21324757 0.22918604 0.2886943 0.17668286
-0.19267267 0.20338923 0.22688542 0.18040171 0.2801405 0.093911216 0.24030511 0.22015156
0.18981233 0.29459068 0.23425622 0.27660403 0.24612378 -0.13033147 -0.20768346 -0.1250591
-0.25366476 0.23704728 -0.1946341 0.30557016 0.14749807 0.15978554 0.16684297 0.15857205
0.2521583 0.1652845 0.08719082 0.17186378 0.25505927 0.18019533 0.13153897 0.29239893
0.27602974 0.2740688 0.12178857 0.21093307 -0.14017317 -0.24168319 -0.28525728 0.23552983
-0.2609173 -0.2816204 -0.27420723 -0.28354186 -0.18125823 0.2956576 -0.18040627 -0.15186036
-0.2562545 0.2343527 0.21010582 -0.32205832 -0.15299408 -0.11395181 0.19426528 0.28319913
0.27671656 0.2203104 0.30457217 -0.17122383 0.24575739 -0.20222531 -0.24385735 -0.23914483
-0.19697157 0.14832132 0.21213077 0.13235159 0.14805399 0.23209743 -0.2193141 -0.18400912
-0.2673429 0.25052544 0.2550172 0.2950727 0.2113668 0.14705226 -0.17254524 -0.14884546
-0.25186792 -0.21769434 0.30179036 -0.13873677 0.26493317 -0.16298996 -0.10840412 0.2334773
0.18335192 0.24448845 0.24111857 0.17544855 0.19444978 0.17668164 0.16973491 0.1516288
0.28117594 -0.25892657 -0.27577555 0.1863977 0.15266208 -0.07811433 0.20620096 -0.16056965
0.18851471 0.23825102 0.30388433 0.3038598 0.23494683 0.23592785 0.13073066 0.24351278
0.30328113 -0.21083812 0.26067442 -0.2589573 0.039185166 -0.18566309 0.24814135 -0.22852358
0.2888347 0.22249636 0.13855886 -0.30084985 0.17541622 -0.2993152 0.23935924 0.21243487
00000000: 7e78 953e 88ec 9b3e c506 9bbe 9228 3fbe
00000010: cdae 5fbe 3ad1 8f3e b740 2dbe 20ac c3bd
00000020: 3f2e 783e fe4f 6bbe d052 21be f0f3 11be
00000030: dcc8 8cbe eee3 14be 2b2d 61be 8c01 98be
00000040: 9788 4abe fddf 733e 47bb 6cbe 7bc5 43be
00000050: e35b 9abe 8495 70be b8bb 1bbe a6bb 293e
00000060: 7b6a 983e 5e55 773e fe33 06be e442 9b3e
00000070: 41e6 8e3e 51ae 713e 5e6b 783e d08a 6a3e
00000080: afd4 ac3e ec54 1c3c d23f 79be 7a66 773e
00000090: c69f 2abe a71d 76bc e900 b43e 7ab4 a93e
000000a0: ad63 793e 16b4 85be 95af 2b3e 55f0 733e
000000b0: f887 1abe d521 0f3e e6c0 803e e17b 953e
000000c0: 61a2 863e c45a 5abe cc38 893e d826 5cbe
000000d0: 4f2e eabd 7716 60be ba2c 943e 2c6a 813e
000000e0: f558 573e af0e 673e dbc0 353e a677 913e
000000f0: b979 67be a9e3 1abe 61e6 8c3e ac8e 88be
00000100: a514 17be 77b0 9b3e 57d1 1cbe 8f6d 9b3e
00000110: f58c 94be af2c 2fbe 9e58 89be f678 39be
00000120: 3c71 3dbe db75 12be 0ff4 313e 0f9b 843e
00000130: 47d5 573e 40e8 863e 1df5 23be 3693 1bbe
00000140: bb2f 28be ccfd 8cbe dc0f 8abd 406c 2bbe
00000150: af03 60be ad18 84be c3c8 0fbe 998c 8dbe
00000160: 3141 64be 6814 503e abb6 09be 0c52 6bbe
00000170: 2c2e 163e c22b 51be 8fac 1f3e e70c 41be
00000180: 904e 35be 3ee7 10be 330a 393e b1c0 3abe
00000190: 3269 0bbe 78cd 163e a6c5 113e a214 933e
000001a0: 7b56 91be d6c4 19be d45f 83be 4712 2dbe
000001b0: d1d5 903e f1b0 2b3e 6c4f 143e f8fa 2cbe
000001c0: a2c1 60be 5cb0 3ebe 4c14 99be 68f8 66be
000001d0: d65d 283e fa8e 73be 3ff0 55be 38f3 193e
000001e0: 2013 7c3e bcc5 9cbe 422a 163e ab9a 8b3e
000001f0: 925d 5a3e bfaf 6a3e bdcf 933e 5aec 343e
00000200: fc4b 45be 4445 503e a754 683e 3abb 383e
00000210: 936e 8f3e 8654 c03d 8b12 763e 696f 613e
00000220: 2a5e 423e 97d4 963e dde0 6f3e 0b9f 8d3e
00000230: df07 7c3e 9d75 05be f9aa 54be 7e0f 00be
00000240: 59e0 81be 86bc 723e 294e 47be b173 9c3e
00000250: bc09 173e d29e 233e e2d8 2a3e b660 223e
00000260: e51a 813e 5740 293e 1a91 b23d 0ffd 2f3e
00000270: 2197 823e 2085 383e 27b2 063e 50b5 953e
00000280: c553 8d3e bf52 8c3e 496c f93d d7fe 573e
00000290: 8e89 0fbe cc7b 77be 3e0d 92be bb2e 713e
000002a0: f496 85be 8d30 90be e464 8cbe 662c 91be
000002b0: c29b 39be 6f60 973e 6cbc 38be 4881 1bbe
000002c0: ca33 83be 27fa 6f3e fb25 573e d4e4 a4be
000002d0: 7baa 1cbe 915f e9bd 7aed 463e 7aff 903e
000002e0: cbad 8d3e 0d99 613e e2f0 9b3e 4d55 2fbe
000002f0: d3a7 7b3e 2714 4fbe beb5 79be 62e2 74be
00000300: eab2 49be 8be1 173e cf38 593e 2d87 073e
00000310: 779b 173e f3aa 6d3e e093 60be e36c 3cbe
00000320: 2be1 88be df44 803e 9d91 823e c513 973e
00000330: 8a70 583e de94 163e b3af 30be f26a 18be
00000340: d5f4 80be 44eb 5ebe 4484 9a3e 0311 0ebe
00000350: 52a5 873e d7e6 26be fb02 debd ac14 6f3e
00000360: 9bc0 3b3e 2e5b 7a3e c9e7 763e c9a8 333e
00000370: d81d 473e 08ec 343e fdce 2d3e 9544 1b3e
00000380: 4bf6 8f3e 0692 84be 7432 8dbe 0adf 3e3e
00000390: 7353 1c3e 68fa 9fbd 5826 533e 5f6c 24be
000003a0: 000a 413e 13f8 733e ba96 9b3e 8393 9b3e
000003b0: e795 703e 1297 713e 42de 053e 6a5b 793e
000003c0: aa47 9b3e f3e5 57be 1e77 853e 0d96 84be
000003d0: a080 203d 771e 3ebe c418 7e3e 1602 6abe
000003e0: 24e2 933e 16d6 633e 60e2 0d3e fe08 9abe
000003f0: 4fa0 333e d83f 99be 971a 753e 8788 593e

initial.weight f4 [224, 3]
-0.048638314 0.19089606 -0.28050202 -0.37819946 -0.27162737 0.18769962 0.13128124 0.15650806
-0.49843872 -0.3459809 0.2112059 -0.036712915 -0.29621562 -0.5879776 0.0725154 -0.24873352
0.019240493 -0.6801488 0.058938593 0.29094785 -0.2319489 0.32362035 -0.3423497 0.073049344
-0.3996994 0.53789616 -0.1774544 -0.15605466 -0.2552325 0.25497016 0.29797208 -0.28700164
-0.24245112 -0.27446172 0.082527876 0.12270268 0.017495336 0.12201987 0.32961506 0.16570733
-0.22135249 0.5661345 0.3773045 -0.064329125 0.14790674 -0.3201551 -0.17140731 0.48077938
0.23247911 -0.18798757 -0.30021268 -0.17388152 0.21859747 0.15957311 -0.25238287 -0.35843766
0.71837026 0.5490363 -0.103461586 0.6050136 -0.2611911 -0.38693783 -0.400668 0.34952003
0.15845156 -0.23305877 0.36105376 0.2493547 -0.795235 0.010563016 -0.4640463 -0.022021187
-0.32090366 -0.620641 0.16562897 -0.18752258 0.2867294 -0.2990698 -0.012282153 -0.5590509
0.49196532 -0.2545706 -0.2990448 0.19909576 -0.26737785 -0.13924797 0.085034244 -0.3085994
0.2718629 0.07223608 0.011727167 -0.08200346 -0.44237652 0.2852611 -0.15195009 0.05398918
0.1860045 -0.29280502 -0.41092765 -0.49731132 -0.002134994 0.21335731 -0.08307691 -0.2509834
0.10849917 -0.51404655 0.32543653 -0.23122169 0.42546213 -0.22843285 0.17851138 0.5173959
0.2567904 -0.47299078 0.59423107 0.15698887 0.17733398 0.13387413 -0.37091014 -0.4482917
-0.32959628 -0.14807495 0.041386835 -0.22289081 0.060832713 0.55864674 -0.5468737 -0.16578789
0.3726691 -0.01845144 -0.28381005 0.104684874 -0.4574612 0.16131216 0.17086296 -0.32781065
0.6422694 -0.13929574 0.04654214 -0.18553613 0.41725993 -0.43519396 0.08790902 -0.016777625
-0.59678507 -0.49489054 -0.38450834 0.26522928 -0.1212687 -0.3098536 0.63771266 0.31352603
-0.12264998 0.6679823 0.5878599 -0.15173683 0.57020223 0.20856924 -0.1369092 0.1601051
0.38723263 -0.14150533 0.26622018 0.26576346 -0.25091082 -0.3199254 0.25369164 -0.17214088
-0.16172415 -0.0317534 0.1622299 -0.06622151 0.051490463 -0.3705647 0.49569315 0.2558973
0.25827235 0.4674805 0.4067809 0.1819482 -0.2581114 -0.30275837 0.06729882 0.43340564
-0.0541651 0.038216066 -0.46309704 0.21620168 -0.2985967 -0.11231811 -0.478336 -0.09929197
0.20625679 -0.41177672 -0.5651878 -0.5679655 0.11397729 -0.2724581 -0.12573452 0.108828194
-0.34020588 0.34832287 0.42843044 0.016277675 -0.08928589 0.36679077 -0.093699455 0.1464088
-0.28469038 0.14811137 0.3411679 -0.05110781 -0.03092809 0.42588273 -0.07518997 0.07068828
-0.14005208 0.17448664 0.06497619 0.30612466 0.5714159 -0.09516011 -0.1272054 0.47675136
-0.30182287 -0.62039626 -0.09603589 -0.2760286 -0.28605092 -0.047714252 -0.019427516 -0.7271464
-0.62233555 -0.0054083257 0.39959794 0.13319393 -0.08902689 0.30834278 -0.22927369 -0.34948662
0.75289387 0.3053959 0.1549437 -0.29183102 0.09653348 -0.3327022 0.519862 -0.14846398
0.51073545 0.45049548 0.1456791 0.13446471 0.14300951 0.4212612 -0.15856914 0.56917125
00000000: f838 47bd 427a 433e f69d 8fbe 5ca3 c1be
00000010: be12 8bbe 5434 403e 976e 063e a643 203e
00000020: 5c33 ffbe 6924 b1be 5c46 583e 4860 16bd
00000030: 93a9 97be b385 16bf f482 943d 00b4 7ebe
00000040: 3d9e 9d3c 3b1e 2ebf 9869 713d 1ef7 943e
00000050: 0384 6dbe 91b1 a53e 7648 afbe e59a 953d
00000060: 66a5 ccbe 90b3 093f 9bb6 35be cbcc 1fbe
00000070: d6ad 82be 738b 823e cc8f 983e e1f1 92be
00000080: 1b45 78be 3f86 8cbe 6004 a93d 8b4b fb3d
00000090: 6152 8f3c 8ee5 f93d 4ec3 a83e 2faf 293e
000000a0: 3aaa 62be 31ee 103f 0e2e c13e fdbe 83bd
000000b0: dd74 173e 5feb a3be 6685 2fbe b728 f63e
000000c0: 010f 6e3e d07f 40be 7ab5 99be ff0d 32be
000000d0: 04d8 5f3e 2267 233e 5438 81be 2485 b7be
000000e0: 1de7 373f a58d 0c3f abe3 d3bd 2ce2 1a3f
000000f0: d7ba 85be b71c c6be 5b24 cdbe 4af4 b23e
00000100: 2041 223e f5a6 6ebe 0adc b83e d756 7f3e
00000110: 8594 4bbf 8010 2d3c 7a97 edbe c765 b4bc
00000120: 7c4d a4be 54e2 1ebf a49a 293e eb05 40be
00000130: 32ce 923e ad1f 99be 153b 49bc f61d 0fbf
00000140: e1e2 fb3e 1457 82be 661c 99be c2df 4b3e
00000150: c0e5 88be 0597 0ebe 6f26 ae3d be00 9ebe
00000160: 9d31 8b3e 83f0 933d 4e23 403c 6ef1 a7bd
00000170: 2d7f e2be be0d 923e ce98 1bbe c223 5d3d
00000180: f777 3e3e 8aea 95be 1c65 d2be 979f febe
00000190: 41eb 0bbb 577a 5a3e 3a24 aabd e580 80be
000001a0: d034 de3d 8e98 03bf 9e9f a63e 61c5 6cbe
000001b0: 2cd6 d93e 4dea 69be b0cb 363e 0f74 043f
000001c0: 087a 833e d92b f2be 871f 183f b1c1 203e
000001d0: 0a97 353e 4d16 093e efe7 bdbe 7d86 e5be
000001e0: d8c0 a8be f6a0 17be 3e85 293d 7d3d 64be
000001f0: b92b 793d 7903 0f3f eaff 0bbf 4dc4 29be
00000200: 7cce be3e 7927 97bc 8d4f 91be 0665 d63d
00000210: 5b38 eabe 042f 253e b3f6 2e3e ccd6 a7be
00000220: c46b 243f 8ba3 0ebe f9a2 3e3d 2ffd 3dbe
00000230: 18a3 d53e bed1 debe a509 b43d 3b71 89bc
00000240: e8c6 18bf 4b62 fdbe 47de c4be 22cc 873e
00000250: b95b f8bd 22a5 9ebe 2341 233f 7c86 a03e
00000260: ea2f fbbd e300 2b3f fd7d 163f e660 1bbe
00000270: c6f8 113f 2d93 553e ed31 0cbe 97f2 233e
00000280: 5b43 c63e c6e6 10be 034e 883e 2612 883e
00000290: 6277 80be 43cd a3be dfe3 813e b345 30be
000002a0: 049b 25be da0f 02bd 981f 263e 259f 87bd
000002b0: aae7 523d a8ba bdbe 7ecb fd3e f904 833e
000002c0: 463c 843e 9b59 ef3e 9645 d03e a150 3a3e
000002d0: 2d27 84be 2503 9bbe f7d3 893d 58e7 dd3e
000002e0: 39dc 5dbd 7388 1c3d 0e1b edbe f963 5d3e
000002f0: abe1 98be 0a07 e6bd 75e8 f4be 9759 cbbd
00000300: fb34 533e 66d4 d2be 26b0 10bf 3066 11bf
00000310: ed6c e93d a17f 8bbe 8dc0 00be 51e1 de3d
00000320: 772f aebe 6057 b23e 3c5b db3e c258 853c
00000330: 85db b6bd 00cc bb3e 80e5 bfbd 30ec 153e
00000340: f0c2 91be 82aa 173e 8fad ae3e 6c56 51bd
00000350: e85c fdbc 4d0d da3e 33fd 99bd 04c5 903d
00000360: d069 0fbe a0ac 323e 3d12 853d 5fbc 9c3e
00000370: 5048 123f 4ee3 c2bd 2242 02be c118 f43e
00000380: 8788 9abe 4ad2 1ebf 77ae c4bd 9f53 8dbe
00000390: 4475 92be 0570 43bd 7426 9fbc 4426 3abf
000003a0: 6251 1fbf 5338 b1bb 1a98 cc3e fd63 083e
000003b0: bb53 b6bd 1bdf 9d3e b9c6 6abe e9ef b2be
000003c0: a7bd 403f da5c 9c3e 90a9 1e3e e06a 95be
000003d0: 58b3 c53d f157 aabe ad15 053f f106 18be
000003e0: 8fbf 023f 58a7 e63e e72c 153e 1eb1 093e
000003f0: 1671 123e 8caf d73e f35f 22be 35b5 113f

initial.bias f4 [224]
0.08701717 -0.7474308 -0.095666215 -0.43563288 -0.029670803 0.11053234 -0.80482805 -0.1863174
0.32422882 -0.020403646 -0.08069017 0.55476 -0.0026119833 0.47613505 0.12009554 -0.15067917
-0.30345222 -0.004876369 0.12049687 -0.15703799 -0.54419404 0.028713286 0.46421245 -0.5311749
0.1943718 -0.10409162 -0.55782646 -0.48588142 0.070174746 -0.70981425 0.27847293 -0.58361787
0.30790573 -0.14174901 -0.16983218 0.070995525 0.6442083 -0.120893195 0.29781535 0.11364915
0.7972674 -0.082432464 -0.4570726 -0.0037178993 0.4076332 0.2749519 0.08869262 -0.7008133
-0.81043214 -0.42997348 0.49539167 -0.24379216 -0.20682606 0.14844492 -0.720096 -0.2260879
-0.22647268 -0.15690391 -0.6147302 -0.47264954 -0.09274737 -0.4236693 -0.2835396 -0.68630373
-0.34337223 -0.21163294 -0.17409447 0.268157 0.5681817 0.4484975 -0.089434534 -0.7664366
-0.44436198 0.30092797 -0.5332958 -0.63102496 0.29767382 -0.107488275 0.17042479 -0.22475566
-0.42513245 -0.56650627 0.019820597 0.69359034 -0.054381505 0.25807366 -0.17645669 -0.20649306
0.08768821 0.6096893 0.03996402 0.65995634 -0.3047767 -0.45432165 -0.49702922 0.67737734
0.050566573 -0.08815566 -0.6858965 -0.730384 0.30919945 -0.2700046 0.24061182 0.3280713
0.13679957 -0.15530862 0.35212135 -0.54198015 -0.32155427 -0.106764674 -0.27077216 0.004279287
-0.07947448 -0.013967472 -0.5390039 0.2236152 0.2132592 -0.6225037 -0.16089383 -0.55345243
-0.31217983 0.18359622 -0.43056533 0.07788585 0.28153658 -0.017507562 -0.1851587 0.04236236
0.09078803 -0.74614835 -0.42214736 0.22337422 0.15833129 0.109609865 0.21404085 0.5158308
-0.03997807 0.58436465 0.1943795 -0.80320036 -0.67219174 0.34041888 0.107220754 0.7295681
-0.14322923 -0.105155006 -0.70993614 0.58827925 -0.020994155 0.29726174 -0.07098668 -0.43285394
0.45894885 -0.47974265 -0.12322331 0.45381138 -0.051733915 0.10110561 0.13495938 -0.21822204
0.37143248 0.50466216 0.53907365 0.4308619 -0.17429158 -0.5417496 0.2298981 0.7092365
0.12037606 -0.5827618 -0.19661756 0.026322883 0.7350692 0.027431697 0.108913146 -0.100506514
-0.5558351 0.5627276 -0.29094663 0.44256482 0.19216624 -0.11643321 0.17877874 0.32019612
-0.15565681 0.57587343 0.047357008 -0.11594946 0.31951064 -0.067374505 0.43490672 0.4267498
-0.5330621 -0.06624959 -0.2873394 0.021049635 0.12662949 0.22733022 0.6911378 0.535498
-0.3378959 0.1818096 -0.3003063 0.19008347 -0.46611336 -0.35428238 0.30856135 0.22968051
-0.23130164 -0.2612142 -0.22071281 -0.3675917 -0.23701231 0.09305179 0.29088005 -0.26687992
0.27591658 -0.04286445 -0.29468876 0.1310964 0.10421457 -0.10867182 -0.23462164 0.4097435
00000000: 0f36 b23d a057 3fbf a6ec c3bd 460b dfbe
00000010: 2f10 f3bc c85e e23d 3609 4ebf fdc9 3ebe
00000020: 5201 a63e 8c25 a7bc e340 a5bd c004 0e3f
00000030: cf2d 2bbb f9c7 f33e a7f4 f53d a44b 1abe
00000040: 175e 9bbe f3c9 9fbb 10c7 f63d 91ce 20be
00000050: 4d50 0bbf 2038 eb3c 41ad ed3e 14fb 07bf
00000060: 6709 473e fd2d d5bd b7cd 0ebf 73c5 f8be
00000070: c7b7 8f3d 63b6 35bf 0194 8e3e fb67 15bf
00000080: d2a5 9d3e a726 11be 7de8 2dbe 1a66 913d
00000090: d6ea 243f da96 f7bd 417b 983e e3c0 e83d
000000a0: b719 4c3f 5ad2 a8bd 6b05 eabe 00a8 73bb
000000b0: 4cb5 d03e 7fc6 8c3e 7aa4 b53d 8068 33bf
000000c0: 7b78 4fbf 7c25 dcbe faa3 fd3e a7a4 79be
000000d0: 36ca 53be f201 183e 3658 38bf 9683 67be
000000e0: 74e8 67be 6bab 20be f55e 1dbf 1fff f1be
000000f0: 55f2 bdbd 2feb d8be 1a2c 91be 9ab1 2fbf
00000100: 7cce afbe 4eb6 58be d245 32be e04b 893e
00000110: 5b74 113f 77a1 e53e 7429 b7bd 3035 44bf
00000120: 6a83 e3be 3b13 9a3e 1386 08bf da8a 21bf
00000130: b468 983e d022 dcbd d683 2e3e 5926 66be
00000140: f6aa d9be 8e06 11bf ce5e a23c 238f 313f
00000150: 24bf 5ebd 3b22 843e 10b1 34be eb72 53be
00000160: e095 b33d 9914 1c3f 50b1 233d e6f2 283f
00000170: b10b 9cbe d99c e8be 9d7a febe 9a68 2d3f
00000180: e51e 4f3d f48a b4bd ea96 2fbf 72fa 3abf
00000190: 644f 9e3e 0b3e 8abe f262 763e f6f8 a73e
000001a0: 3015 0c3e 3909 1fbe 4049 b43e 36bf 0abf
000001b0: c3a2 a4be 70a7 dabd a6a2 8abe 4339 8c3b
000001c0: 84c3 a2bd d3d7 64bc 29fc 09bf 62fb 643e
000001d0: 9f60 5a3e 675c 1fbf 5ac1 24be 0faf 0dbf
000001e0: 09d6 9fbe a600 3c3e 0f73 dcbe 9e82 9f3d
000001f0: 9025 903e 056c 8fbc 3e9a 3dbe 2784 2d3d
00000200: 13ef b93d 9403 3fbf b323 d8be 36bc 643e
00000210: 9921 223e 237b e03d 862d 5b3e 7d0d 043f
00000220: 0bc0 23bd ec98 153f 6b0b 473e 8a9e 4dbf
00000230: c214 2cbf 624b ae3e 8e96 db3d fac4 3a3f
00000240: afaa 12be 825b d7bd 60be 35bf 7899 163f
00000250: effb abbc b132 983e 7761 91bd 089f ddbe
00000260: 58fb ea3e d4a0 f5be 815c fcbd f759 e83e
00000270: f1e6 53bd 7510 cf3d cb32 0a3e 9975 5fbe
00000280: 662c be3e 8a31 013f bb00 0a3f ee99 dc3e
00000290: 7e79 32be 1ab0 0abf 686a 6b3e 8690 353f
000002a0: b987 f63d e12f 15bf 1d56 49be 16a3 d73c
000002b0: 7f2d 3c3f 70b8 e03c db0d df3d 5cd6 cdbd
000002c0: 364b 0ebf ea0e 103f f5f6 94be db97 e23e
000002d0: 3ac7 443e 8974 eebd c611 373e bff0 a33e
000002e0: 8064 1fbe 716c 133f 6cf9 413d e976 edbd
000002f0: e696 a33e a5fb 89bd 18ac de3e f37e da3e
00000300: c276 08bf ddad 87bd 261e 93be 4970 ac3c
00000310: 29ab 013e 41c9 683e 68ee 303f 6616 093f
00000320: b100 adbe 4c2c 3a3e bfc1 99be 3ea5 423e
00000330: 69a6 eebe 8064 b5be c1fb 9d3e 5e31 6b3e
00000340: 56da 6cbe debd 85be 8a02 62be fb34 bcbe
00000350: 5bb3 72be f091 be3d 3bee 943e 7ca4 88be
00000360: f044 8d3e a292 2fbd 72e1 96be 223e 063e
00000370: 736e d53d 558f debd a840 70be e6c9 d13e

readout.weight f4 [126, 224]
0.21537766 -0.17359632 -0.25813785 -0.17839485 -0.036675915 -0.15840873 -0.19131328 0.20382567
0.2193547 -0.24564092 0.20112412 0.0029580065 -0.16872786 -0.28248876 0.13804093 0.21679562
0.16208038 -0.16635491 0.23446609 -0.21723795 0.18040651 -0.2287574 -0.24659942 0.23668857
-0.23088185 0.26683524 0.27530953 -0.17660844 -0.21882442 -0.16484764 -0.23380738 -0.25616506
-0.1651542 -0.17658621 0.27161938 -0.22017337 0.2561439 -0.2440753 -0.24607128 0.27344534
0.22517262 -0.18486717 -0.23030938 0.23047526 0.12900357 -0.18233787 0.20929238 -0.21099669
0.24789928 0.2544833 -0.18788068 -0.010544649 0.17493643 -0.066212304 -0.2011733 -0.17978339
-0.2239788 -0.26196063 -0.19547248 -0.2562716 0.22512315 0.20881666 0.22411959 0.23240432
0.17377658 0.16552927 -0.19844012 0.2777273 -0.23370986 0.22739168 0.17587598 -0.14267269
-0.25814724 -0.26081875 -0.21773243 -0.14463802 0.22264838 0.2883771 0.17438026 0.26510507
-0.16610397 0.11674437 0.22750339 0.22123635 -0.14432019 0.26980639 0.19172674 0.21412902
0.22192913 -0.21646462 -0.22253816 0.036342714 0.24270011 -0.2168707 -0.11778038 0.10912785
-0.20332125 -0.18310255 -0.17018753 -0.1945899 -0.2463427 0.16763021 -0.16580395 -0.19734964
0.15642455 0.22120385 0.15645045 0.24061902 -0.2298692 0.26829198 -0.26933295 -0.18117101
-0.22773606 -0.18464714 -0.14211082 0.16096106 0.22525737 0.23294452 0.16869922 -0.20754974
-0.22320288 -0.16787082 -0.21935254 0.19327213 -0.15864334 -0.25202265 -0.20357892 0.18323281
0.19650103 -0.17585394 -0.20413356 0.16470227 -0.22245239 -0.17157441 0.23746835 0.17555906
0.26466548 0.24146314 -0.16102032 0.16309372 -0.23629941 -0.069502674 -0.27482086 0.1846326
0.27109426 -0.20514496 -0.27420995 -0.16511658 0.10120368 -0.15624161 -0.21304353 -0.25168663
0.21333978 -0.15656304 -0.15376474 0.2046768 -0.30962202 0.15902044 0.21387276 -0.16631591
0.18622743 -0.1609914 0.28041798 0.2776212 0.23928085 -0.24381088 -0.22747359 -0.1763914
0.19565101 -0.17395873 0.19337152 -0.1730912 -0.26363176 -0.2439763 -0.13304499 0.25000656
0.23226133 -0.17504556 -0.24098128 0.21032695 -0.1512126 -0.24026988 0.16483054 -0.26776785
-0.18161154 -0.14846663 0.10437754 -0.27703688 0.18543324 -0.1028411 -0.19324526 0.19012584
-0.20520256 -0.25343183 -0.10341491 0.23729724 0.15718907 0.27546132 0.23841171 -0.26293427
-0.19269864 0.28786573 0.2102528 -0.2759041 0.2516641 -0.18899497 0.27065513 0.20684315
0.2173446 -0.26651478 0.19435374 -0.21585323 0.29119498 0.25225666 -0.16327499 -0.1674882
-0.22247232 -0.17774053 0.16948828 0.2843933 0.23725957 0.256859 0.12172404 -0.19306427
0.25162712 -0.23490342 -0.1510375 -0.21598582 0.08526628 -0.085214145 -0.10835557 0.22735262
0.12048181 -0.28700426 0.15716371 -0.21245782 -0.22051269 -0.16528936 0.20970707 0.13578737
0.16725121 -0.27721995 0.2075199 -0.29929668 0.16007996 -0.17033668 -0.20838757 0.21133722
-0.0029867403 0.14296147 0.29553586 -0.19271803 -0.23337734 -0.21772303 -0.21004239 -0.2674541
00000000: f68b 5c3e 3cc3 31be a52a 84be 24ad 36be
00000010: 7c39 16bd e635 22be a1e7 43be adb7 503e
00000020: 859e 603e 4b89 7bbe 7bf3 4d3e 1ddb 413b
00000030: ffc6 2cbe 5ea2 90be 9a5a 0d3e acff 5d3e
00000040: 66f8 253e f158 2abe e117 703e a073 5ebe
00000050: 7cbc 383e 613f 6abe 8f84 7cbe 7d5e 723e
00000060: 4b6c 6cbe a19e 883e 5ff5 8c3e d8d8 34be
00000070: 8213 60be d2cd 28be 346b 6fbe 1128 83be
00000080: 2f1e 29be 04d3 34be b211 8b3e 2175 61be
00000090: 4b25 833e e0ee 79be 1cfa 7bbe 0701 8c3e
000000a0: a793 663e d24d 3dbe 39d6 6bbe b501 6c3e
000000b0: 8319 043e c7b6 3abe be50 563e 840f 58be
000000c0: 4fd9 7d3e a34b 823e cb63 40be 77c3 2cbc
000000d0: 8922 333e 519a 87bd 6000 4ebe 2319 38be
000000e0: b35a 65be b41f 86be f029 48be 0836 83be
000000f0: af86 663e 09d4 553e 9b7f 653e 66fb 6d3e
00000100: 7df2 313e 8180 293e e333 4bbe 4632 8e3e
00000110: a351 6fbe 5dd9 683e d518 343e ca18 12be
00000120: e02b 84be 098a 85be 40f5 5ebe fd1b 14be
00000130: f0fd 633e 2aa6 933e bd90 323e dabb 873e
00000140: 2917 2abe ac17 ef3d a6f6 683e c88b 623e
00000150: acc8 13be 1024 8a3e 0454 443e a344 5b3e
00000160: 6441 633e e7a8 5dbe 0be1 63be 19dc 143d
00000170: 6186 783e 5a13 5ebe d736 f1bd 6c7e df3d
00000180: 7233 50be 3c7f 3bbe a445 2ebe 9342 47be
00000190: 4341 7cbe 41a7 2b3e 83c8 29be 0616 4abe
000001a0: c22d 203e 4383 623e 8c34 203e d564 763e
000001b0: d562 6bbe 915d 893e 02e6 89be e584 39be
000001c0: a433 69be 2414 3dbe 8085 11be fad2 243e
000001d0: dea9 663e 0289 6e3e 7dbf 2c3e eb87 54be
000001e0: 4c8f 64be 54e6 2bbe f49d 60be 21e9 453e
000001f0: 6673 22be 1d09 81be fe76 50be 62a1 3b3e
00000200: 9137 493e 0e13 34be 6308 51be b6a7 283e
00000210: 8fca 63be 34b1 2fbe e72a 733e c1c5 333e
00000220: 3c82 873e 1d42 773e 83e2 24be 0a02 273e
00000230: 79f8 71be 6b57 8ebd 52b5 8cbe 5410 3d3e
00000240: decc 8a3e 8511 52be 3f65 8cbe 5214 29be
00000250: e043 cf3d cdfd 1fbe 1528 5abe 12dd 80be
00000260: be75 5a3e 1052 20be 8174 1dbe cc96 513e
00000270: c786 9ebe 41d6 223e 7601 5b3e b84e 2abe
00000280: 67b2 3e3e eeda 24be f292 8f3e 5e24 8e3e
00000290: 0a06 753e 8fa9 79be d6ee 68be f29f 34be
000002a0: bd58 483e 3d22 32be 2f03 463e d23e 31be
000002b0: befa 86be ecd4 79be f23c 08be dc00 803e
000002c0: ead5 6d3e 253f 33be ccc3 76be f35f 573e
000002d0: 7ad7 1abe 4f09 76be 56c9 283e de18 89be
000002e0: 60f8 39be a307 18be e4c3 d53d c7d7 8dbe
000002f0: 36e2 3d3e 5b9e d2bd 16e2 45be 59b0 423e
00000300: 9f20 52be d1c1 81be 32cb d3bd 0cfe 723e
00000310: 2cf6 203e 4409 8d3e 3322 743e 529f 86be
00000320: cb52 45be 2363 933e 834c 573e 4d43 8dbe
00000330: 1eda 803e e687 41be 4f93 8a3e b1ce 533e
00000340: 958f 5e3e a074 88be ab04 473e a108 5dbe
00000350: 8217 953e c927 813e 8f31 27be 0782 2bbe
00000360: c9cf 63be 9d01 36be 568e 2d3e 009c 913e
00000370: 2cf4 723e 0683 833e 744a f93d a4b2 45be
00000380: 45d5 803e 868a 70be 93a9 1abe 632b 5dbe
00000390: 16a0 ae3d c184 aebd 86e9 ddbd 20cf 683e
000003a0: 2bbf f63d 39f2 92be 86ef 203e 8b8e 59be
000003b0: 14ce 61be 9d41 29be 73bd 563e d80b 0b3e
000003c0: e743 2b3e c6ef 8dbe 1980 543e 6a3d 99be
000003d0: 00ec 233e bd6c 2ebe 8d63 55be c968 583e
000003e0: 30bd 43bb 7e64 123e 7a50 973e e057 45be
000003f0: 78fa 6ebe c9f2 5ebe 5a15 57be beef 88be

readout.bias f4 [126]
-0.18485272 -0.26510164 -0.13298306 0.051840678 -0.09318367 -0.23324153 -0.13470155 -0.17466879
-0.28451055 -0.20714061 0.0012624473 0.010531125 -0.11806332 -0.17866682 -0.17511867 -0.11547573
-0.15160729 -0.23387805 -0.23958908 -0.15913881 -0.021765817 -0.25324395 -0.30128023 -0.24504024
-0.20570466 -0.18952657 -0.2307924 -0.23076187 -0.27197435 -0.16575606 -0.2823028 -0.20303386
-0.19198504 -0.30016828 -0.1746575 -0.27285543 -0.2667114 -0.27967364 -0.26545343 -0.22851539
-0.15907532 -0.24933869 -0.2548779 -0.27888924 -0.25990924 -0.2284315 -0.27246475 -0.22922899
-0.20633668 -0.18308142 -0.24751125 -0.18408963 -0.10954492 -0.22431383 -0.25797328 -0.29554957
-0.1739697 -0.1628951 -0.2701235 -0.18959752 -0.2966308 -0.25663656 -0.18868744 -0.18306814
-0.24589835 -0.2742257 -0.1559263 -0.1708668 -0.21450198 -0.17694634 -0.27428782 -0.22782733
-0.28079075 -0.22676113 -0.17210342 -0.31090987 -0.24561505 -0.22680448 -0.22886302 -0.27193952
-0.25170174 -0.22379208 -0.29406896 -0.21450947 -0.16879788 -0.19785862 -0.21605252 -0.17634733
-0.18999076 -0.2773474 -0.16683948 -0.22784555 -0.22156312 -0.16166611 -0.20162247 0.042991083
-0.14863108 -0.13353364 -0.16027145 -0.21244794 -0.014503233 -0.27170244 -0.1632065 -0.24807695
-0.3156648 -0.2342552 -0.27031505 -0.26826298 -0.27841207 -0.22107844 -0.16294004 -0.19502634
-0.2600616 -0.21225062 -0.22549321 -0.28318825 -0.16762309 -0.16572426 -0.28934598 -0.22621898
-0.17854057 -0.20579326 -0.20919484 0.07630258 -0.20309056 0.09210768
00000000: 084a 3dbe 67bb 87be b62c 08be e456 543d
00000010: 14d7 bebd ded6 6ebe 34ef 09be 60dc 32be
00000020: 5eab 91be ab1c 54be b478 a53a bd8a 2c3c
00000030: 2fcb f1bd 6ff4 36be 4f52 33be 8a7e ecbd
00000040: f13e 1bbe ba7d 6fbe d756 75be 49f5 22be
00000050: 3a4e b2bc 31a9 81be 6741 9abe d4eb 7abe
00000060: 3ea4 52be 4113 42be d854 6cbe d74c 6cbe
00000070: 3940 8bbe f5bb 29be fe89 90be 1ce8 4fbe
00000080: ba97 44be a8af 99be 6ad9 32be b5b3 8bbe
00000090: 668e 88be 6231 8fbe 83e9 87be f0ff 69be
000000a0: a4e4 22be a452 7fbe 5b7f 82be 92ca 8ebe
000000b0: d312 85be f2e9 69be 8080 8bbe 01bb 6abe
000000c0: ec49 53be b279 3bbe 9773 7dbe fe81 3cbe
000000d0: 1659 e0bd 86b2 65be 1315 84be 4652 97be
000000e0: 1d25 32be f9cd 26be a14d 8abe da25 42be
000000f0: fedf 97be de65 83be 4837 41be 3776 3bbe
00000100: c7cc 7bbe 5067 8cbe 25ab 1fbe b5f7 2ebe
00000110: 68a6 5bbe 6c31 35be 746f 8cbe 914b 69be
00000120: cec3 8fbe 1234 68be e13b 30be 942f 9fbe
00000130: 8382 7bbe 6f3f 68be 115b 6abe a83b 8bbe
00000140: 0ddf 80be c029 65be 3590 96be 5fa8 5bbe
00000150: 5ad9 2cbe 739b 4abe df3c 5dbe 6594 34be
00000160: f08c 42be 7a00 8ebe f8d7 2abe 5850 69be
00000170: 71e1 62be cd8b 25be 1f76 4ebe 6b17 303d
00000180: bf32 18be 0bbd 08be 331e 24be f48b 59be
00000190: f89e 6dbc 951c 8bbe 9b1f 27be e207 7ebe
000001a0: d19e a1be 98e0 6fbe bc66 8abe c459 89be
000001b0: 078c 8ebe 6362 62be c1d9 26be fcb4 47be
000001c0: cb26 85be 3a58 59be b1e7 66be 0dfe 90be
000001d0: 63a5 2bbe 9fb3 29be 2825 94be f3a5 67be
000001e0: 57d3 36be 78bb 52be 2c37 56be 8744 9c3d
000001f0: f9f6 4fbe f4a2 bc3d
