cde/model/checkpoints/1.ckpt (torch, 390543 bytes, 8 tensors)

func.linear1.weight f4 [128, 150]
000000 69 f8 80 bc 4b e0 67 bd 2e 46 c1 bc 46 dc 4b 3c
       -0.015743451 -0.056610387 -0.023593035 0.012442654
000010 ac 10 2c bd a1 cd bf bc 16 d9 c9 bc e2 a6 3e bd
       -0.042008087 -0.023413481 -0.024639647 -0.04654587
000020 91 28 a8 3b 68 38 86 3d e4 8d 0e bc f5 ad f2 bc
       0.005131789 0.065537274 -0.008700822 -0.029623965
000030 f7 be 5c 3d a1 86 88 bd ab c3 87 bd f5 25 f7 3c
       0.053893056 -0.066663034 -0.066291176 0.030169467
000040 b2 ae 9f bc 01 b5 66 3d 6c 33 fc bb 9c 85 3a 3d
       -0.01949248 0.056324963 -0.0076965597 0.045537576
000050 f0 f0 6e bd 09 a4 02 3d 4d 1e 36 bd bf 63 1e bc
       -0.058335245 0.031894717 -0.04446249 -0.009667336
000060 22 aa 34 3d 1a 3c 80 bd e5 7e 8d 3d 08 1b 14 3d
       0.044107564 -0.062614635 0.06908969 0.03615859
000070 2b 35 01 3c c8 08 f6 3a 7d f0 79 bd e9 44 20 3c
       0.007886211 0.0018770928 -0.061020363 0.009782054
000080 25 06 2e 3d 43 13 b8 bc 99 eb 7e bd 66 c9 8f bc
       0.04248633 -0.022470122 -0.062236402 -0.017552089
000090 4b 00 9f bd 89 c2 52 3d 80 9c 9c 3b 66 ee 84 bd
       -0.07763728 0.051455054 0.0047793984 -0.064907834
0000a0 d8 98 60 3d db 40 8f 3d 7c e5 8c 3d dd 94 dc bb
       0.054833263 0.06994792 0.06879708 -0.006731613
0000b0 77 d7 20 bd a7 d3 69 3d 00 49 9f 3d 5a 2d 0d bd
       -0.039267983 0.057086613 0.077775955 -0.03446708
0000c0 a8 cc 0b bd 78 75 15 bc 53 ac e1 3c 26 74 89 3d
       -0.034130722 -0.009122245 0.02754799 0.06711607
0000d0 9f e8 51 bd 0d a9 97 bb 6f 0d f5 bc 13 3d 7d 3c
       -0.051247235 -0.0046283067 -0.029913632 0.015456456
0000e0 9c cc 80 bc 99 c7 13 bd d7 04 2e 3d 56 70 96 3d
       -0.015722565 -0.036079023 0.042485084 0.07345645
0000f0 cf 4f 61 bc 66 e6 a2 3d 0e 36 6c 3b 68 7b 2d bd
       -0.013751938 0.07954101 0.0036042961 -0.042354017
000100 99 19 c5 3c 8f bb b5 bb df 81 90 3d 4c 70 26 3d
       0.024060057 -0.0055460404 0.07056021 0.04063444
000110 f5 78 87 bc e7 83 73 3b 07 17 1c 3c 79 fe a1 3d
       -0.016537169 0.0037157477 0.0095269745 0.07909865
000120 d9 e6 8c 3c 3d 73 05 bc 24 8a 24 bd 18 75 97 bb
       0.01719992 -0.008145151 -0.040170804 -0.004622113
000130 e5 db 18 3d 5d cb 8a 3d fd e0 83 3c c7 15 04 3d
       0.037319083 0.0677707 0.016098494 0.03224733
000140 86 41 a0 3c 92 88 34 3c c8 fd f9 bc 82 5f 4b 3d
       0.019562494 0.011018889 -0.03051652 0.04965163
000150 5c 49 67 3d 6b b4 95 3d 44 bf b0 3b a4 25 58 3c
       0.056466445 0.073098026 0.0053938944 0.013192568
000160 54 f1 87 bc 51 90 f0 bc 05 81 d5 3c ce ea 56 bd
       -0.016594566 -0.02936569 0.026062498 -0.05247002
000170 70 d9 8f 3d 76 90 70 3d 3d c7 1a 3d a6 b8 42 bd
       0.07023895 0.05873152 0.037787665 -0.047539376
000180 cc 6f 54 3d 92 58 51 bd 87 a6 88 bc 06 0e eb bc
       0.05186443 -0.051109858 -0.016680969 -0.02869321
000190 8b 58 de bc 73 a4 09 bd 6b a0 5f 3d 71 4a 25 bc
       -0.02714183 -0.033604097 0.054596346 -0.010088549
0001a0 58 d8 6b bb da 7f db bc 97 a0 84 3d 4b a0 cf 3b
       -0.0035987105 -0.026794363 0.064759426 0.006336247
0001b0 a5 32 59 3d 0a 8f 8a 3d 3e 8a 45 3b 15 83 86 ba
       0.053026814 0.06765564 0.0030142213 -0.0010262454
0001c0 5c 46 16 3d 35 1e 7b bd f9 90 8a 3d d0 0e 64 3d
       0.036688194 -0.061308105 0.067659326 0.05567819
0001d0 35 fc 5b bd f7 c9 4e bc d7 72 a3 bd 21 43 84 3d
       -0.05370732 -0.012621394 -0.07980888 0.06458116
0001e0 3c 1b 16 3d 6f 0f 56 bc 75 d4 71 3d c3 5c 65 bd
       0.036647066 -0.013065203 0.059040505 -0.055996668
0001f0 2c 32 28 bd 76 a5 97 3d cb 77 cf bc ec 6a 16 3b
       -0.041063473 0.07404606 -0.025325676 0.0022951914
000200 f5 f1 50 bd 59 c7 fb 3c 7c 95 95 bd 6f c3 19 3d
       -0.051012 0.030734705 -0.073039025 0.037539896
000210 32 16 a4 bd 34 7d 5d bd 31 3a 8a bd ba 73 35 3d
       -0.08012046 -0.05407448 -0.067493804 0.04429982
000220 2f 10 79 3d f5 92 4c bd 51 bf 8d 3c a3 3d d6 bb
       0.06080645 -0.049944837 0.01730314 -0.0065381094
000230 c2 e6 fe bc a5 80 26 bd b8 48 3d bd 8e 6b 92 bd
       -0.031115893 -0.04065003 -0.046211928 -0.07149421
000240 98 7a 69 3d c7 d0 9f bd c6 21 12 3b 28 41 f9 3c
       0.05700168 -0.07803493 0.0022297963 0.030426577
000250 69 7e 9d bc 3a 50 7d 3d a0 ef 80 3d e4 be 0e 3d
       -0.019225316 0.061844088 0.06295705 0.034850016
000260 f1 ac 64 3b 15 7f c7 bc f8 5a 7a bd d1 4e 61 3d
       0.003489312 -0.02435259 -0.06112191 0.055006806
000270 94 b7 53 bb fd 24 9b bd 70 68 24 3d 0b ad c8 3b
       -0.0032305466 -0.07575414 0.04013866 0.006124144
000280 d5 81 c3 bc 9e 01 a3 3d 24 8d d6 bc 31 61 00 3c
       -0.02386562 0.07959293 -0.026190348 0.007835672
000290 28 c2 ea ba 3c 65 3a 3d c8 f4 75 bd 4c 4d ce 3c
       -0.0017910646 0.0455067 -0.060047895 0.025183342
0002a0 c3 0a 39 3d da 99 6b bd 40 97 2a bd 44 ed e0 3b
       0.04517628 -0.05751977 -0.04164815 0.0068642218
0002b0 16 66 9f 3d f3 66 c7 3c 65 92 8f 3d 30 83 47 bd
       0.07783143 0.024341082 0.070103444 -0.048709095
0002c0 36 8b 3d bd f9 32 cd 3c a1 7e 18 3d 11 7a 45 3d
       -0.04627534 0.02504872 0.037230138 0.048212115
0002d0 a9 ad f7 bc be fd 8b bd 85 ad 7a bc 04 55 b7 3c
       -0.030234175 -0.06835507 -0.015300159 0.022379406
0002e0 62 74 23 bd 2f d0 8b 3c 2c 22 f3 bc 00 67 e2 ba
       -0.039905913 0.017067043 -0.02967938 -0.0017273128
0002f0 09 ce 8e 3d c4 71 7e bd 6a a0 a1 bd c7 26 95 bd
       0.06972892 -0.062120214 -0.07891925 -0.07282787
000300 00 6a 53 3d 75 d0 a7 bc 48 c2 ad 3b 14 7e 59 3d
       0.05161476 -0.020485142 0.005302701 0.053098753
000310 eb 2d d3 bb 94 b1 43 bc 0f 0d 6a bd 4e 7a 15 bd
       -0.006444683 -0.011944193 -0.05714136 -0.036493592
000320 3d 38 f9 bc 76 06 5e 3c 3b cd 7c 3c 0d cd 8c bc
       -0.030422324 0.013551345 0.01542979 -0.01718762
000330 cf 7d 73 bc 17 ce 98 bc b4 af ff 3c 09 8e 93 bd
       -0.014861538 -0.018652959 0.031211711 -0.072048254
000340 e4 5c 04 3d c5 a0 38 ba 17 70 f5 ba 7d 5d 09 3b
       0.03231515 -0.00070429995 -0.0018725422 0.0020960264
000350 9d 70 45 3d b6 bd 49 3d fd cb 09 bd 2a 57 50 bc
       0.0482031 0.049253188 -0.033641804 -0.012716094
000360 67 68 2f 3d 68 b7 5e 3a 22 05 db bc 0a 79 72 bd
       0.042824175 0.00084959576 -0.026735846 -0.059197463
000370 fc 92 9e 3c 2a 20 9a bb 7e bc 91 3d c8 73 41 3c
       0.019357197 -0.0047035413 0.0711603 0.01180739
000380 46 ae 1b bd 1c 59 a9 3c 6e 18 6e bd e9 03 86 bd
       -0.038007997 0.020672373 -0.058128767 -0.065437146
000390 49 35 ca bc 8a 3e 98 bd 8d ea 92 3d 29 61 9d 3c
       -0.024683611 -0.074338034 0.07173643 0.019211369
0003a0 54 93 34 bd 87 ee 8b bd 44 52 37 bd da 5a c0 ba
       -0.044085816 -0.06832605 -0.04475619 -0.0014675513
0003b0 5d 44 14 3d 7b 17 f1 3c 2e 67 4e bd f9 d4 4c 3d
       0.03619801 0.029430142 -0.05039137 0.050007794
0003c0 2c 3f 8c bd 5f 92 85 3d 0d 3f bb bc e2 0a 0b bd
       -0.068479866 0.06522059 -0.022857213 -0.033945926
0003d0 3a fb 56 3c 26 a6 5b bd ee e2 8d bc 40 ec cd bc
       0.0131214205 -0.05362525 -0.017320123 -0.025137067
0003e0 e6 6d 84 3b b8 ca 67 3d e7 35 ae bc ea ff 89 3d
       0.004041421 0.056589812 -0.021265937 0.06738265
0003f0 c8 4b 84 3b 0b ac 33 bc ed 8d 94 3d 93 7d e8 bc
       0.004037354 -0.010966311 0.07253633 -0.028380191

func.linear1.bias f4 [128]
000000 43 bb 18 bd f7 e8 50 bd 3a a3 4e bd e1 be 81 3d
       -0.03728796 -0.051003423 -0.050448634 0.063352354
000010 7d 11 06 3d 30 43 85 3b f0 25 12 bd cb 9b a2 3d
       0.032731522 0.0040668473 -0.03568071 0.079398714
000020 ba f4 8f 3d 2b bf 5b bd be 35 34 bb 11 48 f1 bb
       0.070291 -0.05364911 -0.0027497853 -0.0073633273
000030 fe 52 59 3d 99 b0 40 bb 69 e8 a2 bd 2c ff 31 3c
       0.053057663 -0.0029402135 -0.07954485 0.01086406
000040 2e 0c 86 bd 89 bb 57 bd 29 91 5b 3d 57 f2 93 bb
       -0.06545292 -0.05266908 0.053605232 -0.004514973
000050 35 f9 ad bc c6 9d bc 3b ee a4 90 3d f6 41 95 3d
       -0.021236995 0.0057561127 0.07062708 0.07287972
000060 65 70 26 3c 06 74 0b bc 6a 8f 1f 3d b4 3f 6e 3d
       0.010158633 -0.008511549 0.03895513 0.05816622
000070 39 7a a6 3d fd b6 2f bd 22 10 88 bc ac da 83 bc
       0.08128781 -0.04289912 -0.016609255 -0.016095482
000080 5d ad 19 3d ea ed 1d bb c6 fd 64 bd e5 9c 87 bd
       0.037518848 -0.0024098107 -0.05590608 -0.06621722
000090 5c a6 3f bd e2 72 f3 bc 26 6c a0 3a 4a 2f 63 3b
       -0.046789512 -0.029717866 0.0012239262 0.0034665638
0000a0 57 f6 88 3d 54 e4 65 3c 14 80 25 bd 58 91 4a bc
       0.066876106 0.014031488 -0.040405348 -0.012363754
0000b0 f8 fb a7 bd 18 e4 59 bd 1a 2c 0a bb b1 5b ca 3c
       -0.08202356 -0.053196043 -0.0021083415 0.024701925
0000c0 ab 56 49 3d 8f a6 8e bd 2d 83 0b 3d 72 cd 33 3c
       0.04915492 -0.06965362 0.034060646 0.010974275
0000d0 06 8f c2 3c 8c c1 88 bb 77 58 9c 3d f9 6e 40 3d
       0.02374984 -0.004173463 0.07634061 0.04698083
0000e0 f6 61 bb ba a8 c7 a4 3c 08 10 89 bc 92 72 b4 bc
       -0.0014296162 0.020114735 -0.016731277 -0.022027288
0000f0 61 4d 85 3d fd bc a0 3d b9 1c 86 3d 60 90 9c bd
       0.065088995 0.07848547 0.06548447 -0.07644725
000100 d6 98 94 bd 7e e8 c9 3c a8 fe 87 bd b0 9f 4c 3c
       -0.07255714 0.024646994 -0.06640369 0.012489244
000110 32 88 e2 3c 1e 70 9c 3c cd 7b 7f 3d 0f 41 18 bd
       0.027652834 0.01909643 0.062373925 -0.03717142
000120 4c 04 3d bd ac 68 a4 bd 06 09 64 bc 70 63 ef bc
       -0.046146676 -0.08027777 -0.013918167 -0.02922222
000130 d5 9b 28 3c 7c 46 6b 3c c3 39 a4 3d f9 b3 7a bd
       0.0102910595 0.0143600665 0.0801883 -0.06120679
000140 c2 28 23 bd e8 39 a6 bc 6e ec 3b bd 32 c0 78 3c
       -0.03983379 -0.020291284 -0.045879774 0.015182542
000150 b9 0c 19 3d c6 61 8b bd ad 7e 87 bd 2a 1e 75 bd
       0.03736565 -0.06805758 -0.06615958 -0.05984322
000160 0d 87 8b 3d 84 cd e2 bc 94 f7 36 3d e2 5d 3e bd
       0.06812868 -0.027685888 0.044669703 -0.046476252
000170 53 cb 6b 3d 54 c3 e4 3c b6 73 8f 3d d0 0b 6d 3d
       0.057566952 0.027925171 0.07004492 0.057872593
000180 3c 22 8b bc 4e 1b 54 3d 43 59 43 bd 44 8c 8d 3d
       -0.016984098 0.051783852 -0.04769255 0.06911519
000190 1d 64 a7 bc 73 d9 82 bd 62 2a 68 3d ac 6b 72 3d
       -0.02043348 -0.063891314 0.056681044 0.059184715
0001a0 38 52 4f bd 3c 59 c4 bc 10 1b 32 3d 64 62 8d 3d
       -0.05061552 -0.023968332 0.04348284 0.06903532
0001b0 e7 19 75 bd 37 09 2e bd 4c e9 87 3c 18 49 75 3d
       -0.059839156 -0.042489257 0.016590737 0.05988416
0001c0 62 ad 9e bd e0 97 6d bc 89 26 64 bc 31 9e 9e 3d
       -0.07747914 -0.014501542 -0.013925203 0.07745016
0001d0 35 e0 56 3c fa 55 21 3d de 52 b9 3c 1b 3a 2e 3c
       0.013114979 0.039388634 0.022622522 0.010633971
0001e0 ac 0b a3 bd 0d 3c 03 3b 6f d5 99 3c a4 21 93 3b
       -0.079612106 0.0020024807 0.01877853 0.0044900943
0001f0 ec 16 17 3c 5a e5 1d 3d e7 11 b6 3c da e0 b1 bc
       0.009221774 0.038548805 0.022225333 -0.021713663

func.linear2.weight f4 [450, 128]
000000 f6 32 4c bc ec cd 9f 3d 2a 23 87 3d 4e e1 ab 3d
       -0.012463322 0.07802948 0.06598504 0.08392583
000010 a3 73 58 bd dd a3 83 3d 7c 4a 0a bd d2 2c 9e 3c
       -0.052844655 0.06427739 -0.03376244 0.019308481
000020 a6 20 94 3d 51 af 6d bd 84 82 5b 3d d8 43 86 3d
       0.0723279 -0.058028523 0.053591266 0.06555909
000030 19 c5 86 bd 95 e2 82 3d 69 4d 8a 3d 25 28 41 bd
       -0.06580562 0.06390873 0.06753046 -0.047157425
000040 63 9f 9a bd dc dc ad 3c 5b d2 65 ba 71 2c 8a bc
       -0.07549932 0.021223478 -0.0008767002 -0.016866894
000050 b3 ff fe 3c 30 4c b1 bd 40 fc 86 bd 92 64 51 bd
       0.031127786 -0.0865711 -0.065910816 -0.051121302
000060 2f b5 82 bc ab f8 88 b9 07 67 a0 bc b1 e2 6c 3d
       -0.015955536 -0.00026125213 -0.019580377 0.057833377
000070 5a f5 75 bd 35 be 09 3d 1f b9 4c 3d 61 99 23 bc
       -0.06004844 0.03362866 0.049981233 -0.009985299
000080 66 ce 42 3d 68 8b b1 3d 5e 52 2a 3c 4f 58 8b bd
       0.04756012 0.08669168 0.010395614 -0.06803953
000090 66 8f 8c 3d bc d0 7f 3d 1e 37 c0 3c 76 4b b9 bc
       0.068632886 0.062454924 0.023463782 -0.02261899
0000a0 3c 82 8d 3d 41 ad 84 bb af dd 53 bd 42 8c 68 3d
       0.06909606 -0.004048974 -0.051725086 0.056774385
0000b0 e3 74 b2 3d 6c 84 9f 3d ba 3d 01 3d 79 55 8f 3b
       0.087137006 0.07788929 0.031553008 0.004374203
0000c0 be ff ba bc 66 11 91 bd 9e 77 1f bc 5e 03 c8 3b
       -0.022827026 -0.070833966 -0.009733109 0.006103917
0000d0 1d e3 5e bb 38 41 3a 3d 1c 64 2d 3c 30 5e 1d bd
       -0.0034009882 0.045472354 0.01058295 -0.038419902
0000e0 a8 1e 32 bd 34 44 ac bd 7a b1 e1 3c 47 b7 9d bd
       -0.043486267 -0.08411446 0.027550448 -0.07700973
0000f0 9f 79 85 bd 6c d3 1a bd d2 98 55 3d 2e 89 a5 3d
       -0.06517338 -0.037799284 0.052147694 0.080828056
000100 92 26 74 bd 04 a7 c0 3c 02 1b 6d 3d a8 3d 9b bd
       -0.059607096 0.02351714 0.057887085 -0.07580119
000110 1c 55 67 bd 61 62 a8 bd 5d 8f e6 bc 78 b7 9a 3d
       -0.05647765 -0.08221889 -0.028144533 0.07554525
000120 47 87 2a bc 98 1f 6f 3d c8 af ca 3c ff 58 57 3d
       -0.010408229 0.05837974 0.024742022 0.052575108
000130 48 26 83 3d 22 0b 8d bd 2c b7 5b 3d 22 01 81 bd
       0.06403786 -0.06886889 0.053641483 -0.06299044
000140 e1 9f 4a 3a 87 22 fd bc 93 2c a3 3c da 21 63 bd
       0.0007729512 -0.030900253 0.019918716 -0.055452205
000150 52 4e be 3b 97 92 55 3d cd 3c 05 bd cb b5 37 3d
       0.0058076764 0.052141752 -0.032528687 0.044851106
000160 f5 b2 87 bd ad ed cf bb cb 38 9d 3d 4f ea 93 bd
       -0.0662593 -0.006345472 0.07676848 -0.07222425
000170 6e 06 52 3d 2b d4 26 bd 1d 2e 12 3c c4 53 5d 3d
       0.051275663 -0.040729683 0.008922127 0.054034963
000180 f1 3f 15 bd 63 a3 9a bc 0c 32 b3 bc 4c 1c a0 3c
       -0.036437932 -0.018876737 -0.02187445 0.019544743
000190 21 06 11 3c 53 e2 40 bd 90 9a a8 3c f8 9c 40 bd
       0.008851559 -0.04709084 0.020581514 -0.047024697
0001a0 3c 17 ed bc f5 f9 3a 3d 65 cf 64 bd 06 74 08 3d
       -0.028941743 0.045648534 -0.05586185 0.033313774
0001b0 15 16 84 bd 98 29 94 bc 7a ea 13 bc 35 1a 8b bd
       -0.06449524 -0.01808624 -0.009028072 -0.06792108
0001c0 d8 5e 8f bd 2c ff 0c 3c 15 ce a9 bd 4f bc 93 3d
       -0.07000512 0.00860576 -0.0829126 0.072136514
0001d0 d9 35 7e bb 16 c6 a9 bd 29 fc ae bd ca 35 7e 3d
       -0.003878942 -0.08289735 -0.085441895 0.062063016
0001e0 1e 94 64 b7 29 a4 a4 3c 30 d9 10 3d 9f c0 ac bc
       -1.3624345e-05 0.020097809 0.035363376 -0.021087943
0001f0 03 26 b3 3d 75 d1 cf bc 07 ca d3 3c 93 a4 66 3d
       0.087474845 -0.025368432 0.02585317 0.056309294
000200 be c6 0a bd f8 81 fe bb 95 7e d9 bc db 61 1e bc
       -0.03388094 -0.0077669583 -0.026549617 -0.009666885
000210 ed c8 bb bc 88 4a b1 bd 19 cb 9b 3d 1f 47 4c 3d
       -0.022922957 -0.08656794 0.07607097 0.049872514
000220 60 34 99 bd b7 d0 57 bd da d6 5f 3d 85 dc 13 3d
       -0.07480693 -0.05268928 0.054648258 0.036098976
000230 b7 34 9a 3b 8a 50 1e 3d 75 b9 82 bd dd e5 7c 3d
       0.004705991 0.038651027 -0.06383029 0.061742652
000240 2f bc 94 3d 21 30 d4 3c 2f 54 77 bd 54 56 5e 3d
       0.07262456 0.025901856 -0.060383018 0.054281548
000250 9c a1 95 3c 51 a4 9f 3d 92 bf 1d 3c b8 95 87 bd
       0.018265538 0.07795013 0.009628193 -0.066203535
000260 b7 14 2a bd 29 cd a0 3d 61 d7 81 3d 31 1b 5d bd
       -0.04152366 0.07851631 0.063399084 -0.05398101
000270 06 d0 e3 bc ff 25 74 bd 87 89 8e bc bf a0 9d bd
       -0.027809154 -0.05960655 -0.017399563 -0.076966755
000280 e5 86 0d 3d d8 88 5a bd 58 92 75 3d e0 8c aa bd
       0.034552474 -0.05335316 0.059954017 -0.08327651
000290 2b fa 27 bd 3e 57 32 bd 6c 0b 83 bd 62 37 2d 3c
       -0.041010063 -0.043540232 -0.06398663 0.010572286
0002a0 e0 cd d3 3c 9d 09 8a bd 07 53 80 3d 10 99 51 3d
       0.025855005 -0.06740115 0.06265836 0.051171362
0002b0 61 ba b7 3c 1f a3 af bd e5 4f 6b bd 3a 16 87 3d
       0.02242774 -0.08576035 -0.05744924 0.06596036
0002c0 06 e8 4f bd e3 35 c8 3c a5 21 a0 3d 10 09 5f 3c
       -0.050758384 0.024439758 0.07818917 0.0136130005
0002d0 c0 77 1c bc 54 69 8e 3d 61 b8 61 3c d7 c5 af 3c
       -0.009550035 0.069536835 0.0137768695 0.021456642
0002e0 f5 00 40 3b 38 16 2f bd 2c bb f4 bc 90 12 89 3d
       0.0029297445 -0.0427458 -0.029874407 0.06692994
0002f0 29 4b 8e 3a 24 00 9a 3c 6a 51 0d bc ab 1b 6e bd
       0.001085614 0.018798895 -0.008625368 -0.058131855
000300 cc 37 00 bd fb 1c 0b 3d 7c b8 05 3d 7f 35 63 bd
       -0.031303212 0.033963185 0.03264664 -0.05547094
000310 31 01 86 3d ba b2 8a 3c eb 63 59 bc 53 13 66 bd
       0.06543196 0.016930927 -0.013268451 -0.056170773
000320 74 8e 8b 3d 31 a6 4a bd 9e 07 b1 bd 3f 62 50 3d
       0.0681428 -0.0494749 -0.08644031 0.050874945
000330 4e 1e 2d bc 0f ec ec bc 1f 43 85 bc ec 14 98 bc
       -0.010566307 -0.028921155 -0.016267357 -0.018564664
000340 69 25 f0 bc 6a 5b dc 3c 19 2b 57 bd d2 1c d7 3c
       -0.029314714 0.026899058 -0.052531336 0.02625886
000350 fd ba 23 3b 1d a0 c0 bc bc fb 8d 3b 8c b1 90 bc
       0.002498328 -0.023513848 0.0043329876 -0.017662786
000360 ca 46 fe bc 03 76 f6 3c ba aa a7 3d d2 f0 f7 3c
       -0.031039614 0.03008557 0.081868604 0.0302662
000370 3e c6 84 3c a0 8b 67 3d 21 0a 33 3d a7 15 3e bb
       0.01620781 0.05652964 0.04371083 -0.0029004605
000380 16 09 6d bd d7 44 35 3c da 5f 83 3d 46 33 a7 bd
       -0.057869993 0.011063776 0.064147666 -0.081640765
000390 ea 6f 76 3d f2 85 6b bd 85 bc 9b 3d b3 ff 8a 3d
       0.060165323 -0.057500787 0.076043166 0.06787052
0003a0 29 51 55 3d 8f 23 5f bd e8 36 2c bc 30 5f 6d 3d
       0.052079353 -0.05447727 -0.010511138 0.057952106
0003b0 a6 75 81 bd 7b 74 0e bd eb 1f 6d bc bb bb 95 bd
       -0.06321268 -0.034779053 -0.014472942 -0.07311197
0003c0 b2 2e 33 3b 9e 35 a6 3d c3 59 70 bd 74 a3 0f 3d
       0.0027341065 0.081156954 -0.058679353 0.03506799
0003d0 38 87 ab bc a0 3a af bc 4e dd 0f 3b 43 83 9f 3c
       -0.0209385 -0.02139026 0.0021951976 0.01947177
0003e0 08 0e 55 3d c8 7e b5 bd c8 b3 67 bd 2a c0 01 3c
       0.052015334 -0.08862072 -0.056567937 0.007919351
0003f0 48 25 36 bd 9a 6b 31 3d 1b fa 7f bd e1 24 8f 3c
       -0.044469148 0.043315507 -0.06249438 0.01747364

func.linear2.bias f4 [450]
000000 ab 2a 1f 3d fe 8f af 3d 2e c2 87 bd fe 74 2e bd
       0.03885905 0.08572386 -0.06628834 -0.04259204
000010 19 3b 31 3d 01 a6 bc bc d8 bc a5 bd de 89 56 3d
       0.04326925 -0.023028376 -0.0809266 0.052377574
000020 b3 27 b2 bd 72 e1 84 bd 33 08 2e 3d 58 03 94 bc
       -0.08698978 -0.06488313 0.042488288 -0.018068
000030 83 46 b9 bc 7b 5d 98 bc 1d 79 0b 3d 6b 40 67 3d
       -0.02261663 -0.018599262 0.03405105 0.056457918
000040 ac e1 9e bb 68 df 0a 3d 4f 7e 90 3d e9 5f 3a 3d
       -0.0048486795 0.033904463 0.070553415 0.045501623
000050 95 ba 8e 3d 3e eb 05 bd f8 b8 01 bd 97 07 41 bd
       0.069691814 -0.032695048 -0.03167054 -0.04712638
000060 3d 4c 11 3d 01 27 26 bd d9 43 4d 3d c7 0b 64 bd
       0.035473097 -0.04056454 0.050113533 -0.055675294
000070 02 1c 0c bd 18 e9 c2 3c c4 19 af bd ae 3e db 3c
       -0.034206398 0.023792788 -0.08549836 0.026763286
000080 42 66 dd 3b 14 bd af bd 62 f5 52 bd bc 98 43 3d
       0.006756575 -0.08580986 -0.051503547 0.04775308
000090 c1 60 29 3d 78 9f 5e 3c 29 24 97 3c c8 d8 4c bd
       0.041352037 0.013587825 0.01844986 -0.050011426
0000a0 5b ad 3c bd 1f 96 97 3d 6f c3 8b 3d 55 1d a1 3d
       -0.046063762 0.0740168 0.068243854 0.07866923
0000b0 54 44 42 3d 02 1f 65 bd 2a 48 66 3d 83 17 a9 3c
       0.047428444 -0.055937774 0.056221165 0.020641094
0000c0 e9 7a 96 3d c2 d1 3a 3d 28 d7 1b bd 95 bd 91 bd
       0.07347662 0.045610197 -0.038046986 -0.07116238
0000d0 92 e0 39 bd 0a 66 32 bc 1a f8 69 bd 32 74 97 bd
       -0.045380183 -0.010888586 -0.057121374 -0.07395209
0000e0 41 84 ca bc 84 3b 05 3d 58 05 5f 3c 31 48 ab bd
       -0.024721267 0.03252746 0.013612114 -0.08363379
0000f0 9d 50 32 bd 2f c9 0c bd 00 32 74 3d 90 0f 02 bd
       -0.04353391 -0.03437155 0.059617996 -0.031753123
000100 a1 d9 26 3d cc 83 a1 bd 25 0a ae 3d 50 bc 7b 3c
       0.04073489 -0.078864664 0.08498029 0.015364721
000110 00 26 91 3c 34 14 49 3b 06 e4 e8 3c 00 28 1f bc
       0.017718315 0.0030682208 0.028429043 -0.009714127
000120 8c bf 56 bd a3 62 2e bd e1 ff 96 3c 11 03 81 3d
       -0.052428767 -0.042574536 0.01843256 0.06299413
000130 50 43 9f 3d e8 8c 43 3d 30 b5 3e bd e3 c4 8e bd
       0.07776511 0.0477418 -0.046559513 -0.06971147
000140 fd ac a8 bd 36 51 55 bd f4 b8 8d 3d 48 f4 47 3d
       -0.0823612 -0.052079402 0.06920043 0.04881695
000150 e1 34 b4 3d bb 22 11 3d eb b6 17 3d 00 f8 c1 3c
       0.08799148 0.035433512 0.03703968 0.023677826
000160 2b fb 8e 3d 46 bc 23 3d de d1 d5 3c 44 9d a1 3c
       0.069815 0.039974473 0.026101049 0.01972831
000170 19 99 96 bd 42 61 bf bc d5 7e 22 bd b1 8e 1e bd
       -0.0735342 -0.023361806 -0.039671738 -0.0387103
000180 ea e4 9c 3d 74 a5 5c bd f2 f1 05 3d 0a a9 d7 3a
       0.076608494 -0.053868726 0.03270144 0.0016453576
000190 4c d8 52 3d c7 5c 5a 3c b4 8b 80 bc 82 a5 8a 3c
       0.051475808 0.013327784 -0.015691616 0.016924623
0001a0 a5 71 a7 bc 86 4c 26 bd 80 e1 67 3d 5e 44 7e 3c
       -0.020439932 -0.040600322 0.056611538 0.01551923
0001b0 2c 60 c9 bc af 1d 9b 3d ac 65 05 bd 57 0a 4f bd
       -0.024581991 0.07574021 -0.032567665 -0.05054697
0001c0 01 2a f2 bb b8 04 d4 ba f3 4d ba bb f6 dc ac 3d
       -0.007390261 -0.0016175723 -0.005685562 0.084405825
0001d0 10 9a 9b bd 42 f8 be bc 31 f6 a5 bd 48 65 58 3d
       -0.075977445 -0.023311738 -0.08103598 0.052830964
0001e0 84 61 7c bd 3f 74 a1 3c cf ca 8c bd 79 e6 5b 3d
       -0.061616436 0.01970875 -0.0687462 0.053686593
0001f0 31 25 d9 3b d3 51 9c 3d e7 74 a8 3d cb fa a4 3d
       0.006626748 0.07632794 0.08225422 0.080556475
000200 db cc 56 bd 5d bd 95 bc 7a 68 81 3d 59 91 a4 3d
       -0.05244146 -0.018278772 0.063187554 0.08035535
000210 82 aa 9c 3d c5 3d e7 3b 6f 1d 31 3b 49 a6 e9 bc
       0.07649709 0.007056924 0.00270256 -0.028521674
000220 7b 6a 76 bc 33 12 62 3d c3 91 b3 bd bf 31 ee 3c
       -0.015040035 0.055193137 -0.08768036 0.029076455
000230 cb c4 8f 3d 84 73 3b bd 60 d7 a9 bd cc f0 68 bd
       0.07019957 -0.04576446 -0.08293033 -0.056870267
000240 d2 b6 11 bc 1f 74 70 3d f8 b1 a1 bd a7 b1 ad 3d
       -0.008893685 0.05870449 -0.07895273 0.0848115
000250 0a 1d 02 bd a7 71 ab 3d 8f 8f 45 3d a7 d7 fc 3b
       -0.031765975 0.08371287 0.04823261 0.0077161375
000260 29 3a dd bc 0a f7 16 bd 2d 3a 2b bb d6 d1 f5 bb
       -0.027005272 -0.03685669 -0.0026127205 -0.007501821
000270 3b 06 70 3d 22 31 49 3d 11 b5 a8 bc 66 a5 8f 3d
       0.05859969 0.049119122 -0.020594152 0.07013969
000280 5b 00 ab 3c b0 3a 9b ba fd 7a 95 bd 2d 84 8b 3c
       0.020874193 -0.0011843052 -0.07298849 0.0170308
000290 ac 0f e6 bc e0 86 9c bc 11 03 18 3d 26 e7 7a 3d
       -0.028083645 -0.019107282 0.0371123 0.061255597
0002a0 2e c0 8f bd dc 3e 7f bd a4 94 3e 3d c1 22 55 3c
       -0.07019077 -0.062315807 0.046528473 0.013008774
0002b0 5c 5f 94 bd 50 02 4c 3c 28 2e d9 3c 10 c1 e0 3c
       -0.07244751 0.012451723 0.026511267 0.02743581
0002c0 33 21 65 bd fb 46 f7 3c a4 c2 4f 3d ec 2e 84 3d
       -0.055939864 0.030185213 0.050722733 0.06454262
0002d0 1c f2 99 3c ad c8 e0 bc 9f f2 6a 3c 48 c5 80 3d
       0.018792205 -0.02743944 0.014340072 0.062876284
0002e0 36 e3 89 ba 7f 36 bd 3c 89 94 ad bc b2 85 8b 3c
       -0.0010519985 0.023097275 -0.021188991 0.017031524
0002f0 b5 5d 40 bd f5 7d b0 bd c9 95 1d 3d 48 50 26 bd
       -0.046964366 -0.086177744 0.038472924 -0.040603906
000300 07 7a 98 bd 27 b4 4d 3d 07 dc 86 3d 75 80 2b 3d
       -0.0744515 0.050220635 0.06584936 0.041870553
000310 a0 07 97 3d 39 fb 9f 3d 71 84 46 3d 2e a6 51 3d
       0.07374501 0.07811589 0.04846615 0.051183872
000320 1a be 9c b9 0e a5 f4 bc b4 86 5a 3d ff c2 08 bd
       -0.00029896275 -0.02986386 0.05335112 -0.033389088
000330 e4 ed 87 bd b3 11 b2 3d 46 1d 94 3d 81 d8 11 bd
       -0.06637171 0.08694782 0.07232146 -0.035606865
000340 72 10 86 3b 6b 36 fd 3c 3c 8f aa bd b1 b8 5c bc
       0.004091316 0.030909738 -0.08328101 -0.013471768
000350 4b cf 52 3d cb 56 93 3d 01 74 ff 3a 5d 30 a2 bd
       0.05146722 0.07194289 0.0019489528 -0.07919381
000360 5c cb 86 bd fe 55 aa bd 0f 5a 75 bd 34 4e 9d bd
       -0.065817565 -0.08317183 -0.05990034 -0.07680932
000370 dd e0 ea 3c 85 f2 8d bd a9 4b 6f 3b f0 74 1a bd
       0.028671676 -0.069310226 0.0036513603 -0.037709177
000380 a8 37 f1 3c 60 61 89 bd 2e aa 98 3c c2 64 bd bc
       0.029445484 -0.06708026 0.018635835 -0.023119334
000390 c4 57 03 3d 2c c1 58 3d 5f 63 67 bd 28 82 6c bd
       0.03206612 0.052918598 -0.056491252 -0.057741314
0003a0 d5 f1 29 bd 4b ca e0 3c 58 0f 9f bd 21 02 ff bc
       -0.041490395 0.02744021 -0.077665985 -0.031128945
0003b0 a6 8f a2 3d d0 c8 3f bc 62 40 77 3d e6 42 5e bd
       0.07937555 -0.011705592 0.060364135 -0.054263018
0003c0 d5 84 9e 3d be 53 ba 3c 4a e4 88 bd 67 c1 41 3b
       0.077401794 0.02274501 -0.06684168 0.002956474
0003d0 78 04 6c ba 21 4f 13 bd 9e fb 78 bd ec 77 92 3d
       -0.00090033514 -0.035964135 -0.060786836 0.071517795
0003e0 03 da f6 3a ba 2d 94 bb 17 d8 a8 3d b0 e5 97 bd
       0.0018833283 -0.0045220526 0.08244341 -0.07416856
0003f0 ab 39 62 bc 68 c4 86 3d 5f 66 9d bd b2 db dd 3c
       -0.013807694 0.0658043 -0.07685541 0.027082298

initial.weight f4 [150, 3]
000000 32 26 0d 3f 7a 14 6d 3e 3e 64 b3 be e8 89 17 3e
       0.55136406 0.23152342 -0.35037416 0.14798701
000010 0b 26 be bd 92 37 83 be 03 82 a8 3e fa 2c 20 3e
       -0.092846 -0.25628334 0.3291169 0.15642157
000020 c3 a5 f1 be 86 54 02 bf c4 62 c0 3e dc 53 05 bf
       -0.4719678 -0.5091022 0.37575352 -0.52081084
000030 40 ca 39 be 7a 3e 60 bd 83 98 92 3e da 51 f5 3e
       -0.18143559 -0.054747082 0.28631982 0.4791401
000040 6f d7 33 3e 17 90 10 be a7 94 9c 3e 92 fa 25 be
       0.1756265 -0.14117466 0.30582163 -0.16208866
000050 05 63 a6 be 4a 37 ac 3e 04 8b dc 3e 9b 1c 89 be
       -0.3249742 0.33635932 0.4307481 -0.26779637
000060 a7 53 65 3d 70 d0 98 be 64 48 a4 be 3d c0 12 bf
       0.05598798 -0.29846525 -0.3208648 -0.5732458
000070 d9 56 94 be eb b7 09 3b 5c 5f 03 bc 3a 01 da 3e
       -0.2897251 0.0021014165 -0.008018341 0.4257906
000080 e4 a0 0d 3f 74 9e ba bd 16 2c f6 be 4a a9 0b be
       0.55323625 -0.09112254 -0.4808051 -0.13638797
000090 cb 12 2f 3e 0f bd a6 be 13 09 84 be 89 97 a4 be
       0.17097013 -0.32566115 -0.25788173 -0.32146862
0000a0 22 09 e3 3e 1a 0b ef be a2 9f 73 be e8 72 6a be
       0.44342905 -0.46688157 -0.23791364 -0.22895396
0000b0 91 6c c9 be 42 74 d5 3e 95 7a 74 be 95 28 5d be
       -0.39340642 0.4169026 -0.23874886 -0.21597512
0000c0 98 1f 9d be 65 14 17 3e 99 f2 0e bf a9 67 57 3e
       -0.30688167 0.14753874 -0.55838925 0.21035637
0000d0 2e be 05 be 97 bd 7c 3d f7 22 53 be 60 bb 51 3d
       -0.13060829 0.061704244 -0.20618807 0.051204085
0000e0 09 81 a3 3e b9 f7 ab 3d 5a 82 73 bd 13 3f ff be
       0.31934384 0.08396859 -0.059450485 -0.4985281
0000f0 5b 24 9c 3e ee eb a2 3e 88 8e e8 3e 15 8f 70 3e
       0.30496487 0.31820625 0.45421243 0.23492081
000100 70 35 09 3e 8b 96 de 3d 05 19 4d 3d 29 4c e1 be
       0.13399291 0.108685575 0.05007269 -0.44003418
000110 c4 93 0c 3e 1b 05 3d bc 9d a9 e0 bb 6f 85 7f be
       0.13728243 -0.011536862 -0.006856157 -0.24953245
000120 60 ec 59 be 57 a5 e9 3e 58 e6 c1 39 66 31 1e 3e
       -0.21281576 0.45633957 0.00036983448 0.15448532
000130 ec 70 04 3f 7f 6a e0 3e cd ff e6 3c 2d ef ba be
       0.51734805 0.4383125 0.028198147 -0.36510602
000140 46 0d c7 3e d2 05 b6 be dd 13 0c bf 45 e8 6a 3e
       0.38877314 -0.35551316 -0.5471781 0.22940166
000150 c3 8f 66 3c 4a c0 7a 3d 10 8c b0 3e d5 16 f3 be
       0.014072361 0.061218537 0.3448186 -0.47478357
000160 5c 75 a0 be bf 16 07 3f f7 17 e4 3e c9 93 c4 be
       -0.31339538 0.5276908 0.44549534 -0.38394
000170 f0 3f d6 be 9e 20 21 3e 70 e5 8e 3d 92 35 ec 3e
       -0.41845655 0.15735099 0.069773555 0.4613462
000180 fe 32 36 be 1d ae b1 3e 3c 42 9a 3d a4 f7 e8 3e
       -0.1779289 0.3470315 0.075321645 0.45501435
000190 d5 d9 d0 be 00 38 c7 bd bc 27 8c 3e 26 08 4f be
       -0.40791193 -0.09727478 0.27374065 -0.20217952
0001a0 b4 90 10 3f 2e c0 58 3e d3 34 cc 3c 30 ab fb be
       0.564708 0.2116706 0.024927532 -0.49154043
0001b0 e3 ab a2 be a7 b9 fe be f5 ea 1d be df 33 ed 3e
       -0.31771764 -0.49751016 -0.1542166 0.46328637
0001c0 eb c1 0c bf a1 4e 87 3e e7 cc 9f bd a8 c5 ed 3e
       -0.54983395 0.26427177 -0.07802754 0.46439862
0001d0 c5 27 45 be ac ad 6b 3e e9 45 11 bf 83 bd 90 3e
       -0.19253452 0.2301547 -0.567473 0.28269586
0001e0 d5 9e da be f7 b2 0f be 15 08 71 3e 41 83 7e 3e
       -0.42699304 -0.14033113 0.2353824 0.24854757
0001f0 53 ce f3 bd 9d 2f 04 bf fd 95 6c 3e 80 f2 fa 3e
       -0.119045876 -0.5163515 0.23104091 0.49013138
000200 6e 25 8b 3c 8a 65 8c be 67 b8 99 be d9 41 c3 3e
       0.016985621 -0.27421218 -0.300235 0.38136175
000210 83 a5 a4 be 8c fe f0 be 6c 0e a7 3e e6 10 2a be
       -0.32157525 -0.47069204 0.3262819 -0.16608009
000220 34 19 b1 bd ce b2 11 bf 40 b9 bf 3e da ec a8 bd
       -0.08647385 -0.5691346 0.37446022 -0.08248301
000230 bf a2 a6 3e 71 84 c8 3e 10 3e 7c bd 99 04 06 be
       0.3254604 0.39163545 -0.061582625 -0.13087691
000240 95 4c 1e 3e cd c0 01 bd 5a 31 c1 be c9 8c c1 be
       0.15458901 -0.03167801 -0.37732965 -0.37802723
000250 68 53 39 be 81 b1 1e 3d 85 c2 ef bd 02 4f 0f bf
       -0.18098223 0.0387435 -0.117070235 -0.5597993
000260 37 c7 1b 3e f4 50 99 3e 73 80 f1 3d 0b 25 11 3f
       0.15212713 0.29944575 0.11792078 0.5669715
000270 44 4b f1 3d 64 f9 86 be 9b 29 10 bf 71 cb 8e bc
       0.11781934 -0.26362145 -0.56313485 -0.017430993
000280 0f 29 01 3e 7c 20 c1 be 98 3c 0d 3e 59 10 b6 be
       0.12613319 -0.37720096 0.13792646 -0.35559347
000290 c0 1c 66 be 71 67 0e 3f e5 61 38 be 32 f2 5a 3e
       -0.22471905 0.5562659 -0.18006094 0.21381453
0002a0 31 3a fa 3e 18 9b 75 bd 12 93 d9 3e 62 c5 b4 be
       0.48872522 -0.059962362 0.42495018 -0.3530684
0002b0 93 f8 a7 3e 17 a1 dd bd 68 48 1d bb 2b cb dd bd
       0.32806835 -0.10821741 -0.0023999456 -0.10829767
0002c0 e2 f6 99 3e b2 29 9d bd 4e 86 09 bf 65 63 12 bf
       0.3007117 -0.076739684 -0.5372056 -0.57182914
0002d0 86 22 af be 79 2c 83 be 4f 80 d6 be 95 16 db be
       -0.34206027 -0.25619867 -0.41894767 -0.42790666
0002e0 85 3e a0 bd 21 cf df be 99 17 ca 3e f6 c9 d6 3e
       -0.07824425 -0.43712714 0.3947113 0.4195096
0002f0 8b bb 52 3e 55 ee fd 3e 46 77 e1 3d c0 fd ea 3d
       0.20579354 0.49595895 0.11009078 0.1147418
000300 81 c0 03 bf f4 74 8f 3e cd 89 ec be 05 54 db 3e
       -0.5146561 0.28018916 -0.46198884 0.4283754
000310 50 bf 90 be 8a 2d 0c be ea dd 01 bf 55 c7 75 3e
       -0.2827096 -0.13689247 -0.5072924 0.2400182
000320 53 16 78 be d2 1c 5f 3e 1f c7 18 bd 04 3d a2 be
       -0.24227266 0.21788338 -0.03729927 -0.31687176
000330 06 04 07 3e 74 4b d1 bd 27 30 05 3e 76 4f 43 3e
       0.13185129 -0.1021947 0.1300665 0.1907328
000340 71 6c 9a 3e 06 63 c5 be 16 ec ea 3e b2 ea 59 3e
       0.3016086 -0.3855211 0.45883244 0.21280935
000350 10 6a 18 be ea eb ae 3e 7c 2c d7 3c 33 80 c9 be
       -0.1488421 0.34164363 0.026266329 -0.3935562
000360 ed d8 09 bd 7f 9d 2c be 33 23 97 bc 27 e0 ff 3e
       -0.033654142 -0.16856955 -0.018449401 0.49975702
000370 29 4b 11 bf dd 77 7b be 2c 0a 4f 3e 61 7d ed be
       -0.5675531 -0.24557443 0.20218724 -0.4638472
000380 be c2 df be c8 d8 83 3e 13 a5 c5 be bf 06 a6 3e
       -0.43703264 0.25751328 -0.38602504 0.32427022
000390 0a 87 09 bf ac a4 9e 3e 37 d0 a5 3e 68 79 0c bf
       -0.5372168 0.3098501 0.32385418 -0.5487275
0003a0 77 d2 d0 3e f1 46 3e be 8b a3 07 3e a4 03 8b 3e
       0.40785572 -0.1858175 0.1324598 0.27151215
0003b0 70 50 a4 3e 43 2e ee 3e 61 91 df 3e 37 ab df bc
       0.3209262 0.4651967 0.43665603 -0.027303321
0003c0 bc a7 65 be 00 1e 9c 3e e0 33 75 3e 50 7c 4b 3e
       -0.22427267 0.30491638 0.2394557 0.1987164
0003d0 83 9b 2d 3e c4 30 0e bf 27 04 48 3e 86 06 4b 3e
       0.16953854 -0.5554316 0.19532834 0.19826707
0003e0 b2 35 87 3e 83 bd c0 be ba 24 97 be 5c bf 5a be
       0.26408154 -0.37644586 -0.29520208 -0.2136206
0003f0 0a 75 13 3f 38 96 de 3e bb 89 8a be 2d f9 d7 be
       0.5760046 0.43473983 -0.27058205 -0.42182294

initial.bias f4 [150]
000000 0b 18 4d be f5 19 cb 3e 79 22 0a bf 54 6c 5d be
       -0.20028703 0.3966824 -0.5395885 -0.21623355
000010 f3 e8 62 3e 02 92 bd be cf 08 0b 3e f4 df 80 be
       0.22159176 -0.37025458 0.13577579 -0.25170863
000020 5a 78 f5 be 23 9b 05 bf 0f 3b a7 be 4a 3e 09 3f
       -0.47943383 -0.52189845 -0.32662246 0.5361067
000030 68 6d 33 be 5f 74 3c 3e db e3 fa 3e a8 cb 07 3e
       -0.17522204 0.18403767 0.49001965 0.13261282
000040 64 23 0d bf c0 d6 32 be bd d2 75 be 93 7f 64 3d
       -0.55132127 -0.17464733 -0.24006172 0.055785727
000050 b4 e4 f9 bd f1 b2 4b bd 58 15 e5 bd 48 04 d4 3d
       -0.12201825 -0.0497312 -0.111857116 0.10352379
000060 9d 04 8d be ae c5 b0 3e 99 3a a1 3e 71 e9 12 bf
       -0.27542582 0.34525818 0.3149002 -0.57387453
000070 71 ea 5a 3e 33 f8 89 3e 07 82 4b 3d 96 b4 2e be
       0.21378495 0.26947173 0.04968455 -0.17061076
000080 46 45 e9 3e f7 dd db be d8 ff ff 3e 59 68 9e be
       0.45560664 -0.42942783 0.4999988 -0.30938986
000090 92 56 f8 be 6e 9f e5 bc 6c 76 ba 3e 38 b5 b0 bd
       -0.48503548 -0.028030124 0.36418474 -0.08628315
0000a0 34 14 f6 be 3f b3 01 bf a0 7e 0a 3f 47 33 11 3f
       -0.4806229 -0.5066413 0.54099464 0.5671887
0000b0 a4 e0 0f bf 9e f4 e9 be 1a 85 0b 3e 21 4f 82 be
       -0.5620215 -0.4569444 0.13624993 -0.25450996
0000c0 aa a5 c9 be 57 f3 ff be 3f 19 2e be 2a c4 83 3e
       -0.39384204 -0.4999034 -0.17001818 0.257356
0000d0 1d 3b a6 be 35 2a ec bc dd 23 6a be fc 60 15 be
       -0.32466975 -0.02882872 -0.22865243 -0.14587778
0000e0 34 ea f2 be 27 44 0c bf e5 bb a4 3e a5 5e 37 be
       -0.47444308 -0.5479149 0.32174602 -0.17907198
0000f0 93 e2 2c be 63 db de be a0 4f b0 3e ba f9 a2 bd
       -0.16883306 -0.43526754 0.3443575 -0.07957788
000100 c7 3d 30 3d 2e 6d a2 be f1 82 ef be 61 a2 10 be
       0.043027665 -0.31723922 -0.46779588 -0.14124443
000110 1d 0b 34 be ef 97 85 3e f5 c5 1f 3e c1 35 c4 be
       -0.17582364 0.2609248 0.15602858 -0.3832226
000120 14 8e 54 be 8f 77 f7 3c df 68 b1 3e 78 a9 4e 3d
       -0.20757324 0.030208377 0.34650323 0.050454587
000130 7c 5f 43 3e a4 9c 38 be 0c 8a a7 be 5f 00 8b 3c
       0.19079393 -0.18028504 -0.3272251 0.01696795
000140 57 0b 14 3f 05 4e a1 3d 44 8a c9 3c 03 ec 0e bf
       0.57829803 0.07876209 0.024602063 -0.55828875
000150 19 80 a5 be 32 97 d0 3e 0d b6 be bd 92 cb 06 bf
       -0.32324293 0.40740353 -0.09312067 -0.52654374
000160 d2 9e 60 3d 4f 65 af be 1f f3 b7 be bd c2 7f 3e
       0.054838963 -0.3425698 -0.35927674 0.2497663
000170 f7 b2 af 3e 95 34 b7 be de d9 ab 3e b0 02 ba 3e
       0.34316227 -0.35782304 0.33564657 0.36330175
000180 1b 52 83 3e 45 8f f2 3e 61 7e c5 be 5e e3 88 3c
       0.2564858 0.4737493 -0.38572982 0.01670998
000190 f2 c4 39 be 82 d0 d4 bd 39 e2 19 be f8 b6 b9 3e
       -0.18141535 -0.10391332 -0.15027703 0.36272407
0001a0 54 0b 0c bf 01 8c c3 bb 40 e5 5c be 9a a9 fb 3e
       -0.54704785 -0.0059676175 -0.21571827 0.49152833
0001b0 02 8c 55 3e d4 a8 15 3d cf cd d7 be 26 e4 b3 be
       0.2085419 0.03653796 -0.42149207 -0.35135
0001c0 7a 36 fc 3e d3 9a ba be 54 e9 e5 bb ce f8 b8 3e
       0.49260312 -0.36446247 -0.0070163403 0.36127323
0001d0 cc e4 e7 be 60 f7 b1 3e ef a5 94 bc 20 f1 90 3d
       -0.45291746 0.34759045 -0.01814553 0.07077241
0001e0 e5 8b 02 3f eb f1 4c bc 74 ba cd be b4 f1 c8 be
       0.5099471 -0.01250885 -0.40181315 -0.39246905
0001f0 e1 03 ac 3e ab c8 bd 3e 96 0b 03 bf 71 da bf be
       0.3359671 0.3706716 -0.51189554 -0.37471345
000200 b2 b1 8e be 13 8b 46 3e 1a bc f6 3e 3f 25 12 be
       -0.27869946 0.1938899 0.48190385 -0.14272021
000210 74 a1 24 3d 27 b5 65 3c 1e e3 58 be c9 f5 b0 be
       0.040193036 0.014020241 -0.21180388 -0.3456252
000220 a9 2e 16 3e dd 9d 08 bf e6 58 01 bf 23 65 11 3f
       0.14666237 -0.5336588 -0.50526273 0.5679495
000230 24 55 93 be 6d 05 85 bb 40 22 95 3e 45 76 0f 3f
       -0.28775895 -0.0040594847 0.29127693 0.5603984
000240 4f 08 cd be b3 66 cc be c7 56 fb 3c c0 2d ae 3e
       -0.400454 -0.39922103 0.030681027 0.3401928
000250 8f a3 e7 3e 81 1e 9d bd
       0.45241973 -0.07671834

readout.weight f4 [126, 150]
000000 be 89 ef 3c 09 d6 0a 3d cf c7 96 bd 39 df 9c bd
       0.029240485 0.033895526 -0.07362329 -0.07659764
000010 8c 40 88 3d b6 f0 c8 bc a6 12 97 bc 71 3b ee 3c
       0.06652936 -0.024528842 -0.01844151 0.029081078
000020 7b 4d 4d bd 1b 64 89 bd 20 5d 63 bd e0 40 37 bd
       -0.05012272 -0.06708547 -0.055508733 -0.044739604
000030 da 22 0d 3d 7f 61 74 3d 27 ac c5 bc 44 67 72 bd
       0.034457065 0.059663292 -0.02412994 -0.059180513
000040 d2 ce 75 3d 19 f0 76 bd c9 19 7c 3d 42 6e 29 3d
       0.060011692 -0.06028757 0.06154803 0.041364916
000050 4b 00 47 bd e9 4c 19 3d 46 56 8d 3d ab 74 83 bd
       -0.048584264 0.037426863 0.06901221 -0.06418737
000060 2f 9a b9 3c b9 06 6f bd ce 7d ea bc 4c 35 05 3d
       0.022656528 -0.05835602 -0.028624441 0.03252153
000070 9d 71 0d bd 5b 13 89 bd 52 e2 60 bd 25 82 f1 bc
       -0.03453218 -0.06693145 -0.054903336 -0.029481003
000080 32 5f 71 bc 26 77 6c 3d a4 f0 23 bd e9 ff b5 3c
       -0.014732169 0.057730816 -0.040024415 0.022216754
000090 54 0e e1 bc c1 27 74 3d d9 f1 6a 3d 11 56 e0 3c
       -0.027472652 0.059608225 0.05735955 0.02738479
0000a0 5d de 49 bd 8b 32 32 3d 5e a4 a2 3c aa c0 da bc
       -0.049284328 0.043505233 0.019853767 -0.026703198
0000b0 e2 4d 22 bd 6c a4 59 bc 9d 91 a7 3c f1 89 96 3c
       -0.039625056 -0.01328383 0.020455176 0.018376322
0000c0 b6 5f 66 3c f2 96 6d 3d 44 8a a1 bd 0b 0d 4c bc
       0.014060905 0.05800528 -0.078877 -0.012454282
0000d0 92 c9 66 3c c0 73 21 3d 78 22 35 3a 58 5a 77 3d
       0.014086144 0.03941703 0.00069097383 0.060388893
0000e0 1e 96 67 3d 6e f0 d0 3c 0f 0e 30 bd 8f 75 85 bd
       0.056539647 0.02550527 -0.042982157 -0.06516563
0000f0 a6 e8 9f bd 0b 63 bc bc 33 74 63 bd 93 7b 62 bd
       -0.07808046 -0.022996446 -0.055530738 -0.05529363
000100 e5 a7 85 bd f2 1f 2a ba ac 36 3a 3d 51 aa 92 3d
       -0.06526164 -0.00064897456 0.045462295 0.071613915
000110 27 2e 89 3d d2 db 1e bd a8 db 90 bc 38 26 34 3d
       0.06698256 -0.038783856 -0.017682865 0.04398176
000120 97 d3 25 bd 9a 2e 27 bd 05 9d 08 3d 2b b8 1a 3d
       -0.04048499 -0.040815927 0.03335287 0.037773293
000130 23 40 58 3d e6 38 11 3d 4e 17 7e bd 4f 73 97 bd
       0.05279554 0.035454653 -0.062033944 -0.0739504
000140 89 05 32 3d 49 77 97 bd 66 78 07 3d db 1a 39 3a
       0.04346231 -0.07395799 0.033073805 0.0007061192
000150 07 3e ee bc 57 19 27 bd 74 32 a3 3c 72 44 2a bd
       -0.029082311 -0.04079565 0.019921519 -0.04156918
000160 4d 1e 39 3d 7d e7 79 3d 6d 39 19 bd ed 34 cf 3c
       0.045194913 0.06101178 -0.03740828 0.025293792
000170 9d eb 27 bc e4 19 4e 3c 37 1e 16 bd 35 46 00 3d
       -0.010249046 0.012579415 -0.03664991 0.031316955
000180 ca a5 81 3d a6 d7 8e 3d b0 1c 4b 3d 19 df 84 bd
       0.0633045 0.069747254 0.049587905 -0.06487865
000190 c9 f5 be 3c 7a 9e e4 bc 53 6b 9e bc 03 03 0b bb
       0.023310559 -0.027907599 -0.019338286 -0.0021211512
0001a0 93 9d 65 3d 98 b6 bc 3c 26 69 9c 3d 05 8b b6 3c
       0.056058478 0.023036286 0.07637243 0.022283087
0001b0 cf 38 37 3d 50 1f 73 3c 7c be 34 3d cf 80 1c bc
       0.04473191 0.014839008 0.044126973 -0.009552195
0001c0 cf 7b a6 bb 41 7e ba 3c 9f f2 ee 3b 36 03 71 3d
       -0.005080677 0.02276528 0.0072921063 0.058840953
0001d0 f2 5f 3b 3d 97 23 1b 3d cb 1f 9d 3d 06 b5 0f bd
       0.045745797 0.037875738 0.0767208 -0.035084747
0001e0 e4 67 48 3b 8f 54 5e bd 88 a7 89 bd c1 50 96 3c
       0.0030579502 -0.05427986 -0.06721407 0.018349053
0001f0 ec ac 11 3d b4 a9 8c 3b d6 14 8a 3d f1 4f 72 3d
       0.0355653 0.004292691 0.067422554 0.05915827
000200 3d 60 2a bd 09 2e 8c bd 9b 71 d0 bc 6c 49 42 3c
       -0.041595686 -0.06844718 -0.025444796 0.011858325
000210 c9 02 84 bd 1a 36 21 bd b9 79 9c 3d 6e 0f a3 bc
       -0.06445844 -0.039358236 0.07640404 -0.019904818
000220 dd 82 13 3d 33 23 fb 3b 9f 33 cf 3b 60 80 4c 3d
       0.036013473 0.007664108 0.0063232924 0.049927115
000230 a1 79 80 3b 96 6a 55 3d 80 2e 00 bd 8a 9a 9d 3d
       0.0039207493 0.0521036 -0.031294346 0.076954916
000240 f7 99 9e 3d 4e b2 18 3d 7c 09 10 bb 4a ae ff bc
       0.0774421 0.03727942 -0.002197831 -0.031211037
000250 a2 fe 23 3d 84 ea 82 3d ec e0 7e 3d 65 fc e2 bc
       0.04003776 0.063923866 0.06222622 -0.027708242
000260 35 a2 9c 3d 50 ad 92 3c 33 f2 7d 3d 6d 03 8a bd
       0.07648126 0.017904907 0.061998557 -0.06738935
000270 b9 f2 4e bd 28 60 02 3d 17 bf 8a 3d f6 93 01 b8
       -0.050524447 0.031829983 0.06774729 -3.0893796e-05
000280 87 88 5d bd b3 45 13 3d b9 2d 97 bd 3d e0 d1 bc
       -0.05408528 0.035955142 -0.07381768 -0.02561962
000290 62 51 35 3c 83 63 81 3c 23 ed f2 bc 07 62 48 3d
       0.011066766 0.015794521 -0.029654091 0.04892161
0002a0 47 c5 2a bd 62 f2 87 bd ca 65 88 bd 83 6e 0c 3b
       -0.041692045 -0.06638028 -0.0666004 0.0021428175
0002b0 c4 24 90 bc 42 bd 9e bc 64 74 bd bb 05 e4 01 bd
       -0.017595656 -0.019377355 -0.005781697 -0.031711597
0002c0 3c 29 33 3d cd 9a 62 bd 7d cf 7d 3a 6c d7 69 3d
       0.043740496 -0.05532341 0.0009682102 0.057090208
0002d0 8e 58 41 3d a5 63 f9 3c d6 41 72 bd e0 97 94 bd
       0.047203593 0.030443022 -0.059144817 -0.0725553
0002e0 32 2c 59 3d e4 07 a4 bd 87 4e 95 bd 8b ce 6f 3d
       0.053020664 -0.080093175 -0.072903685 0.058546584
0002f0 ac 03 54 bd a6 fe 0a bd 94 82 8f 3c a0 8c 63 3b
       -0.051761314 -0.033934258 0.01751832 0.003472127
000300 44 fb 9a bc 78 76 b0 bb 40 5a 93 bd 5c 75 60 bc
       -0.01891864 -0.0053852163 -0.07194948 -0.013699856
000310 c0 48 89 bc 97 7d 8d bc 8d a5 e5 bb d7 1b e6 38
       -0.016758323 -0.0172718 -0.0070082606 0.0001097244
000320 f2 94 a3 bc 8d cf f3 3c 3c ea d4 3c 82 48 90 3d
       -0.019968484 0.029762054 0.025990598 0.0704508
000330 76 28 9b bd 9c 2f 92 bd 0c b3 15 3c e4 ea 9a 3c
       -0.07576077 -0.07137987 0.009136926 0.018910833
000340 22 bd 6f 3d 18 8f b2 bc bb c7 3b 3b 66 2c 5e bd
       0.05852998 -0.021796748 0.0028652984 -0.05424156
000350 13 27 5a 3d b5 06 fc 3c 25 90 86 3d bc be 2e 3d
       0.05325992 0.030764917 0.06570462 0.042662367
000360 f3 fa 70 3c 10 64 43 3d 4d 6f 3e 3c 29 f5 54 bd
       0.014708268 0.04770285 0.011623216 -0.051991615
000370 63 57 a7 bc a9 71 83 3d 19 f7 f2 bc 67 d0 89 bd
       -0.020427411 0.06418163 -0.029658841 -0.06729203
000380 3c 3a b8 3c ec 6c aa 3c d6 07 35 bd 42 52 cd 3c
       0.022488706 0.020803891 -0.044196926 0.025063638
000390 99 dd 92 3d a4 00 92 3d f1 7a a4 bd 94 c9 5c 3d
       0.07171173 0.071290284 -0.08031262 0.053903177
0003a0 02 05 64 3d cf 69 97 bd 32 e1 6c 3d 97 20 2c 3d
       0.05566884 -0.07393228 0.05783195 0.042023268
0003b0 f0 b0 6b bc b2 f5 9d bd f3 a9 d7 bc 41 cc 1a 3d
       -0.014385447 -0.07712878 -0.026326155 0.037792448
0003c0 fd a8 91 3d 9c 7b 0f 3d 23 32 83 3d 5b 84 12 3d
       0.0711231 0.035029992 0.06406047 0.035770755
0003d0 45 3c 50 bd f9 42 96 bc 30 73 9e 3d 1d 38 9d bd
       -0.050838728 -0.018342482 0.07736814 -0.076767184
0003e0 ce 19 18 3d 7e 5c 32 3c b9 58 82 3b 88 a7 4f 3d
       0.037133984 0.01088631 0.0039778617 0.05069688
0003f0 23 b0 66 3c a7 50 55 bd d4 4a cf 3c 6f 5b f7 3c
       0.01408008 -0.05207887 0.025304236 0.030194966

readout.bias f4 [126]
000000 d4 73 3c 3d 99 67 34 ba ec f6 88 3d fc 7b 07 3b
       0.0460089 -0.00068818923 0.066877216 0.0020673266
000010 7b d7 27 bd 01 97 62 bb 38 dd 5b 3c b8 8b 81 3d
       -0.040976983 -0.0034574869 0.013419442 0.06325477
000020 74 73 9a 3d e9 ff 29 bd d2 28 82 bc a3 5e 27 bd
       0.07541552 -0.04150382 -0.015888605 -0.040861737
000030 4d ad 7e 3b 63 50 63 bd cb e2 76 bc 2d 7b ca 3c
       0.003886062 -0.055496585 -0.01506872 0.024716938
000040 85 62 28 3d e7 20 4b bd e7 54 87 bd 91 ab 78 3d
       0.04110958 -0.049591925 -0.06607991 0.060710493
000050 92 67 67 3d 6d 6b a2 3d b3 4c b6 bc 94 14 db bc
       0.056495257 0.07930646 -0.02225337 -0.02674321
000060 51 47 9e bd 7e b0 bc 3c 35 14 90 bb 7f 38 26 3d
       -0.07728446 0.023033377 -0.00439694 0.040581223
000070 30 2f 82 3d 76 a9 9b bd c7 de 15 3d ad ef 8e 3d
       0.063566566 -0.076006815 0.03658941 0.06979308
000080 d1 a3 1d bc 0a 3d 42 bd 38 28 94 bd 98 1c 3b 3d
       -0.009621576 -0.047421493 -0.072342336 0.045681566
000090 9b e9 9a bd 17 45 f5 3c 08 e1 81 3c 98 3e c9 3c
       -0.07564088 0.029940171 0.015854374 0.02456598
0000a0 94 34 0c 3d 99 bf 2c bd b2 db 01 bc 4f 12 6d bc
       0.03422983 -0.04217491 -0.007925915 -0.014469697
0000b0 98 e2 52 3d 80 4c 9c 3d 57 c9 88 bc 88 40 8e bc
       0.051485628 0.07631779 -0.016697569 -0.017364755
0000c0 d0 31 ea bc bb 58 4e 3d c9 b0 a8 3b fe 4f ee bc
       -0.028588206 0.05037759 0.0051480276 -0.029090878
0000d0 fd 7a ae bc 5b fc 93 3d 57 ed 33 3d f8 11 59 bd
       -0.02129888 0.07225867 0.043927517 -0.052995652
0000e0 a0 e6 ac 3c 01 58 69 bd c0 7b 17 bd fd e8 4b 3d
       0.021106064 -0.056968693 -0.03698325 0.04978274
0000f0 9d ff 8e 3d aa d7 90 3d 6d 26 e5 3c 85 41 4b bd
       0.06982348 0.07072385 0.027972424 -0.04962303
000100 28 cf be 3c 02 c1 bb bb 50 4a a3 3c 91 39 01 bd
       0.02329214 -0.0057297954 0.019932896 -0.03154904
000110 13 98 6a 3d d7 2c 3c bd c0 47 3c bc 09 71 1e bb
       0.057273936 -0.0459412 -0.011491716 -0.002417626
000120 bd 6b 19 bb 04 21 d1 3c 37 8c 53 3d e6 41 7e bd
       -0.0023410164 0.025528438 0.05164739 -0.062074564
000130 9a 7b 49 3c 60 89 c2 3c 11 e0 63 bd 15 e9 6f bd
       0.012297535 0.023747146 -0.05563361 -0.058571894
000140 5e 19 d1 3a 42 61 26 bd b5 92 5a 3d b2 9c 1e 3d
       0.0015952995 -0.040620096 0.053362567 0.038723655
000150 d5 f8 4d 3d 7f 72 93 bd 1f ae 0b bd 40 90 89 3d
       0.050286133 -0.07199573 -0.0341016 0.06716967
000160 90 5a 97 3d e2 f9 8c bd fd 66 0f 3d 65 03 d4 3c
       0.0739032 -0.06883599 0.035010327 0.025880525
000170 ca 50 99 bd 85 af 9e bc 31 f4 36 bb a4 14 7a 3d
       -0.074861124 -0.019370804 -0.0027916546 0.06105484
000180 8f 08 11 bd df 87 96 3d 79 ac 7c bd f6 6b 86 bd
       -0.035408553 0.07350134 -0.06168792 -0.06563561
000190 0b 84 61 3d b6 d0 55 3c bc dc 9e bd 83 b1 88 bd
       0.055057567 0.013050249 -0.077569455 -0.06674483
0001a0 b0 f7 dc bb c3 c4 7a 3d 61 6f 86 3d 18 94 2f bd
       -0.006743394 0.061222803 0.065642126 -0.042865843
0001b0 0f 11 9a 3d ac a9 98 3d 68 6d 13 bc 63 c5 99 bd
       0.07522785 0.07454237 -0.008998252 -0.07508352
0001c0 3b 8b 97 bd 18 a5 7e bd 00 4f db 3a e4 da f6 3b
       -0.07399603 -0.062169164 0.0016731918 0.007533418
0001d0 10 b1 64 bd 7d 4d 0b bd 12 5c 4b 3d c9 5d 65 3d
       -0.055832922 -0.034009445 0.049648352 0.055997644
0001e0 9b 2a 9a bd 1a 7f 4c 3d 53 8d 18 3c a4 71 3a bd
       -0.075276576 0.0499259 0.009311038 -0.045518532
0001f0 1c 58 da bb 67 4e 8b bd
       -0.0066633355 -0.068020634
