cde/model/checkpoints/2.ckpt (torch, 390543 bytes, 8 tensors)

func.linear1.weight f4 [128, 150]
00000000: 5511 89bc 5ef8 6bbd 1976 c9bc 8674 3b3c
00000010: 1801 28bd b29a b7bc 150d d2bc 3b92 3abd
00000020: 4c70 873b a02b 843d 7254 fcbb dfdf fabc
00000030: 1ba5 583d 0e6c 8abd 6fd0 89bd 28f5 ee3c
00000040: 46e1 a7bc c0a2 623d e467 dbbb 4e6e 363d
00000050: 5ad7 6abd 03bc 063d 3a31 3abd e1c8 2ebc
00000060: 6dc3 383d 9d5e 7cbd 3786 8f3d 1904 103d
00000070: 499a 113c 979d 3c3b a608 7ebd 469f 303c
00000080: 851e 323d 1445 c0bc d3d4 7abd fff9 97bc
00000090: 5c0c a1bd 1fab 4e3d 2c51 bd3b 0bfa 86bd
000000a0: f4af 623d 5e34 8d3d 96f1 8e3d 0e03 bcbb
000000b0: 20eb 24bd d0ba 653d 5c55 a13d 9c45 11bd
000000c0: 23e6 0fbd 6ad8 25bc 1979 d93c 1a80 8b3d
000000d0: 1901 56bd b668 b8bb 803e fdbc 9fbe 6e3c
000000e0: 7b31 71bc b5af 0fbd d01e 323d f063 943d
000000f0: 47b7 71bc c6d9 a03d 39e4 963b a765 29bd
00000100: ade5 bc3c c983 d6bb 11b7 8e3d f056 223d
00000110: 078d 7ebc fad5 453b f07e 2c3c 7af1 9f3d
00000120: 28b3 843c 67d4 15bc 5ca2 28bd 0f41 b8bb
00000130: 0ef5 1c3d a6d2 8c3d 0814 8c3c 772a 083d
00000140: 9174 a83c 9822 243c cecb f1bc de45 473d
00000150: 015c 6b3d 9bc0 973d 7a00 903b 9b8c 683c
00000160: 7923 90bc 00c4 f8bc 8a4f cd3c 8b04 5bbd
00000170: 8fcd 8d3d aba9 743d e4cb 1e3d 87d0 46bd
00000180: 7489 583d 4f71 55bd f0d7 90bc 9cfd e2bc
00000190: bb84 d6bc 08be 0dbd f087 5b3d 7bb1 35bc
000001a0: 8241 2abb 694e d3bc c194 823d 6966 f03b
000001b0: f818 553d 4286 883d 6ffa 033b b8ae 04bb
000001c0: db5d 1a3d 8737 7fbd a49d 8c3d 9327 683d
000001d0: 4686 58bd 2830 5fbc e7ac a1bd e337 823d
000001e0: 4901 123d b3c2 45bc 7ced 753d fd45 61bd
000001f0: 0449 2cbd d998 953d a3ab d7bc a1a2 573b
00000200: ba09 55bd 4cdc f43c cf88 93bd 4edb 1d3d
00000210: 8f0b a2bd 51b5 5ebd 5e45 8cbd 2d5c 313d
00000220: 33fb 743d 017d 48bd 0b8e 853c 1870 b5bb
00000230: c4b3 f6bc 3b68 22bd bc30 39bd a75f 90bd
00000240: 9679 653d 72dd a1bd ce0e a13a 2b0d f13c
00000250: a14d 95bc dfbd 7f3d feef 823d 3ad6 123d
00000260: 8818 933b 9f58 bfbc e474 7ebd ee3a 5d3d
00000270: 7d55 12bb 9231 9dbd 8981 283d 6266 e93b
00000280: 25af cbbc 720d a53d a762 cebc 20e0 0f3c
00000290: b864 4fba 0d7e 3e3d a8de 71bd a457 d63c
000002a0: faf4 343d c381 67bd 85ab 2ebd 0b4d c03b
000002b0: 3d72 a13d f893 cf3c 9486 8d3d 649a 4bbd
000002c0: bc6d 41bd dc66 d53c ef68 143d 4165 413d
000002d0: 547d efbc f209 8ebd 2689 85bc 3684 bf3c
000002e0: 318e 27bd 0101 943c 7aef eabc d559 3eba
000002f0: 19c1 8c3d bd58 7abd 2a58 a3bd fd1a 93bd
00000300: cb52 4f3d 4a00 b0bc 1f8c ce3b d394 5d3d
00000310: 59fb f3bb ad8e 33bc 29f8 65bd df61 11bd
00000320: 540b f1bc 68a3 4d3c 2b94 863c 689a 84bc
00000330: af1b 63bc 56be 90bc d18a f73c ed9a 95bd
00000340: e946 003d c6f3 9a39 158d 65ba b6c4 4a3b
00000350: 0f59 413d 68a5 453d c4bd 05bd b003 40bc
00000360: f0ae 323d 307f f23a 1a2b e3bc 99de 6ebd
00000370: 876e 963c cbfe 72bb 2ec9 933d 50d6 513c
00000380: ba95 17bd e086 b13c 792f 72bd c210 88bd
00000390: 4962 d2bc 434b 9abd 2bdf 903d f28c a53c
000003a0: bca8 38bd 84e3 89bd 666a 3bbd 68c5 21bb
000003b0: b252 183d 71e6 e83c d14e 4abd 63eb 503d
000003c0: 3a34 8abd 979c 873d 641e b3bc 8823 0fbd
000003d0: 3100 493c 4b8f 57bd 9e0e 96bc 15bc c5bc
000003e0: 622d a53b e3b2 633d 2cd8 b5bc 390a 8c3d
000003f0: 1208 a53b 2959 23bc 1d82 923d 3aac f0bc
-0.016731897 -0.05760991 -0.024592446 0.011441356 -0.041016668 -0.022412632 -0.025641004 -0.045549612
0.00413326 0.06453633 -0.0077004964 -0.030624328 0.05289183 -0.06758891 -0.06729209 0.029169634
-0.020493161 0.05533099 -0.0066957343 0.04453879 -0.05733428 0.032894146 -0.045457102 -0.01066801
0.045108248 -0.061613668 0.07008021 0.035160158 0.008886882 0.0028780454 -0.062019967 0.010780161
0.043486137 -0.023470439 -0.06123812 -0.018551825 -0.078636855 0.050456163 0.0057774987 -0.06590661
0.055343583 0.06894754 0.069796726 -0.005737669 -0.040263295 0.05608636 0.07877609 -0.035466775
-0.035131585 -0.010122398 0.026547002 0.06811543 -0.05224714 -0.005627717 -0.030913591 0.014571815
-0.01472127 -0.035079677 0.043486416 0.07245624 -0.014753169 0.07854037 0.004604843 -0.04135671
0.023058737 -0.0065464717 0.06968511 0.03963369 -0.015536553 0.0030187354 0.010528311 0.0780973
0.01619871 -0.009144879 -0.041170463 -0.00562299 0.03831964 0.068761155 0.017099395 0.033243623
0.020563396 0.010018013 -0.029516127 0.048650615 0.05746079 0.074097835 0.004394588 0.014193679
-0.01759504 -0.030366898 0.025062341 -0.05347113 0.06923973 0.05973212 0.038768664 -0.04853871
0.05286546 -0.052110013 -0.017681092 -0.027708821 -0.026186338 -0.034605056 0.053596437 -0.011089678
-0.0025978987 -0.025794225 0.06376029 0.007336427 0.052025765 0.06666233 0.0020138284 -0.0020245742
0.037687164 -0.062308814 0.06866005 0.056678366 -0.052862428 -0.013622321 -0.07894307 0.06358316
0.035645757 -0.012070346 0.060040936 -0.054998387 -0.04206182 0.07304544 -0.02632696 0.003290333
-0.05201123 0.029890202 -0.072038285 0.038539223 -0.07912361 -0.054372136 -0.06849168 0.043300796
0.059809875 -0.048947338 0.016303083 -0.0055370443 -0.030115016 -0.039650183 -0.045212492 -0.07049494
0.056024157 -0.079035655 0.0012287737 0.029425224 -0.018225493 0.062436935 0.06393431 0.035848834
0.0044890083 -0.023357688 -0.062123194 0.054011278 -0.0022328787 -0.076754704 0.04113916 0.0071228007
-0.024863789 0.08059205 -0.025193525 0.008781463 -0.00079114316 0.04650693 -0.059050232 0.026164837
0.04417894 -0.056520235 -0.042644043 0.0058685592 0.07883117 0.025339112 0.06910434 -0.049707785
-0.04722379 0.026050024 0.036232885 0.047215704 -0.029234566 -0.06935491 -0.016300749 0.023378473
-0.04090709 0.018066885 -0.028678644 -0.0007261311 0.06872768 -0.061119784 -0.079758 -0.07182882
0.050616067 -0.021484513 0.006303325 0.054097008 -0.0074457345 -0.0109593095 -0.056144867 -0.035493728
-0.029424347 0.012551166 0.016428074 -0.016186908 -0.013861581 -0.017668884 0.03021756 -0.073049404
0.031317625 0.00029554794 -0.00087566796 0.0030940003 0.047204074 0.048253447 -0.032651678 -0.011719629
0.043623865 0.001850104 -0.027730513 -0.058317754 0.01836325 -0.0037078138 0.07216106 0.012807444
-0.037008025 0.021670759 -0.059127305 -0.06643821 -0.025681632 -0.07533886 0.07073816 0.02020881
-0.045082793 -0.06732848 -0.045755766 -0.0024684314 0.03718824 0.028430196 -0.04939157 0.051005732
-0.06748243 0.06621664 -0.021865077 -0.034945995 0.012268112 -0.05262689 -0.018317517 -0.024137536
0.0050408104 0.05559052 -0.022197805 0.06837887 0.0050363624 -0.009969988 0.071537234 -0.029378999

func.linear1.bias f4 [128]
00000000: 86a2 14bd bf00 55bd 10a2 4abd a4be 813d
00000010: 9695 063d 28ca 593b 4d1b 0ebd 22fb a33d
00000020: 9cfd 913d 7b00 5fbd 0ad4 5abb bb79 d0bb
00000030: c464 553d 0406 05bb 166e a4bd ef66 423c
00000040: 9719 84bd 5281 5abd 2bfe 573d a407 acbb
00000050: 77de b5bc 101e d33b dcae 8e3d 5ea0 933d
00000060: 61dd 193c 7a66 17bc d21e 233d f0e5 713d
00000070: e1ff a73d d7c8 33bd 3c17 8ebc d930 7bbc
00000080: 7b80 1c3d d7dc 5dbb aef4 61bd 0920 89bd
00000090: c5a3 43bd 34d9 fabc 64d3 fc39 0d51 903b
000000a0: 9fb3 8a3d 62a4 593c 6b76 21bd 2a30 3abc
000000b0: 08de a9bd 90d6 58bd 222b d6ba b458 c23c
000000c0: 9aac 4c3d 345c 8fbd 4ae3 073d 3f54 253c
000000d0: 032a c93c 901a a1bb 0189 9a3d 1b7c 443d
000000e0: 4ce8 19ba bde4 ac3c d7a1 90bc 1e35 b9bc
000000f0: e156 873d 163a 9f3d 0c18 843d a0c3 9abd
00000100: d698 94bd 3ad1 c13c a8fe 87bd 8b0b 583c
00000110: 3fa8 e83c 5b7a a23c 76cb 7c3d 5f4c 14bd
00000120: fb38 39bd 4f70 a6bd ce8b 58bc 8f6d f4bc
00000130: 8003 393c da83 7a3c 76b9 a23d 3eff 7dbd
00000140: 8611 20bd 92ab acbc a4e0 38bd 5a4b 6a3c
00000150: d5e3 1a3d 8329 8dbd ec73 85bd f82d 78bd
00000160: f503 8a3d 907f dbbc a5a1 333d a244 3abd
00000170: 7ad1 673d 9d0f de3c 9d7f 913d 18a9 6d3d
00000180: 073a 91bc 0c43 503d 483f 3fbd c18f 8b3d
00000190: e60b adbc 2ed6 84bd 2a43 6c3d 60bb 723d
000001a0: dc66 4cbd 1c69 ccbc 936a 2e3d 57dc 8b3d
000001b0: 57e3 78bd cffa 31bd 8574 813c e836 793d
000001c0: 8abc 9cbd f74f 78bc 422d 5cbc 319e 9e3d
000001d0: 8103 483c a95a 243d 9a4a c13c 7adc 1d3c
000001e0: ed4f a4bd 4c0e 303b 1c10 933c 1073 ab3b
000001f0: 8b3c 243c 33ae 213d 493b ae3c 383b adbc
-0.036287807 -0.052002665 -0.04947096 0.0633519 0.0328575 0.0033232067 -0.034694005 0.08006884
0.0712845 -0.054443818 -0.0033390545 -0.0063621677 0.05209805 -0.0020297775 -0.0802881 0.011865362
-0.064501934 -0.053345986 0.052732628 -0.0052499343 -0.022200806 0.0064427927 0.069669455 0.07208322
0.00939116 -0.009240741 0.039824314 0.059057176 0.08203102 -0.043892708 -0.017345063 -0.01533147
0.038208466 -0.0033853555 -0.055164985 -0.06695563 -0.047763605 -0.030621149 0.00048222684 0.0044041933
0.06772541 0.013283821 -0.039419573 -0.011364022 -0.08294302 -0.052938998 -0.0016339759 0.023723938
0.049969293 -0.07000008 0.033175744 0.010090887 0.024556166 -0.0049164966 0.07545663 0.04796992
-0.0005871102 0.021105165 -0.017655296 -0.022608336 0.06608368 0.07774751 0.06449899 -0.07556844
-0.07255714 0.023659337 -0.06640369 0.013186346 0.028400538 0.019833734 0.061717473 -0.036205646
-0.045220356 -0.0812689 -0.013216926 -0.029837398 0.011292338 0.015290225 0.0794553 -0.062010996
-0.03907921 -0.021077905 -0.04513611 0.014300192 0.037814934 -0.06892683 -0.06516251 -0.060590714
0.06739036 -0.026794225 0.043855328 -0.04547561 0.056596257 0.027107054 0.071044184 0.05802259
-0.017727865 0.05084519 -0.04669121 0.06814528 -0.021123838 -0.06486164 0.05768124 0.059260726
-0.04990278 -0.024952464 0.042582106 0.06829136 -0.060763683 -0.04345208 0.015802631 0.06084338
-0.076531485 -0.015155784 -0.013438525 0.07745016 0.012207867 0.040125523 0.023595143 0.009635085
-0.08023057 0.002686399 0.017952017 0.0052322224 0.0100242 0.03947277 0.021268504 -0.021146402

func.linear2.weight f4 [450, 128]
00000000: a066 3cbc 7ad8 a13d a42d 893d f1c0 ad3d
00000010: c6a4 54bd 8d29 853d 273b 06bd e8a2 a43c
00000020: 292d 963d 7db9 69bd de98 5e3d 814f 883d
00000030: 96ba 84bd d593 843d fad0 8b3d 4a15 3dbd
00000040: b993 98bd 9bf2 b33c ea3f 0a38 d253 84bc
00000050: 2494 033d d8a8 afbd cffb 84bd 0b53 4ebd
00000060: e394 78bc caf7 f339 2278 99bc 3df2 6f3d
00000070: 0bea 72bd 37c6 0d3d 30c7 4f3d 7cc5 16bc
00000080: 5a3f 463d b78d b33d 3b45 363c 51d3 89bd
00000090: 9897 8e3d eaee 813d 1230 c63c 8117 b1bc
000000a0: 2e8f 8f3d 73f8 5bbb b9d5 4fbd 2aa6 6c3d
000000b0: 537f b43d 6391 a13d 605d 033d 9d53 ae3b
000000c0: 1cf9 b3bc b398 8fbd ea26 0fbc 08d3 e83b
000000d0: 222f 2cbb bd1a 3e3d c479 3d3c 1e45 19bd
000000e0: 73ac 2ebd 1648 aabd d2c0 e83c f2f9 9bbd
000000f0: 1a72 83bd 1ed8 1abd e5b0 593d 100d a73d
00000100: 9226 74bd 886f c83c 021b 6d3d efe9 99bd
00000110: d849 64bd 213d a8bd f3b5 e5bc 4fc1 9c3d
00000120: 2829 1abc 5b33 733d d4de d23c 566e 5b3d
00000130: fefd 843d 80fe 8abd cac1 5e3d 7a87 7ebd
00000140: 76d6 c83a 31de f6bc a035 a93c df11 60bd
00000150: 72e6 de3b 7ba6 583d 00cc 01bd f5bc 3a3d
00000160: 01ee 86bd 0d22 afbb e241 9f3d 99df 91bd
00000170: 6b76 553d 7fc0 22bd a191 223c 2751 613d
00000180: ac38 12bd dac4 92bc 100a abbc 9c13 a83c
00000190: 2a85 1c3c 37d0 3cbd 8ab8 b03c 9195 3dbd
000001a0: ca74 e5bc b8d3 3e3d a59f 61bd fd77 0b3d
000001b0: e12b 82bd fa44 8cbc 1675 06bc 6d0d 89bd
000001c0: 6254 8dbd 9802 183c 6ac6 a7bd 4fbc 933d
000001d0: e9de 3cbb 6488 a8bd b1ef acbd 0122 813d
000001e0: 6e36 693a 24b7 aa3c 2666 143d f642 a7bc
000001f0: fe32 b53d 3aa0 c7bc d0e7 db3c d7af 693d
00000200: 50e1 06bd 20e5 ddbb 9755 d1bc 09a5 0fbc
00000210: 505a b4bc f4c4 afbd c6d3 9d3d 1dc4 4f3d
00000220: f627 97bd 77da 53bd d2ef 623d ecf3 173d
00000230: aae0 ba3b b7b2 213d 463a 84bd 517d 803d
00000240: d9c7 963d 1f2a da3c 7e81 73bd e363 5b3d
00000250: 15c8 9d3c ef6f a13d 6bd9 2d3c d4d1 88bd
00000260: bad3 26bd 67fd a13d 5d9f 833d 1aea 59bd
00000270: 51bb ddbc 5319 70bd a96f 88bc 3d0c 9cbd
00000280: 3b9f 103d c388 56bd 5696 783d 6e07 a9bd
00000290: 63e7 23bd 194a 2ebd 3d8a 81bd 4c9f 3d3c
000002a0: 1401 dc3c e99e 88bd 9e56 823d c5b2 553d
000002b0: 51e1 bf3c 3296 adbd 9807 6ebd 8a10 893d
000002c0: 2458 4cbd d1a5 ce3c 582c a23d 0771 6f3c
000002d0: 0194 0fbc b453 903d d182 6e3c c3f6 b73c
000002e0: f109 7c3b e523 2bbd d986 edbc e4d2 8a3d
000002f0: b306 083b 731b 943c 98e5 f9bb 5227 71bd
00000300: cc37 00bd 42f4 0e3d 7cb8 053d 51ef 65bd
00000310: 4a7d 873d 8baa 8f3c 82b1 56bc 0201 62bd
00000320: 2f9a 8d3d 3091 46bd 98fb aebd 7477 543d
00000330: a74f 1ebc 45b9 e4bc 685a 7ebc f046 91bc
00000340: 4005 eabc e24a e23c 3c25 5abd 0959 dd3c
00000350: 77fc 643b 7284 babc 0034 a93b dd78 8abc
00000360: a627 febc 13a9 fe3c e6b2 a93d 460e 003d
00000370: 1354 813c 979e 6b3d 8622 373d d017 fdba
00000380: bafe 69bd ddf7 443c 4f68 853d b134 a5bd
00000390: 0329 793d 4471 67bd a6c1 9d3d 6680 8c3d
000003a0: cf3a 593d 5929 5bbd 4e7c 1fbc 6d68 703d
000003b0: 5c21 7fbd 8d79 0abd 789f 5fbc f4ae 93bd
000003c0: 8b78 743b 9390 a73d ca4a 6cbd 74a3 0f3d
000003d0: a45c a3bc 922e aebc eb6a 513b a5a3 a73c
000003e0: 08b5 583d 57ff b3bd e0de 64bd c6b0 0d3c
000003f0: 6e0b 32bd 4e84 353d fdeb 7bbd c83a 953c
-0.011499077 0.07902618 0.066981584 0.08484066 -0.051914953 0.06502066 -0.032771256 0.020097211
0.07332832 -0.05706166 0.054345004 0.06655789 -0.06480901 0.06473509 0.068269685 -0.04616288
-0.07450051 0.02196627 3.296129e-05 -0.01615325 0.0321237 -0.08577126 -0.06493341 -0.050372165
-0.015172216 0.0004653319 -0.018734042 0.058580626 -0.059305232 0.03461286 0.05072707 -0.009202357
0.04840026 0.08767264 0.011124904 -0.067297585 0.06962508 0.06344397 0.024192844 -0.021617653
0.07009731 -0.0033564835 -0.05074093 0.057775654 0.08813348 0.078890584 0.03207147 0.005320026
-0.02196937 -0.07011547 -0.008737305 0.007105235 -0.002627321 0.04641222 0.011564676 -0.03741943
-0.04264493 -0.083145306 0.028412256 -0.07616033 -0.064182475 -0.03780376 0.053147215 0.08156788
-0.059607096 0.024467245 0.057887085 -0.075153224 -0.055734485 -0.082147844 -0.028040862 0.07654058
-0.0094092265 0.05937515 0.025741018 0.05357202 0.06493758 -0.06786823 0.05438403 -0.06214092
0.0015322703 -0.030135246 0.020655453 -0.054704543 0.0068023736 0.052893143 -0.03168869 0.04559036
-0.065883644 -0.0053446353 0.07776238 -0.07122726 0.052114885 -0.03973436 0.009922416 0.055009034
-0.035698578 -0.017916132 -0.020878822 0.020517163 0.009553233 -0.046097007 0.02157237 -0.046285216
-0.02800979 0.04658863 -0.05508389 0.034049977 -0.063560255 -0.017122734 -0.008206626 -0.06692014
-0.0690086 0.009277962 -0.08192141 0.072136514 -0.0028819388 -0.082291394 -0.08444155 0.06305314
0.0008896355 0.020839281 0.03623023 -0.020417672 0.088476166 -0.024368394 0.026843935 0.05705246
-0.03292972 -0.0067716986 -0.025553508 -0.008767375 -0.02201572 -0.08582488 0.07706408 0.050724138
-0.07380669 -0.051722016 0.05540449 0.037097856 0.0057030516 0.039477076 -0.06456427 0.06273902
0.07362337 0.026631413 -0.059449665 0.053562056 0.019260446 0.07882678 0.0106109185 -0.066806465
-0.040729262 0.07909661 0.064268805 -0.053201772 -0.027066858 -0.0586179 -0.016654806 -0.07619522
0.035308104 -0.05237652 0.060690247 -0.0825337 -0.04001559 -0.042551134 -0.06325195 0.011573624
0.026855983 -0.06670935 0.06364177 0.05217244 0.023422869 -0.08475913 -0.05811271 0.06692608
-0.049888745 0.025225552 0.07918614 0.01461435 -0.008763314 0.07047215 0.014557556 0.022456532
0.0038458074 -0.04178228 -0.028994964 0.067785054 0.0020755946 0.018079495 -0.0076262467 -0.05887539
-0.031303212 0.03490091 0.03264664 -0.056136433 0.06615694 0.017537376 -0.013103845 -0.055176742
0.06914174 -0.048478305 -0.085440814 0.051871732 -0.009662545 -0.027920375 -0.015524484 -0.017734021
-0.028566957 0.027623598 -0.053258166 0.027019994 0.003494052 -0.022768233 0.0051636696 -0.016903335
-0.031024765 0.03108648 0.08286075 0.031263612 0.01578716 0.05752429 0.04471066 -0.0019309465
-0.05712769 0.012021986 0.06514036 -0.08066691 0.060830127 -0.056504503 0.07702951 0.068604276
0.0530346 -0.05350623 -0.009734226 0.05869334 -0.062287673 -0.033807326 -0.01364886 -0.07211104
0.0037303295 0.08181872 -0.057688512 0.03506799 -0.019941635 -0.02126244 0.0031954597 0.020463774
0.05290702 -0.087889366 -0.055876613 0.008648103 -0.04346793 0.04431563 -0.061504353 0.018216506

func.linear2.bias f4 [450]
00000000: 1d44 233d 8a9c b13d 1dc6 85bd 8a83 2abd
00000010: fbf1 343d c1f5 b4bc 4b64 a6bd 3cd2 533d
00000020: 6cb2 b2bd c5db 82bd 1e22 323d 21d7 8bbc
00000030: 77a7 c0bc d557 a0bc 8677 073d 275e 633d
00000040: f439 bfbb 93fd 063d 707b 8e3d 9947 363d
00000050: 11be 8c3d eaf5 09bd 38cd 05bd 01d6 44bd
00000060: a865 153d 912b 22bd cb40 513d e113 68bd
00000070: c733 10bd 330b bb3c 3504 b1bd 13a2 d33c
00000080: b1b2 bd3b f9b6 adbd 01dc 4ebd 97ab 473d
00000090: a8d1 253d f15d 4e3c 6c6e 933c f7de 48bd
000000a0: 2795 38bd eba2 993d 51ab 8a3d 97e8 a03d
000000b0: 86fb 3f3d f742 61bd 735d 6a3d 9205 b13c
000000c0: 5381 943d 5115 373d 6ca4 1fbd 0fc5 93bd
000000d0: 71e6 3dbd efcc 42bc 5cf0 6dbd 4380 99bd
000000e0: f27a d2bc 8f35 093d e2e9 6e3c 1759 a9bd
000000f0: 1143 2ebd eabb 08bd fc4a 783d 2605 06bd
00000100: 04d3 223d f34d a1bd 7cea af3d feb1 853c
00000110: 4638 993c 0752 853b 2816 f13c fce4 0ebc
00000120: d7d2 5abd 2467 32bd 94e3 8e3c 500f 833d
00000130: 4050 a13d a448 473d 77c6 42bd 63c9 90bd
00000140: ecb8 aabd 2f4f 51bd ca9c 8f3d 3a04 4c3d
00000150: 4a28 b63d df3b 153d bfb9 1b3d b118 ca3c
00000160: 2205 913d 20b4 273d ded6 dd3c fac7 a93c
00000170: 749a 94bd ab74 c3bc de95 23bd 40bb 21bd
00000180: 71e4 9a3d 98ad 60bd 49e1 013d 7390 2b3b
00000190: 45f0 563d 209d 6a3c 4038 88bc 50b0 843c
000001a0: df38 afbc 58bd 22bd 9ea9 6b3d 5b15 873c
000001b0: 858c c1bc a020 9d3d 8590 01bd 48fb 4abd
000001c0: 4e93 d3bb 3c3b 3aba 121d dbbb c7d0 aa3d
000001d0: 1517 9dbd 4bc4 b6bc a4e9 a3bd 7d7e 5c3d
000001e0: a90b 80bd 491a 9b3c 2bab 8ebd b8e9 5f3d
000001f0: 1b67 f93b bb5e 9e3d 7d68 a63d 67ee a23d
00000200: 6cc7 5abd 27e4 9dbc 14be 7e3d c48d a23d
00000210: c6b2 9e3d c200 043c e8b3 6e3b 1c65 e2bc
00000220: 7883 66bc de76 653d 0899 b5bd 78dd e63c
00000230: 1e8d 8e3d f08b 3fbd 45e4 abbd 1207 6dbd
00000240: e14f 21bc 6865 6c3d 5ebb a3bd 12a6 ab3d
00000250: c936 06bd 9279 a93d 717c 413d af19 dd3b
00000260: 8bb8 e0bc ad0f 1bbd 8647 6bbb 8c98 0abc
00000270: 0120 743d ed29 4d3d 94d6 a6bc 777c 8e3d
00000280: be4f a73c 267c 77ba 796f 93bd cbb7 933c
00000290: aae6 ddbc 7b33 9ebc 339f 163d ef2d 793d
000002a0: 6032 8ebd fe41 7dbd 1d95 413d a0c0 543c
000002b0: 4ee5 94bd 1da1 3b3c 5536 e13c 88dc e83c
000002c0: 8308 61bd 7646 ff3c 1cb0 533d dc3b 863d
000002d0: 13e7 913c a0ee e8bc 2c48 5c3c 06bc 823d
000002e0: ab3d 96b8 0f51 c53c 3cc7 b5bc a862 833c
000002f0: e764 44bd 3268 b2bd c5d7 193d 4ac2 29bd
00000300: 22db 96bd 6ecd 513d 233d 883d d138 2f3d
00000310: 7c0f 993d 2ef5 a13d 636a 433d 9167 4e3d
00000320: 3557 b6b9 1c2f f9bc 9dfa 563d a057 0bbd
00000330: 48e8 89bd 8e0d b03d bc50 923d 9cee 15bd
00000340: 3dba 4a3b 2f4b f53c 3324 acbd 5205 62bc
00000350: c586 523d cf49 913d 42b6 7c3a 0a2d a4bd
00000360: 80ce 88bd f94d acbd d570 79bd a941 9bbd
00000370: 2dcf f23c 3e01 8cbd 2849 973b aa6e 16bd
00000380: ca4b f93c f96d 8bbd 9276 903c cd6f c5bc
00000390: 66bf fe3c 74b1 543d cd5f 6bbd 8d26 70bd
000003a0: 2fc2 2dbd d170 da3c bac7 a0bd 092d 03bd
000003b0: 70ab a03d 69dc 49bc 5cba 783d 7546 60bd
000003c0: 9a8f a03d b282 c23c 16e3 86bd 3f46 813b
000003d0: 9786 d238 e736 0fbd e4d4 7cbd ad6f 903d
000003e0: a6c5 6f3a 2d8b adbb 2eff a63d 293a 97bd
000003f0: a5f6 52bc cdaf 883d 1e5e 9bbd 96c8 d53c
0.03985988 0.086724356 -0.06531928 -0.04162935 0.044176083 -0.02208984 -0.08124598 0.051714167
-0.087254375 -0.06389574 0.043489568 -0.017070355 -0.023517353 -0.019573132 0.03307297 0.055509713
-0.005835766 0.03295667 0.069571376 0.044501875 0.0687219 -0.033681788 -0.032666415 -0.048055653
0.0364739 -0.03959233 0.051087182 -0.056659583 -0.03520563 0.022832489 -0.086433806 0.025834119
0.005789124 -0.08482165 -0.05050278 0.048747625 0.040483147 0.01259564 0.01799699 -0.04904076
-0.045064118 0.07501777 0.06770957 0.07856863 0.04687073 -0.054995503 0.057218026 0.021609101
0.07251229 0.044698063 -0.038975164 -0.0721532 -0.046362344 -0.01188968 -0.058090553 -0.07495167
-0.02569339 0.033498343 0.014582129 -0.08268946 -0.04254443 -0.033382334 0.060618386 -0.032719754
0.03975202 -0.07876196 0.08589646 0.016320225 0.018703591 0.0040686163 0.02942951 -0.008721586
-0.05342373 -0.043555394 0.017442502 0.06399405 0.078766346 0.04865326 -0.047552552 -0.070696615
-0.08336052 -0.051100906 0.07012327 0.04980872 0.08894403 0.03643405 0.03801894 0.024669977
0.07081057 0.040943265 0.027079996 0.020725239 -0.07256022 -0.023859343 -0.039937846 -0.039485216
0.07563103 -0.054853052 0.03170899 0.0026178628 0.052475233 0.014319688 -0.016628385 0.016197354
-0.021389423 -0.039731354 0.057534806 0.016489675 -0.023626575 0.07672238 -0.031631965 -0.049556047
-0.006456769 -0.00071041635 -0.006686815 0.08340602 -0.07670418 -0.022310397 -0.08003548 0.053831566
-0.06252224 0.018933432 -0.069662414 0.05466625 0.007611168 0.07732912 0.08125398 0.07955628
-0.05341284 -0.01927383 0.06219299 0.07937196 0.07748942 0.008056821 0.003642315 -0.027636103
-0.0140694305 0.056021564 -0.08867079 0.028181776 0.0696051 -0.046764314 -0.08393148 -0.05786807
-0.009845705 0.057713896 -0.07994722 0.08381285 -0.03276709 0.08275141 0.047237817 0.0067474465
-0.027431747 -0.037856746 -0.0035900786 -0.008459222 0.059600834 0.05008881 -0.02036599 0.069573335
0.020423766 -0.0009440802 -0.07198996 0.018031975 -0.027087528 -0.019311657 0.036772918 0.06083482
-0.06943202 -0.061830513 0.047261346 0.0129853785 -0.07270299 0.011451987 0.027491728 0.02842547
-0.054939758 0.031161528 0.051681623 0.06554386 0.01781038 -0.028434098 0.0134449415 0.06383519
-7.164044e-05 0.024086503 -0.022189729 0.016038254 -0.04794779 -0.0871128 0.03755929 -0.041445054
-0.07366015 0.051221304 0.06652286 0.042778794 0.074736565 0.079080924 0.04770888 0.050391737
-0.0003477872 -0.030417971 0.052485097 -0.034019113 -0.06733757 0.08596335 0.07144305 -0.03660451
0.003093376 0.029943077 -0.08405342 -0.013795214 0.051398057 0.07094156 0.00096401956 -0.08016403
-0.06680012 -0.084133096 -0.06089862 -0.07580883 0.029639805 -0.068361744 0.004616875 -0.03672663
0.030431647 -0.06808085 0.017634664 -0.024101162 0.031097125 0.051927045 -0.05746441 -0.058630515
-0.042421516 0.026665123 -0.07850595 -0.03202537 0.07845199 -0.012320616 0.0607246 -0.054754693
0.0783989 0.023743961 -0.06586282 0.0039451416 0.000100386496 -0.03496447 -0.061726466 0.070525505
0.00091465784 -0.005296132 0.081541404 -0.0738414 -0.012876187 0.06674156 -0.07586311 0.026096623

initial.weight f4 [150, 3]
00000000: 9867 0d3f 8e17 6e3e 92e2 b2be 6d8e 183e
00000010: 7c2f bcbd dcb9 82be 245a a83e e92c 203e
00000020: 5ea9 f1be 4913 02bf 0ae5 c03e b312 05bf
00000030: 24d0 3abe 1941 64bd 0b18 923e 5ed2 f43e
00000040: 0be8 323e 0c7f 11be d912 9c3e 42fe 26be
00000050: ebe4 a6be 6fb4 ab3e df08 dc3e d29e 89be
00000060: be6b 693d c94e 98be a3c6 a3be 3201 13bf
00000070: 15da 94be 1b36 903a b291 13bc 7f83 d93e
00000080: 0262 0d3f a792 b8bd d1aa f5be 9ba6 0abe
00000090: 1816 2e3e ad2d a7be 0e76 84be b914 a4be
000000a0: 7f88 e33e 948b eebe 6f27 73be dede 69be
000000b0: 321c c9be cbf6 d53e 7b78 73be 0226 5cbe
000000c0: ad9a 9dbe 4a0e 163e 1c34 0fbf f361 563e
000000d0: f6bc 06be 54c1 783d c528 54be 66b0 4d3d
000000e0: 6cff a23e be02 ae3d 186e 6fbd 72bc febe
000000f0: 02a7 9c3e 756e a33e 2911 e93e 0d95 6f3e
00000100: e22f 083e 6e8b dc3d 5f31 513d ecca e0be
00000110: 6c96 0d3e 22c6 2cbc aa4a c1bb e289 7ebe
00000120: eff1 5abe 3425 e93e b8a2 1fba e919 1f3e
00000130: a7ae 043f 2be5 e03e 685e df3c a770 bbbe
00000140: f68b c63e 5783 b5be 7fd3 0bbf bbe9 6b3e
00000150: 19e7 763c 10d4 7e3d 9f0e b13e 4494 f2be
00000160: d0f3 9fbe a057 073f fa9a e43e 8a12 c4be
00000170: 8bbe d5be 57d6 203e ba26 8e3d a406 ec3e
00000180: b738 37be 4c2d b13e d43e 983d 777a e93e
00000190: 615a d0be ca39 c5bd d4aa 8b3e 29fb 4fbe
000001a0: d953 103f 3a5a 593e c271 d33c b937 fbbe
000001b0: 5929 a2be 333a febe d0eb 1cbe b8b6 ed3e
000001c0: 2f81 0cbf 30d0 873e 73d0 a1bd 3844 ed3e
000001d0: 8e2b 46be 4db3 6c3e f304 11bf 853f 913e
000001e0: eed9 dabe dd7b 10be 563b 703e 3089 7f3e
000001f0: 4dc4 f1bd 4eee 03bf 5390 6b3e 8671 fa3e
00000200: e012 833c 42e8 8cbe 683a 9abe bfbf c23e
00000210: 8622 a4be 4f7d f0be d08f a73e b50e 29be
00000220: 5130 afbd 8875 11bf 9338 bf3e 30f5 aabd
00000230: 7820 a63e 7101 c83e 6c23 80bd 0907 07be
00000240: ff49 1d3e 1acd 05bd d0b2 c1be 070c c2be
00000250: e559 3abe 8a97 1a3d 23c9 f1bd e18e 0fbf
00000260: 48c7 1a3e 05ce 983e 057b ef3d 50e4 103f
00000270: 7a23 f33d d585 86be 4fef 0fbf 0b75 90bc
00000280: d8e6 013e 46c1 c0be 7c41 0e3e 5d8d b5be
00000290: b016 65be 5a88 0e3f 92c5 38be f88b 5a3e
000002a0: 7b9b fa3e ac53 72bd e1fa d93e db16 b5be
000002b0: 01c6 a73e 2e53 debd c22a b9ba 38be dbbd
000002c0: 217a 9a3e 3821 9bbd c246 09bf c023 12bf
000002d0: 53a3 afbe e9ae 83be cd02 d7be e693 dabe
000002e0: bb39 9ebd d44d dfbe a194 c93e 4948 d63e
000002f0: fdb7 513e 096e fd3e a581 df3d ca06 e93d
00000300: a67f 03bf e3f6 8f3e 5107 ecbe ffd6 db3e
00000310: fa3e 90be 932c 0bbe 740e 02bf ea17 753e
00000320: 11c8 78be f89f 5e3e c94f 19bd ec42 a2be
00000330: db0b 063e 9a39 d3bd 7538 043e b44a 423e
00000340: 0eea 993e 8ae5 c5be 188a ea3e f00a 593e
00000350: fc48 19be b369 ae3e 78ff ce3c 1603 cabe
00000360: 95eb 0dbd afa2 2dbe 5b4d 9fbc 4431 003f
00000370: 4f0b 11bf 4d78 7abe 2310 503e d2fa ecbe
00000380: 1340 dfbe da58 833e 4828 c6be 8583 a53e
00000390: 75c8 09bf 8922 9e3e ff4d a53e 89ba 0cbf
000003a0: 4f53 d03e 8545 3fbe eeb5 063e fb8f 8a3e
000003b0: 98dc a33e 2b7e ee3e 1573 df3e 82db e0bc
000003c0: 99a8 64be 2da1 9c3e 353a 763e 1682 4c3e
000003d0: 3d9e 2e3e 06f0 0dbf f7fe 463e 9f03 4a3e
000003e0: 09b4 863e 563c c1be 679d 97be 1eb0 5bbe
000003f0: 5ab2 133f 6613 df3e 120d 8abe 1c7c d8be
0.55236197 0.23251173 -0.34938484 0.14898081 -0.091887444 -0.25532424 0.32881272 0.15642132
-0.4719953 -0.50810677 0.37674743 -0.5198166 -0.18243462 -0.055726144 0.28533968 0.47816747
0.1747133 -0.14208621 0.3048313 -0.16307929 -0.32596526 0.33536097 0.42975518 -0.26878983
0.056987517 -0.29747608 -0.31987485 -0.574237 -0.29072633 0.0011002453 -0.009006904 0.42483136
0.55227673 -0.09012347 -0.47981885 -0.13540117 0.17000616 -0.32652035 -0.2587132 -0.3204706
0.44440076 -0.46590865 -0.23745511 -0.22838923 -0.39279324 0.4178985 -0.23776428 -0.21498874
-0.3078207 0.14653888 -0.5593889 0.20935802 -0.1315802 0.060731247 -0.20718677 0.050217055
0.31835496 0.08496617 -0.058454603 -0.49753147 0.30596167 0.3192021 0.45520905 0.23396702
0.13299516 0.107687816 0.051072475 -0.43904817 0.13826913 -0.010545285 -0.005898793 -0.24857286
-0.21381353 0.45536196 -0.00060896156 0.15537228 0.51829 0.4392484 0.027266696 -0.36609384
0.38778657 -0.35451767 -0.5461959 0.2303838 0.015069746 0.062213957 0.34581468 -0.47378743
-0.31240702 0.5286808 0.44649488 -0.38295394 -0.41746935 0.15706764 0.0694098 0.46098816
-0.17892729 0.3460487 0.074338585 0.45601246 -0.40693954 -0.09630163 0.2727877 -0.20310654
0.5637794 0.21225825 0.02581108 -0.4906595 -0.3167217 -0.49653777 -0.1532433 0.46428466
-0.5488462 0.26526022 -0.07901087 0.4634111 -0.19352552 0.23115273 -0.56648177 0.28368774
-0.42744392 -0.1410975 0.23460135 0.24954677 -0.118050195 -0.515355 0.23004274 0.48914737
0.016000211 -0.2752095 -0.30122685 0.38036916 -0.3205759 -0.46970603 0.32726908 -0.16509517
-0.085541375 -0.56819963 0.3734785 -0.08347547 0.32446647 0.390636 -0.06256756 -0.13186277
0.15360259 -0.032666303 -0.37831736 -0.378998 -0.18198355 0.037742175 -0.11805942 -0.5607739
0.15115082 0.2984468 0.11693386 0.5659838 0.11872001 -0.2627398 -0.5622453 -0.017633935
0.12685716 -0.37647456 0.13892168 -0.35459414 -0.22371936 0.55676806 -0.18044117 0.21342456
0.48946747 -0.059161827 0.42574218 -0.35369 0.32768252 -0.10855709 -0.0014127123 -0.10729641
0.30171302 -0.07574695 -0.5362359 -0.570858 -0.34304294 -0.25719383 -0.41994324 -0.42690963
-0.07725855 -0.43614066 0.39371207 0.41852024 0.20480342 0.49498013 0.109133996 0.11378248
-0.5136665 0.28118047 -0.46099332 0.42937467 -0.28173047 -0.13591222 -0.50803304 0.23934904
-0.2429507 0.2174071 -0.037429605 -0.31691682 0.1309046 -0.10313721 0.12912162 0.1897381
0.30061382 -0.38651687 0.45808482 0.21195579 -0.14969248 0.34065017 0.025268301 -0.3945548
-0.034648497 -0.1695659 -0.019446066 0.50075173 -0.5665788 -0.24459954 0.20318656 -0.4628511
-0.43603572 0.25653726 -0.38702607 0.32326904 -0.538215 0.30885723 0.3228607 -0.5497213
0.4068856 -0.18678863 0.13155338 0.27062973 0.32004237 0.46580634 0.43642488 -0.02744842
-0.2232994 0.30591717 0.24045642 0.19971499 0.1705255 -0.5544437 0.19433199 0.19727944
0.2630923 -0.37741345 -0.29612276 -0.21453902 0.5769402 0.43569487 -0.26963097 -0.42282188

initial.bias f4 [150]
00000000: 0415 4cbe ce97 cb3e 0929 0abf 8167 5cbe
00000010: 09e8 613e 4209 bebe d604 0a3e 1662 81be
00000020: 9df6 f4be c0dc 05bf 0ab9 a7be f27e 093f
00000030: 5264 34be a473 3d3e 9d10 fb3e 29cd 083e
00000040: 0465 0dbf 77d6 33be 88d5 76be 1c93 683d
00000050: 39da f7bd e0ca 4fbd 5310 e3bd a1fc d53d
00000060: c184 8dbe 6344 b13e 43b9 a03e 16a9 12bf
00000070: 4bef 5b3e a579 8a3e c28d 4f3d 9916 2fbe
00000080: 36c4 e83e 225e dbbe 7b87 ff3e d0f4 9dbe
00000090: 5bd7 f7be 8c87 ddbc 06f5 b93e 22ad aebd
000000a0: 856f f6be 0e72 01bf e13d 0a3f 33f2 103f
000000b0: 0ca0 0fbf 287a e9be 8a82 0a3e 77d0 82be
000000c0: 1427 cabe 4b3b 00bf ae18 2fbe fd42 833e
000000d0: 5eca a5be 184b e7bc fb1d 69be bfef 15be
000000e0: 017f f2be d25e 0cbf 223f a53e 3d60 36be
000000f0: 4be8 2dbe bf59 debe facd af3e 00ec a4bd
00000100: b64a 343d dbec a1be 70db efbe 8aee 10be
00000110: 5700 35be 9715 853e 0ef3 1e3e 8cb8 c4be
00000120: 6793 55be 3470 ff3c 48eb b13e 2e92 4a3d
00000130: 495b 423e 9d99 39be d4fe a7be 1540 893c
00000140: d34c 143f b054 a33d 1d78 c13c d829 0fbf
00000150: 2f01 a5be ed15 d03e ecc0 c0bd ec8a 06bf
00000160: e3aa 643d d0e4 afbe 4f71 b7be 26bd 7e3e
00000170: 0830 af3e 6b84 b7be d077 ab3e 0284 ba3e
00000180: e6d4 833e 1e11 f33e d102 c5be 7842 813c
00000190: d9cf 38be b8da d6bd f4dd 18be 1537 b93e
000001a0: 614b 0cbf dfb2 e3bb b2e7 5bbe 7228 fb3e
000001b0: 1b87 543e 94b2 113d 104e d8be 7166 b4be
000001c0: 3abe fb3e 9717 babe fec7 e2bb dd76 b83e
000001d0: 0b68 e8be 5e8e b13e f3f9 9bbc 6af1 923d
000001e0: e24a 023f 47dc 46bc b83a cebe c76d c9be
000001f0: a783 ac3e 1449 be3e f94c 03bf cb5a c0be
00000200: ac2f 8ebe 0590 473e cc35 f73e 691f 13be
00000210: dd8d 203d b460 5d3c b2e0 57be 7874 b0be
00000220: e625 173e 15de 08bf 031a 01bf 46a6 113f
00000230: 515c 93be ed94 a3bb 349f 943e 0f42 0f3f
00000240: 548f ccbe ace9 ccbe 0dc5 f33c 07b0 ad3e
00000250: d325 e83e 7fc7 9bbd
-0.19929892 0.39764255 -0.53968865 -0.21523859 0.2206117 -0.37116438 0.13478407 -0.25270146
-0.478444 -0.5228996 -0.3275836 0.5370933 -0.17616394 0.18501145 0.49036112 0.13359512
-0.5523226 -0.1756228 -0.24104893 0.05678092 -0.121021695 -0.050730586 -0.11087098 0.10448576
-0.27640346 0.34622487 0.31391343 -0.57289255 0.21478002 0.27045932 0.0506723 -0.17098464
0.45462197 -0.42845255 0.4990805 -0.3085084 -0.4840649 -0.027042173 0.3631975 -0.08529116
-0.48131958 -0.5056466 0.5400067 0.56619567 -0.5610359 -0.4560101 0.13526359 -0.2554967
-0.3948294 -0.50090474 -0.17099258 0.25637046 -0.32380956 -0.02823405 -0.22765343 -0.14642237
-0.4736252 -0.54832184 0.3227473 -0.1781015 -0.16983144 -0.43427846 0.34336835 -0.08052826
0.044016562 -0.3162602 -0.46847105 -0.14153495 -0.17675911 0.25993034 0.15522406 -0.38422048
-0.20857011 0.031181432 0.34749818 0.049455814 0.18980135 -0.18125005 -0.32811606 0.01675419
0.57929724 0.07975137 0.023616845 -0.55923223 -0.32227466 0.40641728 -0.09411797 -0.5255573
0.055827033 -0.34354258 -0.35828635 0.24876842 0.34216332 -0.35843214 0.33489847 0.3642884
0.25748366 0.47473997 -0.3847871 0.015778765 -0.18048038 -0.10490936 -0.14928418 0.36174837
-0.5480252 -0.0069488133 -0.21475103 0.49054295 0.20754664 0.035570696 -0.42247057 -0.35234407
0.4916857 -0.36346123 -0.0069208136 0.36028185 -0.45391878 0.3467893 -0.019040084 0.07174952
0.5089551 -0.012137479 -0.40279174 -0.39341566 0.33694193 0.3716513 -0.51289326 -0.3756927
-0.27770746 0.19488533 0.4828323 -0.14367451 0.03919779 0.013511825 -0.21081808 -0.3446386
0.14760551 -0.5346387 -0.50430316 0.5689434 -0.2878137 -0.0049921186 0.29027712 0.5596017
-0.399531 -0.40022027 0.029757047 0.3392336 0.45341358 -0.0760641

readout.weight f4 [126, 150]
00000000: 4252 f73c aecc 0e3d 03c7 94bd bbd5 9abd
00000010: d657 863d c413 d1bc caeb 8ebc 862a e63c
00000020: 2f4d 49bd 155c 87bd 9e66 67bd 3136 33bd
00000030: 0734 113d 67fc 773d 05a0 bdbc 1165 6ebd
00000040: c6db 793d 44a3 74bd f30b 783d 946b 2d3d
00000050: 1311 4bbd c541 153d 0442 8f3d 4b6e 81bd
00000060: 4d80 b13c 9214 73bd 6eb4 e9bc 5c34 093d
00000070: 8480 11bd 791a 8bbd 50dc 5cbd 247d f9bc
00000080: e9b9 80bc 3382 703d 4be5 27bd dc03 be3c
00000090: 6407 d9bc 9328 783d b1ec 663d 5362 e83c
000000a0: c18b 4bbd 613a 363d 2290 9a3c 137b e2bc
000000b0: 264a 1ebd 027d 49bc ac85 9f3c 33b4 9e3c
000000c0: 2b8b 763c bda4 713d f480 9fbd ec19 5cbc
000000d0: 30f0 763c 5276 253d ef55 db3a 0518 7b3d
000000e0: d488 633d 1fef c83c cf20 34bd d671 83bd
000000f0: 1fe0 9dbd dc4c b4bc ae80 67bd ff7e 66bd
00000100: 1da1 83bd 4381 b239 bbc8 3c3d 42af 943d
00000110: 0a29 873d aff5 22bd 4d06 99bc 3639 383d
00000120: 94c6 21bd 4229 23bd d3a1 0c3d 27cd 1e3d
00000130: 2934 543d 4867 0d3d 8c11 81bd 5b70 99bd
00000140: 60f7 2d3d 4f72 95bd ec6e 033d 83b6 de3a
00000150: 2d22 f6bc 021b 2bbd f85b ab3c 534e 2ebd
00000160: a229 3d3d 39f7 7d3d 092e 15bd ab61 d73c
00000170: 3190 17bc 7afb 3d3c 4ead 19bd f848 043d
00000180: 0d3d 7f3d b9db 903d dc27 4f3d 7ee3 86bd
00000190: 0cdb bc3c 2878 dcbc d459 96bc fa0b 94ba
000001a0: 8992 613d efa7 b43c 3068 9e3d 0276 ae3c
000001b0: c149 3b3d fd3f 813c 5cc4 383d 5719 0cbc
000001c0: b860 c6bb 1d96 c23c 378f ce3b f6f7 6c3d
000001d0: 9175 3f3d ed30 1f3d 0926 9b3d 4eb3 0bbd
000001e0: 06a7 843b 9432 62bd 70aa 8bbd 9a73 8e3c
000001f0: dca1 153d c1f4 ac3b 2d21 8c3d 335f 6e3d
00000200: 6858 26bd 1534 8ebd 8289 d8bc 406d 323c
00000210: 9104 86bd 0121 25bd ce6d 9e3d 790b 9bbc
00000220: 8d77 173d edb9 da3b c57d ef3b 8e70 483d
00000230: c8f1 3f3b e461 513d 2c36 04bd ea93 9b3d
00000240: 3364 a03d 8ec2 1c3d 2b62 9eba 278b f7bc
00000250: 13ea 1f3d 876d 813d 6a74 813d e8d8 dabc
00000260: 5aac 9e3d 3bde 9a3c 0ff6 793d 200e 8cbd
00000270: 64d9 4abd f597 fc3c c5c7 8c3d c4d2 7d3a
00000280: b89e 61bd 575b 173d 9a21 95bd 9ec7 cabc
00000290: b9a9 453c 3685 893c 77bc eabc 1994 4a3d
000002a0: 7fdb 2ebd 40ea 85bd 2272 8abd dd79 963a
000002b0: b62f 88bc 3693 96bc 7926 debb 7bfb 05bd
000002c0: 65be 353d c485 5ebd db4b 04b8 f6bf 653d
000002d0: 466b 453d 9141 f13c d454 76bd 268d 92bd
000002e0: 9f1e 553d 4aff a1bd 2045 93bd cde1 733d
000002f0: 0019 58bd 8bee 06bd 5c47 8b3c 596c 923b
00000300: 2726 a3bc 2836 d0bb 9752 91bd 6a1e 50bc
00000310: 1e72 91bc 0266 85bc f7e9 c4bb db4c 913a
00000320: d462 9bbc 23aa eb3c 5415 dd3c 7952 923d
00000330: 5b1d 99bd b145 90bd 3957 053c 6fc6 923c
00000340: 83a3 6b3d 5a65 aabc 914c 7d3b ef16 5abd
00000350: cd10 563d 9cdf f33c 6b9a 883d c6d4 323d
00000360: 9c20 7c3c 887a 473d 3d2a 2e3c 1bf4 58bd
00000370: 4a76 afbc 107e 853d 96c5 eabc 79c6 87bd
00000380: 1262 c03c 5d9e b23c 731d 39bd 6553 c53c
00000390: 73d2 903d 54f9 8f3d 9086 a6bd 31df 603d
000003a0: 5bef 5f3d 885d 95bd c4cc 683d 440e 283d
000003b0: 324c 5bbc 2d01 a0bd b57c cfbc 27e5 1e3d
000003c0: 08b4 933d 9895 133d 033f 853d e26f 0e3d
000003d0: b30f 51bd b81d 8ebc 8a67 9c3d f42c 9bbd
000003e0: 8c30 1c3d ce2a 223c 7ce8 653b adc0 533d
000003f0: 8108 773c 7f38 51bd c31d c73c 5b31 ef3c
0.03019059 0.034863167 -0.07264521 -0.07560297 0.06559722 -0.02552212 -0.017446417 0.028096449
-0.049145874 -0.0660936 -0.056494348 -0.043752853 0.035450008 0.060543444 -0.023147592 -0.058201853
0.061000608 -0.059726015 0.06055827 0.042338923 -0.04957683 0.036439676 0.06995013 -0.06319865
0.021667624 -0.05934579 -0.028528418 0.0334972 -0.035522953 -0.06792159 -0.053921044 -0.03045518
-0.015713649 0.058717918 -0.040990155 0.0231952 -0.026492782 0.06058557 0.05637807 0.028367197
-0.049693827 0.04448927 0.018867556 -0.027646577 -0.038644932 -0.012297871 0.01947292 0.019373035
0.015047829 0.058994997 -0.07788268 -0.013433915 0.015071914 0.040396042 0.0016733984 0.061302204
0.05555041 0.024528084 -0.0439766 -0.06418197 -0.07708763 -0.022009306 -0.056519203 -0.056273457
-0.06427214 0.00034047113 0.04608987 0.0725999 0.065996245 -0.039785083 -0.018679762 0.044976436
-0.03949602 -0.03983427 0.034334015 0.038769867 0.051807556 0.034522325 -0.06302175 -0.07492133
0.042472243 -0.07297193 0.032088205 0.0016991649 -0.030045593 -0.041773804 0.020917878 -0.042555165
0.046182282 0.062003348 -0.036420856 0.026291689 -0.0092506865 0.011595601 -0.03751879 0.03229615
0.062314082 0.07073159 0.050575122 -0.065863594 0.023053668 -0.026912764 -0.01835338 -0.0011295073
0.055071387 0.022052733 0.07734716 0.021296505 0.045724634 0.015777582 0.045109138 -0.008550963
-0.0060540102 0.02375322 0.0063036936 0.05785366 0.04674298 0.03886502 0.07575614 -0.034106545
0.004048231 -0.055224016 -0.06819618 0.017389107 0.036531314 0.0052782004 0.06842265 0.058196258
-0.040611655 -0.069435276 -0.026432756 0.010890305 -0.0654384 -0.040314678 0.07735787 -0.018926369
0.036979247 0.006674996 0.007308694 0.048935466 0.00292884 0.051118746 -0.032278225 0.07596572
0.078316115 0.03827148 -0.00120837 -0.03021772 0.03904159 0.06319719 0.06321032 -0.026714757
0.07747717 0.018904796 0.061025675 -0.06838632 -0.049523726 0.030834178 0.068740405 0.00096825906
-0.055083007 0.036952343 -0.072817996 -0.024753388 0.012064391 0.016787153 -0.02865432 0.049457643
-0.042689797 -0.0653882 -0.0676005 0.001148041 -0.016624313 -0.018380743 -0.0067794886 -0.032710534
0.044371027 -0.054326788 -3.15419e-05 0.05609127 0.048198007 0.02945021 -0.060139492 -0.07155828
0.052031156 -0.07910021 -0.07190919 0.059541512 -0.052758217 -0.032942336 0.0170018 0.0044684825
-0.019915653 -0.006354112 -0.07095831 -0.012702564 -0.01775461 -0.016283993 -0.006009336 0.0011085527
-0.018968023 0.028767651 0.02698771 0.07144637 -0.07476302 -0.070445426 0.008138471 0.017916886
0.057528984 -0.020800281 0.0038650373 -0.053244527 0.052262116 0.029769711 0.06670078 0.043659948
0.015388634 0.04870084 0.010630188 -0.052967172 -0.02141871 0.06518185 -0.02865867 -0.066296525
0.023484264 0.02180403 -0.0451941 0.024087617 0.0707139 0.070299774 -0.081311345 0.054900352
0.054671627 -0.0729323 0.056835905 0.04102923 -0.013384866 -0.07812724 -0.02532802 0.038792755
0.072120726 0.036031336 0.06506159 0.03477467 -0.051040363 -0.017348155 0.07636936 -0.075769335
0.038132235 0.009897901 0.0035081198 0.05169742 0.015077711 -0.05107927 0.024306184 0.02919834

readout.bias f4 [126]
00000000: cd64 383d 980e ddba d3eb 863d 5718 8c3a
00000010: bcd9 2bbd 2ef7 91bb bb3f 6c3c e612 7f3d
00000020: b268 983d fb17 2ebd 2f62 82bc 3473 2bbd
00000030: 6f76 9c3b a513 67bd ab9a 83bc 66ef d03c
00000040: f855 243d e58c 4ebd 675f 89bd fca5 743d
00000050: 59ba 633d b260 a03d 166f bebc 2b05 e2bc
00000060: 104e a0bd 918b b43c 8304 b0bb 803b 223d
00000070: cf37 803d 3ab1 9dbd 4ae7 113d 68e5 8c3d
00000080: ea9c 2dbc 3754 46bd 4930 96bd e302 373d
00000090: 9af4 9cbd 895f ed3c 24c5 733c 8f30 c13c
000000a0: 0c1e 083d 60d3 30bd dabe 11bc a253 7dbc
000000b0: b0cb 4e3d 8f40 9a3d 3feb 90bc 5b43 96bc
000000c0: 1145 f2bc 0840 4a3d 15fc 883b 8c6c f6bc
000000d0: 0d78 b6bc 69f0 913d e1eb 2f3d 66f7 5cbd
000000e0: 7d56 b43c 1968 6dbd ae8b 1bbd 94e2 473d
000000f0: 85fc 8c3d 83ce 8e3d 5e45 dd3c e658 4fbd
00000100: 499e b63c 6370 dbbb 7461 9b3c 9145 05bd
00000110: 2483 663d 2b26 38bd c3a7 4cbc 5367 5fbb
00000120: 3f7e 59bb bd2a c93c 2686 4f3d 3b20 81bd
00000130: 92ca 393c 6a5f ba3c aae5 67bd 6aaf 73bd
00000140: f003 233a e05d 2abd 5382 563d 1198 1a3d
00000150: 20e2 493d f072 95bd 70ad 0fbd 9296 873d
00000160: a860 953d fb04 8fbd af93 0b3d e609 cc3c
00000170: fb4e 9bbd 24d2 a6bc bb7d 78bb 1c2f 783d
00000180: f805 15bd 3f8e 943d 8b50 80bd da77 88bd
00000190: 0fa2 5d3d 1fec 463c d1e4 a0bd 7fa6 8abd
000001a0: 651b fdbb 04ad 763d c768 843d 62a2 33bd
000001b0: 8147 993d 279e 963d 23c9 23bc 15ca 9bbd
000001c0: 2796 99bd 6045 81bd 7b99 333a b49d d63b
000001d0: e9c5 68bd 90dc 0ebd 0944 473d 2346 613d
000001e0: 4b20 98bd 8b8b 483d 6167 083c 47e3 36bd
000001f0: e25d fabb 094d 8dbd
0.045018006 -0.0016865311 0.06587949 0.0010688406 -0.041955695 -0.004454515 0.014419491 0.062273882
0.07441844 -0.04250334 -0.015915958 -0.041857913 0.0047748606 -0.05641522 -0.016064962 0.02550478
0.04012105 -0.050427336 -0.0670765 0.059728608 0.055597637 0.07830943 -0.02324633 -0.027590355
-0.07827389 0.022039207 -0.0053716316 0.039607525 0.06260645 -0.07699819 0.035620965 0.06879693
-0.010596493 -0.048420157 -0.073334284 0.044680487 -0.076638415 0.028976219 0.014878545 0.023582725
0.03323178 -0.043170333 -0.0088956 -0.015461834 0.05048722 0.07531845 -0.0176903 -0.018342664
-0.029573949 0.04937747 0.004180441 -0.030081056 -0.022274042 0.07125933 0.04294956 -0.053946875
0.022013897 -0.057960603 -0.037975006 0.048800066 0.06884102 0.06972983 0.027010616 -0.05062189
0.022292273 -0.006696747 0.018967368 -0.032537047 0.05627741 -0.044958275 -0.012491169 -0.0034088686
-0.003318682 0.024556512 0.050665043 -0.063049756 0.0113398 0.022750575 -0.05661551 -0.05949346
0.0006218543 -0.041593432 0.05237038 0.037742678 0.049287915 -0.07297313 -0.035077512 0.06620516
0.07293826 -0.06983372 0.03407639 0.024907064 -0.07583424 -0.020363875 -0.0037916738 0.060591802
-0.036382645 0.07253694 -0.06265362 -0.06663485 0.05410963 0.012141257 -0.07856143 -0.06770038
-0.007724213 0.060223594 0.06465297 -0.043856032 0.074843414 0.07354384 -0.009996685 -0.076069035
-0.074993424 -0.0631206 0.00068511785 0.0065495614 -0.056829367 -0.034878314 0.048648868 0.05499853
-0.074280344 0.048961204 0.008325429 -0.044650342 -0.0076405862 -0.06899459
