cde/model/checkpoints/3.ckpt (torch, 390543 bytes, 8 tensors)

func.linear1.weight f4 [128, 150]
0	0xbc90badc	-0.017667226
1	0xbd6ff615	-0.05858429
2	0xbcd17ef1	-0.025573226
3	0x3c2b66d6	0.01046153
4	0xbd2412ff	-0.04005718
5	0xbcaf8d23	-0.021429604
6	0xbcda282d	-0.026630485
7	0xbd369f9f	-0.04458582
8	0x3b4f3678	0.003161816
9	0x3d8227db	0.06355258
10	0xbbdc35bc	-0.006720273
11	0xbd01711e	-0.031602018
12	0x3d549b6c	0.051906034
13	0xbd8aa73c	-0.06770179
14	0xbd8bd3af	-0.06827485
15	0x3ce6f6da	0.02819388
16	0xbcafef18	-0.021476313
17	0x3d5e8c4c	0.054333016
18	0xbbbb4696	-0.0057152016
19	0x3d32729f	0.043566342
20	0xbd66ce73	-0.05634923
21	0x3d0abcb9	0.033871386
22	0xbd3e21f1	-0.046419088
23	0xbc3ecdfc	-0.01164579
24	0x3d3cc7d4	0.04608901
25	0xbd78572a	-0.06063
26	0x3d9188d7	0.07106178
27	0x3d0c045f	0.034183856
28	0x3c21bc65	0.009871577
29	0x3b7d2098	0.0038624164
30	0xbd810473	-0.06299677
31	0x3c4098de	0.011755196
32	0x3d361c6c	0.0444607
33	0xbcc84a26	-0.02444942
34	0xbd76dbbb	-0.060268145
35	0xbc9ff5c7	-0.019526375
36	0xbda30b8d	-0.079611875
37	0x3d4aae3e	0.049482577
38	0x3bdd37fb	0.006751058
39	0xbd88f76e	-0.066878185
40	0x3d625b6c	0.055262968
41	0x3d8b32fb	0.06796833
42	0x3d90f207	0.07077413
43	0xbb9db91b	-0.004813326
44	0xbd28df96	-0.041228853
45	0x3d61b80a	0.055107154
46	0x3da35537	0.07975238
47	0xbd155e96	-0.036467157
48	0xbd13edc1	-0.03611541
49	0xbc35e098	-0.011100911
50	0x3cd161c6	0.025559317
51	0x3d8d7e8d	0.06908903
52	0xbd5a020e	-0.053224616
53	0xbbd86ce9	-0.00660478
54	0xbd02a1e6	-0.03189268
55	0x3c612d11	0.013743655
56	0xbc6108c8	-0.013735004
57	0xbd0bb0f6	-0.03410431
58	0x3d362c87	0.04447606
59	0x3d926323	0.07147815
60	0xbc80ed6e	-0.015738215
61	0x3d9ed942	0.077562824
62	0x3bb70240	0.005584985
63	0xbd256ca6	-0.04038682
64	0x3cb4de28	0.022078589
65	0xbbf68d77	-0.007524188
66	0x3d8ccf50	0.06875479
67	0x3d1e5264	0.038652793
68	0xbc6ec3d3	-0.014573055
69	0x3b0f22b7	0.002184076
70	0x3c3ca8e1	0.011514873
71	0x3d9dec62	0.07711102
72	0x3c793219	0.015209698
73	0xbc25c82b	-0.010118525
74	0xbd2ca2b9	-0.042147372
75	0xbbd894b0	-0.006609522
76	0x3d20fa0c	0.039300963
77	0x3d8ec5ec	0.06971344
78	0x3c941eca	0.018081088
79	0x3d0c23f2	0.034213968
80	0x3cb083a6	0.02154715
81	0x3c141ae6	0.009039616
82	0xbce9ca28	-0.028538778
83	0x3d433e41	0.04766679
84	0x3d6f5517	0.058430757
85	0x3d99c0d9	0.07507486
86	0x3b5fe135	0.0034161333
87	0x3c78b293	0.015179294
88	0xbc98288d	-0.018574024
89	0xbd006b2d	-0.03135221
90	0x3cc54b9e	0.024083909
91	0xbd5f13f9	-0.054462407
92	0x3d8bc432	0.06824531
93	0x3d78aca4	0.060711518
94	0x3d22cfec	0.03974907
95	0xbd4ac355	-0.04950269
96	0x3d5c8fd2	0.053848095
97	0xbd5973ef	-0.05308908
98	0xbc98dbcf	-0.0186595
99	0xbcdb438d	-0.02676561
100	0xbcce8ca0	-0.02521354
101	0xbd11c7cc	-0.03559093
102	0x3d57853c	0.052617297
103	0xbc45d65b	-0.012075032
104	0xbad3e468	-0.0016166093
105	0xbccb4943	-0.024815207
106	0x3d8095da	0.06278582
107	0x3c084347	0.008316821
108	0x3d510d61	0.05103815
109	0x3d869034	0.06570473
110	0x3a869efd	0.0010270771
111	0xbb45fed6	-0.0030211709
112	0x3d1e5c60	0.038662314
113	0xbd819e4d	-0.063290216
114	0x3d8ea0dd	0.06964276
115	0x3d6c2808	0.057655364
116	0xbd554f28	-0.052077442
117	0xbc6f50ba	-0.014606649
118	0xbda05038	-0.078278005
119	0x3d803b3b	0.06261297
120	0x3d0df6f0	0.034659326
121	0xbc35ef70	-0.01110445
122	0x3d79f02a	0.061020054
123	0xbd5d48cb	-0.0540245
124	0xbd303d92	-0.043027468
125	0x3d9396c9	0.07206494
126	0xbcdfc586	-0.027315866
127	0x3b8b274d	0.0042466284
128	0xbd5906d0	-0.052985013
129	0x3cef7a24	0.029233046
130	0xbd918623	-0.07105663
131	0x3d21d37c	0.039508328
132	0xbda015e6	-0.07816677
133	0xbd6155ba	-0.055013396
134	0xbd8e42f5	-0.06946365
135	0x3d2d5e02	0.04232598
136	0x3d71139a	0.058856584
137	0xbd4482e0	-0.047976375
138	0x3c7b0ed4	0.0153233595
139	0xbb952106	-0.004551056
140	0xbcee9de2	-0.029128019
141	0xbd1e64ff	-0.038670536
142	0xbd35318e	-0.044236712
143	0xbd8e610f	-0.06952106
144	0x3d61e880	0.05515337
145	0xbda3e0e5	-0.080018796
146	0x398028db	0.00024444502
147	0x3ce8e4cd	0.028429413
148	0xbc8d3698	-0.017237946
149	0x3d7fa4ec	0.06241314
150	0x3d84f5e3	0.06492212
151	0x3d16d9cd	0.036828805
152	0x3bb3cbb0	0.005486928
153	0xbcb7661d	-0.022387559
154	0xbd81384a	-0.063095644
155	0x3d59f07c	0.05320786
156	0xbaa6d1bc	-0.0012727301
157	0xbd9f3c37	-0.07775157
158	0x3d2c819d	0.042115796
159	0x3c04a171	0.008095131
160	0xbcd3ad2f	-0.025839416
161	0x3da7080a	0.0815583
162	0xbcc6705a	-0.024223495
163	0x3c19487f	0.009355663
164	0x393c1bdc	0.00017939456
165	0x3d425b2b	0.047450226
166	0xbd6dcafe	-0.058054917
167	0x3cdd24bc	0.026995055
168	0x3d31097d	0.04322194
169	0xbd637edc	-0.055540904
170	0xbd32b5cd	-0.04363041
171	0x3ba0fc50	0.0049128905
172	0x3da3648a	0.07978161
173	0x3cd75979	0.026287781
174	0x3d8b8d0a	0.068140104
175	0xbd4f9b0b	-0.05068497
176	0xbd446351	-0.047946278
177	0x3cdd8fcc	0.027046107
178	0x3d105d63	0.03524531
179	0x3d3d58e1	0.04622734
180	0xbce778eb	-0.0282559
181	0xbd900c74	-0.07033625
182	0xbc8d829b	-0.017274192
183	0x3cc777a2	0.024349038
184	0xbd2b9719	-0.041892145
185	0x3c9bcde5	0.019019077
186	0xbce2f0a2	-0.027702633
187	0x397d4d48	0.0002415675
188	0x3d8ab6e9	0.067731686
189	0xbd766ded	-0.060163427
190	0xbda5342d	-0.08066592
191	0xbd912223	-0.07086589
192	0x3d4b56d9	0.04964337
193	0xbcb7dc95	-0.022444049
194	0x3beefe39	0.0072934893
195	0x3d61960b	0.055074733
196	0xbc0a2cf3	-0.008433568
197	0xbc23a741	-0.009988607
198	0xbd61f682	-0.05516673
199	0xbd0d4884	-0.034492984
200	0xbce8f0a9	-0.028435068
201	0x3c3d7d77	0.011565558
202	0x3c8ea4d0	0.017412573
203	0xbc78f51d	-0.015195158
204	0xbc52e15f	-0.0128711155
205	0xbc89bb38	-0.016812906
206	0x3cefb32d	0.029260242
207	0xbd9795e2	-0.07401635
208	0x3cf8aaef	0.030354945
209	0x3aa6acf5	0.001271634
210	0x38c2e0ae	9.292491e-05
211	0x3b85843c	0.0040746015
212	0x3d3d5db0	0.046231925
213	0x3d41a194	0.047273234
214	0xbd020796	-0.031745516
215	0xbc2fdd4f	-0.010733916
216	0x3d3637e9	0.044486914
217	0x3b3915c6	0.0028241738
218	0xbce95785	-0.028484115
219	0xbd705aa8	-0.058680207
220	0x3c90f963	0.017697042
221	0xbb33be03	-0.0027426488
222	0x3d95c7e9	0.073135205
223	0x3c61f851	0.013792113
224	0xbd138f08	-0.036025077
225	0x3cb98e26	0.02265079
226	0xbd7627b3	-0.060096454
227	0xbd8a19d3	-0.06743207
228	0xbcda4036	-0.026641946
229	0xbd9c52b3	-0.07632961
230	0x3d8edf4d	0.06976185
231	0x3cad9010	0.021186858
232	0xbd3ca77c	-0.046058163
233	0xbd87e47b	-0.06635376
234	0xbd3f856e	-0.046758108
235	0xbb618b45	-0.0034415287
236	0x3d1c6814	0.038185194
237	0x3ce13393	0.027490413
238	0xbd464751	-0.048407856
239	0x3d54e405	0.05197527
240	0xbd88311f	-0.06649994
241	0x3d899e7f	0.06719684
242	0xbcaba2f1	-0.02095172
243	0xbd131e18	-0.03591737
244	0x3c3cc9d5	0.01152273
245	0xbd538532	-0.051640697
246	0xbc9dffba	-0.019286979
247	0xbcbd9e11	-0.023146661
248	0x3bc5726c	0.006025603
249	0x3d5fbd6c	0.054624006
250	0xbcbcfbc6	-0.023069274
251	0x3d8e0eca	0.069364145
252	0x3bc55de9	0.006023158
253	0xbc13462e	-0.0089889
254	0x3d9080ed	0.07055841
255	0xbcf88aa5	-0.030339548

func.linear1.bias f4 [128]
0	0xbd109ea3	-0.035307538
1	0xbd59067b	-0.052984696
2	0xbd46f160	-0.048570037
3	0x3d80bc51	0.062859185
4	0x3d042534	0.032262042
5	0x3b728135	0.0037003283
6	0xbd0a3ee4	-0.033751383
7	0x3da59640	0.080852985
8	0x3d9402f2	0.07227124
9	0xbd6285e1	-0.055303458
10	0xbb3410a0	-0.002747573
11	0xbbb264cd	-0.0054441453
12	0x3d51f00e	0.051254325
13	0xba8de765	-0.0010826407
14	0xbda47fc5	-0.080321826
15	0x3c524a27	0.012835062
16	0xbd8249b8	-0.06361717
17	0xbd5c9de0	-0.0538615
18	0x3d5568b3	0.052101802
19	0xbbc7e2d2	-0.006100037
20	0xbcbda51a	-0.023150016
21	0x3be7c710	0.0070732906
22	0x3d8cfd17	0.068842106
23	0x3d925209	0.07144553
24	0x3c132d88	0.008983023
25	0xbc2099c5	-0.0098022865
26	0x3d26e9f2	0.04075045
27	0x3d753fdc	0.059875354
28	0x3da737bf	0.081649296
29	0xbd379a99	-0.04482517
30	0xbc94f104	-0.018181331
31	0xbc71ad46	-0.014750784
32	0x3d1c31c0	0.038133383
33	0xbb84de3a	-0.004054812
34	0xbd5f2bd2	-0.05448515
35	0xbd8a949d	-0.06766627
36	0xbd469a8d	-0.048487235
37	0xbcff4495	-0.031160632
38	0x3a84d77f	0.0010135024
39	0x3bad2aeb	0.0052846572
40	0x3d8c92e5	0.068639554
41	0x3c524c2b	0.012835543
42	0xbd1d78d5	-0.038445313
43	0xbc29d472	-0.010365592
44	0xbdab694a	-0.08369692
45	0xbd5a2d96	-0.05326613
46	0xba96d5ff	-0.0011507868
47	0x3cbbb07a	0.022911299
48	0x3d504f79	0.05085704
49	0xbd8fcd9c	-0.07021639
50	0x3d04fc57	0.032467213
51	0x3c1622f6	0.009163609
52	0x3cd02adc	0.025411062
53	0xbbacd41d	-0.0052743093
54	0x3d994c14	0.07485214
55	0x3d487d1e	0.048947446
56	0x397c53f0	0.00024063862
57	0x3cb49ee9	0.02204843
58	0xbc968150	-0.018372208
59	0xbcbb1fb2	-0.022842262
60	0x3d8906f7	0.066907816
61	0x3d9ea252	0.07745804
62	0x3d84c9f7	0.06483834
63	0xbd9acb63	-0.07558324
64	0xbd95e712	-0.07319464
65	0x3cb9d6d8	0.022685453
66	0xbd87fea8	-0.06640369
67	0x3c5399e0	0.012915105
68	0x3cee559f	0.029093562
69	0x3ca81d42	0.020521764
70	0x3d79d03d	0.060989607
71	0xbd1105d1	-0.035405938
72	0xbd359d3e	-0.04433941
73	0xbda84e4f	-0.08218061
74	0xbc4bfb11	-0.012449996
75	0xbcfaf312	-0.030633483
76	0x3c493eb6	0.012283018
77	0x3c83bc7f	0.016081093
78	0x3da13729	0.07871849
79	0xbd807ea2	-0.06274153
80	0xbd1c8904	-0.038216606
81	0xbcb1b1a7	-0.021691157
82	0xbd35b05b	-0.04435764
83	0x3c5c5caf	0.013449832
84	0x3d1d7176	0.038438283
85	0xbd8ee379	-0.06976981
86	0xbd838e19	-0.06423587
87	0xbd7a8eec	-0.061171457
88	0x3d884b3b	0.06654974
89	0xbcd69757	-0.026195211
90	0x3d335051	0.043777768
91	0xbd36428b	-0.044497054
92	0x3d63e06d	0.05563395
93	0x3cdbc284	0.02682615
94	0x3d938517	0.07203119
95	0x3d702713	0.058631014
96	0xbc98428c	-0.01858642
97	0x3d4ce7e2	0.05002583
98	0xbd3b403b	-0.04571555
99	0x3d89acf4	0.06722441
100	0xbcb16d5f	-0.021658598
101	0xbd86a50c	-0.06574449
102	0x3d704cdf	0.05866706
103	0x3d702311	0.058627192
104	0xbd49a5a0	-0.049230218
105	0xbcd34e55	-0.025794188
106	0x3d2b0a60	0.04175794
107	0x3d8aaf09	0.067716666
108	0xbd7c2805	-0.061561603
109	0xbd355f56	-0.044280373
110	0x3c76cd69	0.015063622
111	0x3d7bd4fc	0.061482415
112	0xbd9afea7	-0.07568102
113	0xbc8044c2	-0.015657786
114	0xbc501fe8	-0.01270292
115	0x3d9d55f8	0.07682413
116	0x3c3a3238	0.011364512
117	0x3d25818a	0.04040674
118	0x3cc9014f	0.024536757
119	0x3c0efbea	0.008727053
120	0xbda53f39	-0.080686994
121	0x3b65bee0	0.0035056397
122	0x3c8dc87c	0.017307512
123	0x3b985c11	0.004649647
124	0x3c288015	0.010284443
125	0x3d24f278	0.0402703
126	0x3ca704c1	0.020388009
127	0xbca7fc60	-0.020506084

func.linear2.weight f4 [450, 128]
0	0xbc2cc4c2	-0.010544958
1	0x3da3da78	0.08000654
2	0x3d8b3917	0.067979984
3	0x3dafa99f	0.085772745
4	0xbd50cfd1	-0.05097944
5	0x3d86eaa1	0.06587721
6	0xbd0229da	-0.031778194
7	0x3cabd9e4	0.020977922
8	0x3d983ab1	0.074330695
9	0xbd65bbef	-0.05608743
10	0x3d617d2e	0.05505102
11	0x3d8a5c3f	0.06755876
12	0xbd82b7b8	-0.06382698
13	0x3d865ff0	0.065612674
14	0x3d8d16a2	0.068890825
15	0xbd38fe65	-0.045164485
16	0xbd968712	-0.07349981
17	0x3cb8ccc8	0.022558585
18	0x3a50ac0f	0.0007960209
19	0xbc7fda92	-0.015616076
20	0x3d0792ee	0.033099107
21	0xbdadd992	-0.08488764
22	0xbd831162	-0.063998
23	0xbd4bf3aa	-0.049792923
24	0xbc6c278c	-0.014413726
25	0x3a86ddb3	0.001028946
26	0xbc924b5f	-0.017858205
27	0x3d736407	0.059421565
28	0xbd6fa208	-0.058504134
29	0x3d11b099	0.035568807
30	0x3d5345f0	0.05158037
31	0xbc0e02b5	-0.008667638
32	0x3d49eb93	0.049296927
33	0x3db57513	0.08860221
34	0x3c428216	0.011871835
35	0xbd88250d	-0.06647692
36	0x3d90976c	0.070601314
37	0x3d83e937	0.064409666
38	0x3cccbb0f	0.02499154
39	0xbca8e047	-0.020614756
40	0x3d919d54	0.07110086
41	0xbb38bfbb	-0.0028190452
42	0xbd4bd170	-0.049760282
43	0x3d70c254	0.058779076
44	0x3db6847e	0.0891199
45	0x3da39f33	0.07989349
46	0x3d0616a8	0.03273645
47	0x3bca5e4a	0.006175791
48	0xbcaca5c9	-0.021075146
49	0xbd8e7497	-0.069558315
50	0xbbfde66b	-0.007748415
51	0x3c04c399	0.008103275
52	0xbae98ef1	-0.0017819089
53	0x3d4181b6	0.047242843
54	0x3c4a9423	0.01236442
55	0xbd152a42	-0.036417253
56	0xbd2b061f	-0.041753884
57	0xbda849a9	-0.082171746
58	0x3cee364b	0.029078623
59	0xbd9a9c19	-0.075493045
60	0xbd816b0b	-0.06319245
61	0xbd18b3ec	-0.037280962
62	0x3d5dcc13	0.0541497
63	0x3da8bcce	0.08239137
64	0xbd718f75	-0.058974702
65	0x3ccffdfd	0.025389666
66	0x3d6d1b02	0.057887085
67	0xbd991395	-0.07474438
68	0xbd619858	-0.055076927
69	0xbda6f932	-0.08152999
70	0xbce50dbe	-0.027960654
71	0x3d9ecbdb	0.07753726
72	0xbc09bda6	-0.008407032
73	0x3d77375c	0.06035553
74	0x3cdb11ba	0.026741851
75	0x3d5f7fe2	0.054565318
76	0x3d86dbd0	0.06584895
77	0xbd88f089	-0.066865034
78	0x3d61ec20	0.055156827
79	0xbd7ba8a6	-0.061440133
80	0x3b1cd053	0.0023927882
81	0xbcf1fe5f	-0.029540239
82	0x3caf2e89	0.021384494
83	0xbd5daa91	-0.054117743
84	0x3bff9d51	0.007800736
85	0x3d5b1665	0.053488154
86	0xbcfc5eea	-0.030806977
87	0x3d3d1cc5	0.046170015
88	0xbd85b954	-0.06529489
89	0xbb8e4233	-0.0043413877
90	0x3da145ab	0.07874616
91	0xbd8fd365	-0.07022742
92	0x3d592fa4	0.05302395
93	0xbd1ec1fc	-0.038759217
94	0x3c32fa12	0.010923879
95	0x3d655967	0.055993464
96	0xbd0ef734	-0.03490372
97	0xbc8b7789	-0.017024772
98	0xbca2ed94	-0.019888677
99	0x3caf1f6c	0.021377288
100	0x3c2569dc	0.01009604
101	0xbd38cc7c	-0.045116886
102	0x3cb8ba55	0.022549788
103	0xbd3a174b	-0.04543237
104	0xbcde405e	-0.027130302
105	0x3d42310d	0.04741006
106	0xbd5f2d30	-0.054486454
107	0x3d0ec357	0.03485426
108	0xbd808f34	-0.06277314
109	0xbc8549da	-0.016270567
110	0xbbf6f442	-0.007536442
111	0xbd86ff66	-0.06591682
112	0xbd8b4925	-0.068010606
113	0x3c2085bd	0.009797511
114	0xbda5bd3e	-0.08092736
115	0x3d9505cc	0.07276496
116	0xbaf847bd	-0.0018942278
117	0xbda725e5	-0.08161525
118	0xbdaae1e7	-0.08343869
119	0x3d831c61	0.06401897
120	0x3ad91c56	0.0016564231
121	0x3cb1ab74	0.0216882
122	0x3d17249a	0.03690014
123	0xbca158ac	-0.019695602
124	0x3db7411b	0.08947965
125	0xbcbf693c	-0.02336561
126	0x3ce3cdf5	0.027808169
127	0x3d6d2768	0.05789891
128	0xbd02e47a	-0.031956173
129	0xbbbf6fcb	-0.005842184
130	0xbcc9354d	-0.024561549
131	0xbc16a294	-0.009194035
132	0xbcb7bcde	-0.022428926
133	0xbdb109a6	-0.086444184
134	0x3d9fdcbc	0.078057736
135	0x3d5378ec	0.051628992
136	0xbd952123	-0.07281711
137	0xbd5003ed	-0.050784994
138	0x3d656ed0	0.056013882
139	0x3d1bfb2a	0.038081326
140	0x3bd8ed98	0.0066201203
141	0x3d220236	0.03955289
142	0xbd85bba6	-0.06529932
143	0x3d827eca	0.06371839
144	0x3d98c913	0.07460227
145	0x3cdee198	0.02720718
146	0xbd706f60	-0.058699965
147	0x3d591ee8	0.05300799
148	0x3ca56fee	0.020194974
149	0x3da028cf	0.078202836
150	0x3c3bcc62	0.011462303
151	0xbd89e358	-0.067328155
152	0xbd241690	-0.04006058
153	0x3da2e768	0.079542935
154	0x3d85853a	0.065195516
155	0xbd5c780a	-0.053825416
156	0xbce2bcc2	-0.027677897
157	0xbd6c576a	-0.057700552
158	0xbc8d3c13	-0.01724056
159	0xbd9bcebc	-0.07607791
160	0x3d0e0c89	0.034679923
161	0xbd531849	-0.051536832
162	0x3d760333	0.060061645
163	0xbdaa4f02	-0.08315851
164	0xbd2011fb	-0.039079648
165	0xbd2a847c	-0.041630253
166	0xbd812aff	-0.06307029
167	0x3c4da382	0.01255119
168	0x3ce41137	0.02784024
169	0xbd879c4c	-0.06621608
170	0x3d845c86	0.0646296
171	0x3d59b566	0.05315151
172	0x3cc7a0da	0.024368692
173	0xbdab990c	-0.08378801
174	0xbd70b11d	-0.05876266
175	0x3d8acb57	0.06777065
176	0xbd488cd1	-0.048962418
177	0x3cd3ac2d	0.025838936
178	0x3da41130	0.08011091
179	0x3c7f4a78	0.01558172
180	0xbc013801	-0.0078868875
181	0x3d91c4b8	0.07117599
182	0x3c690f0c	0.014224779
183	0x3cc01309	0.023446577
184	0x3b83a1f9	0.0040171114
185	0xbd273891	-0.04082543
186	0xbce7f527	-0.02831514
187	0x3d8bfe2b	0.06835588
188	0x3b4949f9	0.0030714257
189	0x3c8e5abd	0.017377252
190	0xbbd9d0fe	-0.0066472283
191	0xbd73e28c	-0.059542224
192	0xbd02d55e	-0.031941764
193	0x3d126e27	0.03574958
194	0x3d05b87c	0.03264664
195	0xbd680171	-0.056642
196	0x3d892441	0.06696368
197	0x3c95a48b	0.018266937
198	0xbc54e946	-0.01299507
199	0xbd5df48c	-0.054188296
200	0x3d8f9cd7	0.07012337
201	0xbd42bac1	-0.047541384
202	0xbdacfc14	-0.084465176
203	0x3d5861ca	0.052827634
204	0xbc0ecf43	-0.008716407
205	0xbcdca76f	-0.026935307
206	0xbc838d52	-0.016058598
207	0xbc8c49e6	-0.017125081
208	0xbceb62b9	-0.028733598
209	0x3ce6dc9a	0.028181363
210	0xbd5cc4a2	-0.05389846
211	0x3ce23672	0.027613852
212	0x3b925f48	0.004466925
213	0xbcb54cf6	-0.022131424
214	0x3bc6c233	0.006065631
215	0xbc85a2bc	-0.01631295
216	0xbcf997f1	-0.03046796
217	0x3d035a38	0.03206846
218	0x3daba021	0.083801515
219	0x3d041b60	0.03225267
220	0x3c780629	0.015138187
221	0x3d6f725e	0.05845868
222	0x3d3b306e	0.045700483
223	0xba7a5f43	-0.0009550938
224	0xbd6c8f07	-0.05775359
225	0x3c5291cb	0.012852143
226	0x3d8772d6	0.066137
227	0xbda37b87	-0.07982545
228	0x3d7b4066	0.061340712
229	0xbd63a11b	-0.055573564
230	0x3d9fcb22	0.078024164
231	0x3d8b3398	0.0679695
232	0x3d572247	0.052522924
233	0xbd57bd45	-0.052670736
234	0xbc1559fd	-0.009115693
235	0x3d73cd03	0.059521686
236	0xbd7c00e4	-0.061524287
237	0xbd07360a	-0.03301052
238	0xbc5e8f5f	-0.013583987
239	0xbd91adbd	-0.07113216
240	0x3b9a6e8d	0.0047128857
241	0x3da8a23d	0.082340695
242	0xbd685e74	-0.056730703
243	0x3d0d05d4	0.034429386
244	0xbc9b96f7	-0.018992884
245	0xbca8eccf	-0.020620732
246	0x3b88a7b9	0.0041703847
247	0x3caf3c6d	0.021391118
248	0x3d5b9a54	0.053613976
249	0xbdb38662	-0.08765866
250	0xbd62aec2	-0.055342443
251	0x3c0a44ad	0.008439225
252	0xbd2e10e6	-0.042496584
253	0x3d398dec	0.045301363
254	0xbd783494	-0.060597017
255	0x3c9026e4	0.01759667

func.linear2.bias f4 [450]
0	0x3d275a9d	0.0408579
1	0x3db39721	0.0876906
2	0xbd83d174	-0.064364344
3	0xbd26e69f	-0.04074728
4	0x3d37dea8	0.044890076
5	0xbcb39a81	-0.02192426
6	0xbda7c7a0	-0.08192372
7	0x3d508f47	0.05091789
8	0xbdb3f8a3	-0.08787658
9	0xbd80df34	-0.062925726
10	0x3d35f923	0.04442705
11	0xbc83ec89	-0.016104
12	0xbcc700b9	-0.024292337
13	0xbca7aada	-0.02046721
14	0x3d0392ef	0.03212255
15	0x3d5ff250	0.054674447
16	0xbbdccedd	-0.006738527
17	0x3d039fd8	0.03213486
18	0x3d8c8f19	0.06863231
19	0x3d325d6f	0.043546136
20	0x3d8acbe3	0.067771696
21	0xbd0df15d	-0.03465401
22	0xbd09dc01	-0.033657078
23	0xbd48aefc	-0.048995003
24	0x3d193b63	0.03741015
25	0xbd1e7378	-0.03868434
26	0x3d550261	0.05200422
27	0xbd6beacd	-0.05759697
28	0xbd14497a	-0.036202885
29	0x3cb32a24	0.02187068
30	0xbdb2a50a	-0.08722885
31	0x3ccd2fb6	0.025047164
32	0x3ba0ac42	0.004903347
33	0xbdabb83f	-0.083847515
34	0xbd4acd99	-0.04951248
35	0x3d4b67d2	0.049659558
36	0x3d221887	0.039574172
37	0x3c3fa77e	0.011697648
38	0x3c8d97f8	0.017284378
39	0xbd451ef5	-0.048125226
40	0xbd349f8f	-0.04409748
41	0x3d9b7d01	0.07592202
42	0x3d891cbd	0.066949345
43	0x3d9fa606	0.07795338
44	0x3d3ce87a	0.046120144
45	0xbd5dc49d	-0.054142583
46	0x3d6e682e	0.058204822
47	0x3cb913f3	0.02259252
48	0x3d927eda	0.07153101
49	0x3d3343be	0.043765776
50	0xbd23736b	-0.039904993
51	0xbd95cb44	-0.073141605
52	0xbd41af89	-0.047286544
53	0xbc5272af	-0.0128447255
54	0xbd71e12b	-0.059052628
55	0xbd9b70bc	-0.07589862
56	0xbcda89b5	-0.026676992
57	0x3d0cfe9c	0.034422502
58	0x3c7dc68b	0.015489231
59	0xbda793e3	-0.08182504
60	0xbd2a33d2	-0.041553326
61	0xbd04d283	-0.032427322
62	0x3d7c4786	0.061591648
63	0xbd09b445	-0.033619184
64	0x3d1ed7cb	0.038780015
65	0xbda001d1	-0.078128465
66	0x3db18d4b	0.086695276
67	0x3c8cff32	0.01721153
68	0x3ca15a41	0.019696357
69	0x3ba608b3	0.005066955
70	0x3cf928a0	0.03041488
71	0xbbfd15b3	-0.007723534
72	0xbd5ed7d3	-0.054405045
73	0xbd362db3	-0.044477176
74	0x3c872d4a	0.016501088
75	0x3d851894	0.064988285
76	0x3da3599a	0.079760745
77	0x3d4b1806	0.049583457
78	0xbd46db14	-0.048548773
79	0xbd92ccab	-0.071679436
80	0xbdacc45e	-0.084358916
81	0xbd4d56f6	-0.05013176
82	0x3d915fef	0.07098376
83	0x3d4fdec7	0.050749566
84	0x3db7f9a4	0.08983162
85	0x3d1956f1	0.03743643
86	0x3d1fc67b	0.039007645
87	0x3cd15353	0.025552427
88	0x3d92d820	0.07170129
89	0x3d29680b	0.04135899
90	0x3ce562bc	0.028001182
91	0x3cb1fb18	0.021726176
92	0xbd929c3a	-0.07158704
93	0xbcc34ded	-0.023840869
94	0xbd2399c8	-0.03994158
95	0xbd24c5e7	-0.040227797
96	0x3d98fd09	0.074701376
97	0xbd646c19	-0.055767152
98	0x3cfbaba7	0.030721499
99	0x3b6818f9	0.0035415275
100	0x3d5af9a2	0.053460725
101	0x3c7af30c	0.015316736
102	0xbc8ef962	-0.0174529
103	0x3c805ff7	0.01567076
104	0xbcb72740	-0.022357583
105	0xbd201485	-0.03908207
106	0x3d6e24b7	0.058140483
107	0x3c8c2169	0.017105775
108	0xbcba6272	-0.02275202
109	0x3d9ef3d0	0.07761347
110	0xbcfb4470	-0.030672282
111	0xbd46fa14	-0.048578337
112	0xbbb86c7a	-0.005628166
113	0x3979a3a0	0.00023807446
114	0xbbfbcab2	-0.0076840753
115	0x3daa1626	0.08305006
116	0xbd9db405	-0.077003516
117	0xbcaea56e	-0.021319117
118	0xbda1dbd4	-0.07903257
119	0x3d607d97	0.05480727
120	0xbd819ed0	-0.06329119
121	0x3c96a0d4	0.018387236
122	0xbd8f38ae	-0.06993233
123	0x3d63be02	0.055601127
124	0x3c0ba742	0.008523764
125	0x3da05f0b	0.07830628
126	0x3da46dd3	0.0802876
127	0x3da0fb8e	0.0786048
128	0xbd5ed051	-0.054397885
129	0xbca5c088	-0.020233408
130	0x3d7ad6b6	0.06123992
131	0x3da0ce18	0.07851809
132	0x3da0af44	0.07845929
133	0x3c1455e6	0.009053683
134	0x3b940140	0.0045167506
135	0xbcdc8caf	-0.026922552
136	0xbc582b6a	-0.0131939445
137	0x3d68be5e	0.056822173
138	0xbdb79b9f	-0.08965229
139	0x3cdf6c78	0.027273402
140	0x3d8e1c43	0.06938984
141	0xbd43833e	-0.047732584
142	0xbdadeaa3	-0.08492019
143	0xbd7113d5	-0.058856804
144	0xbc305e46	-0.010764664
145	0x3d685d3f	0.05672955
146	0xbda5c3fa	-0.0809402
147	0x3da99aaf	0.08281457
148	0xbd0a517b	-0.033769112
149	0x3da77af5	0.08177749
150	0x3d3d7ff0	0.04626459
151	0x3bc0e066	0.0058861254
152	0xbce69761	-0.028148355
153	0xbd1f0b2b	-0.03882901
154	0xbb947726	-0.004530805
155	0xbc18581f	-0.009298353
156	0x3d780e9e	0.060560815
157	0x3d50d445	0.050983686
158	0xbcab6b10	-0.020925075
159	0x3d8ce8e6	0.06880359
160	0x3ca15d12	0.0196977
161	0xbacab175	-0.0015464263
162	0xbd916700	-0.07099724
163	0x3c9bbda9	0.019011335
164	0xbcd5fefe	-0.026122566
165	0xbca37bc1	-0.019956471
166	0x3d140f02	0.036147125
167	0x3d7656cc	0.06014137
168	0xbd8c732c	-0.06857905
169	0xbd7a4fa9	-0.061111126
170	0x3d451085	0.048111457
171	0x3c5abb68	0.013350345
172	0xbd94db66	-0.072684094
173	0x3c2b658a	0.0104612205
174	0x3ce8e3f6	0.028429013
175	0x3cf10335	0.029420475
176	0xbd5d3315	-0.054003794
177	0x3d0375ec	0.03209488
178	0x3d57661d	0.052587617
179	0x3d88119c	0.06643984
180	0x3c89c707	0.016818536
181	0xbcf0c356	-0.029390018
182	0x3c4cdeea	0.012504319
183	0x3d848c48	0.06472069
184	0x3a70e0a9	0.00091887504
185	0x3ccd6dc3	0.025076753
186	0xbcbdf763	-0.023189252
187	0x3c76749c	0.01504245
188	0xbd47e041	-0.04879785
189	0xbdb3c14b	-0.08777102
190	0x3d1736d7	0.036917534
191	0xbd2b81e1	-0.04187191
192	0xbd961888	-0.07328898
193	0x3d558bfc	0.052135453
194	0x3d8968d2	0.06709446
195	0x3d32894f	0.04358798
196	0x3d9affe3	0.07568338
197	0x3da3f211	0.08005155
198	0x3d41508d	0.04719596
199	0x3d4c1c12	0.049831457
200	0x39247f76	0.00015687742
201	0xbcfeee8c	-0.031119607
202	0x3d53307f	0.05155992
203	0xbd0e3ad7	-0.034724083
204	0xbd8bca63	-0.068257116
205	0x3dae17a3	0.08500602
206	0x3d907135	0.070528425
207	0xbd1a0699	-0.03760395
208	0x3b091b00	0.0020920634
209	0x3ceda4cc	0.029009245
210	0xbdad4b22	-0.08461596
211	0xbc5e505f	-0.013568967
212	0x3d5227da	0.051307537
213	0x3d8f3cde	0.06994031
214	0x37d098fe	2.4866775e-05
215	0xbda614fa	-0.0810947
216	0xbd8ab6f3	-0.06773176
217	0xbdae3fa4	-0.08508232
218	0xbd7d52c1	-0.0618465
219	0xbd9934a4	-0.074807435
220	0x3cfa56e5	0.030559013
221	0xbd8a46d6	-0.06751792
222	0x3bb4e218	0.0055201165
223	0xbd12a917	-0.035805788
224	0x3d007fcf	0.031371888
225	0xbd8d7432	-0.06906928
226	0x3c88c8c4	0.016697295
227	0xbccd37fe	-0.025051113
228	0x3cf70f9a	0.030158807
229	0x3d50d806	0.050987266
230	0xbd6f69b4	-0.058450416
231	0xbd732a49	-0.0593665
232	0xbd30d49f	-0.04317152
233	0x3cd5c0ef	0.026092974
234	0xbda20422	-0.079109445
235	0xbd059982	-0.0326171
236	0x3d9f0143	0.077639125
237	0xbc4cf581	-0.012509705
238	0x3d7b67e2	0.061378367
239	0xbd6099a0	-0.05483401
240	0x3da29461	0.07938457
241	0x3ccaa561	0.024737062
242	0xbd84f081	-0.06491185
243	0x3ba122d3	0.0049174814
244	0x3a8d2e16	0.0010771181
245	0xbd0b32d6	-0.033984028
246	0xbd802780	-0.06257534
247	0x3d8e7a00	0.069568634
248	0xb807c585	-3.2370463e-05
249	0xbbc580ce	-0.0060273176
250	0x3da63732	0.081159964
251	0xbd985714	-0.07438484
252	0xbc43bfef	-0.011947616
253	0x3d8aa3a5	0.06769494
254	0xbd99aef6	-0.07504074
255	0x3cce3512	0.02517179

initial.weight f4 [150, 3]
0	0x3f0da6b6	0.55332506
1	0x3e6f1565	0.23348005
2	0xbeb2637f	-0.34841534
3	0x3e197e7e	0.14989659
4	0xbdba5cae	-0.090997085
5	0xbe824527	-0.25443384
6	0x3ea803bf	0.32815358
7	0x3e1f9d49	0.15587343
8	0xbef1f2cb	-0.4725555
9	0xbf01d380	-0.5071335
10	0x3ec164ee	0.37772316
11	0xbf04d2c8	-0.51884127
12	0xbe3bc805	-0.1833802
13	0xbd682168	-0.056672484
14	0x3e919bf0	0.28439283
15	0x3ef46390	0.4773221
16	0x3e322f20	0.1740079
17	0xbe12348a	-0.14277855
18	0x3e9b95bd	0.3038768
19	0xbe27fb74	-0.16404516
20	0xbea76378	-0.32693076
21	0x3eab3368	0.33437657
22	0x3edb8762	0.42876726
23	0xbe8a205b	-0.2697781
24	0x3d6d692d	0.05796163
25	0xbe97cf31	-0.29650262
26	0xbea3470a	-0.31890136
27	0xbf13423b	-0.57522935
28	0xbe955d9d	-0.29172984
29	0x38caea3e	9.6757416e-05
30	0xbc218ef5	-0.009860744
31	0x3ed91409	0.42398098
32	0x3f0d2a44	0.5514262
33	0xbdb6994b	-0.08915957
34	0xbef52d55	-0.47886148
35	0xbe09aba0	-0.13444376
36	0x3e2d1ae0	0.16904783
37	0xbea7a594	-0.32743514
38	0xbe84ec42	-0.259615
39	0xbea39a08	-0.31953454
40	0x3ee401a3	0.445325
41	0xbeee1256	-0.46498364
42	0xbe736a53	-0.23771028
43	0xbe69fd12	-0.22850445
44	0xbec9244c	-0.39285505
45	0x3ed676ab	0.4188741
46	0xbe72791b	-0.2367901
47	0xbe5b264a	-0.21401325
48	0xbe9e18b8	-0.30878234
49	0x3e150776	0.14553627
50	0xbf0f75cb	-0.5603911
51	0x3e556a29	0.20841278
52	0xbe07b1c2	-0.13251403
53	0x3d74ed87	0.059796836
54	0xbe55298e	-0.20816633
55	0x3d49ae1b	0.049238306
56	0x3ea27ee6	0.3173744
57	0x3db00576	0.085947916
58	0xbd6b63c0	-0.057468176
59	0xbefe3b15	-0.4965445
60	0x3e9d280d	0.3069462
61	0x3ea3f00b	0.32019076
62	0x3ee992c1	0.45619777
63	0x3e6ea483	0.23304944
64	0x3e0732c8	0.13202965
65	0x3dda93b8	0.10672706
66	0x3d552394	0.052035883
67	0xbee04c86	-0.43808383
68	0x3e0e933c	0.13923353
69	0xbc1da446	-0.009621685
70	0xbba40acb	-0.0050061694
71	0xbe7d9f37	-0.24767767
72	0xbe5be112	-0.21472576
73	0x3ee8aca7	0.45444223
74	0xbac87215	-0.0015292788
75	0x3e1fd93b	0.1561021
76	0x3f04d918	0.5189376
77	0x3ee13439	0.43985155
78	0x3cd7833b	0.026307693
79	0xbebbf21b	-0.3670815
80	0x3ec60a99	0.3867996
81	0xbeb504dd	-0.35355273
82	0xbf0b9416	-0.54522836
83	0x3e6ce72b	0.23135059
84	0x3c83811a	0.016052771
85	0x3d8172fc	0.0632076
86	0x3eb190f6	0.3468091
87	0xbef221a2	-0.47291285
88	0xbe9f84ab	-0.31155905
89	0x3f078f55	0.5295308
90	0x3ee51be5	0.44747844
91	0xbec392e2	-0.38198
92	0xbed53ec7	-0.41649458
93	0x3e2127df	0.15737866
94	0x3d8ecf5c	0.069731444
95	0x3eec3127	0.4613125
96	0xbe383411	-0.17988612
97	0x3eb0b029	0.345094
98	0x3d964ac7	0.073384814
99	0x3ee9f6f8	0.45696235
100	0xbecfdf8e	-0.40600246
101	0xbdc34e58	-0.09536427
102	0x3e8b41d0	0.27198648
103	0xbe50d655	-0.20394261
104	0x3f101d0f	0.5629434
105	0x3e593d84	0.21214873
106	0x3cd7da67	0.02634926
107	0xbefaf3af	-0.4901404
108	0xbea1b11c	-0.31580436
109	0xbefdc08a	-0.49560958
110	0xbe1bf87c	-0.15231508
111	0x3eee3497	0.46524498
112	0xbf0c4183	-0.5478746
113	0x3e884f92	0.26623207
114	0xbda3ab5a	-0.07991667
115	0x3eecca24	0.4624797
116	0xbe471ede	-0.19445369
117	0x3e6db439	0.2321328
118	0xbf10c50d	-0.56550676
119	0x3e91bf4c	0.2846626
120	0xbedadeb4	-0.42748034
121	0xbe110f76	-0.14166054
122	0x3e6f9ea7	0.23400365
123	0x3e804494	0.2505232
124	0xbdefbe78	-0.11706251
125	0xbf03ad85	-0.51436645
126	0x3e6a9663	0.2290893
127	0x3ef9faf2	0.4882427
128	0x3c773e16	0.015090486
129	0xbe8d67f8	-0.27618384
130	0xbe9aba8d	-0.30220452
131	0x3ec23f8b	0.37939104
132	0xbea3a59c	-0.31962287
133	0xbeefff9f	-0.4687471
134	0x3ea80d9a	0.32822877
135	0xbe282e2c	-0.16423863
136	0xbdad8ef6	-0.08474533
137	0xbf11411d	-0.5673998
138	0x3ebeb7ab	0.37249503
139	0xbdacff25	-0.084471025
140	0x3ea59dd9	0.3234699
141	0x3ec782ec	0.38967073
142	0xbd821aa3	-0.06352737
143	0xbe0802b4	-0.13282281
144	0x3e1c4684	0.15261275
145	0xbd09d91c	-0.033654317
146	0xbec23436	-0.3793046
147	0xbec28ccb	-0.37998042
148	0xbe3b60f8	-0.1829871
149	0x3d167b39	0.036738608
150	0xbdf379ce	-0.11888467
151	0xbf0fcb5e	-0.5616969
152	0x3e19d4d7	0.15022598
153	0x3e984fc6	0.29748362
154	0x3ded805d	0.11596749
155	0x3f10a4ec	0.5650165
156	0x3df4a54f	0.119455926
157	0xbe8625d5	-0.2620074
158	0xbf0fbe3f	-0.5614967
159	0xbc95bd10	-0.018278629
160	0x3e01cf22	0.12676671
161	0xbec0cca1	-0.3765612
162	0x3e0f434e	0.13990518
163	0xbeb50b16	-0.3536002
164	0xbe64120f	-0.22272514
165	0x3f0e8d61	0.5568448
166	0xbe397dcf	-0.18114398
167	0x3e59d2f6	0.21271881
168	0x3efb0b1e	0.4903192
169	0xbd6eaf19	-0.058272455
170	0x3eda6ed9	0.42662695
171	0xbeb55727	-0.35418054
172	0x3ea7be6a	0.32762462
173	0xbdde5add	-0.108571745
174	0xb9df0207	-0.00042535385
175	0xbdd9b13f	-0.1062951
176	0x3e9afd5b	0.3027142
177	0xbd992ee7	-0.07479649
178	0xbf090943	-0.5352976
179	0xbf11e620	-0.5699177
180	0xbeb023aa	-0.3440221
181	0xbe843041	-0.25818065
182	0xbed78407	-0.42092916
183	0xbeda15d3	-0.42594776
184	0xbd9c4667	-0.07630616
185	0xbeded0fd	-0.4351882
186	0x3ec91466	0.39273375
187	0x3ed5c784	0.4175378
188	0x3e50b650	0.20382047
189	0x3efd0960	0.49421215
190	0x3dddc4d7	0.1082856
191	0x3de7477e	0.11292933
192	0xbf034380	-0.5127487
193	0x3e905b6d	0.28194752
194	0xbeeb9ee1	-0.46019652
195	0x3edc547b	0.43033203
196	0xbe8fc247	-0.2807791
197	0xbe0a3310	-0.13496041
198	0xbf022f97	-0.50853866
199	0x3e74cbf1	0.23905922
200	0xbe79156d	-0.2432458
201	0x3e5de1a6	0.2166811
202	0xbd1bba90	-0.038019717
203	0xbea28a83	-0.317463
204	0x3e05128b	0.12995355
205	0xbdd534f2	-0.10410489
206	0x3e033a4d	0.12815209
207	0x3e4148df	0.18875454
208	0x3e99675e	0.29961675
209	0xbec66858	-0.38751483
210	0x3eea7861	0.45794967
211	0x3e585482	0.21125987
212	0xbe19fbab	-0.1503741
213	0x3eade7f2	0.33966023
214	0x3cc6dbaa	0.024274666
215	0xbeca855b	-0.39554867
216	0xbd11f635	-0.035635192
217	0xbe2ea76f	-0.17056058
218	0xbca77471	-0.020441266
219	0x3f006fab	0.5017039
220	0xbf10cd6c	-0.5656345
221	0xbe7980b8	-0.24365509
222	0x3e510d54	0.2041524
223	0xbeec796c	-0.46186388
224	0xbedebe90	-0.43504763
225	0x3e82dddb	0.25559887
226	0xbec6a6ef	-0.38799235
227	0x3ea50506	0.32230395
228	0xbf0a0848	-0.53918886
229	0x3e9da1f1	0.30787614
230	0x3ea4cd5e	0.32187933
231	0xbf0cf28a	-0.55057585
232	0x3ecfda2b	0.40596136
233	0xbe403781	-0.18771173
234	0x3e0618e0	0.13095427
235	0x3e8a3906	0.2699663
236	0x3ea38605	0.31938186
237	0x3eeee3e3	0.4665824
238	0x3edf9ce2	0.4367438
239	0xbcddba33	-0.027066326
240	0xbe63a778	-0.22231853
241	0x3e9d22c0	0.30690575
242	0x3e773d14	0.24144393
243	0x3e4d7e46	0.200677
244	0x3e2f9e00	0.17150116
245	0xbf0db010	-0.55346775
246	0x3e4607e2	0.19338945
247	0x3e490575	0.19630988
248	0x3e8634a8	0.2621205
249	0xbec1a103	-0.37818155
250	0xbe98029a	-0.29689485
251	0xbe5c70fa	-0.21527472
252	0x3f13f16b	0.5779025
253	0x3edf92a5	0.43666568
254	0xbe898e18	-0.2686622
255	0xbed8f841	-0.42376903

initial.bias f4 [150]
0	0xbe4b179e	-0.19833228
1	0x3ecc0bf3	0.39852867
2	0xbf0a4fa9	-0.540278
3	0xbe5b6787	-0.21426211
4	0x3e60f034	0.2196663
5	0xbebe668f	-0.3718762
6	0x3e0907ba	0.13381854
7	0xbe81e370	-0.25368834
8	0xbef47707	-0.4774706
9	0xbf061e83	-0.5239031
10	0xbea82846	-0.32843226
11	0x3f09bd9c	0.53804946
12	0xbe3561ac	-0.1771304
13	0x3e3e667d	0.18593784
14	0x3efae596	0.49003285
15	0x3e09cb74	0.13456517
16	0xbf0da6c5	-0.55332595
17	0xbe34cc48	-0.17656052
18	0xbe77d5d3	-0.24202661
19	0x3d6c9b35	0.057765204
20	0xbdf5d36f	-0.120032184
21	0xbd53c1ab	-0.051698368
22	0xbde1170f	-0.10990726
23	0x3dd7d498	0.10538596
24	0xbe8dfd14	-0.27732146
25	0x3eb1a937	0.34699413
26	0x3ea037ff	0.31292722
27	0xbf1269be	-0.571926
28	0x3e5cf373	0.21577244
29	0x3e8ae9b0	0.27131414
30	0x3d538bdc	0.051647052
31	0xbe2ec7f5	-0.17068465
32	0x3ee846b8	0.45366454
33	0xbedae2f0	-0.42751265
34	0x3eff1c35	0.49826208
35	0xbe9db260	-0.30800152
36	0xbef75e10	-0.48313951
37	0xbcd59697	-0.026072783
38	0x3eb97ce7	0.36228105
39	0xbdacad6d	-0.08431516
40	0xbef6a5ec	-0.48173463
41	0xbf013190	-0.5046625
42	0x3f0a01e5	0.5390914
43	0x3f10b221	0.56521803
44	0xbf0f615c	-0.56007934
45	0xbee91146	-0.4552099
46	0x3e097e77	0.13427149
47	0xbe834e69	-0.2564576
48	0xbecaa8ea	-0.39581996
49	0xbf007d0c	-0.50190806
50	0xbe300965	-0.17191084
51	0x3e82c4ed	0.25540867
52	0xbea570ec	-0.32312715
53	0xbce962ce	-0.028489497
54	0xbe6819bc	-0.22666067
55	0xbe16b782	-0.1471844
56	0xbef20934	-0.47272646
57	0xbf0c6368	-0.5483918
58	0x3ea5c24c	0.323748
59	0xbe356ab7	-0.1771649
60	0xbe2eec62	-0.1708236
61	0xbedddc03	-0.43331918
62	0x3eaf4d81	0.34238818
63	0xbda69c7b	-0.08135315
64	0x3d3789b1	0.044809047
65	0xbea1705a	-0.3153103
66	0xbef0050d	-0.46878853
67	0xbe119b32	-0.14219359
68	0xbe35f78e	-0.17770216
69	0x3e849336	0.25893563
70	0x3e1e5456	0.15461859
71	0xbec53ac6	-0.38521403
72	0xbe56985d	-0.2095656
73	0x3d0393ef	0.032123502
74	0x3eb26c04	0.34848034
75	0x3d4694f4	0.048481897
76	0x3e415a81	0.18882181
77	0xbe3a8815	-0.18215974
78	0xbea85792	-0.3287931
79	0x3c8bdedb	0.01707404
80	0x3f148de1	0.5802899
81	0x3da5536d	0.08072553
82	0x3cb99854	0.022655644
83	0xbf0f6147	-0.5600781
84	0xbea48070	-0.3212924
85	0x3ecf97d9	0.40545538
86	0xbdc2c849	-0.095108576
87	0xbf064cec	-0.52461123
88	0x3d68a401	0.05679703
89	0xbeb065a5	-0.3445255
90	0xbeb6f66a	-0.35734874
91	0x3e7db9d3	0.24777918
92	0x3eaeacd6	0.34116238
93	0xbeb7814e	-0.3584084
94	0x3eab9d03	0.33518228
95	0x3ebb01bf	0.3652477
96	0x3e84573f	0.25847813
97	0x3ef392a0	0.47572803
98	0xbec485b2	-0.3838325
99	0x3c74c9fb	0.014940734
100	0xbe37f11a	-0.17963067
101	0xbdd8e62b	-0.10590776
102	0xbe17dc02	-0.1483002
103	0x3eb8b8e2	0.36078554
104	0xbf0c87c7	-0.5489468
105	0xbc01574b	-0.007894347
106	0xbe5afad3	-0.21384744
107	0x3efaaa9d	0.48958293
108	0x3e538106	0.20654687
109	0x3d0dcd09	0.034619365
110	0xbed8cedc	-0.4234532
111	0xbeb4e539	-0.35331133
112	0x3efb76b9	0.49114016
113	0xbeb9943f	-0.36245915
114	0xbbcedbcf	-0.0063128243
115	0x3eb7f701	0.35930637
116	0xbee8eb75	-0.4549214
117	0x3eb11a84	0.34590542
118	0xbca14b1f	-0.01968914
119	0x3d94ca83	0.072651885
120	0x3f0209f7	0.50796455
121	0xbc3b9a1f	-0.01145032
122	0xbeceaaa6	-0.4036457
123	0xbec9daef	-0.39424846
124	0x3eacfdff	0.33787534
125	0x3ebec391	0.3725858
126	0xbf038e9a	-0.5138947
127	0xbec0d539	-0.37662676
128	0xbe8db168	-0.27674413
129	0x3e489290	0.19587159
130	0x3ef7ae20	0.48375034
131	0xbe140071	-0.14453293
132	0x3d1c8724	0.038214818
133	0x3c5c7452	0.013455467
134	0xbe56e4d9	-0.20985736
135	0xbeaff530	-0.3436675
136	0x3e17ea5f	0.14835499
137	0xbf091c1b	-0.5355851
138	0xbf00e099	-0.5034271
139	0x3f11e60f	0.56991667
140	0xbe93280a	-0.28741485
141	0xbbc1999f	-0.0059082056
142	0x3e941c80	0.28927994
143	0x3f0f24ec	0.55915713
144	0xbecc3570	-0.3988452
145	0xbecd6b63	-0.40120992
146	0x3cec00ed	0.028809035
147	0x3ead30d1	0.33826306
148	0x3ee8a860	0.4544096
149	0xbd9a1c56	-0.07524936

readout.weight f4 [126, 150]
0	0x3cfd4a85	0.030919323
1	0x3d12800f	0.035766657
2	0xbd92d37b	-0.07169243
3	0xbd98d8fb	-0.07463261
4	0x3d84996e	0.06474577
5	0xbcd910ab	-0.026497206
6	0xbc86ddf1	-0.016463252
7	0x3cde6bd8	0.027151033
8	0xbd457e74	-0.0482163
9	0xbd855e6b	-0.065121494
10	0xbd6b520e	-0.0574513
11	0xbd2f4b6e	-0.042796545
12	0x3d153236	0.036424838
13	0x3d796367	0.060885813
14	0xbcb5cd0a	-0.022192497
15	0xbd6a8e60	-0.057264686
16	0x3d7dd293	0.061968397
17	0xbd71896d	-0.05896895
18	0x3d741891	0.05959374
19	0x3d313da5	0.04327168
20	0xbd4f0f05	-0.050551433
21	0x3d1154a3	0.035481106
22	0x3d910783	0.07081511
23	0xbd7eed02	-0.062237747
24	0x3ca99c32	0.020704363
25	0xbd770ba8	-0.06031385
26	0xbcec25f3	-0.02882669
27	0x3d0d0fab	0.03443877
28	0xbd157aa3	-0.03649391
29	0xbd8d16a1	-0.06889082
30	0xbd58f7ca	-0.052970685
31	0xbd009495	-0.0313917
32	0xbc8874d7	-0.016657276
33	0x3d746f3a	0.059676386
34	0xbd2ba2f2	-0.041903444
35	0x3cc5b002	0.024131779
36	0xbcd14bea	-0.025548894
37	0x3d7bfe2b	0.06152169
38	0x3d630b18	0.0554305
39	0x3cf02166	0.0293128
40	0xbd4ab913	-0.049492907
41	0x3d3a20d3	0.04544146
42	0x3c92bda2	0.01791269
43	0xbce8d004	-0.028419502
44	0xbd1a6db5	-0.03770228
45	0xbc39d257	-0.011341653
46	0x3c97bff3	0.018524146
47	0x3ca6e570	0.020373076
48	0x3c831ee9	0.01600595
49	0x3d7595a2	0.059957154
50	0xbd9d7e19	-0.07690067
51	0xbc6b85da	-0.014375174
52	0x3c8348cc	0.016025923
53	0x3d2958fe	0.041344635
54	0x3b2bed17	0.0026233846
55	0x3d7e9dda	0.062162258
56	0x3d5f8fc8	0.05458048
57	0x3cc1352d	0.023584927
58	0xbd38269c	-0.044958696
59	0xbd817e61	-0.06322933
60	0xbd9be16e	-0.07611357
61	0xbcac7618	-0.021052405
62	0xbd6b7276	-0.057482205
63	0xbd6a5961	-0.057214145
64	0xbd81aa3d	-0.063312985
65	0x3aaaa855	0.0013020138
66	0x3d400d37	0.046887603
67	0x3d96a6cd	0.073560335
68	0x3d853c6a	0.06505664
69	0xbd26d1d9	-0.04072747
70	0xbca11f55	-0.01966826
71	0x3d3c3bbc	0.045955405
72	0xbd1dca25	-0.03852286
73	0xbd1f4df0	-0.038892686
74	0x3d108349	0.035281453
75	0x3d22d35a	0.03975234
76	0x3d50410c	0.050843284
77	0x3d0a1859	0.033714626
78	0xbd8308ca	-0.06398161
79	0xbd9b5764	-0.07585028
80	0x3d29feea	0.04150287
81	0xbd937e67	-0.07201844
82	0x3cff1131	0.031136127
83	0x3b2f2ebd	0.002673074
84	0xbcfd9ed8	-0.030959532
85	0xbd2ef70b	-0.042716067
86	0x3cb35841	0.021892669
87	0xbd323f68	-0.0435175
88	0x3d41180d	0.047142077
89	0x3d80f8a5	0.06297425
90	0xbd1140d2	-0.035462208
91	0x3cdf7aec	0.027280293
92	0xbc075aef	-0.008261426
93	0x3c2e6275	0.010643591
94	0xbd1d685e	-0.03842961
95	0x3d08106a	0.03321878
96	0x3d7b47a1	0.061347608
97	0x3d92cf78	0.07168478
98	0x3d531538	0.051533908
99	0xbd88d97b	-0.06682106
100	0x3cb77d64	0.022398658
101	0xbcd47054	-0.025932468
102	0xbc8e8787	-0.017398609
103	0xb924b509	-0.000157077
104	0x3d5da202	0.05410958
105	0x3cacde69	0.021102147
106	0x3da05187	0.0782805
107	0x3ca69801	0.020336153
108	0x3d3f4ba7	0.046703007
109	0x3c881c5b	0.016615083
110	0x3d3cb60a	0.046072043
111	0xbbf779f7	-0.007552381
112	0xbbe512d6	-0.006990771
113	0x3cca7aab	0.024716696
114	0x3baee88e	0.0053377813
115	0x3d690d5c	0.056897506
116	0x3d438940	0.047738314
117	0x3d23293a	0.03983424
118	0x3d994dae	0.07485519
119	0xbd07de7d	-0.033171166
120	0x3ba462dd	0.0050166682
121	0xbd65d3a3	-0.056110036
122	0xbd8d9bb9	-0.06914467
123	0x3c86f96a	0.016476352
124	0x3d194caa	0.03742663
125	0x3bcc5421	0.006235615
126	0x3d8e2962	0.06941487
127	0x3d6abd54	0.057309464
128	0xbd22750b	-0.039662402
129	0xbd903a99	-0.070424266
130	0xbce06c7b	-0.027395478
131	0x3c2386d8	0.00998088
132	0xbd87e55d	-0.066355444
133	0xbd289c3e	-0.04116463
134	0x3da04616	0.07825868
135	0xbc93555f	-0.017985044
136	0x3d1b32ae	0.03789013
137	0x3bbb5147	0.005716476
138	0x3c0776d7	0.00826808
139	0x3d4472c2	0.047961004
140	0x3b00000c	0.0019531278
141	0x3d4d7581	0.05016089
142	0xbd081d04	-0.033230796
143	0x3d999d46	0.07500701
144	0x3da184f2	0.078866854
145	0x3d20be45	0.039243955
146	0xb97b8bd2	-0.00023989312
147	0xbcef7032	-0.029228304
148	0x3d1be2cb	0.038058084
149	0x3d80cf1a	0.062895015
150	0x3d833f85	0.064086
151	0xbcd2cbbc	-0.025731914
152	0x3da0b5a5	0.07847146
153	0x3ca301fa	0.019898403
154	0x3d7617c6	0.060081266
155	0xbd8e15d8	-0.0693776
156	0xbd46bf4a	-0.04852227
157	0x3cf487f6	0.029849987
158	0x3d8ec8e5	0.06971911
159	0x3b00c6b4	0.0019649686
160	0xbd65b053	-0.05607636
161	0x3d1b6a57	0.03794321
162	0xbd931646	-0.07181983
163	0xbcc88c64	-0.024481006
164	0x3c55f567	0.013058997
165	0x3c918d8a	0.017767686
166	0xbce28e0c	-0.027655624
167	0x3d4da221	0.050203446
168	0xbd32ebc3	-0.04368187
169	0xbd83e772	-0.06440629
170	0xbd8c7e17	-0.06859987
171	0x392a57f0	0.00016245223
172	0xbc806eb3	-0.015677786
173	0xbc8e7a3f	-0.017392276
174	0xbbfeafce	-0.0077724224
175	0xbd0a1089	-0.033707175
176	0x3d38c4f1	0.045109693
177	0xbd5a742c	-0.053333446
178	0xba86f7d5	-0.0010297248
179	0x3d61abc3	0.055095445
180	0x3d4975a6	0.049184464
181	0x3ce93209	0.028466241
182	0xbd7a5dc6	-0.061124586
183	0xbd90856c	-0.07056698
184	0x3d5120f9	0.051056836
185	0xbd9ffd98	-0.07812041
186	0xbd914019	-0.07092304
187	0x3d77ec7d	0.060528267
188	0xbd5c28a0	-0.05374968
189	0xbd02ee91	-0.031965796
190	0x3c8c8f78	0.017158255
191	0x3bb2de66	0.005458641
192	0xbcab4362	-0.020906154
193	0xbbec4dee	-0.0072114384
194	0xbd8f5216	-0.069980785
195	0xbc3fe046	-0.011711186
196	0xbc998e72	-0.018744681
197	0xbc7a9e1e	-0.015296487
198	0xbba4485a	-0.005013508
199	0x3b09acec	0.002100761
200	0xbc932e30	-0.01796636
201	0x3ce39971	0.027783128
202	0x3ce53187	0.027977718
203	0x3d945a15	0.07243744
204	0xbd971433	-0.073768996
205	0xbd8e7582	-0.069560066
206	0x3bea0168	0.007141281
207	0x3c8aadd1	0.016928585
208	0x3d67890d	0.056527186
209	0xbca247ff	-0.019809721
210	0x3b9f58b0	0.0048628673
211	0xbd56084e	-0.052254014
212	0x3d51ff37	0.051268782
213	0x3cebca97	0.028783126
214	0x3d8a9f6a	0.06768687
215	0x3d36e516	0.044652067
216	0x3c84d55c	0.016215019
217	0x3d4b8dc3	0.04969574
218	0x3c1e501a	0.009662652
219	0xbd5a61f6	-0.05331608
220	0xbcb785c2	-0.022402648
221	0x3d8789ca	0.06618078
222	0xbce292f0	-0.027657956
223	0xbd85c1db	-0.065311156
224	0x3cc87c95	0.024473468
225	0x3cbacc22	0.022802416
226	0xbd3d2e87	-0.04618695
227	0x3cbd9eea	0.023147065
228	0x3d8ec9e8	0.06972104
229	0x3d8df71b	0.06931897
230	0xbda8910f	-0.08230793
231	0x3d64ed7e	0.055890553
232	0x3d5be04d	0.053680707
233	0xbd935236	-0.07193415
234	0x3d64bd36	0.055844508
235	0x3d2404ad	0.04004352
236	0xbc4af227	-0.012386835
237	0xbda20bb6	-0.0791239
238	0xbcc7585e	-0.024334129
239	0x3d22fcce	0.039791875
240	0x3d95bc3d	0.07311294
241	0x3d17b12f	0.03703421
242	0x3d874cef	0.06606471
243	0x3d0a61a6	0.03378453
244	0xbd523a2b	-0.051325005
245	0xbc861aa5	-0.016370127
246	0x3d9a5df3	0.07537451
247	0xbd992414	-0.074775845
248	0x3d204278	0.03912589
249	0x3c12317e	0.008922933
250	0x3b35e9f0	0.0027757846
251	0x3d57da63	0.052698504
252	0x3c83a7b3	0.016071176
253	0xbd4d2206	-0.050081275
254	0x3cbef866	0.023311805
255	0x3ce714cb	0.028208157

readout.bias f4 [126]
0	0x3d346bb6	0.044048034
1	0xbb2fb4ac	-0.002681057
2	0x3d84e031	0.064880736
3	0x38900312	6.867027e-05
4	0xbd2fb0a9	-0.042893086
5	0xbbb2768f	-0.005446262
6	0x3c7c86ec	0.015413027
7	0x3d7b2e91	0.061323706
8	0x3d9662cb	0.07343062
9	0xbd322df6	-0.043500863
10	0xbc86773a	-0.016414274
11	0xbd2f8529	-0.0428516
12	0x3b99a74f	0.004689134
13	0xbd6a6d66	-0.057233237
14	0xbc8bb73e	-0.01705515
15	0x3cd63315	0.026147405
16	0x3d206904	0.03916265
17	0xbd515e35	-0.051115233
18	0xbd8b66d6	-0.06806724
19	0x3d70c8fb	0.05878542
20	0x3d60aec8	0.054854184
21	0x3d9e5bae	0.0773233
22	0xbcc669dc	-0.0242204
23	0xbce96f3d	-0.028495425
24	0xbda24315	-0.07922951
25	0x3cac8565	0.021059701
26	0xbbcead69	-0.006307293
27	0x3d1e7355	0.038684208
28	0x3d7cb4c1	0.061695818
29	0xbd9fae5e	-0.0779693
30	0x3d0defbf	0.034652468
31	0x3d8ae0c8	0.06781155
32	0xbc3cd799	-0.011526012
33	0xbd4a6903	-0.049416553
34	0xbd982e2c	-0.074306816
35	0x3d335b0c	0.043788
36	0xbd9efd4d	-0.07763157
37	0x3ce5cd0a	0.028051872
38	0x3c644a5f	0.013933747
39	0x3cb96132	0.022629354
40	0x3d040b0a	0.03223709
41	0xbd34db21	-0.04415429
42	0xbc208f37	-0.00979977
43	0xbc86a59c	-0.01643639
44	0x3d4ab936	0.049493037
45	0x3d983575	0.07432071
46	0xbc98edab	-0.018668016
47	0xbc9df474	-0.019281603
48	0xbcfa1326	-0.030526709
49	0x3d4627b5	0.04837771
50	0x3b5511a3	0.0032511733
51	0xbcfe5a23	-0.03104884
52	0xbcbe4ef4	-0.023231007
53	0x3d8fea49	0.07027108
54	0x3d2c23e8	0.04202643
55	0xbd60cecf	-0.054884728
56	0x3cba6a80	0.022755861
57	0xbd7162f1	-0.05893225
58	0xbd1f8c44	-0.038952127
59	0x3d43fcda	0.04784856
60	0x3d8b08f0	0.06788814
61	0x3d8cca7f	0.068745606
62	0x3cd5fd6b	0.026121816
63	0xbd536c22	-0.051616795
64	0x3cae6ec7	0.021293057
65	0xbbf957c8	-0.0076093413
66	0x3c93c0c8	0.018036261
67	0xbd08a009	-0.033355746
68	0x3d6274f4	0.055287316
69	0xbd344db9	-0.044019435
70	0xbc5d01a7	-0.0134891635
71	0xbb8f35cc	-0.0043704268
72	0xbb8b68a8	-0.0042544194
73	0x3cc197a8	0.023631886
74	0x3d4baea6	0.049727105
75	0xbd8308c5	-0.06398157
76	0x3c2a77c4	0.010404531
77	0x3cb24531	0.021761509
78	0xbd6bcc06	-0.05756762
79	0xbd769164	-0.06019725
80	0xb9a86626	-0.00032119564
81	0xbd2e28bc	-0.042519316
82	0x3d5282ec	0.051394388
83	0x3d16cc57	0.036815967
84	0x3d45ce0b	0.0482922
85	0xbd9760c3	-0.07391503
86	0xbd137fd7	-0.03601059
87	0x3d85e160	0.065371275
88	0x3d938a8d	0.07204161
89	0xbd906816	-0.07051103
90	0x3d07fd29	0.033200417
91	0x3cc45a48	0.02396883
92	0xbd9d3a59	-0.076771446
93	0xbcaed40c	-0.021341346
94	0xbb9d0478	-0.0047917925
95	0x3d787722	0.06066049
96	0xbd18a18c	-0.037263438
97	0x3d92d9fd	0.07170484
98	0xbd821b80	-0.063529015
99	0xbd8a8383	-0.06763365
100	0x3d5a54e8	0.05330363
101	0x3c3a0cc6	0.0113555845
102	0xbda2e4e4	-0.07953814
103	0xbd8c78ca	-0.06858976
104	0xbc0ded8b	-0.008662592
105	0x3d7297a6	0.059226654
106	0x3d825e7f	0.0636568
107	0xbd377e01	-0.0447979
108	0x3d984e69	0.074368306
109	0x3d9493be	0.07254742
110	0xbc33ff05	-0.010986094
111	0xbd9dbcb5	-0.07702009
112	0xbd9b9e5b	-0.07598563
113	0xbd832206	-0.06402974
114	0xb9947391	-0.00028314863
115	0x3bb774c9	0.0055986387
116	0xbd6ccfd5	-0.05781539
117	0xbd128658	-0.03577265
118	0x3d432d8b	0.047650855
119	0x3d5d3113	0.05400188
120	0xbd961cf9	-0.07329745
121	0x3d44c6ff	0.04804134
122	0x3bf2ba4b	0.0074074618
123	0xbd346c84	-0.0440488
124	0xbc0c8e14	-0.008578796
125	0xbd8f0f98	-0.06985396
