cde/model/checkpoints/4.ckpt (torch, 390543 bytes, 8 tensors)

func.linear1.weight f4 [128, 150]
-0.018496007 -0.05946904 -0.026478777 0.00957131 -0.039187983 -0.020543318 -0.027543183 -0.043715887
0.0022772327 0.06264954 -0.005823219 -0.032493014 0.05099967 -0.06748737 -0.06917372 0.027308423
-0.022382619 0.053371325 -0.004822991 0.042681504 -0.05544141 0.034763984 -0.047289424 -0.012532421
0.04698381 -0.059726927 0.07191833 0.033285983 0.010777261 0.00476953 -0.06388788 0.012645276
0.045349915 -0.025343655 -0.059386916 -0.020411035 -0.08050102 0.048595253 0.007641367 -0.06775797
0.055008244 0.06707476 0.071667075 -0.0040133283 -0.042107422 0.054212768 0.0806408 -0.037407458
-0.03701867 -0.012002574 0.024645349 0.06997633 -0.054117154 -0.0074991668 -0.03279064 0.012979226
-0.012828172 -0.03321599 0.045389563 0.07058468 -0.016642654 0.07667048 0.0064805318 -0.039504923
0.021188036 -0.008419362 0.06783329 0.037754163 -0.013752572 0.0013602308 0.01241697 0.07620423
0.014295849 -0.011004478 -0.043039788 -0.0075215213 0.04019891 0.07057605 0.018977638 0.03510044
0.022451056 0.008150159 -0.027647825 0.046763103 0.059323646 0.07596664 0.0025122922 0.016082408
-0.019469718 -0.032257568 0.02318934 -0.05537886 0.067328475 0.061605833 0.04063916 -0.050367065
0.054748096 -0.053985775 -0.019553699 -0.025917405 -0.024274476 -0.036502145 0.05172022 -0.012980853
-0.00071884936 -0.023922611 0.061901204 0.009215312 0.050126243 0.06485437 0.00011334184 -0.0039599473
0.0395517 -0.0641884 0.0705433 0.05854632 -0.05152042 -0.015510373 -0.07775254 0.061736535
0.033756837 -0.010220515 0.061912492 -0.053138036 -0.043898538 0.07117131 -0.0282335 0.0051028496
-0.053872615 0.028658152 -0.07015559 0.040381245 -0.07731599 -0.055676285 -0.07035041 0.04143653
0.058006212 -0.04709196 0.014424702 -0.0036436215 -0.028217547 -0.03777134 -0.04334524 -0.0686319
0.054393247 -0.08092311 -0.0006618284 0.02749694 -0.016323235 0.062096957 0.06583441 0.037757576
0.006447536 -0.021447117 -0.06402032 0.05240576 -0.0003301013 -0.07867873 0.043047514 0.009036023
-0.026777491 0.08248602 -0.023278875 0.009353693 0.0011158544 0.048362754 -0.057099584 0.0278895
0.04229565 -0.054605022 -0.044584464 0.0039805965 0.08068438 0.02720513 0.06721233 -0.05163052
-0.048729114 0.027994452 0.034296423 0.045264263 -0.027316365 -0.071274415 -0.018205004 0.025284432
-0.04282786 0.019934462 -0.026768185 0.0011597347 0.06678894 -0.059248727 -0.08105722 -0.06993652
0.04870949 -0.023316208 0.008232227 0.056016326 -0.0093744295 -0.009023079 -0.054222986 -0.033537958
-0.02747631 0.01062451 0.018354485 -0.014247841 -0.0119240405 -0.01595458 0.028320555 -0.07493478
0.029412096 0.0022086094 0.0010356359 0.005016534 0.045296434 0.046345584 -0.030846816 -0.009784777
0.04535479 0.0037604237 -0.02915769 -0.058775358 0.01696022 -0.0017971504 0.07407646 0.0147289615
-0.03508336 0.023606375 -0.061035085 -0.06836352 -0.02757155 -0.07727193 0.0688173 0.022123683
-0.046993952 -0.06541012 -0.047687132 -0.0043751905 0.03913322 0.026574994 -0.047466543 0.052916713
-0.06555584 0.06815277 -0.020052629 -0.03685436 0.010691351 -0.050718468 -0.02022585 -0.0221998
0.0069677695 0.053723436 -0.023989232 0.07031998 0.006968202 -0.008037725 0.06961567 -0.031265587
00000000: f084 97bc cf95 73bd 05ea d8bc fcd0 1c3c
00000010: 9483 20bd 764a a8bc 3ea2 e1bc 6e0f 33bd
00000020: a03d 153b 674e 803d b4d0 bebb 6517 05bd
00000030: 08e5 503d d136 8abd f4aa 8dbd eab5 df3c
00000040: c15b b7bc e49b 5a3d 2e0a 9ebb cdd2 2e3d
00000050: 8816 63bd ae64 0e3d 8eb2 41bd c954 4dbc
00000060: 1872 403d 39a4 74bd eb49 933d e256 083d
00000070: 1c93 303c b849 9c3b a6d7 82bd 222e 4f3c
00000080: d5c0 393d 7f9d cfbc b23f 73bd 0b35 a7bc
00000090: b8dd a4bd d10b 473d 6f64 fa3b b1c4 8abd
000000a0: 5350 613d 7e5e 893d 30c6 923d 3d82 83bb
000000b0: d578 2cbd 350e 5e3d 0127 a53d 9038 19bd
000000c0: e4a0 17bd 72a6 44bc 0be5 c93c c04f 8f3d
000000d0: f3a9 5dbd 92bb f5bb 7a4f 06bd d2a6 543c
000000e0: 412d 52bc 7d0d 08bd 68ea 393d b38e 903d
000000f0: 2d56 88bc 6a05 9d3d a45a d43b eacf 21bd
00000100: 8892 ad3c 5df1 09bc 2eec 8a3d 1ca4 1a3d
00000110: 7852 61bc c649 b23a 8c70 4b3c f710 9c3d
00000120: 2339 6a3c 204c 34bc 7d4a 30bd 1877 f6bb
00000130: 9da7 243d 2d8a 903d fe76 9b3c 7bc5 0f3d
00000140: 47eb b73c 3f88 053c b17d e2bc ab8a 3f3d
00000150: 5afd 723d 6694 9b3d 45a5 243b 41bf 833c
00000160: f57e 9fbc 8320 04bd 92f7 bd3c f2d4 62bd
00000170: 83e3 893d 6656 7c3d 3f75 263d b24d 4ebd
00000180: 8a3f 603d 3020 5dbd 142f a0bc bd50 d4bc
00000190: 44db c6bc 4683 15bd 95d8 533d a5ad 54bc
000001a0: 2a71 3cba 5af9 c3bc 1e8c 7d3d d2fb 163c
000001b0: 2d51 4d3d 5ed2 843d f0b1 ed38 72c2 81bb
000001c0: f700 223d 3575 83bd 0179 903d 44ce 6f3d
000001d0: 1307 53bd 381f 7ebc b93c 9fbd 73df 7c3d
000001e0: 9c44 0a3d f273 27bc f497 7d3d 45a7 59bd
000001f0: f4ce 33bd 44c2 913d f149 e7bc ce35 a73b
00000200: 88a9 5cbd 80c4 ea3c bcad 8fbd ce66 253d
00000210: d957 9ebd d10c 64bd e013 90bd 5ab9 293d
00000220: ec97 6d3d 80e3 40bd 9655 6c3c d3c9 6ebb
00000230: 7c28 e7bc 1fb6 1abd c78a 31bd e28e 8cbd
00000240: 74cb 5e3d 04bb a5bd 8d7e 2dba 4341 e13c
00000250: 4eb8 85bc 6159 7e3d 31d4 863d b0a7 1a3d
00000260: da45 d33b ddb1 afbc 161d 83bd 6ca7 563d
00000270: 7211 adb9 5022 a1bd 9752 303d d40b 143c
00000280: 785c dbbc 6eee a83d 57b3 bebc 3b40 193c
00000290: dc41 923a 0618 463d 41e1 69bd 8578 e43c
000002a0: 343e 2d3d 84a9 5fbd 339e 36bd aa6f 823b
000002b0: da3d a53d 4bdd de3c 9ea6 893d 867a 53bd
000002c0: 2e98 47bd 9f54 e53c 687a 0c3d 0567 393d
000002d0: 92c6 dfbc 52f8 91bd a922 95bc 4c21 cf3c
000002e0: 446c 2fbd 994d a33c f448 dbbc 3d02 983a
000002f0: a4c8 883d cbae 72bd 5401 a6bd e13a 8fbd
00000300: 9a83 473d a201 bfbc 76e0 063c 6071 653d
00000310: 3597 19bc 89d5 13bc ec18 5ebd 195f 09bd
00000320: 0016 e1bc 6d12 2e3c 255c 963c c76f 69bc
00000330: 0d5d 43bc 2eb3 82bc 8200 e83c 6877 99bd
00000340: a3f1 f03c 51be 103b 2dbe 873a bd61 a43b
00000350: c188 393d ded4 3d3d 76b2 fcbc 5450 20bc
00000360: f2c5 393d 7171 763b 1cdc eebc 6ebe 70bd
00000370: 29f0 8a3c 5c8e ebba 66b5 973d be51 713c
00000380: 92b3 0fbd 2862 c13c edff 79bd 2c02 8cbd
00000390: bbdd e1bc bf40 9ebd 16f0 8c3d ba3c b53c
000003a0: bb7c 40bd bef5 85bd 9553 43bd c25d 8fbb
000003b0: 284a 203d cdb3 d93c 476c 42bd 32bf 583d
000003c0: 2442 86bd ae93 8b3d 6945 a4bc 99f4 16bd
000003d0: c72a 2f3c 2bbe 4fbd afb0 a5bc 5bdc b5bc
000003e0: e351 e43b 1b0d 5c3d 1185 c4bc ec03 903d
000003f0: 8455 e43b aab0 03bc a992 8e3d 5810 00bd

func.linear1.bias f4 [128]
-0.034405105 -0.053936623 -0.04777774 0.06263073 0.031701826 0.0038842133 -0.032873105 0.081719056
0.07324164 -0.056097653 -0.0021428266 -0.0047447537 0.05057313 -0.00034775495 -0.080349445 0.013715451
-0.062821195 -0.054276507 0.05163104 -0.0067342427 -0.024070736 0.007589692 0.06823643 0.07096131
0.008515043 -0.010263451 0.04169595 0.060527768 0.081290506 -0.04567102 -0.01893726 -0.014238288
0.03804552 -0.0045546596 -0.053928304 -0.06818688 -0.048598755 -0.03132212 0.0015713666 0.0061013275
0.06957471 0.012468989 -0.03750422 -0.009377184 -0.0842512 -0.053779516 -0.00076151494 0.022160262
0.051701214 -0.0703929 0.032263953 0.008208515 0.026316296 -0.0054060165 0.07431542 0.049936656
0.0010844346 0.022879466 -0.01895947 -0.023033224 0.06745291 0.077221274 0.0654818 -0.07563164
-0.07371668 0.02182263 -0.06640369 0.012694233 0.029899666 0.021085264 0.060393862 -0.03487692
-0.04346768 -0.08295081 -0.011906918 -0.03148707 0.013256021 0.016733926 0.07822844 -0.063341856
-0.03730643 -0.022192843 -0.043711297 0.013331315 0.039101113 -0.07047215 -0.06346004 -0.061649248
0.06608671 -0.025812361 0.04413826 -0.043548875 0.05473715 0.026974285 0.07297992 0.05907066
-0.01933298 0.049375664 -0.044789456 0.066416815 -0.022092246 -0.06648953 0.059657887 0.058108315
-0.048749335 -0.026500534 0.0410817 0.06724593 -0.062228058 -0.044961333 0.014436109 0.061296303
-0.075050935 -0.016069917 -0.011873161 0.07631291 0.010474635 0.04063798 0.025392849 0.007994126
-0.08101125 0.004359003 0.016779387 0.0041724597 0.010083975 0.040952303 0.019619813 -0.020389391
00000000: 5eec 0cbd a6ec 5cbd 97b2 43bd 8a44 803d
00000010: c6d9 013d 498e 7e3b f3a5 06bd 525c a73d
00000020: b7ff 953d a7c6 65bd aa6e 0cbb e179 9bbb
00000030: c525 4f3d e152 b6b9 408e a4bd c5b6 603c
00000040: 66a8 80bd 0b51 5ebd 127b 533d ecaa dcbb
00000050: fe2f c5bc f3b2 f83b 8bbf 8b3d 2a54 913d
00000060: ae82 0b3c 0928 28bc 5fc9 2a3d f7eb 773d
00000070: a37b a63d 8911 3bbd 5022 9bbc b547 69bc
00000080: 9fd5 1b3d 413f 95bb ede3 5cbd 90a5 8bbd
00000090: 7d0f 47bd a04b 00bd 50f6 cd3a a5ed c73b
000000a0: 307d 8e3d bb4a 4c3c 069e 19bd c3a2 19bc
000000b0: e58b acbd e947 5cbd 67a0 47ba 7089 b53c
000000c0: a7c4 533d 272a 90bd 3527 043d 027d 063c
000000d0: 4695 d73c f424 b1bb af32 983d 618a 4c3d
000000e0: 9623 8e3a b86d bb3c e450 9bbc 2cb0 bcbc
000000f0: c024 8a3d 3026 9e3d 521b 863d c3e4 9abd
00000100: c5f8 96bd 5fc5 b23c a8fe 87bd 79fb 4f3c
00000110: 25f0 f43c 01bb ac3c 8e5f 773d 1adb 0ebd
00000120: 2b0b 32bd 1de2 a9bd 3c15 43bc 96f8 00bd
00000130: c82f 593c 9615 893c 3b36 a03d 60b9 81bd
00000140: a1ce 18bd c4cd b5bc 9e0a 33bd 966b 5a3c
00000150: 7d28 203d b453 90bd 56f7 81bd ec83 7cbd
00000160: 7858 873d 7274 d3bc 52ca 343d 4e60 32bd
00000170: 1034 603d 2df9 dc3c 7f76 953d 14f4 713d
00000180: 3360 9ebc 233e 4a3d 2675 37bd 8a05 883d
00000190: ccfa b4bc aa2b 88bd d45b 743d fc02 6e3d
000001a0: 62ad 47bd a617 d9bc 4945 283d 3cb8 893d
000001b0: d9e2 7ebd 6029 38bd 6e85 6c3c d511 7b3d
000001c0: 4eb4 99bd 0fa5 83bc a687 42bc f149 9c3d
000001d0: ce9d 2b3c 0374 263d aa04 d03c cbf9 023c
000001e0: 3ae9 a5bd f8d5 8e3b ed74 893c 21b9 883b
000001f0: 4237 253c 9abd 273d bbb9 a03c a707 a7bc

func.linear2.weight f4 [450, 128]
-0.009580288 0.08094681 0.06898324 0.08665312 -0.050047297 0.06661466 -0.030778678 0.02190143
0.07533644 -0.055165652 0.05573346 0.0685635 -0.06287619 0.06641276 0.06939899 -0.044161472
-0.07249502 0.023047809 0.0014284017 -0.01513458 0.03402894 -0.08416476 -0.06313651 -0.049318653
-0.013759683 0.0014961686 -0.016954727 0.060215306 -0.05784798 0.036473297 0.05240299 -0.008135197
0.05005052 0.089457385 0.012483151 -0.06576789 0.07156017 0.06534345 0.025720434 -0.019613836
0.07210651 -0.0023788149 -0.048773 0.05978499 0.0900833 0.08089285 0.033275254 0.006909815
-0.02020731 -0.069101974 -0.0067726895 0.009086027 -0.0008879193 0.047953006 0.013016052 -0.03541146
-0.04093887 -0.08118802 0.029624468 -0.07494635 -0.062194888 -0.03686439 0.055154532 0.0830653
-0.05845749 0.026259344 0.057887085 -0.07441722 -0.054321643 -0.08102666 -0.027902748 0.07853938
-0.0074028275 0.061302673 0.027742682 0.055544134 0.06678306 -0.065860674 0.055787243 -0.060836833
0.0033062957 -0.02905272 0.021944316 -0.05378729 0.008801526 0.053978518 -0.029887112 0.046645552
-0.0658185 -0.0033388578 0.079715714 -0.069223344 0.053759735 -0.03781565 0.011929194 0.056987356
-0.03426466 -0.016255734 -0.018893493 0.0221058 0.01054058 -0.04416327 0.023531647 -0.04473444
-0.026448218 0.048098166 -0.053998254 0.035511915 -0.062120244 -0.015557383 -0.006981907 -0.06491355
-0.06700763 0.010223947 -0.07992915 0.07327846 -0.0009280917 -0.08106421 -0.082433596 0.064941384
0.002293477 0.02256777 0.037448734 -0.019106548 0.09048108 -0.022361062 0.02872114 0.058569975
-0.03099724 -0.005021308 -0.023619818 -0.009587448 -0.023054687 -0.08698063 0.07900586 0.0515235
-0.07189005 -0.049958877 0.056583054 0.039005946 0.007439403 0.04004678 -0.06590112 0.064646
0.07552828 0.02767895 -0.058084317 0.052586343 0.02101608 0.07769178 0.012199255 -0.06778044
-0.040006902 0.07988536 0.06612893 -0.054315984 -0.028191885 -0.056902092 -0.017726542 -0.07595781
0.034149762 -0.050820187 0.05954675 -0.08368693 -0.038242497 -0.040815905 -0.06364173 0.013453553
0.028759232 -0.06581204 0.0655833 0.054070227 0.02521357 -0.08289262 -0.059293784 0.068476535
-0.048009593 0.02634137 0.080950886 0.016455946 -0.006967859 0.071763456 0.013815071 0.024385506
0.004530284 -0.03987434 -0.027758269 0.068823345 0.004022103 0.016802484 -0.0057181413 -0.06008841
-0.032464795 0.036255 0.03264664 -0.057048168 0.06757195 0.01885631 -0.012915688 -0.053249355
0.07103927 -0.046708763 -0.08356291 0.053695064 -0.0077697593 -0.026018666 -0.016608229 -0.016642502
-0.028741263 0.028638208 -0.05444132 0.027166761 0.005370808 -0.021616463 0.006978601 -0.015852857
-0.03104222 0.032977074 0.084648296 0.033182863 0.014582685 0.0592894 0.046636194 -1.9441866e-05
-0.058270093 0.013537804 0.06709345 -0.079131514 0.06175465 -0.054742534 0.07899167 0.06744955
0.052081347 -0.05197858 -0.008607831 0.06019999 -0.060902886 -0.032351945 -0.013543144 -0.07022288
0.005647788 0.08276692 -0.055839602 0.033906307 -0.018141268 -0.020095238 0.0050849896 0.022206714
0.05419433 -0.088175505 -0.054904867 0.0082685 -0.04159862 0.046221826 -0.059804715 0.017086422
00000000: a4f6 1cbc 71c7 a53d 1647 8d3d 3177 b13d
00000010: 65fe 4cbd 446d 883d 9123 fcbc a16a b33c
00000020: fe49 9a3d 61f5 61bd c548 643d 056b 8c3d
00000030: 3bc5 80bd 6a03 883d 0f21 8e3d a9e2 34bd
00000040: 4578 94bd c2ce bc3c 3539 bb3a 08f7 77bc
00000050: ee61 0b3d 935e acbd b74d 81bd 5b02 4abd
00000060: 4b70 61bc 161b c43a a4e4 8abc 53a4 763d
00000070: 01f2 6cbd 0665 153d 85a4 563d 7d49 05bc
00000080: c601 4d3d 6f35 b73d 2186 4c3c 51b1 86bd
00000090: 238e 923d c9d2 853d a9b3 d23c 32ad a0bc
000000a0: 94ac 933d e4e5 1bbb 32c6 47bd 1be1 743d
000000b0: 987d b83d 27ab a53d a24b 083d bb6b e23b
000000c0: cd89 a5bc 5685 8dbd 70ed ddbb 8fdd 143c
000000d0: 41c3 68ba 5f6a 443d 4741 553c 9b0b 11bd
000000e0: 84af 27bd e845 a6bd 03af f23c 797d 99bd
000000f0: 11c0 7ebd 1dff 16bd b8e9 613d 241e aa3d
00000100: 1f71 6fbd d61d d73c 021b 6d3d 0e68 98bd
00000110: 5f80 5ebd 4ef1 a5bd 4e94 e4bc 41d9 a03d
00000120: 6b93 f2bb 8318 7b3d 9f44 e33c 3f82 633d
00000130: 8fc5 883d f6e1 86bd 2a81 643d 0b30 79bd
00000140: 70ae 583b f8ff edbc 91c4 b33c 1050 5cbd
00000150: 4734 103c 9418 5d3d d1d5 f4bc 680f 3f3d
00000160: dacb 86bd bdd0 5abb fe41 a33d f8c4 8dbd
00000170: 2b33 5c3d 95e4 1abd ab72 433c 936b 693d
00000180: 1a59 0cbd bf2a 85bc 87c6 9abc 3917 b53c
00000190: 66b2 2c3c 8ce4 34bd 71c5 c03c 763b 37bd
000001a0: efa9 d8bc 9502 453d 462d 5dbd f174 113d
000001b0: cc71 7ebd 65e4 7ebc 7bc8 e4bb 65f1 84bd
000001c0: 4c3b 89bd 5882 273c e5b1 a3bd 0413 963d
000001d0: 2e4b 73ba fe04 a6bd f2d2 a8bd fdff 843d
000001e0: 294e 163b 0be0 b83c d863 193d 5685 9cbc
000001f0: 254e b93d 8c2e b7bc 9948 eb3c 12e7 6f3d
00000200: eded fdbc c989 a4bb 597e c1bc ac14 1dbc
00000210: 2fdd bcbc e722 b2bd d3cd a13d 4e0a 533d
00000220: 173b 93bd aea1 4cbd a2c3 673d b3c4 1f3d
00000230: 3cc6 f33b 1808 243d 2bf7 86bd 1f65 843d
00000240: 92ae 9a3d f7be e23c d2e9 6dbd c764 573d
00000250: ea29 ac3c de1c 9f3d 62df 473c 79d0 8abd
00000260: 47de 23bd f09a a33d 9b6e 873d 707a 5ebd
00000270: abf2 e6bc 2b12 69bd 4137 91bc c58f 9bbd
00000280: 9fe0 0b3d d428 50bd 4be7 733d 0e64 abbd
00000290: 2aa4 1cbd 942e 27bd 9856 82bd 4b6c 5c3c
000002a0: 7b98 eb3c 76c8 86bd 8a50 863d be78 5d3d
000002b0: b08c ce3c 9bc3 a9bd 0ade 72bd 6d3d 8c3d
000002c0: b5a5 44bd dbc9 d73c 94c9 a53d 9fce 863c
000002d0: a352 e4bb b8f8 923d 9c58 623c 1dc4 c73c
000002e0: c772 943b 4753 23bd 4f65 e3bc 41f3 8c3d
000002f0: d8cb 833b 5da5 893c 3f5f bbbb 441f 76bd
00000300: cef9 04bd 1f80 143d 7cb8 053d 57ab 69bd
00000310: 2a63 8a3d 8c78 9a3c 529c 53bc ff1b 5abd
00000320: 097d 913d b051 3fbd 0823 abbd 5bef 5b3d
00000330: 7799 febb 1925 d5bc fb0d 88bc db55 88bc
00000340: cc72 ebbc ad9a ea3c ddfd 5ebd d48c de3c
00000350: 9afd af3b 0215 b1bc c0ac e43b dadd 81bc
00000360: 414c febc f812 073d 165c ad3d c1ea 073d
00000370: 37ec 6e3c 71d9 723d 9805 3f3d 1717 a3b7
00000380: 9fac 6ebd aacd 5d3c 4a68 893d b40f a2bd
00000390: 72f2 7c3d b539 60bd 62c6 a13d fd22 8a3d
000003a0: 4053 553d 7ee7 54bd dc07 0dbc 4494 763d
000003b0: 4e75 79bd 7983 04bd 10e4 5dbc 03d1 8fbd
000003c0: 1411 b93b b481 a93d 11b8 64bd 57e1 0a3d
000003d0: ff9c 94bc c59e a4bc fc9f a63b dbea b53c
000003e0: e0fa 5d3d 5c95 b4bd ede3 60bd 9a78 073c
000003f0: 5163 2abd 1953 3d3d caf5 74bd d3f8 8b3c

func.linear2.bias f4 [450]
0.041843716 0.08857383 -0.0635545 -0.039977945 0.04547067 -0.021749506 -0.0827238 0.050057705
-0.088649146 -0.061989177 0.04529623 -0.015214356 -0.024952618 -0.021248387 0.03124687 0.054050714
-0.0074276496 0.031510185 0.06775904 0.042667747 0.06695328 -0.035620376 -0.034642868 -0.049925633
0.03823301 -0.037873805 0.052892607 -0.058471575 -0.037193753 0.020894835 -0.087880395 0.024396608
0.0041896175 -0.082903124 -0.048574816 0.05050895 0.03863607 0.010946125 0.016734252 -0.047262505
-0.04318573 0.076723404 0.066099346 0.077184476 0.045284864 -0.05339534 0.05912579 0.023553409
0.0705539 0.04280648 -0.04085722 -0.07413606 -0.048145354 -0.013708466 -0.06002293 -0.07683507
-0.027616914 0.035283856 0.016316883 -0.081065476 -0.040555846 -0.03152316 0.062562175 -0.03443594
0.03786044 -0.07768495 0.08738273 0.018033093 0.0206635 0.006032363 0.031362765 -0.006784364
-0.055352584 -0.045291785 0.015624608 0.065957025 0.080604024 0.050316125 -0.049549412 -0.07267233
-0.08536169 -0.049168773 0.07175446 0.051669683 0.09064452 0.03843879 0.039998427 0.026207611
0.0723955 0.04164789 0.028849637 0.022728225 -0.0706576 -0.023501905 -0.039679486 -0.04069725
0.07384282 -0.056578632 0.029853817 0.0043999758 0.054403298 0.016240476 -0.018143065 0.01533109
-0.023151059 -0.03863387 0.05826008 0.017318672 -0.02196845 0.0783934 -0.029741794 -0.04762433
-0.004918605 0.0011443808 -0.00866249 0.082858734 -0.07712913 -0.020382252 -0.07804747 0.055728983
-0.063926846 0.018004782 -0.07000929 0.056453533 0.009337621 0.07926108 0.07938838 0.07773944
-0.05526968 -0.021106932 0.06036278 0.077728726 0.07939101 0.010052159 0.0052984916 -0.026349813
-0.012416666 0.057416625 -0.0906265 0.026379257 0.06890079 -0.04862345 -0.08588165 -0.05979849
-0.011675308 0.05579412 -0.081872575 0.08181157 -0.0347687 0.08079179 0.04529569 0.0050453767
-0.028821083 -0.03973158 -0.005390998 -0.010092785 0.061399322 0.05177831 -0.021472182 0.06794614
0.01886635 -0.0022702964 -0.07003335 0.019948602 -0.025218299 -0.020733757 0.03549165 0.059373893
-0.06771278 -0.060302034 0.049017485 0.013897928 -0.07240924 0.009573913 0.029308053 0.03041545
-0.053069275 0.032961078 0.05341649 0.067346774 0.015824115 -0.03028454 0.011548272 0.06550931
0.0019058248 0.026013467 -0.024186714 0.014041394 -0.049696043 -0.08800032 0.036569793 -0.041932356
-0.07333645 0.052795187 0.06686234 0.044296302 0.07654731 0.080933 0.04685484 0.049451504
0.00057390705 -0.03185192 0.05061326 -0.035421025 -0.068838716 0.084149234 0.069777064 -0.038603753
0.0010961739 0.028158331 -0.08501471 -0.013170722 0.05136872 0.068940915 -0.0008584446 -0.08195497
-0.068592824 -0.08603634 -0.06274344 -0.07384195 0.031420797 -0.06678088 0.0063437205 -0.034964804
0.032249838 -0.070033215 0.015816236 -0.025906878 0.029261013 0.050128203 -0.059402954 -0.05996734
-0.04368692 0.02563508 -0.079504564 -0.03284784 0.07700324 -0.0123292655 0.06215499 -0.054822434
0.08033603 0.02571909 -0.06401393 0.005860391 0.002012839 -0.033077255 -0.063317396 0.06865942
-0.0008211134 -0.006785097 0.081005104 -0.07491673 -0.010999326 0.06866339 -0.074151225 0.024337135
00000000: 5164 2b3d 3266 b53d dd28 82bd eabf 23bd
00000010: 743f 3a3d 052c b2bc 186b a9bd 4f09 4d3d
00000020: af8d b5bd 5de8 7dbd 8a88 393d a245 79bc
00000030: 6f69 ccbc 1911 aebc 70f9 ff3c 4864 5d3d
00000040: a463 f3bb d310 013d 40c5 8a3d 60c4 2e3d
00000050: cd1e 893d ace6 11bd aee5 0dbd d27e 4cbd
00000060: 379a 1c3d 9021 1bbd eba5 583d e47f 6fbd
00000070: 7a58 18bd a52b ab3c a3fa b3bd 65db c73c
00000080: 0f49 893b 1dc9 a9bd 63f6 46bd 79e2 4e3d
00000090: db40 1e3d 6057 333c 4516 893c 5496 41bd
000000a0: 85e3 30bd 2921 9d3d 185f 873d e512 9e3d
000000b0: 9f7c 393d 12b5 5abd e22d 723d 14f3 c03c
000000c0: 907e 903d d955 2f3d e659 27bd a6d4 97bd
000000d0: 1034 45bd 7999 60bc 9bda 75bd b55b 9dbd
000000e0: de3c e2bc ce85 103d fcaa 853c a805 a6bd
000000f0: e31d 26bd 6e1e 01bd 9920 803d b30c 0dbd
00000100: 8c13 1b3d 4919 9fbd b7f5 b23d 23ba 933c
00000110: 8046 a93c 21ab c53b 3e76 003d 5f4f debb
00000120: 64b9 62bd e183 39bd 5bfe 7f3c 7a14 873d
00000130: b913 a53d 4818 4e3d 53f4 4abd 3bd5 94bd
00000140: 1cd2 aebd 3265 49bd 01f4 923d 97a3 533d
00000150: d6a3 b93d fe71 1d3d 64d5 233d 58b1 d63c
00000160: 1844 943d fa96 2a3d 1356 ec3c 8b30 ba3c
00000170: efb4 90bd 1187 c0bc f586 22bd 29b2 26bd
00000180: e83a 973d ffbe 67bd fe8f f43c ac2d 903b
00000190: fed5 5e3d bf0a 853c c4a0 94bc 412f 7b3c
000001a0: 4aa7 bdbc 8d3e 1ebd 1fa2 6e3d e3df 8d3c
000001b0: 2ef7 b3bc b88c a03d 10a5 f3bc bb11 43bd
000001c0: 402c a1bb 0cff 953a 1eed 0dbc d7b1 a93d
000001d0: e1f5 9dbd aef8 a6bc 5ad7 9fbd 1344 643d
000001e0: 14ec 82bd c47e 933c 0861 8fbd d23b 673d
000001f0: d2fc 183c a253 a23d 6096 a23d db35 9f3d
00000200: 7662 62bd 72e8 acbc f63e 773d 3d30 9f3d
00000210: c197 a23d d0b1 243c f89e ad3b 90db d7bc
00000220: 466f 4bbc b22d 6b3d 639a b9bd 5019 d83c
00000230: db1b 8d3d 6229 47bd b8e2 afbd 43ef 74bd
00000240: cb49 3fbc 6088 643d cfac a7bd d38c a73d
00000250: a069 0ebd 2a76 a53d f987 393d b053 a53b
00000260: 311a ecbc 95bd 22bd f8a6 b0bb 355c 25bc
00000270: db7d 7b3d 7e15 543d 6ee6 afbc 5927 8b3d
00000280: 9b8d 9a3c 41c9 14bb a56d 8fbd 406b a33c
00000290: 9b96 cebc d7d9 a9bc b15f 113d 0a32 733d
000002a0: ffac 8abd 44ff 76bd 8fc6 483d 23b4 633c
000002b0: 4c4b 94bd e7db 1c3c 7117 f03c d229 f93c
000002c0: 2b5f 59bd 3202 073d 40cb 5a3d 1bed 893d
000002d0: 93a1 813c 4917 f8bc f734 3d3c bf29 863d
000002e0: decc f93a 321a d53c 3723 c6bc e00d 663c
000002f0: 148e 4bbd 8339 b4bd 35ca 153d 43c1 2bbd
00000300: 6c31 96bd c43f 583d 1fef 883d 0a70 353d
00000310: d6c4 9c3d 33c0 a53d dcea 3f3d a98d 4a3d
00000320: 4072 163a 2977 02bd da4f 4f3d a315 11bd
00000330: 50fb 8cbd 6f56 ac3d 47e7 8e3d f81e 1ebd
00000340: 7ead 8f3a 4dac e63c 311c aebd 03ca 57bc
00000350: 0268 523d e530 8d3d 3e09 61ba 02d8 a7bd
00000360: 657a 8cbd d233 b0bd a27f 80bd 733a 97bd
00000370: 18b3 003d 6ac4 88bd fcde cf3b 4137 0fbd
00000380: 6818 043d 936d 8fbd 0d91 813c a93a d4bc
00000390: cbb4 ef3c 3b53 4d3d 8350 73bd 50a0 75bd
000003a0: 0ef1 32bd a900 d23c 4ad3 a2bd 758b 06bd
000003b0: e0b3 9d3d b000 4abc 3b96 7e3d 7d8d 60bd
000003c0: 3787 a43d d7b0 d23c bc19 83bd 8608 c03b
000003d0: d6e9 033b 047c 07bd 8dac 81bd 4f9d 8c3d
000003e0: fd3f 57ba 8555 debb 01e6 a53d f16d 99bd
000003f0: 8436 34bc 649f 8c3d 99dc 97bd ac5e c73c

initial.weight f4 [150, 3]
0.5542568 0.23442142 -0.34747136 0.15071242 -0.09019426 -0.2536327 0.32736376 0.1551393
-0.47329554 -0.50620425 0.378664 -0.51790005 -0.18427661 -0.05758675 0.2834768 0.47671455
0.17362778 -0.14313431 0.3029885 -0.164968 -0.32785362 0.3334046 0.4277847 -0.27076188
0.058905423 -0.29554793 -0.31794629 -0.57622284 -0.29273564 -0.00090860616 -0.010599515 0.4232677
0.55071104 -0.08825179 -0.47794715 -0.13352916 0.16815858 -0.32837933 -0.2605504 -0.3186381
0.44620782 -0.46409884 -0.2382726 -0.22897764 -0.39329335 0.41976464 -0.23585069 -0.21307193
-0.3097576 0.1445317 -0.5613948 0.20750937 -0.13341351 0.05889724 -0.20912027 0.04827042
0.3164035 0.08690477 -0.056495663 -0.4955707 0.3079113 0.321164 0.4571704 0.2322234
0.13107663 0.10578124 0.052962326 -0.43715107 0.14016658 -0.008780696 -0.004203642 -0.24687155
-0.21553199 0.4536064 -0.0023652536 0.15620373 0.51925623 0.4400915 0.0253324 -0.36807463
0.38580748 -0.35259482 -0.5442635 0.23231575 0.01702307 0.06419917 0.3478021 -0.47232926
-0.31096128 0.5301218 0.4484322 -0.38102594 -0.41553894 0.15796311 0.07031504 0.4619
-0.18077232 0.34418577 0.0724782 0.45785335 -0.40511504 -0.09447601 0.2713827 -0.20466104
0.56222194 0.21166183 0.026438475 -0.49007723 -0.3149386 -0.49472165 -0.15142621 0.46615943
-0.5469255 0.26718178 -0.080703326 0.46162847 -0.19529982 0.23307082 -0.5645633 0.28560597
-0.4272933 -0.14207458 0.23354584 0.25147292 -0.11608901 -0.51339114 0.22820534 0.4874467
0.014285338 -0.27712357 -0.3031536 0.3784412 -0.31870505 -0.46781597 0.3291615 -0.16349661
-0.08410827 -0.566756 0.37151653 -0.08546846 0.32247126 0.38875118 -0.06444868 -0.1337438
0.15162584 -0.034639955 -0.38029012 -0.38097027 -0.1839937 0.03573204 -0.11971767 -0.5626243
0.1492973 0.29656592 0.115031175 0.56407815 0.11995619 -0.26142922 -0.5608924 -0.01906064
0.12627 -0.3770575 0.14087121 -0.35261747 -0.22174142 0.55654734 -0.18194906 0.21191089
0.49120814 -0.057341345 0.42755526 -0.3545176 0.32771805 -0.10844136 0.0005384939 -0.10530176
0.30370715 -0.073881835 -0.53438926 -0.5690059 -0.34496167 -0.25913164 -0.42187676 -0.425044
-0.07540378 -0.4342849 0.391772 0.4165605 0.20284185 0.49371707 0.10762187 0.1122545
-0.51217806 0.28215718 -0.45992827 0.43122226 -0.27987543 -0.13405645 -0.5087283 0.2390377
-0.24326912 0.21585612 -0.038769934 -0.31818813 0.12908365 -0.10497995 0.12726676 0.18777953
0.2986178 -0.38851506 0.4580664 0.21081127 -0.15080053 0.33868238 0.023287147 -0.3965369
-0.036622472 -0.17155772 -0.02143938 0.5026224 -0.56471825 -0.24273841 0.20509443 -0.46088853
-0.4340705 0.2546599 -0.38889533 0.3213997 -0.5401365 0.30691168 0.32091352 -0.5511622
0.40512645 -0.1885411 0.13068795 0.26956728 0.31899035 0.46743077 0.43735453 -0.026419561
-0.22135188 0.30784655 0.2423815 0.20159486 0.17245664 -0.55251133 0.19248526 0.19535606
0.26116252 -0.3786092 -0.29731816 -0.21561132 0.5788731 0.43765023 -0.26767915 -0.4246531
00000000: c6e3 0d3f 2b0c 703e c4e7 b1be 5b54 1a3e
00000010: c5b7 b8bd 25dc 81be 399c a73e d6dc 1e3e
00000020: cb53 f2be 9a96 01bf 3fe0 c13e 1995 04bf
00000030: 02b3 3cbe 15e0 6bbd df23 913e ee13 f43e
00000040: 7bcb 313e cd91 12be 4f21 9b3e 5fed 28be
00000050: 6edc a7be 02b4 aa3e 9906 db3e 4da1 8abe
00000060: d046 713d 0f52 97be dbc9 a2be 5783 13bf
00000070: 72e1 95be 872f 6eba 97a9 2dbc 8bb6 d83e
00000080: 66fb 0c3f 5bbd b4bd 7db5 f4be debb 08be
00000090: c331 2c3e 5621 a8be dd66 85be 8824 a3be
000000a0: 5a75 e43e 5d9e edbe bcfd 73be 1d79 6abe
000000b0: bf5d c9be 64eb d63e d882 71be 872f 5abe
000000c0: 8c98 9ebe 1e00 143e 92b7 0fbf 567d 543e
000000d0: 8d9d 08be 3b3e 713d a023 56be 34b7 453d
000000e0: a4ff a13e 21fb b13d ff67 67bd 71bb fdbe
000000f0: 8da6 9d3e 9c6f a43e 3d12 ea3e f9cb 6d3e
00000100: f438 063e d6a3 d83d 06ef 583d 44d2 dfbe
00000110: d487 0f3e e9dc 0fbc b4be 89bb e5cb 7cbe
00000120: 6bb4 5cbe 193f e83e 5f02 1bbb dff3 1f3e
00000130: faed 043f ac53 e13e e585 cf3c 4774 bcbe
00000140: 8f88 c53e 4f87 b4be da54 0bbf 2ee4 6d3e
00000150: f773 8b3c db7a 833d 1e13 b23e 24d5 f1be
00000160: 5136 9fbe 10b6 073f e898 e53e d515 c3be
00000170: 85c1 d4be 15c1 213e 5501 903d 287e ec3e
00000180: 611c 39be 1e39 b03e 736f 943d c16b ea3e
00000190: 3d6b cfbe a37c c1bd acf2 8a3e aa92 51be
000001a0: c7ed 0f3f e1bd 583e 8095 d83c 67eb fabe
000001b0: a23f a1be 284c fdbe 790f 1bbe 73ac ee3e
000001c0: 4f03 0cbf 0dcc 883e c947 a5bd 915a ec3e
000001d0: adfc 47be 1eaa 6e3e 3887 10bf f23a 923e
000001e0: 30c6 dabe 007c 11be a426 6f3e 0fc1 803e
000001f0: 13c0 edbd 9a6d 03bf a9ae 693e 9d92 f93e
00000200: 0d0d 6a3c 24e3 8dbe f336 9bbe 0cc3 c13e
00000210: 4f2d a3be 9385 efbe db87 a83e a86b 27be
00000220: f540 acbd ec16 11bf 6a37 be3e 170a afbd
00000230: f41a a53e 650a c73e abfd 83bd 22f4 08be
00000240: ce43 1b3e a0e2 0dbd 63b5 c2be 890e c3be
00000250: d868 3cbe c25b 123d 8a2e f5bd 2508 10bf
00000260: 64e1 183e 7dd7 973e 7795 eb3d 6d67 103f
00000270: 97ab f53d 0dda 85be a596 0fbf 0f25 9cbc
00000280: ec4c 013e ae0d c1be 8b40 103e 478a b4be
00000290: 2f10 63be e379 0e3f db50 3abe 2bff 583e
000002a0: a27f fb3e c2de 6abd 86e8 da3e 5583 b5be
000002b0: a9ca a73e 8116 debd b729 0d3a 73a8 d7bd
000002c0: 817f 9b3e 5c4f 97bd bccd 08bf 5faa 11bf
000002d0: d19e b0be e7ac 84be 3b00 d8be 5e9f d9be
000002e0: 4c6d 9abd 975a debe 5796 c83e 6b47 d53e
000002f0: c6b5 4f3e 7cc8 fc3e db68 dc3d b0e5 e53d
00000300: 1a1e 03bf e876 903e b87b ebbe 2ac9 dc3e
00000310: d54b 8fbe 1846 09be 053c 02bf 4dc6 743e
00000320: 8a1b 79be 6309 5d3e 39cd 1ebd 8ee9 a2be
00000330: 812e 043e baff d6bd 3852 023e 4749 403e
00000340: 6fe4 983e 72eb c6be ae87 ea3e e9de 573e
00000350: 746b 1abe c767 ad3e b0c4 be3c e206 cbbe
00000360: 7201 16bd d4ac 2fbe a3a1 afbc ddab 003f
00000370: 6091 10bf 6b90 78be 4604 523e 95f9 ebbe
00000380: 7d3e debe c862 823e 4a1d c7be 808e a43e
00000390: 6346 0abf 8723 9d3e c74e a43e f718 0dbf
000003a0: bc6c cf3e eb10 41be 10d3 053e b904 8a3e
000003b0: b452 a33e 1653 ef3e efec df3e d66d d8bc
000003c0: 11aa 62be 109e 9d3e db32 783e e26e 4e3e
000003d0: 7998 303e 6271 0dbf db1a 453e 6b0b 483e
000003e0: 18b7 853e 11d9 c1be 163a 98be 37c9 5cbe
000003f0: 0731 143f b113 e03e 3e0d 89be 226c d9be

initial.bias f4 [150]
-0.19739692 0.39932704 -0.5410332 -0.21332559 0.21875864 -0.37227118 0.13289848 -0.25466686
-0.4765183 -0.52490944 -0.32914072 0.5389599 -0.17810255 0.1868193 0.4894266 0.13549474
-0.55433226 -0.17746232 -0.24298815 0.05873226 -0.119057134 -0.05264477 -0.10897673 0.10619981
-0.278153 0.34752402 0.3119343 -0.5709641 0.21676068 0.27194342 0.05259924 -0.1701181
0.45275533 -0.42662486 0.49757993 -0.30795348 -0.48225793 -0.025130285 0.36146414 -0.083372265
-0.4819687 -0.5036968 0.53828025 0.56427115 -0.5591537 -0.4545654 0.13327503 -0.2573801
-0.39680776 -0.50291455 -0.17283535 0.25448185 -0.32261762 -0.029071499 -0.22568147 -0.14802693
-0.4717891 -0.5482778 0.32473937 -0.17626402 -0.17178653 -0.43241143 0.34141678 -0.08196849
0.04510032 -0.3144112 -0.4688615 -0.14298354 -0.17848691 0.2579421 0.15429866 -0.38620013
-0.21056268 0.03303531 0.3494451 0.04756146 0.18786311 -0.18296908 -0.32921 0.017679945
0.5812498 0.08167211 0.02171995 -0.5606987 -0.32030088 0.4045326 -0.09608571 -0.52373743
0.05774394 -0.34551838 -0.35648617 0.24680501 0.34015822 -0.35800526 0.3357854 0.36618164
0.2594745 0.47671112 -0.38285905 0.01425004 -0.17885788 -0.10690862 -0.1473296 0.35980654
-0.5498056 -0.008788367 -0.21306534 0.48865977 0.20555525 0.033672154 -0.4244456 -0.35423428
0.49113068 -0.3614583 -0.005548956 0.35835487 -0.4559179 0.34498167 -0.020045908 0.07346268
0.50696653 -0.010641593 -0.40435514 -0.39492717 0.3387538 0.37345248 -0.51489574 -0.377496
-0.2758051 0.19683973 0.48468405 -0.14526254 0.037254225 0.0138544915 -0.2089363 -0.34271845
0.14883617 -0.5364906 -0.5026443 0.5708626 -0.28679857 -0.0067077116 0.2882979 0.55906975
-0.3984234 -0.4021825 0.027839491 0.33727953 0.4554113 -0.07436566
00000000: 6b22 4abe 9874 cc3e 2781 0abf 0672 5abe
00000010: 4402 603e 549a bebe 8a16 083e b263 82be
00000020: 35fa f3be 7760 06bf 2285 a8be 47f9 093f
00000030: 8460 36be 8f4d 3f3e 2096 fa3e 22bf 0a3e
00000040: b8e8 0dbf afb8 35be e3d1 78be 3d91 703d
00000050: 3ad4 f3bd 0ba2 57bd 312f dfbd 497f d93d
00000060: 126a 8ebe abee b13e dab5 9f3e b42a 12bf
00000070: 83f6 5d3e 2b3c 8b3e 4d72 573d 7033 2ebe
00000080: 8ccf e73e 936e dabe ccc2 fe3e 14ac 9dbe
00000090: 83ea f6be 07de cdbc d411 b93e 14bf aabd
000000a0: 9ac4 f6be 46f2 00bf bccc 093f 1374 103f
000000b0: b224 0fbf ccbc e8be 4079 083e 53c7 83be
000000c0: 632a cbbe 02bf 00bf c0fb 30be 724b 823e
000000d0: 232e a5be 5a27 eebc 0b19 67be 5f94 17be
000000e0: 578e f1be ef5b 0cbf 3d44 a63e 8e7e 34be
000000f0: cfe8 2fbe 0865 ddbe 2ece ae3e 18df a7bd
00000100: 1dbb 383d 81fa a0be 9d0e f0be 476a 12be
00000110: 46c5 36be fd10 843e 7800 1e3e 06bc c5be
00000120: be9d 57be 0950 073d 78ea b23e cecf 423d
00000130: 305f 403e 3f5c 3bbe 378e a8be 88d5 903c
00000140: c9cc 143f b543 a73d 09ee b13c f389 0fbf
00000150: 7afe a3be e61e cf3e 96c8 c4bd a813 06bf
00000160: e984 6c3d c9e7 b0be 5b85 b6be 74ba 7c3e
00000170: 3829 ae3e 774c b7be 10ec ab3e 297c bb3e
00000180: d7d9 843e 7b13 f43e 1a06 c4be 0079 693c
00000190: 8526 37be e8f2 dabd 92dd 16be 9038 b83e
000001a0: 0fc0 0cbf 15fd 0fbc cd2d 5abe 9d31 fa3e
000001b0: 137d 523e d0eb 093d ef50 d9be 325e b5be
000001c0: 7b75 fb3e 1011 b9be 04d4 b5bb 4a7a b73e
000001d0: 126e e9be 70a1 b03e 5137 a4bc 9a73 963d
000001e0: 8fc8 013f 135a 2ebc a307 cfbe e533 cabe
000001f0: 2371 ad3e 2a35 bf3e 35d0 03bf 2847 c1be
00000200: 5336 8dbe 5b90 493e 8228 f83e b4bf 14be
00000210: e397 183d f3fd 623c 66f3 55be cb78 afbe
00000220: 8268 183e 7357 09bf 4cad 00bf 0d24 123f
00000230: 43d7 92be 5dcc dbbb c89b 933e 321f 0f3f
00000240: 27fe cbbe ddea cdbe a50f e43c e7af ac3e
00000250: ab2b e93e 064d 98bd

readout.weight f4 [126, 150]
0.031401612 0.036598973 -0.07076748 -0.0737076 0.06398871 -0.027425354 -0.015509556 0.026274163
-0.04734605 -0.06418755 -0.05836266 -0.041890673 0.037363574 0.060849573 -0.021283468 -0.056389254
0.06290338 -0.05811918 0.058678098 0.044147495 -0.051493227 0.034571033 0.07159838 -0.06132905
0.019789414 -0.06124262 -0.028745567 0.035336304 -0.03742854 -0.069828674 -0.052069876 -0.03227736
-0.017546576 0.060585752 -0.042752404 0.025005398 -0.024658479 0.062396064 0.054533113 0.030195959
-0.04903868 0.046341468 0.017010892 -0.0290127 -0.036821563 -0.01043403 0.01762683 0.021369271
0.016921043 0.06087788 -0.07594594 -0.015262753 0.016930308 0.042251665 0.0035279556 0.06298983
0.053642076 0.022688977 -0.045910567 -0.062325817 -0.07517736 -0.020143822 -0.058397982 -0.05809989
-0.062406227 0.002220556 0.047757514 0.07447809 0.064223155 -0.04150837 -0.020610197 0.04690099
-0.03758238 -0.038007718 0.036179412 0.040701874 0.04992227 0.03303229 -0.064892314 -0.076722465
0.040571038 -0.07111685 0.0302364 0.003607564 -0.03182117 -0.043605614 0.022833275 -0.044435993
0.048056725 0.06390722 -0.03455031 0.028242726 -0.0073052873 0.009740842 -0.03933041 0.034064192
0.0604243 0.07259284 0.05244501 -0.06772719 0.021612357 -0.024981674 -0.01648829 0.0007795552
0.053192332 0.020205813 0.0791567 0.019418014 0.047649805 0.017341264 0.047006972 -0.006575959
-0.007872468 0.025636548 0.0044119963 0.055992443 0.0487181 0.04076415 0.07405029 -0.032308545
0.005942404 -0.056952756 -0.07004096 0.015631622 0.03824385 0.007143374 0.07037951 0.056520008
-0.038766243 -0.071415715 -0.028317422 0.009150708 -0.06718054 -0.041943405 0.07909367 -0.017097306
0.038721494 0.004804824 0.009185365 0.047021598 0.0010141296 0.049245574 -0.034136903 0.07409397
0.07926547 0.040180087 0.00069362577 -0.028254738 0.037105456 0.06293492 0.06487178 -0.024756925
0.07946655 0.020879805 0.059157982 -0.07035601 -0.047521316 0.0288936 0.07068439 0.0029565236
-0.05706419 0.038925014 -0.07082462 -0.02469048 0.01404967 0.018732965 -0.02665832 0.051035255
-0.044663515 -0.06343417 -0.06959774 -0.0008106875 -0.014753303 -0.016418627 -0.008755702 -0.03469978
0.045892544 -0.05234421 -0.0020252077 0.054103296 0.05016142 0.027488444 -0.0620973 -0.069584966
0.050097343 -0.0771558 -0.06994724 0.06149954 -0.054732118 -0.031014567 0.017638413 0.0064407927
-0.021887243 -0.007925451 -0.0690284 -0.010727598 -0.019725835 -0.014301737 -0.004020555 0.0030822183
-0.016964113 0.02680994 0.028957969 0.07342477 -0.07277926 -0.06869318 0.006143592 0.015946606
0.055526067 -0.018827619 0.005856671 -0.05127272 0.05028358 0.027806016 0.06866093 0.0456369
0.017106194 0.05068576 0.008751473 -0.052939247 -0.023358062 0.0671775 -0.026658393 -0.064339414
0.025455337 0.023794875 -0.047172792 0.022236608 0.06873517 0.06834898 -0.083300605 0.05687059
0.052697834 -0.07094061 0.054858547 0.03906769 -0.011393075 -0.08011721 -0.023347093 0.04078856
0.07409797 0.038037226 0.067068584 0.032801583 -0.051671 -0.015415513 0.07438583 -0.073787756
0.040111646 0.007973962 0.0019493998 0.05369921 0.01705962 -0.049086273 0.022323402 0.027225984
00000000: fa9e 003d cee8 153d 8aee 90bd 03f4 96bd
00000010: 830c 833d 23ab e0bc cb1b 7ebc ea3c d73c
00000020: efed 41bd c374 83bd af0d 6fbd 8e95 2bbd
00000030: 8c0a 193d 673d 793d ab5a aebc 6bf8 66bd
00000040: 7dd3 803d 610e 6ebd 7258 703d 01d4 343d
00000050: 90ea 52bd 5b9a 0d3d 2ca2 923d 2c34 7bbd
00000060: 691d a23c 8bd9 7abd d37b ebbc cdbc 103d
00000070: ab4e 19bd 5602 8fbd 3947 55bd 4435 04bd
00000080: d6bd 8fbc c428 783d 251d 2fbd 1fd8 cc3c
00000090: 9400 cabc 0493 7f3d 1d5e 5f3d 845d f73c
000000a0: c8dc 48bd 8dd0 3d3d 6d5a 8b3c 0bac edbc
000000b0: 35d2 16bd 7ef3 2abc 2466 903c 9c0e af3c
000000c0: 009e 8a3c 155b 793d 8c89 9bbd a010 7abc
000000d0: 6eb1 8a3c 1510 2d3d 4635 673b d000 813d
000000e0: cbb7 5b3d 3cde b93c b80c 3cbd 5b49 7fbd
000000f0: 96f6 99bd a804 a5bc b932 6fbd 26fa 6dbd
00000100: ac9d 7fbd bf86 113b 629d 433d f887 983d
00000110: 6e87 833d ae04 2abd b7d6 a8bc 411b 403d
00000120: fbef 19bd fbad 1bbd dd30 143d 02b7 263d
00000130: 4b7b 4c3d de4c 073d 43e6 84bd ab20 9dbd
00000140: d12d 263d b6a5 91bd 54b2 f73c e16c 6c3b
00000150: ea56 02bd cd9b 32bd d90c bb3c 8402 36bd
00000160: 21d7 443d cae1 823d a084 0dbd 4a5d e73c
00000170: 3161 efbb 0d98 1f3c ed18 21bd e586 0b3d
00000180: 797f 773d 8eab 943d 94d0 563d 8eb4 8abd
00000190: 660c b13c 5ea6 ccbc 7312 87bc 105b 4c3a
000001a0: 34e0 593d a986 a53c e81c a23d 8712 9f3c
000001b0: 712c 433d 440f 8e3c 628a 403d 247b d7bb
000001c0: 86fb 00bc bd03 d23c 8292 903b 5558 653d
000001d0: a18c 473d 4ff8 263d aea7 973d f755 04bd
000001e0: 7fb8 c23b 4b47 69bd a371 8fbd e30d 803c
000001f0: 95a5 1c3d f712 ea3b 2223 903d 8681 673d
00000200: 5ac9 1ebd 6742 92bd f0f9 e7bc daec 153c
00000210: f395 89bd d9cc 2bbd ddfb a13d a60f 8cbc
00000220: 6e9a 1e3d c971 9d3b 377e 163c b899 403d
00000230: 8bec 843a bab5 493d 23d3 0bbd 94be 973d
00000240: ef55 a23d e093 243d 70d4 353a 7b76 e7bc
00000250: e4fb 173d 06e4 803d 7fdb 843d 09cf cabc
00000260: 5cbf a23d 200c ab3c a44f 723d d016 90bd
00000270: b6a5 42bd 45b2 ec3c fac2 903d 3cc2 413b
00000280: 24bc 69bd d66f 1f3d 800c 91bd b143 cabc
00000290: 9630 663c e075 993c 8d62 dabc 580a 513d
000002a0: 17f1 36bd c6e9 81bd 4389 8ebd 5184 54ba
000002b0: d6b7 71bc 5b80 86bc 1374 0fbc 5b21 0ebd
000002c0: d2f9 3b3d e266 56bd 59b9 04bb 6b9b 5d3d
000002d0: 1076 4d3d 722f e13c bd59 7ebd 9082 8ebd
000002e0: df32 4d3d dc03 9ebd 8040 8fbd f1e6 7b3d
000002f0: c92e 60bd 4312 febc 6f7e 903c 490d d33b
00000300: e04c b3bc c0d9 01bc c35e 8dbd cfc2 2fbc
00000310: 1398 a1bc d551 6abc dcbe 83bb 0bff 493b
00000320: 53f8 8abc 85a0 db3c 4339 ed3c ba5f 963d
00000330: 4b0d 95bd 03af 8cbd 2f50 c93b 75a2 823c
00000340: 4d6f 633d 613c 9abc 51e9 bf3b 5803 52bd
00000350: 28f6 4d3d 71c9 e33c 1a9e 8c3d c2ed 3a3d
00000360: 4a22 8c3c df9b 4f3d 5762 0f3c d3d6 58bd
00000370: 6859 bfbc 5b94 893d b462 dabc 62c4 83bd
00000380: b687 d03c 78ed c23c 4238 41bd 8c29 b63c
00000390: 06c5 8c3d 8dfa 8b3d 8299 aabd 23f1 683d
000003a0: afd9 573d 4f49 91bd 5bb3 603d 7105 203d
000003b0: 05aa 3abc 7e14 a4bd 6742 bfbc e811 273d
000003c0: adc0 973d eccc 1b3d 415b 893d f45a 063d
000003d0: f8a4 53bd 5991 7cbc 9957 983d 091e 97bd
000003e0: 1c4c 243d 39a5 023c 0183 ff3a b4f3 5b3d
000003f0: 9ec0 8b3c b00e 49bd 91df b63c 0709 df3c

readout.bias f4 [126]
0.04311699 -0.0036682105 0.06388854 -0.0009279961 -0.04372838 -0.0064278394 0.016382856 0.060431965
0.07246508 -0.044491135 -0.017017955 -0.043834146 0.0042667734 -0.057895724 -0.018030686 0.026561318
0.038265344 -0.05192035 -0.069039434 0.05789757 0.054276485 0.076358736 -0.02516504 -0.029290657
-0.08012786 0.020108433 -0.007185401 0.037822735 0.060825855 -0.07890652 0.033727106 0.06685043
-0.012412939 -0.050409064 -0.07524538 0.042886853 -0.07861565 0.027308546 0.013035603 0.021732494
0.031247234 -0.045111574 -0.010623367 -0.017382285 0.048508532 0.07332582 -0.019616153 -0.020177152
-0.031434644 0.047379177 0.0023695794 -0.03198245 -0.024158841 0.06935808 0.041181445 -0.055820715
0.022795144 -0.059868906 -0.039905418 0.046945725 0.066975094 0.06777937 0.025329802 -0.05260587
0.02029506 -0.008459746 0.017166764 -0.034087162 0.05430988 -0.04305561 -0.014484419 -0.0052954857
-0.00513516 0.02276694 0.04884654 -0.06486071 0.009514751 0.020787064 -0.05847407 -0.060847145
-0.0012120393 -0.043379504 0.05044279 0.03595625 0.04730353 -0.0748156 -0.03688429 0.064754166
0.07123652 -0.071292736 0.03242841 0.023099165 -0.07766512 -0.02229327 -0.005791387 0.06101173
-0.03801939 0.07103722 -0.06431002 -0.068631485 0.05263588 0.010653456 -0.080496676 -0.06940881
-0.009553673 0.058232408 0.0626855 -0.045692593 0.073721506 0.071555175 -0.011952011 -0.077914804
-0.07696903 -0.06486753 -0.0012178668 0.004688928 -0.058782097 -0.036678024 0.04665466 0.053010307
-0.072363704 0.047187224 0.0065147704 -0.043856952 -0.009458204 -0.07057774
00000000: 719b 303d 5c66 70bb ffd7 823d c444 73ba
00000010: 881c 33bd a0a0 d2bb 5735 863c 8287 773d
00000020: 9268 943d 563c 36bd 3d69 8bbc 6f8b 33bd
00000030: 4ad0 8b3b 1124 6dbd 17b5 93bc 1f97 d93c
00000040: 1fbc 1c3d 6faa 54bd 8c64 8dbd 0126 6d3d
00000050: 0551 5e3d f861 9c3d ea26 cebc f6f2 efbc
00000060: 131a a4bd 71ba a43c 8373 ebbb 03ec 1a3d
00000070: 8824 793d be99 a1bd 6f25 0a3d e1e8 883d
00000080: a45f 4bbc bc79 4ebd 401a 9abd 20aa 2f3d
00000090: 3e01 a1bd 2cb6 df3c 4893 553c 5808 b23c
000000a0: 33fa ff3c eac6 38bd a10d 2ebc 4b65 8ebc
000000b0: e2b0 463d d92b 963d 0eb2 a0bc 8e4a a5bc
000000c0: 9dc1 00bd ab10 423d f24a 1b3b 0800 03bd
000000d0: c3e8 c5bc 9c0b 8e3d e0ad 283d 43a4 64bd
000000e0: e2bc ba3c 1939 75bd dd73 23bd 294a 403d
000000f0: 3d2a 893d e9cf 8a3d 7280 cf3c 4179 57bd
00000100: d341 a63c bf9a 0abc 50a1 8c3c fb9e 0bbd
00000110: 0974 5e3d 145b 30bd 0e50 6dbc c185 adbb
00000120: d844 a8bb bc81 ba3c 4f13 483d b1d5 84bd
00000130: c2e3 1b3c a249 aa3c 8282 6fbd db3a 79bd
00000140: 4add 9eba b5ae 31bd 199d 4e3d dc46 133d
00000150: 59c1 413d ec38 99bd fb13 17bd d59d 843d
00000160: 74e4 913d ed01 92bd a7d3 043d 763a bd3c
00000170: e40e 9fbd 60a0 b6bc adc5 bdbb 70e7 793d
00000180: 38ba 1bbd f67b 913d f9b4 83bd aa8e 8cbd
00000190: b898 573d d58b 2e3c 71db a4bd 3526 8ebd
000001a0: 0287 1cbc 1b85 6e3d 4161 803d 2828 3bbd
000001b0: 4dfb 963d 858b 923d 5ed2 43bc cc91 9fbd
000001c0: f0a1 9dbd 44d9 84bd d4a0 9fba 94a5 993b
000001d0: 7fc5 70bd b23b 16bd f518 3f3d 5621 593d
000001e0: 6c33 94bd 6447 413d db79 d53b 59a3 33bd
000001f0: 95f6 1abc 108b 90bd
