cde/model/checkpoints/5.ckpt (torch, 390543 bytes, 8 tensors)

func.linear1.weight f4 [128, 150]
000000 ea 13 9d bc 8f a0 76 bd c5 37 df bc d7 67 10 3c
       -0.019174535 -0.060211714 -0.027248273 0.00881382
000010 1b 86 1d bd 39 0d a2 bc 3a 01 e8 bc 59 08 30 bd
       -0.03845797 -0.019781696 -0.028320897 -0.04297671
000020 24 1c c8 3a 29 73 7d 3d d6 e0 a5 bb 9a 30 08 bd
       0.0015267176 0.061877403 -0.005062203 -0.033249475
000030 0d ba 4d 3d 3e a5 89 bd ea 39 8f bd f6 8d d9 3c
       0.05022626 -0.067209706 -0.06993468 0.02655695
000040 c0 aa bd bc 02 29 57 3d 17 2f 85 bb 77 c2 2b 3d
       -0.023152709 0.052529342 -0.0040644514 0.041933503
000050 b7 eb 5f bd 63 84 11 3d c6 b7 44 bd ac b1 59 bc
       -0.054668155 0.035526644 -0.048026823 -0.013286989
000060 c9 90 43 3d 8e 7d 71 bd c6 b9 94 3d 69 34 05 3d
       0.0477455 -0.05895763 0.07261996 0.032520685
000070 eb 30 3d 3c 59 9d b5 3b d0 64 84 bd 1f 82 5b 3c
       0.0115473075 0.005542439 -0.06464541 0.0133977225
000080 53 db 3c 3d 1f db d5 bc d7 32 70 bd 58 5b ad bc
       0.0461076 -0.026105462 -0.058642235 -0.02116172
000090 2f 6a a6 bd 43 f4 43 3d 3f 98 09 3c 41 4f 8c bd
       -0.08125722 0.047840368 0.008398115 -0.06851054
0000a0 ac 22 60 3d c9 d0 87 3d be 54 94 3d b1 46 5b bb
       0.054720566 0.066316195 0.07242726 -0.0033458883
0000b0 c4 8e 2f bd d5 f1 5a 3d 35 b1 a6 3d 3e 84 1c bd
       -0.04286076 0.053453285 0.08139268 -0.038212053
0000c0 d2 c5 1a bd a3 57 51 bc 98 7d c3 3c 4f da 90 3d
       -0.037786312 -0.012777242 0.023863599 0.07072889
0000d0 0e c5 60 bd 0d 49 07 bc bc 6d 09 bd 4b 6c 49 3c
       -0.054875426 -0.008257163 -0.033551916 0.012293885
0000e0 dc 90 45 bc b5 f7 04 bd 8b 1a 3d 3d d1 00 8f 3d
       -0.012058463 -0.032462794 0.04616789 0.069825776
0000f0 33 a7 8e bc 91 77 9b 3d 3c 57 ed 3b ca c0 1e bd
       -0.017413711 0.07591165 0.007243065 -0.038758077
000100 6d 64 a7 3c 0c 74 16 bc 78 4f 89 3d be 83 17 3d
       0.020433629 -0.009182941 0.067046106 0.036990874
000110 01 32 56 bc ed 65 41 3a 80 4d 58 3c 1e 7b 9a 3d
       -0.013073445 0.0007377554 0.013202071 0.07543014
000120 83 77 5d 3c 91 9e 40 bc 03 64 33 bd e7 2b 08 bc
       0.013517263 -0.011756555 -0.04379655 -0.008311248
000130 57 ca 27 3d db 07 92 3d 10 b3 a1 3c df da 12 3d
       0.04096445 0.071304046 0.019738704 0.035853263
000140 35 3d be 3c cb 60 f2 3b 54 4e dc bc 89 62 3c 3d
       0.023222545 0.0073967925 -0.026892819 0.045992408
000150 32 14 76 3d c6 21 9d 3d 41 19 e4 3a 08 03 8a 3c
       0.060077854 0.076724574 0.0017402546 0.016847149
000160 bd bb a5 bc 17 47 07 bd eb bd b7 3c 88 08 66 bd
       -0.020231122 -0.03302678 0.022429427 -0.05616048
000170 e5 4d 88 3d 49 73 7f 3d c6 88 29 3d ad 44 51 bd
       0.06655482 0.062365804 0.041390203 -0.051090885
000180 17 63 63 3d f0 3c 60 bd 76 67 a6 bc 6d 2f ce bc
       0.05551442 -0.054745615 -0.020313006 -0.025169099
000190 0f 5b c0 bc a7 b4 18 bd 0c ba 50 3d 7c 53 61 bc
       -0.02348092 -0.03728166 0.050958678 -0.013752814
0001a0 a3 c9 36 38 fc c7 bd bc c0 7a 7a 3d c0 7d 23 3c
       4.357997e-05 -0.023166649 0.06115222 0.009978712
0001b0 de 21 4a 3d ec 54 83 3d ec 5c 2f ba 69 37 9d bb
       0.049348705 0.06412682 -0.00066895667 -0.004797865
0001c0 27 1e 25 3d e7 05 85 bd 5e 0b 92 3d 5a e6 72 3d
       0.04031196 -0.064952664 0.07131074 0.05930171
0001d0 a8 ee 51 bd 16 5d 85 bc 9e 44 9e bd 85 d2 79 3d
       -0.05125299 -0.016279738 -0.077279314 0.060991783
0001e0 e6 1e 07 3d dc 51 1b bc f9 57 80 3d 37 97 56 bd
       0.03298845 -0.009479966 0.062667795 -0.052390303
0001f0 dc c7 36 bd 3e 34 90 3d bb cd ed bc b6 ba be 3b
       -0.044624195 0.070412144 -0.029028764 0.0058205975
000200 86 c1 5f bd 91 0e e7 3c 1d 1b 8e bd 1c 69 28 3d
       -0.054627918 0.028205188 -0.06938765 0.041115865
000210 51 e3 9c bd 96 8e 66 bd 7b 9d 91 bd 06 a2 26 3d
       -0.07660545 -0.056288324 -0.07110115 0.04068186
000220 c9 a2 6a 3d 5e cf 3d bd 6a ce 5f 3c 53 34 3c bb
       0.05728415 -0.04634034 0.013660053 -0.002871771
000230 ab c8 e0 bc 70 94 17 bd 88 72 2e bd d5 02 8b bd
       -0.027439436 -0.037006795 -0.042589694 -0.067876495
000240 e9 0d 5c 3d 0d 50 a7 bd e5 d3 bb ba 20 bb da 3c
       0.053724203 -0.08169565 -0.0014330117 0.026700556
000250 dc 6f 7e bc ba aa 7c 3d 12 7b 88 3d 1d 27 1e 3d
       -0.015529599 0.061686255 0.06664099 0.03861152
000260 5f b9 f1 3b 07 1f a8 bc 41 dd 84 bd 44 62 53 3d
       0.0073768343 -0.020522607 -0.06487513 0.051607385
000270 65 53 1a 3a 1b d8 a2 bd c4 eb 33 3d 18 f9 22 3c
       0.00058870605 -0.07951375 0.043926015 0.009947084
000280 bd a9 e2 bc 60 ba aa 3d f3 30 b7 bc 07 00 14 3c
       -0.027668828 0.083363295 -0.022362208 0.00903321
000290 b4 6b 03 3b 4e a4 49 3d d4 22 66 bd 86 1b ec 3c
       0.002005321 0.04922896 -0.05618556 0.028821718
0002a0 57 95 29 3d 5b 0e 5c bd 82 63 3a bd 7e 37 49 3b
       0.041402187 -0.053724628 -0.045505054 0.0030703242
0002b0 bc ef a6 3d 94 1d e6 3c 35 d7 87 3d 42 34 57 bd
       0.081511945 0.028090276 0.06632844 -0.05254007
0002c0 88 ec 4a bd af 96 ec 3c 26 c1 08 3d 5c 85 35 3d
       -0.04954198 0.028880445 0.033387326 0.044316635
0002d0 46 6f d8 bc 30 c8 93 bd 35 58 9c bc a3 6f d6 3c
       -0.026420247 -0.07215917 -0.01908503 0.02617628
0002e0 25 07 33 bd 85 6d aa 3c c9 0b d4 bc 6a f3 02 3b
       -0.043707985 0.020804176 -0.025884526 0.0019981512
0002f0 92 fd 86 3d 87 19 6f bd 69 f2 a5 bd 63 6a 8d bd
       0.065913334 -0.058373954 -0.08102877 -0.06905057
000300 6d e4 43 3d f9 7b c5 bc 14 5e 15 3c d3 20 69 3d
       0.047825266 -0.024106966 0.009116668 0.05691607
000310 f6 16 28 bc f6 42 04 bc b7 66 5a bd b3 98 05 bd
       -0.010259381 -0.008072605 -0.053320613 -0.03261633
000320 8f 80 d9 bc 9d 78 1f 3c 43 b3 9d 3c 03 b4 5a bc
       -0.02655056 0.009733346 0.019250518 -0.013348582
000330 b0 c2 34 bc bc ab 76 bc 38 76 e0 3c 7a 33 9b bd
       -0.011032745 -0.015055593 0.027400121 -0.07578178
000340 9e 70 e9 3c c5 06 4b 3b e6 88 ff 3a ad e8 c1 3b
       0.028496083 0.0030979377 0.0019495755 0.0059176297
000350 af e2 35 3d 58 48 3a 3d 98 62 f5 bc 56 4d 11 bc
       0.044405635 0.04547915 -0.02995424 -0.008868536
000360 b8 5d 3d 3d e5 4a 98 3b 8d 4c f3 bc 7d d5 70 bd
       0.046231955 0.0046476 -0.029699588 -0.05879735
000370 c9 71 84 3c 55 fe 63 ba 46 86 99 3d b7 c8 7f 3c
       0.016167538 -0.0008697261 0.07496314 0.015611819
000380 c8 0d 0c bd 83 15 c9 3c 30 b6 7d bd 2b b6 8d bd
       -0.03419283 0.02454639 -0.061941326 -0.069195114
000390 25 28 e9 bc e3 0e a0 bd f5 11 8b 3d 72 89 bc 3c
       -0.028461525 -0.078153394 0.067905344 0.023014758
0003a0 f4 20 44 bd 3e 1a 84 bd 93 b1 46 bd 97 51 ac bb
       -0.04788299 -0.06450318 -0.04850919 -0.0052587497
0003b0 e8 02 24 3d ef 9e d2 3c f3 c6 3e bd 8a 72 5c 3d
       0.040041834 0.025710551 -0.04657645 0.05382017
0003c0 03 69 84 bd 63 7a 8d 3d 4b 37 9d bc 6e 9f 1a bd
       -0.06465342 0.06908109 -0.019191405 -0.0377497
0003d0 1c 98 20 3c f1 43 4c bd 26 1b ad bc f0 8d ae bc
       0.009801891 -0.04986948 -0.02113111 -0.021307915
0003e0 54 c3 00 3c a2 90 58 3d 21 3e cc bc 6d e8 91 3d
       0.00785907 0.052872308 -0.02493197 0.0712441
0003f0 71 d6 00 3c 1b 3f e9 bb 52 bb 8c 3d 17 a9 03 bd
       0.007863627 -0.0071181185 0.06871666 -0.03214368

func.linear1.bias f4 [128]
000000 6d bb 09 bd 99 bd 60 bd c0 e9 40 bd 00 52 80 3d
       -0.03362601 -0.054868314 -0.04709792 0.0626564
000010 51 0b 00 3d ea ef 80 3b 90 52 03 bd ba 2b a9 3d
       0.031260792 0.00393485 -0.03206116 0.08260293
000020 0a ed 97 3d 60 5d 68 bd 01 81 ca ba 94 0f 8b bb
       0.074182585 -0.056729674 -0.0015449823 -0.0042438004
000030 bd 33 4d 3d 60 d7 ab 39 4f 9c a4 bd fe 49 6d 3c
       0.05009817 0.00032776129 -0.08037626 0.014482973
000040 69 21 7e bd 56 b1 5f bd 8f e8 51 3d b4 3e f0 bb
       -0.06204358 -0.05461248 0.051247176 -0.0073316935
000050 c3 6b cc bc fd 7f 03 3c b5 ec 8a 3d a5 67 90 3d
       -0.024953729 0.00802612 0.067834295 0.070510186
000060 4a 2c 09 3c 0b 8d 2e bc cb a6 2e 3d e5 76 7a 3d
       0.008372376 -0.010653744 0.042639535 0.061148543
000070 a8 dc a5 3d 9a 2f 3e bd c8 8e a1 bc 73 ab 61 bc
       0.080987275 -0.046432115 -0.019721404 -0.013773787
000080 cd 86 1b 3d 50 d4 a1 bb 6d f6 5a bd 9a c1 8b bd
       0.037970353 -0.0049386397 -0.053457666 -0.06824036
000090 fe 4b 46 bd 5b 7b ff bc fa 04 03 3b d8 48 df 3b
       -0.048412316 -0.03118675 0.001999198 0.0068141036
0000a0 be 6e 90 3d 38 37 47 3c 6d fc 15 bd 19 a2 09 bc
       0.070523724 0.012159161 -0.036617685 -0.0084004635
0000b0 d8 42 ad bd 5d 9f 5e bd 33 00 e0 b9 2e 5f b0 3c
       -0.08460015 -0.0543512 -0.00042724758 0.02152976
0000c0 13 72 57 3d 0d 75 90 bd d3 08 05 3d bb 93 ed 3b
       0.052599024 -0.07053576 0.03247912 0.007250277
0000d0 66 37 df 3c d9 30 b2 bb f9 39 97 3d 60 9f 50 3d
       0.027248096 -0.005437952 0.07384104 0.05093324
0000e0 bd e9 01 3b 77 d1 c0 3c d8 61 9f bc 79 f9 bd bc
       0.0019823157 0.02353738 -0.019455835 -0.023190247
0000f0 1a da 8a 3d 56 e1 9d 3d 5b ae 87 3d 34 fa 9a bd
       0.06779881 0.07708995 0.066250525 -0.07567254
000100 0b e0 97 bd 2d 28 ac 3c a8 fe 87 bd 82 f0 4c 3c
       -0.0741578 0.021015251 -0.06640369 0.012508513
000110 c9 cf fb 3c 9b 3f af 3c ee 4f 75 3d 0f 6c 0d bd
       0.030738728 0.021392634 0.05989068 -0.03452688
000120 c7 54 2e bd eb 1c ab bd b5 10 43 bc a5 a1 04 bd
       -0.04256132 -0.08355125 -0.011905839 -0.03238072
000130 21 3e 69 3c f6 f1 8c 3c 9f 15 9f 3d c8 c8 82 bd
       0.014236004 0.01720522 0.07767796 -0.06385952
000140 c6 82 15 bd 7a 45 b9 bc cb 04 31 bd 9d 0b 59 3c
       -0.03650167 -0.022616137 -0.04321746 0.013247398
000150 fe e8 21 3d f0 8a 91 bd 5f 8d 80 bd d3 2f 7e bd
       0.03952884 -0.07106578 -0.062769644 -0.062057327
000160 4d 08 86 3d 1d bd d1 bc f4 0c 37 3d 63 a0 2e bd
       0.06544552 -0.025602872 0.044690087 -0.042633425
000170 dd 58 5d 3d e0 71 df 3c c9 5d 97 3d 1e 4f 72 3d
       0.054039825 0.02727598 0.07390935 0.059157483
000180 b3 92 a3 bc c7 0a 48 3d 5c c6 33 bd b9 93 86 3d
       -0.019967413 0.048838403 -0.043890342 0.065711446
000190 4e fe b7 bc 34 6e 89 bd 9a 72 78 3d 2b 37 6c 3d
       -0.02246013 -0.06710473 0.060656168 0.0576698
0001a0 34 03 46 bd 7d fb dd bc 4c ec 25 3d a4 e7 88 3d
       -0.0483429 -0.027097458 0.040508553 0.06684807
0001b0 16 9c 80 bd 15 85 3a bd 56 9c 63 3c ea 14 79 3d
       -0.06279771 -0.045537073 0.013892254 0.06081096
0001c0 69 f8 98 bd 96 7f 86 bc ac 01 34 bc 03 68 9b 3d
       -0.074692555 -0.01641826 -0.010986727 0.07588198
0001d0 d6 64 1c 3c c5 75 27 3d 6b 4e d6 3c 9e 6b f2 3b
       0.009545526 0.0408838 0.02616044 0.007398083
0001e0 cd 63 a6 bd 56 aa a9 3b 99 c3 85 3c c0 03 77 3b
       -0.08124504 0.0051777763 0.01632862 0.0037691444
0001f0 7f a6 1e 3c 01 ee 29 3d ef 6d 9b 3c 94 47 a6 bc
       0.00968325 0.041486744 0.018973319 -0.020297803

func.linear2.weight f4 [450, 128]
000000 0d e4 0c bc 12 94 a7 3d 4c 56 8f 3d 54 40 b3 3d
       -0.008599293 0.08182539 0.06998882 0.08752504
000010 0c 4d 49 bd e9 f7 89 3d 2b ea f3 bc ca cf ba 3c
       -0.049145743 0.06736738 -0.029774746 0.02280416
000020 30 58 9c 3d 0a ab 5e bd ab ea 66 3d 53 78 8e 3d
       0.07634008 -0.054362334 0.05637614 0.06956544
000030 32 d6 7d bd ff bd 89 3d 00 02 8f 3d ca c6 30 bd
       -0.06197185 0.06725692 0.06982803 -0.04315833
000040 85 69 92 bd 8e 34 c0 3c be a1 00 3b b8 54 71 bc
       -0.071490325 0.02346256 0.0019627656 -0.014729671
000050 0c e9 0e 3d 9a 1e ab bd 96 74 7f bd 2c 5e 48 bd
       0.03489022 -0.08355446 -0.062367044 -0.048917934
000060 63 ae 57 bc f0 ef f7 3a 20 3b 83 bc cf 60 79 3d
       -0.013164136 0.0018916111 -0.016019404 0.06088334
000070 93 ac 6a bd 23 bf 18 3d ee 07 5a 3d 4a d3 fb bb
       -0.057293486 0.037291657 0.05323022 -0.0076850997
000080 d0 d1 4f 3d 55 c6 b8 3d b1 fb 54 3c 85 12 85 bd
       0.050737202 0.09022204 0.012999461 -0.06497673
000090 1e 7a 94 3d e8 a7 87 3d 8e 7b d8 3c 98 93 98 bc
       0.072498545 0.066238225 0.026426103 -0.018625066
0000a0 9d b9 95 3d 3c 83 03 bb db b0 43 bd 44 fc 78 3d
       0.073107935 -0.0020067235 -0.047776084 0.060787454
0000b0 b7 61 ba 3d 09 ae a7 3d 91 24 0a 3d 26 cb f6 3b
       0.09100669 0.081874914 0.03372628 0.0075315414
0000c0 02 28 9e bc 1e bb 8c bd cb b7 be bb b4 64 24 3c
       -0.019306187 -0.06871627 -0.0058202497 0.010033775
0000d0 83 e3 2e 38 37 e8 46 3d d9 46 5e 3c 7d eb 0c bd
       4.169672e-05 0.0485613 0.013566696 -0.034404267
0000e0 ca 7b 24 bd 8a 3c a4 bd 8e 76 f6 3c 2d 8b 98 bd
       -0.040157117 -0.080193594 0.030085828 -0.07448421
0000f0 0c a8 7a bd b0 96 15 bd 27 0c 66 3d 8b 48 ab 3d
       -0.06119542 -0.03652066 0.056163933 0.08363446
000100 5a a7 6d bd c8 c4 dd 3c 02 1b 6d 3d f8 d9 97 bd
       -0.058020927 0.027071372 0.057887085 -0.07414621
000110 5b 1f 5b bd 6a 0c a5 bd 62 37 e4 bc 17 e7 a2 3d
       -0.0534967 -0.080590084 -0.02785844 0.07954233
000120 63 d3 d1 bb 14 bf 7e 3d c0 64 eb 3c 28 62 67 3d
       -0.006403373 0.062193945 0.028734565 0.056490093
000130 27 bc 8a 3d ff d6 84 bd 3c 2a 67 3d 65 f7 76 bd
       0.067741685 -0.0648632 0.056436762 -0.060294528
000140 02 a2 8a 3b d0 9f ea bc 6e 3d b9 3c 37 2b 5b bd
       0.0042307386 -0.028640658 0.0226123 -0.05350801
000150 ab 8c 20 3c 24 cb 5e 3d 10 0e ed bc 27 ba 40 3d
       0.009799163 0.05439295 -0.02893737 0.04705253
000160 3a 6e 87 bd 51 ef 19 bb 1a 34 a5 3d cf b6 8b bd
       -0.06612821 -0.002348859 0.08066578 -0.06821977
000170 88 be 5e 3d 74 30 17 bd 2f ec 53 3c bd 82 6d 3d
       0.054380924 -0.036911443 0.0129347285 0.05798601
000180 e6 1d 0a bd a0 a7 7f bc 19 91 92 bc 68 39 ba 3c
       -0.03371992 -0.01560393 -0.017891454 0.022732452
000190 5b db 32 3c fa 2d 31 bd 1e e8 c8 3c 6b d1 34 bd
       0.010916556 -0.043256737 0.024524745 -0.04414503
0001a0 60 f2 d3 bc 73 64 47 3d 43 7d 5b bd e9 ba 13 3d
       -0.02587241 0.04867978 -0.053586256 0.036066923
0001b0 ca 2e 7c bd 70 01 75 bc 11 88 d5 bb c5 e9 82 bd
       -0.06156806 -0.014953956 -0.0065164645 -0.06392244
0001c0 a5 2d 87 bd 02 6a 2d 3c b1 a5 a1 bd 11 f6 96 3d
       -0.06600503 0.010584356 -0.07892931 0.07371152
0001d0 dc d7 a3 b5 79 27 a5 bd 18 c7 a6 bd 50 bf 86 3d
       -1.220727e-06 -0.080641694 -0.08143443 0.06579459
0001e0 2d a4 39 3b 45 9d bf 3c 07 4a 1b 3d f3 74 98 bc
       0.0028326616 0.023390422 0.037912395 -0.018610453
0001f0 bd 51 bb 3d ac fe ae bc 8d 2c f2 3c 11 3f 72 3d
       0.0914645 -0.021361671 0.02956226 0.059142176
000200 20 9b f6 bc 41 0b 8d bb c6 66 ba bc 85 b6 21 bc
       -0.030103266 -0.00430432 -0.022754084 -0.009870176
000210 30 e9 c0 bc 78 0d b3 bd d5 9a a3 3d e0 28 54 3d
       -0.023548692 -0.08742803 0.07988516 0.051796794
000220 8e 84 91 bd 4c bd 49 bd 06 d8 69 3d 29 33 23 3d
       -0.07105361 -0.049252793 0.05709078 0.039843712
000230 a0 a9 05 3c b1 97 26 3d 79 00 88 bd 04 24 86 3d
       0.0081581175 0.040672008 -0.06640715 0.06549838
000240 63 68 9c 3d ea 04 e6 3c 7d c8 6b bd ce ee 55 3d
       0.07637098 0.028078515 -0.057564247 0.052229695
000250 ca 01 b2 3c 68 3a 9e 3d ca 32 52 3c b6 8c 8b bd
       0.021729369 0.07725984 0.012829492 -0.06813948
000260 98 89 23 bd aa 32 a4 3d 26 42 89 3d 60 e6 5f bd
       -0.03992614 0.08017476 0.0670207 -0.054663062
000270 bb 81 ea bc 0e 47 66 bd de 77 94 bc 85 61 9b bd
       -0.028626313 -0.056220107 -0.018123563 -0.0758696
000280 31 0d 0a 3d 9d a7 4d bd f7 1e 72 3d aa 49 ac bd
       0.033703987 -0.050208677 0.05911156 -0.08412488
000290 ba a0 19 bd 00 46 24 bd 5c 93 82 bd 87 a9 69 3c
       -0.037506796 -0.04010582 -0.06375763 0.01426161
0002a0 37 5e f2 3c 68 15 86 bd 60 1f 88 3d e5 de 60 3d
       0.02958594 -0.06547052 0.06646609 0.05490007
0002b0 e2 99 d4 3c 13 21 a8 bd 1a a7 74 bd 3f 76 8d 3d
       0.025952283 -0.082094334 -0.059729673 0.06907319
0002c0 39 ae 40 bd 63 44 db 3c 09 4f a7 3d 38 1f 8d 3c
       -0.04704115 0.026766008 0.08169372 0.0172268
0002d0 95 00 c6 bb c5 fd 93 3d d2 ac 5c 3c bb c7 ce 3c
       -0.00604255 0.07226137 0.013468938 0.025241723
0002e0 54 40 ab 3b 29 9b 1f bd 37 8a df bc 65 c2 8d 3d
       0.0052261744 -0.03896633 -0.027287586 0.069218434
0002f0 5f 65 a0 3b 8f b2 85 3c d6 44 9f bb 52 03 78 bd
       0.004894897 0.016320495 -0.004860501 -0.06055004
000300 55 c9 06 bd a3 7f 16 3d 7c b8 05 3d 52 0d 6b bd
       -0.03290685 0.036742818 0.03264664 -0.05738575
000310 78 ea 8b 3d 3e cb 9e 3c 97 9b 52 bc 33 93 56 bd
       0.06831831 0.019384023 -0.012854478 -0.052386474
000320 8c 2f 93 3d eb 59 3c bd 74 7a a9 bd 6e 14 5f 3d
       0.07186803 -0.04598419 -0.08275309 0.054462843
000330 5c d8 e0 bb 4e 60 ce bc 19 b7 8b bc 99 de 84 bc
       -0.0068617295 -0.025192406 -0.017055081 -0.016219424
000340 1f 95 e8 bc 7f c4 ed 3c 22 d8 60 bd 41 74 db 3c
       -0.028391419 0.02902436 -0.05489362 0.026788833
000350 4e a7 ca 3b 44 84 ad bc 59 b2 00 3c 6c 51 7d bc
       0.006184495 -0.021181233 0.007855021 -0.015461307
000360 46 2a 01 bd d7 66 0a 3d 9d e4 ae 3d e1 63 0b 3d
       -0.031534456 0.033789482 0.08539698 0.0340308
000370 f5 3a 67 3c 2f d6 75 3d 75 81 42 3d 69 dc 5c 3a
       0.014113178 0.060018715 0.04748674 0.00084251777
000380 67 76 70 bd e3 4c 67 3c db 36 8b 3d d7 d8 a0 bd
       -0.058706667 0.014117452 0.06797572 -0.07853859
000390 ca 61 7e 3d e5 42 5d bd a0 9c a3 3d 94 3c 89 3d
       0.062104978 -0.054018874 0.07988858 0.067010075
0003a0 ee cb 53 3d 0c 82 52 bd f4 00 06 bc 42 ed 78 3d
       0.051708154 -0.051393554 -0.008178938 0.06077314
0003b0 49 4e 77 bd c4 3b 02 bd fb 56 5d bc 9c 25 8e bd
       -0.060377393 -0.03179528 -0.013509507 -0.06940767
0003c0 42 14 d5 3b 8f 3e aa 3d 1f 66 61 bd c3 11 09 3d
       0.006502659 0.08312713 -0.05502903 0.033464205
0003d0 cb 7e 8e bc 04 09 a1 bc c5 ab c1 3b 31 af bb 3c
       -0.017394444 -0.01965762 0.005910369 0.022910686
0003e0 d7 fc 5f 3d 82 a7 b4 bd 26 60 5f bd 85 1c 05 3c
       0.054684486 -0.08821012 -0.054535054 0.008124475
0003f0 76 1e 27 bd d5 bd 40 3d 04 29 72 bd 34 70 88 3c
       -0.040800534 0.047056038 -0.059121147 0.016655065

func.linear2.bias f4 [450]
000000 50 5a 2f 3d 1b 07 b7 3d 9c b2 80 bd 1f 1c 21 bd
       0.042810738 0.08936902 -0.06284067 -0.03933346
000010 bd 2d 3c 3d 58 e3 b0 bc 45 32 ab bd 7c 50 49 3d
       0.045942057 -0.021592781 -0.083591975 0.04914902
000020 61 4b b7 bd da 53 7a bd af 8f 3c 3d a8 f9 6b bc
       -0.08949924 -0.061115123 0.046035465 -0.014402784
000030 db 0c d1 bc 80 89 b3 bc d9 67 f9 3c 1a e4 5b 3d
       -0.025518825 -0.021916151 0.030445026 0.05368433
000040 e3 da fe bb af 85 ff 3c 55 1d 89 3d 19 87 2b 3d
       -0.007777558 0.031191675 0.06695048 0.041876886
000050 bb 9d 87 3d 8c ec 15 bd b5 e6 11 bd 7c 1e 50 bd
       0.066218816 -0.03660254 -0.03562041 -0.050810322
000060 23 8d 1f 3d aa 2d 18 bd 24 20 5c 3d d0 d2 72 bd
       0.038952958 -0.037152924 0.05374159 -0.059283078
000070 53 55 1c bd 70 15 a3 3c 6f fe b4 bd 4c f0 c3 3c
       -0.03816731 0.019907683 -0.08837592 0.023918293
000080 57 bf 6f 3b 74 eb a7 bd c3 55 43 bd a7 2d 52 3d
       0.0036582553 -0.08199206 -0.04768921 0.05131307
000090 b5 4f 1a 3d 74 91 2a 3c 86 8f 86 3c 15 3e 3e bd
       0.03767367 0.010410655 0.01642586 -0.046445925
0000a0 25 6a 2d bd 5c 90 9e 3d 1a 8a 85 3d 59 5e 9c 3d
       -0.042337555 0.07742378 0.065204814 0.07635183
0000b0 b5 e6 35 3d 58 03 58 bd 8e a9 75 3d eb c6 c8 3c
       0.044409472 -0.052737564 0.059976153 0.024508914
0000c0 d4 7e 8e 3d 06 77 2b 3d 3c 48 2b bd f4 e1 99 bd
       0.06957784 0.041861556 -0.041816935 -0.075138
0000d0 f7 98 48 bd 5b 9f 6d bc bc e2 79 bd 6e 47 9f bd
       -0.048974004 -0.014503325 -0.061007246 -0.07777296
0000e0 88 a3 e9 bc dc c8 13 3d 41 e6 8b 3c 0e a5 a4 bd
       -0.02852036 0.036080226 0.017077567 -0.08039294
0000f0 f8 00 22 bd 8c 14 fb bc 0f 16 82 3d d2 19 10 bd
       -0.039551705 -0.030649446 0.063518636 -0.035180874
000100 3e 64 17 3d 19 83 9e bd 17 2e b4 3d f6 08 9a 3c
       0.036960833 -0.07739849 0.087978534 0.018803101
000110 12 be b0 3c 7f 98 e2 3b 8e 4b 04 3d 67 40 c2 bb
       0.021575008 0.0069151516 0.032298617 -0.0059280875
000120 3f 49 66 bd 33 4c 3c bd 72 11 73 3c 1c 18 89 3d
       -0.056222197 -0.045971107 0.014835702 0.066940516
000130 f2 de a6 3d 4b 54 51 3d 78 03 4f bd fb dd 96 bd
       0.08147992 0.05110578 -0.050540417 -0.07366558
000140 8b e2 b0 bd 29 75 45 bd 42 80 94 3d 32 58 57 3d
       -0.0863696 -0.048207436 0.07251026 0.052574344
000150 12 2f bb 3d 90 91 21 3d 12 ed 27 3d 2c 66 da 3c
       0.09139837 0.03944546 0.040997572 0.026660047
000160 2b 4f 95 3d 76 f1 2a 3d 66 c4 f2 3c 9a 6e c2 3c
       0.07290491 0.04173418 0.029634666 0.02373438
000170 25 e1 8e bd 63 31 bc bc 69 95 20 bd 91 a7 27 bd
       -0.06976537 -0.022972768 -0.03920499 -0.04093129
000180 e6 a0 95 3d f6 ac 6a bd 49 4a ee 3c cb e3 a9 3b
       0.073060796 -0.057293855 0.029088156 0.0051846257
000190 86 75 62 3d 67 fd 8b 3c 52 23 99 bc dd 7d 7a 3c
       0.05528786 0.017088605 -0.0186936 0.015288797
0001a0 a2 a0 c2 bc 61 12 1d bd 69 97 6d 3d b6 50 8c 3c
       -0.023758236 -0.038347606 0.058005724 0.01712833
0001b0 c6 3a ae bc d5 f3 a1 3d 5b 2f ec bc a3 55 3f bd
       -0.02126826 0.079078354 -0.028831175 -0.04671253
0001c0 f3 f3 8c bb 7a 86 04 3b 12 d7 1a bc 32 12 aa 3d
       -0.004301542 0.0020221756 -0.009450691 0.08304252
0001d0 fc d4 9d bd 6d fd 9f bc 2b d1 9d bd 68 c7 67 3d
       -0.07706639 -0.019530023 -0.07705911 0.056586653
0001e0 29 f1 83 bd 08 4f 92 3c 50 2a 8f bd 35 5d 6a 3d
       -0.06442482 0.01785995 -0.06990492 0.057217795
0001f0 ea a5 24 3c a7 3d a4 3d 3f 02 a1 3d 4e 9f 9d 3d
       0.010049323 0.08019572 0.078617565 0.076964006
000200 72 4a 65 bd ef 41 b3 bc 20 f2 73 3d da b7 9d 3d
       -0.0559792 -0.021882026 0.05955708 0.077010825
000210 62 5e a4 3d ba 12 35 3c 06 86 c4 3b ce 32 d4 bc
       0.080258146 0.011051828 0.005997422 -0.025903132
000220 66 55 41 bc a2 ab 6c 3d 73 9b bb bd e0 19 d1 3c
       -0.011800146 0.05778087 -0.09160509 0.025525033
000230 5d ca 8b 3d 35 77 4a bd 35 d1 b1 bd 61 97 78 bd
       0.06825707 -0.04943009 -0.08682481 -0.06069124
000240 d9 db 4d bc 09 f5 60 3d 7d 76 a9 bd 27 7e a5 3d
       -0.012564623 0.054921184 -0.08274553 0.08080702
000250 a2 77 12 bd 8d 6d a3 3d 41 b6 35 3d 0b b1 8b 3b
       -0.035758622 0.079798795 0.044363264 0.0042630485
000260 b8 9e f1 bc 4f 0a 26 bd fc 1c c9 bb 74 5c 31 bc
       -0.029494628 -0.040537175 -0.0061374884 -0.010825265
000270 fe 06 7e 3d 55 a2 56 3d 00 e1 b4 bc 56 4c 89 3d
       0.062018387 0.052400906 -0.022079945 0.06704013
000280 1f 54 93 3c 56 3e 49 bb 54 8c 8d bd e6 a5 aa 3c
       0.017984448 -0.003070732 -0.06911531 0.02083106
000290 34 b0 c7 bc 65 d8 b0 bc 08 81 0e 3d 9e ed 6f 3d
       -0.024376012 -0.02158756 0.034791023 0.05857622
0002a0 11 d3 88 bd 86 ae 73 bd 7e 8c 4c 3d 04 61 6e 3c
       -0.06680883 -0.05949261 0.04993867 0.0145494975
0002b0 e1 51 93 bd 6e 24 0f 3c 12 da f6 3c b6 a8 00 3d
       -0.071933515 0.008736713 0.03013328 0.031410895
0002c0 ca 95 55 bd 97 40 0a 3d 2f e7 5d 3d 28 cc 8b 3d
       -0.052144803 0.033753004 0.054175552 0.06826049
0002d0 58 db 72 3c 7e 4a ff bc 0b 57 2d 3c 0b 99 87 3d
       0.014822803 -0.03116345 0.010579835 0.066209875
0002e0 e8 e2 3d 3b 90 38 dc 3c ec 58 ce bc a6 93 55 3c
       0.0028974358 0.02688244 -0.025188886 0.01303569
0002f0 5a 5e 4f bd 8b e3 b3 bd 34 aa 15 3d f8 a2 2a bd
       -0.05062709 -0.08783635 0.03653927 -0.041659325
000300 d7 e3 96 bd 7a 9d 59 3d b5 d6 87 3d 49 fe 37 3d
       -0.07367676 0.053128697 0.06632749 0.04492024
000310 cb 6f 9e 3d 93 64 a7 3d 54 f5 3e 3d 27 69 49 3d
       0.077361666 0.0817348 0.046620682 0.049172547
000320 b8 ec 66 3a 6d 9e 05 bd 8f 59 4b 3d 91 0f 14 bd
       0.00088090776 -0.03262179 0.049645957 -0.036147658
000330 70 7c 8d bd 73 fc aa 3d c4 c5 8d 3d aa 26 22 bd
       -0.069085 0.08348932 0.069224864 -0.039587654
000340 3a 9e c5 38 ae 43 e0 3c a8 a1 ae bd fe 38 4f bc
       9.423164e-05 0.027376022 -0.08526927 -0.012647865
000350 ca 07 53 3d e3 2a 8b 3d e5 cf df ba 75 7b a9 bd
       0.0515211 0.06795289 -0.0017075507 -0.08275501
000360 39 1c 8e bd 23 26 b2 bd 4a 32 82 bd 07 6b 95 bd
       -0.06938977 -0.0869868 -0.06357248 -0.072958045
000370 67 f8 03 3d 76 72 87 bd df 43 e8 3b c1 0f 0c bd
       0.032219317 -0.066136286 0.007088169 -0.03419471
000380 40 65 07 3d 5a 63 91 bd 0b be 74 3c a5 be da bc
       0.033055544 -0.07099028 0.014937888 -0.026702235
000390 b5 d0 e8 3c d5 3e 4a 3d da 14 77 bd 08 89 77 bd
       0.028419832 0.049376328 -0.06032262 -0.060433418
0003a0 6b f7 33 bd 3d 48 cf 3c b0 42 a3 bd 7c 3e 06 bd
       -0.043937128 0.025303 -0.07971704 -0.032774433
0003b0 38 c5 9c 3d cb 93 43 bc c5 07 81 3d 82 f2 5f bd
       0.07654804 -0.011937092 0.0630031 -0.054674633
0003c0 64 63 a6 3d 80 ad da 3c 76 60 81 bd f2 5a dd 3b
       0.08124426 0.02669406 -0.063172266 0.0067552263
0003d0 e5 b4 3d 3b 62 13 04 bd fe f1 82 bd 68 ef 8a 3d
       0.0028946933 -0.032245047 -0.063938126 0.06783944
0003e0 0f f9 c1 ba 6c a2 f9 bb 26 4b a5 3d dd 8f 9a bd
       -0.0014798957 -0.007618239 0.08070974 -0.07546971
0003f0 fb 71 24 bc 60 72 8e 3d 0f f7 95 bd 61 52 c1 3c
       -0.010036941 0.06955409 -0.07322513 0.023598852

initial.weight f4 [150, 3]
000000 ef 1e 0e 3f 62 f7 70 3e d6 71 b1 be 96 0a 1b 3e
       0.5551595 0.23531869 -0.34657162 0.15140757
000010 66 50 b7 bd fd 82 81 be 8c 2b a7 3e 41 04 1e 3e
       -0.08950882 -0.2529525 0.3265041 0.1543131
000020 94 c0 f2 be 30 5d 01 bf 17 53 c2 3e ad 5b 04 bf
       -0.4741255 -0.5053282 0.37954018 -0.51702386
000030 a6 8d 3d be 6f 6a 6f bd 63 b2 90 3e 3b ec f3 3e
       -0.18511066 -0.058451112 0.28261098 0.47641167
000040 a9 cc 31 3e cd 89 12 be 99 b5 9a 3e df cf 29 be
       0.17363228 -0.1431038 0.30216673 -0.16583203
000050 7b 4d a8 be 49 35 aa 3e 0d 88 da 3e ec 1f 8b be
       -0.32871613 0.33243778 0.42681924 -0.27172792
000060 ed 10 75 3d 8a d8 96 be 6d 50 a2 be cc c4 13 bf
       0.059830595 -0.2946208 -0.31701985 -0.57722163
000070 c4 65 96 be 43 5f fb ba c8 08 37 bc a2 6e d8 3e
       -0.29374516 -0.001917817 -0.011171527 0.42271906
000080 5e d7 0c 3f b2 f3 b2 bd b8 44 f4 be 83 da 07 be
       0.55016124 -0.087378874 -0.47708678 -0.1326695
000090 0b 65 2b 3e c1 9c a8 be 3f e1 85 be 50 b3 a2 be
       0.16737764 -0.32932094 -0.26148412 -0.3177743
0000a0 e1 e3 e4 3e ae 2f ed be 9c ba 74 be 60 28 6b be
       0.44705108 -0.4632544 -0.23899311 -0.2296462
0000b0 a7 b2 c9 be e2 56 d7 3e 62 9a 70 be 80 46 59 be
       -0.39394113 0.42058474 -0.23496392 -0.212183
0000c0 b5 19 9f be 92 f7 12 3e ab f9 0f bf 04 94 53 3e
       -0.310743 0.14352253 -0.5624034 0.20661932
0000d0 58 81 09 be 72 af 6d 3d 33 18 57 be e1 e2 41 3d
       -0.13428247 0.058028646 -0.21005325 0.04733551
0000e0 bc 84 a1 3e 42 e6 b3 3d 27 8b 63 bd bd 3f fd be
       0.3154658 0.087841526 -0.055552628 -0.4946269
0000f0 9b 25 9e 3e 7b ec a4 3e e5 8e ea 3e f6 15 6d 3e
       0.30888066 0.3221167 0.45812145 0.23152909
000100 dd 42 05 3e a8 bb d6 3d dd 93 5c 3d 23 5e df be
       0.13013788 0.10485011 0.05385195 -0.43626508
000110 d2 6f 10 3e 40 76 03 bc a8 4c 66 bb e0 15 7c be
       0.14105156 -0.0080237985 -0.0035140906 -0.2461772
000120 3a 6b 5d be 6f df e7 3e 23 b2 4a bb bd 32 20 3e
       -0.21622935 0.45287654 -0.0030928932 0.15644355
000130 37 fb 04 3f 16 62 e1 3e f3 6e c7 3c 60 f7 bc be
       0.51945823 0.44020146 0.024344897 -0.36907482
000140 90 05 c5 3e 54 09 b4 be 75 16 0b bf a9 dd 6e 3e
       0.38480806 -0.35163367 -0.5433114 0.23326744
000150 bb 73 93 3c bf 7e 85 3d 34 94 b2 3e d4 aa f1 be
       0.01799952 0.065183155 0.34878695 -0.47200644
000160 21 04 9f be 5b ce 07 3f 5a 13 e6 3e c4 9c c2 be
       -0.31057838 0.5304925 0.4493664 -0.38010228
000170 49 48 d4 be b4 79 22 3e 86 6c 91 3d 5d d9 ec 3e
       -0.414614 0.15866739 0.07100777 0.46259585
000180 cd f9 39 be d3 c9 af 3e 39 b4 92 3d b8 d8 ea 3e
       -0.18161698 0.34333667 0.07163281 0.45868468
000190 b9 00 cf be 3f d2 bf bd c5 c2 8a 3e 7c 23 52 be
       -0.4043024 -0.09366273 0.27101722 -0.20521349
0001a0 5b c9 0f 3f 2b 0c 58 3e fc 4d d7 3c 0b 03 fb be
       0.5616662 0.21098392 0.026282303 -0.4902576
0001b0 15 d4 a0 be 58 dd fc be d7 31 1a be 94 20 ef 3e
       -0.31411806 -0.49387622 -0.15058075 0.46704543
0001c0 4b c7 0b bf 12 44 89 3e 26 16 a6 bd b7 fb eb 3e
       -0.5460097 0.26809746 -0.08109693 0.4609048
0001d0 3c b8 48 be fd 95 6f 3e dc 4c 10 bf 87 af 92 3e
       -0.1960153 0.2339706 -0.5636728 0.28649542
0001e0 7e 96 da be 94 b7 11 be 36 e0 6e 3e a8 39 81 3e
       -0.4269294 -0.14230186 0.23327717 0.252393
0001f0 10 d4 eb bd 05 30 03 bf ef df 68 3e e3 42 f9 3e
       -0.11515057 -0.51245147 0.22741674 0.48683843
000200 39 cb 5f 3c bd 5a 8e be 9e ad 9b be 67 4c c1 3e
       0.013659292 -0.27803603 -0.30405897 0.37753603
000210 7e b9 a2 be c2 10 ef be c9 fc a8 3e a3 d5 26 be
       -0.31782144 -0.46692473 0.3300536 -0.16292433
000220 6a 48 ab bd 27 f7 10 bf 0d b6 bd 3e 89 13 b1 bd
       -0.08363421 -0.56627125 0.37052956 -0.08646304
000230 7b 98 a4 3e d5 96 c6 3e fa c7 85 bd be d8 09 be
       0.32147583 0.3878695 -0.06532283 -0.13461587
000240 63 3f 1a 3e c0 de 11 bd 93 34 c3 be 35 91 c3 be
       0.15063243 -0.03561282 -0.38126048 -0.38196722
000250 a0 70 3d be 37 3d 0e 3d 68 da f6 bd 2e 44 10 bf
       -0.18499994 0.034726348 -0.120533764 -0.56354034
000260 35 f1 17 3e b0 67 97 3e 22 c6 e9 3d 6d 2d 10 3f
       0.14838107 0.29571295 0.11414744 0.56319314
000270 a9 e9 f5 3d 38 ad 85 be 08 7e 0f bf 98 0d a3 bc
       0.12007458 -0.26108718 -0.56051683 -0.019903943
000280 0d 9c 00 3e 0c 66 c1 be 19 39 11 3e 33 0d b4 be
       0.12559529 -0.37773168 0.14181937 -0.3516632
000290 e7 15 62 be 9c 56 0e 3f 78 35 3b be 11 1a 58 3e
       -0.22078668 0.55600905 -0.18282115 0.21103694
0002a0 0c f3 fb 3e 12 09 67 bd d9 62 db 3e 16 9e b5 be
       0.49208868 -0.056405134 0.42848852 -0.35472172
0002b0 d9 e2 a7 3e f7 a0 dd bd 68 d3 c3 3a 99 b0 d5 bd
       0.3279026 -0.10821717 0.0014940323 -0.10434074
0002c0 3c fd 9b 3e d6 7f 95 bd 68 94 08 bf cd 70 11 bf
       0.3046664 -0.072997734 -0.5335145 -0.56812745
0002d0 ff 1b b1 be 04 25 85 be a9 77 d8 be d7 31 d9 be
       -0.34591672 -0.26004803 -0.42278793 -0.42420837
0002e0 d1 b8 98 bd 2e ed dd be c6 19 c8 3e a3 c9 d4 3e
       -0.07457126 -0.43345016 0.39082164 0.41560087
0002f0 12 ba 4e 3e 4f b9 fc 3e 8e 89 db 3d ef fd e4 3d
       0.20188168 0.4936013 0.10719596 0.111812465
000300 ac 11 03 bf 5f 5d 90 3e 40 8d eb be 5c 36 dd 3e
       -0.5119884 0.28196236 -0.46006203 0.43205535
000310 59 de 8e be 81 6b 08 be 0b 38 02 bf 2e ec 74 3e
       -0.27904013 -0.1332226 -0.50866765 0.2391822
000320 7c f6 78 be 94 22 5c 3e 50 25 22 bd 29 52 a3 be
       -0.24312776 0.21497566 -0.039586365 -0.3189862
000330 e0 4f 03 3e 50 60 d8 bd bd a2 01 3e 6e 4a 3f 3e
       0.12823439 -0.10565245 0.12659736 0.18680736
000340 57 62 98 3e ba 6d c7 be c3 b0 ea 3e b5 9c 57 3e
       0.29762527 -0.38950902 0.45837983 0.21055873
000350 af a5 1a be 4d e8 ac 3e 92 d1 b6 3c 15 86 cb be
       -0.15102266 0.3377098 0.022316728 -0.39750734
000360 57 0f 1a bd 80 b1 30 be 34 c8 b7 bc 13 e7 00 3f
       -0.037612285 -0.17255211 -0.022434331 0.5035259
000370 4f 57 10 bf 5e a8 77 be eb f3 52 3e 84 7d eb be
       -0.5638322 -0.2418532 0.2060086 -0.45994198
000380 4b c2 dd be 42 e8 81 3e d7 8b c7 be cc 1f a4 3e
       -0.43312296 0.2537251 -0.38973877 0.3205551
000390 9d 82 0a bf ed a9 9c 3e 16 d5 a3 3e 37 2b 0d bf
       -0.5410555 0.30598393 0.3199851 -0.55144066
0003a0 e9 0f cf 3e e8 c7 41 be ff d3 05 3e 36 f0 89 3e
       0.40441826 -0.18923914 0.13069151 0.2694108
0003b0 79 3f a3 3e ae c8 ef 3e c7 4d e0 3e 2b 2d d2 bc
       0.31884363 0.46832794 0.4380934 -0.025656303
0003c0 8c b0 61 be a8 0f 9e 3e 85 14 79 3e 40 53 4f 3e
       -0.22040004 0.3087132 0.24324234 0.20246601
0003d0 f4 87 31 3e 78 35 0d bf be 3d 44 3e d5 1a 47 3e
       0.17337018 -0.5515971 0.19164178 0.1944383
0003e0 33 3e 85 3e f3 fc c1 be 06 5c 98 be 4b f0 5c be
       0.26024017 -0.37888297 -0.29757708 -0.2157604
0003f0 7a 71 14 3f 7e 95 e0 3e a3 8b 88 be 72 d6 d9 be
       0.5798565 0.43864053 -0.26669034 -0.4254642

initial.bias f4 [150]
000000 cd 38 49 be 73 ce cc 3e 2c b8 0a bf 9c 8e 59 be
       -0.19650574 0.40001258 -0.54187274 -0.21245807
000010 8c 22 5f 3e 0d 9c be be 04 33 07 3e a2 e1 82 be
       0.21790522 -0.37228432 0.13203055 -0.2556277
000020 d2 80 f3 be a8 a2 06 bf 9f cb a8 be 8e 31 0a 3f
       -0.4755922 -0.52591944 -0.3296785 0.53981864
000030 ab 58 37 be 68 2a 40 3e 0f 34 fa 3e 5a a4 0b 3e
       -0.17904918 0.18766177 0.48867843 0.13636914
000040 f0 2a 0e bf 1f 9e 36 be a8 c5 79 be 74 68 74 3d
       -0.5553427 -0.17833756 -0.24391806 0.059669927
000050 3e dc f1 bd a2 6d 5b bd 7a 5e dd bd 8e f4 da 3d
       -0.11809586 -0.05357135 -0.108090356 0.10691176
000060 2f c9 8e be 31 30 b2 3e c4 32 9f 3e 6b ec 11 bf
       -0.27887866 0.34802392 0.3109342 -0.5700137
000070 f9 f7 5e 3e 0e 73 8b 3e fa 3b 5b 3d 81 7f 2d be
       0.21774282 0.27236217 0.053523995 -0.1694317
000080 ac 5f e7 3e 8a 03 da be f7 82 fe 3e 66 cb 9d be
       0.4519018 -0.42580825 0.49709293 -0.30819243
000090 67 7c f6 be 94 6c c6 bc 02 bc b8 3e 4c eb a8 bd
       -0.48141786 -0.024221696 0.3608094 -0.08248004
0000a0 68 c5 f6 be 62 b5 00 bf 8b a2 09 3f a8 38 10 3f
       -0.48197484 -0.5027677 0.53763646 0.5633645
0000b0 a9 ea 0e bf a2 7e e8 be a7 74 07 3e d7 3a 84 be
       -0.55826813 -0.45409113 0.13228093 -0.2582614
0000c0 9d aa cb be 0a 01 01 bf 7d eb 31 be 50 d9 81 3e
       -0.39778605 -0.5039221 -0.17374988 0.2536111
0000d0 32 0d a5 be e5 24 f4 bc a4 1f 66 be 75 7f 18 be
       -0.3223663 -0.029802749 -0.22473007 -0.14892371
0000e0 99 12 f1 be 13 4c 0c bf a6 c2 a6 3e c9 9b 33 be
       -0.470845 -0.5480358 0.3257038 -0.17539896
0000f0 26 e0 30 be 67 f6 dc be 69 51 ae 3e 49 96 a8 bd
       -0.17273006 -0.4315674 0.34046486 -0.082317896
000100 ea 3f 38 3d 46 8d a0 be 4e 05 f0 be 64 49 13 be
       0.04498283 -0.31357783 -0.46879047 -0.14383465
000110 d3 54 37 be d1 8f 83 3e e7 e7 1d 3e 58 3b c6 be
       -0.17903452 0.2569566 0.15420495 -0.3871715
000120 b8 a2 58 be e4 ec 0a 3d e6 64 b3 3e b0 2e 3f 3d
       -0.21155822 0.033917323 0.35037917 0.046675384
000130 25 6e 3f 3e d0 09 3c be df a4 a8 be 65 e1 96 3c
       0.1869436 -0.18363118 -0.32938287 0.018418023
000140 76 08 15 3f ac 1c a9 3d 66 a2 aa 3c 40 ac 0f bf
       0.58216035 0.08257422 0.02082939 -0.5612221
000150 bb 7b a3 be 27 ae ce 3e 4b bc c6 bd ab de 05 bf
       -0.31930336 0.40367243 -0.09703883 -0.5229289
000160 43 41 70 3d c5 6a b1 be c7 22 b6 be f8 c1 7b 3e
       0.05865599 -0.3465177 -0.35573408 0.24585712
000170 73 a5 ad 3e f9 fd b6 be 40 49 ac 3e 8e f2 bb 3e
       0.3391529 -0.3574064 0.33649635 0.36708492
000180 3a 5d 85 3e 3e 91 f4 3e f1 84 c3 be a6 b6 61 3c
       0.2604769 0.4776706 -0.38187364 0.013776457
000190 6c 61 36 be b4 ff dc bd 8f e4 15 be f1 b6 b7 3e
       -0.17810601 -0.10790959 -0.1463797 0.3588176
0001a0 07 f2 0c bf bf a2 1d bc 5d 93 59 be 11 be f9 3e
       -0.55056804 -0.009621321 -0.21247621 0.48777822
0001b0 9c 7b 51 3e 92 1a 06 3d a8 d3 d9 be 38 d0 b5 be
       0.2045731 0.032740183 -0.42544293 -0.3551042
0001c0 ee ac fb 3e 2e 8f b8 be 9f 37 9a bb a2 01 b7 3e
       0.49155372 -0.36046737 -0.0047063376 0.35743433
0001d0 bc ef e9 be f4 24 b0 3e 3b fa a4 bc 73 e4 97 3d
       -0.45690715 0.34403193 -0.02013885 0.0741662
0001e0 41 87 01 3f bc 0c 20 bc ae 50 cf be aa 79 ca be
       0.50597006 -0.009768661 -0.4049124 -0.39545947
0001f0 61 dd ad 3e bc 9c bf 3e e2 10 04 bf 1d ae c1 be
       0.3395796 0.37424266 -0.5158826 -0.3782815
000200 c7 c3 8c be 73 88 4a 3e a1 a5 f8 3e eb 5c 15 be
       -0.27493116 0.19778614 0.48563865 -0.14586227
000210 4d d3 14 3d 51 42 6d 3c 27 0f 55 be 78 01 af be
       0.036334325 0.014481143 -0.20806561 -0.34180808
000220 79 95 18 3e 9b 8f 09 bf dc 7d 00 bf f9 5f 12 3f
       0.1490077 -0.5373475 -0.50192046 0.5717769
000230 5b 76 92 be a3 3a f0 bb a1 1e 93 3e d6 25 0f 3f
       -0.28605923 -0.007331209 0.28734306 0.5591711
000240 da e0 cb be 55 67 ce be 37 00 dc 3c 94 2d ac 3e
       -0.39819986 -0.4031321 0.026855571 0.33628523
000250 a1 af e9 3e e5 79 96 bd
       0.45641807 -0.07347468

readout.weight f4 [126, 150]
000000 ff 64 01 3d b2 e3 18 3d 23 1b 8f bd 9d 28 95 bd
       0.031590458 0.037326522 -0.06987598 -0.07283137
000010 3b bc 81 3d 18 ee e7 bc 58 08 6f bc c6 d0 d0 3c
       0.0633473 -0.028311774 -0.014589392 0.025490176
000020 75 a2 3e bd ae 9f 81 bd 07 91 72 bd 91 19 28 bd
       -0.04654165 -0.063292846 -0.05922034 -0.041040007
000030 1b bb 1c 3d a3 fd 77 3d 50 5f a7 bc 98 aa 63 bd
       0.038264375 0.06054462 -0.02043119 -0.055582613
000040 62 a9 82 3d cc 5c 6a bd 4d cf 6c 3d 04 25 38 3d
       0.063799635 -0.057217404 0.057814885 0.044957176
000050 96 a0 56 bd 09 11 0a 3d 79 0b 94 3d b0 b4 77 bd
       -0.05239924 0.033707652 0.07228751 -0.06047505
000060 39 13 9b 3c 56 78 7e bd d1 0c e8 bc 0f 2b 14 3d
       0.018930065 -0.06212648 -0.028326424 0.036173876
000070 cf f8 1c bd 16 dc 90 bd 44 cf 51 bd 35 9c 07 bd
       -0.03832322 -0.07073228 -0.051223055 -0.033107955
000080 00 89 96 bc 5e a7 7b 3d 42 47 32 bd 19 73 d3 3c
       -0.018375874 0.06143891 -0.043524988 0.025811719
000090 ff 32 c3 bc 39 6b 81 3d 02 f3 5b 3d 3b 19 fe 3c
       -0.023828028 0.06319279 0.053698547 0.03101789
0000a0 6e 5f 46 bd c8 41 41 3d 00 73 84 3c cc 0b f1 bc
       -0.048430853 0.047181875 0.016168118 -0.02942457
0000b0 a6 7e 13 bd 76 fd 1c bc 45 95 89 3c a8 23 b7 3c
       -0.036009453 -0.009581914 0.01679481 0.02235587
0000c0 fe b2 91 3c 14 f8 7c 3d 09 a5 99 bd e0 ce 83 bc
       0.017785545 0.061760023 -0.07502181 -0.016089857
0000d0 42 a6 91 3c 32 97 30 3d 2a 47 8f 3b b5 b3 82 3d
       0.017779473 0.04311294 0.004372497 0.06381933
0000e0 da fc 57 3d 81 f4 b2 3c 6a ce 3f bd 8e d1 7b bd
       0.052731372 0.021845104 -0.04682771 -0.061479144
0000f0 0b 21 98 bd 42 0a 9e bc 91 b9 72 bd 6c 5c 71 bd
       -0.074281774 -0.019292 -0.059259 -0.05892603
000100 25 1a 7c bd 01 be 4a 3b 47 4f 47 3d 21 4f 9a 3d
       -0.06154837 0.0030936005 0.04865959 0.07534624
000110 7d 14 82 3d 49 7f 2c bd 32 5c b0 bc 43 d9 43 3d
       0.06351564 -0.042113576 -0.021528337 0.04781462
000120 1b 41 16 bd 25 50 18 bd 88 a1 17 3d d5 7f 2a 3d
       -0.036683183 -0.037185807 0.037019283 0.041625816
000130 f3 e5 48 3d ef 27 05 3d dd a6 86 bd 0d c8 9e bd
       0.04904742 0.032508787 -0.065747954 -0.077530004
000140 6e 87 22 3d 56 ed 8f bd ab d7 f0 3c 37 5d 93 3b
       0.039679937 -0.0702769 0.029399714 0.004497196
000150 0a 96 05 bd 3f 01 36 bd 5d 76 c2 3c ea 8d 39 bd
       -0.03261379 -0.044434782 0.02373808 -0.045301355
000160 96 5e 48 3d e7 b3 84 3d 01 02 0a bd 12 01 ef 3c
       0.04891833 0.06479626 -0.033693317 0.029175315
000170 35 43 d1 bb cb b2 11 3c 18 c7 24 bd 22 96 0e 3d
       -0.0063861855 0.008892725 -0.040228933 0.034811147
000180 5a e7 73 3d 8c 69 96 3d 55 4c 5a 3d 8a 7a 8c bd
       0.059546806 0.0734435 0.053295452 -0.0685931
000190 2d 0e aa 3c d9 21 c5 bc 84 0e 80 bc 98 e1 db 3a
       0.020758713 -0.024063991 -0.015631922 0.0016775606
0001a0 31 55 56 3d 9b b4 9e 3c 30 c8 a3 3d 7d f5 97 3c
       0.05232734 0.019373229 0.07997167 0.018549675
0001b0 f3 e7 46 3d 78 8c 93 3c d7 40 44 3d 42 12 b8 bb
       0.048561048 0.018011317 0.0479134 -0.005617411
0001c0 de 72 0e bc ab 23 d9 3c f9 29 67 3b ca e3 61 3d
       -0.008694379 0.026506266 0.003527282 0.055148877
0001d0 a2 88 4b 3d 3d 99 2a 3d 28 27 96 3d e7 2b 01 bd
       0.04969085 0.041650046 0.07331687 -0.03153601
0001e0 59 d7 df 3b 23 86 6c bd de 25 91 bd 9c b5 73 3c
       0.0068310914 -0.05774511 -0.07087301 0.014874842
0001f0 68 92 1f 3d fd 15 03 3c aa 0f 92 3d 74 b8 64 3d
       0.038957983 0.008000848 0.07131894 0.05583997
000200 c3 5c 1b bd 3c 4e 94 bd 24 28 ef bc 70 e9 09 3c
       -0.03793026 -0.072414845 -0.029193945 0.008417472
000210 0b 08 8b bd 8a b8 2e bd 1e 82 a3 3d 06 4c 85 bc
       -0.067886434 -0.04265646 0.07983802 -0.016271602
000220 17 b3 21 3d 33 f0 80 3b f9 b2 24 3c 49 ed 3c 3d
       0.039477434 0.003934884 0.010052436 0.04612473
000230 43 83 f7 38 62 2b 46 3d f6 4f 0f bd e6 f9 95 3d
       0.00011802327 0.048381217 -0.034988366 0.07323055
000240 f0 41 a3 3d 7d 40 28 3d b1 14 d0 3a e2 a6 df bc
       0.07971561 0.041077126 0.0015875307 -0.027301256
000250 6a 30 14 3d 56 70 81 3d a9 1c 86 3d 70 15 c3 bc
       0.036178984 0.063202545 0.06548435 -0.023813933
000260 67 c3 a4 3d 99 cf b2 3c 53 b7 6e 3d 72 0c 92 bd
       0.080450825 0.021827506 0.0582803 -0.0713128
000270 fe 97 3e bd 28 6b e5 3c 8a ae 92 3d 33 d9 80 3b
       -0.04653167 0.028005198 0.07162197 0.003932142
000280 18 b3 6d bd 58 5d 23 3d 89 09 8f bd f7 3b ce bc
       -0.058032125 0.03988394 -0.069842406 -0.025175078
000290 80 1e 76 3c ce 1b a1 3c 58 52 d2 bc 69 a9 54 3d
       0.01502192 0.019666579 -0.02567403 0.051919375
0002a0 96 da 3a bd e7 f3 7f bd 66 8e 90 bd a8 76 e6 ba
       -0.045618616 -0.062488463 -0.0705841 -0.001758297
0002b0 24 30 63 bc e2 95 7d bc 16 24 1f bc 99 20 12 bd
       -0.013866458 -0.015477629 -0.009713193 -0.03567562
0002c0 f3 4d 3f 3d e1 6c 52 bd 88 0c 45 bb a2 9e 59 3d
       0.046705198 -0.051373366 -0.0030067284 0.0531298
0002d0 96 5d 51 3d 33 52 d9 3c fb 1c 81 bd 6f 8c 8c bd
       0.05111464 0.026528453 -0.06304356 -0.06862723
0002e0 13 68 49 3d 86 19 9c bd ad 4d 8d bd c1 bb 7f 3d
       0.04917152 -0.07622056 -0.06899581 0.062434915
0002f0 e5 18 64 bd 68 97 f6 bc cd c6 95 3c cd 7c f2 3b
       -0.055687804 -0.030101493 0.018283272 0.0074001313
000300 91 26 bb bc 3b c3 0a bc 74 82 8b bd bb 05 20 bc
       -0.022845538 -0.008469398 -0.06811991 -0.009766991
000310 2f 69 a9 bc e9 f0 59 bc 11 62 47 bb b7 81 84 3b
       -0.020680038 -0.013302066 -0.0030423442 0.0040437835
000320 3a d3 82 bc 67 e0 d3 3c 1b 0d f5 3c 3a 5d 98 3d
       -0.015969861 0.02586384 0.029913476 0.074396566
000330 d9 10 93 bd 0f e5 8a bd 59 d2 a8 3b 39 75 75 3c
       -0.07180948 -0.06781971 0.0051520285 0.014981561
000340 dd 60 5f 3d bb 61 92 bc 61 f5 df 3b 0a 19 4e bd
       0.054535735 -0.017868867 0.0068346714 -0.050316848
000350 06 05 4a 3d 4f f7 db 3c 6b 8e 8e 3d b9 e0 3e 3d
       0.049321197 0.026851324 0.06960758 0.04660103
000360 63 b7 93 3c 80 97 53 3d e2 fa 01 3c a0 47 56 bd
       0.018031782 0.051658154 0.00793335 -0.0523144
000370 50 fa c6 bc 5c 99 8b 3d 57 4b d2 bc 1e d6 81 bd
       -0.02428928 0.0681636 -0.02567069 -0.06339668
000380 16 64 d8 3c 7e f6 ca 3c d4 2c 45 bd 57 22 af 3c
       0.026414912 0.02477574 -0.048138455 0.02137868
000390 2a cb 8a 3d 34 0b 8a 3d f1 99 ac bd 77 d6 6c 3d
       0.06777032 0.06740418 -0.084277995 0.057821717
0003a0 43 ed 53 3d 81 49 8f bd 57 bc 5c 3d 9d 1f 1c 3d
       0.051739942 -0.06996442 0.053890552 0.038116086
0003b0 48 a1 2a bc d9 14 a6 bd 18 58 b7 bc 1f 18 2b 3d
       -0.010414429 -0.08109445 -0.022380874 0.04177105
0003c0 22 b9 99 3d 87 de 1f 3d 4c 65 8b 3d e6 69 02 3d
       0.075060144 0.039030578 0.0680643 0.031839274
0003d0 63 f0 53 bd 62 de 6d bc cc 5a 96 3d f5 22 95 bd
       -0.051742923 -0.014518352 0.07341537 -0.07282058
0003e0 67 3a 28 3d 10 1e e7 3b 7b 59 8b 3a 89 02 60 3d
       0.04107132 0.0070531443 0.0010631526 0.054689918
0003f0 c7 b0 93 3c 0c 0a 45 bd 28 f2 ae 3c d1 2e d7 3c
       0.01802863 -0.048105285 0.021355703 0.026267441

readout.bias f4 [126]
000000 ba f2 2c 3d 31 ff 97 bb ec d5 80 3d be 81 fb ba
       0.04222367 -0.0046385755 0.06290802 -0.0019188446
000010 1a 15 36 bd 46 e1 f1 bb 45 8e 8d 3c 4a 09 74 3d
       -0.044453718 -0.007381591 0.017279753 0.05957917
000020 67 82 92 3d 41 35 3a bd c4 02 91 bc b6 81 37 bd
       0.071537785 -0.045460943 -0.017701514 -0.044801436
000030 82 09 79 3b 3e 47 6f bd 6e 70 9b bc ef f8 d9 3c
       0.0038000052 -0.05841755 -0.01897451 0.026607959
000040 4b 59 19 3d eb 3c 58 bd 27 4f 8f bd ba c6 69 3d
       0.037438672 -0.05279247 -0.06997519 0.057074286
000050 af b5 5c 3d 67 7b 9a 3d 71 86 d5 bc 50 b5 f6 bc
       0.053884204 0.075430684 -0.026065083 -0.030115753
000060 42 d0 a5 bd 73 5a 9d 3c 1e 99 03 bc 27 a0 17 3d
       -0.08096363 0.019208169 -0.008032111 0.037017968
000070 0f b2 75 3d 35 6c a3 bd 49 ee 06 3d d7 05 87 3d
       0.059984263 -0.07979623 0.03294209 0.06592911
000080 47 f8 58 bc 32 81 52 bd 40 ed 9b bd 40 3c 2c 3d
       -0.013242788 -0.05139274 -0.07613611 0.042049646
000090 45 fa a2 bd 25 e3 d9 3c 8f 86 47 3c 42 0d ab 3c
       -0.079578914 0.026597569 0.012178077 0.020880345
0000a0 4b f4 f7 3c 9e 7f 3c bd 42 3c 3a bc 77 d7 95 bc
       0.030267855 -0.046020143 -0.011366906 -0.018291218
0000b0 dc bf 42 3d 0e 26 94 3d 18 78 a8 bc 34 69 ac bc
       0.047546253 0.07233821 -0.020565078 -0.021046259
0000c0 17 42 04 bd 95 fb 3d 3d 08 9b c8 3a d5 aa 06 bd
       -0.03228959 0.046382505 0.0015304992 -0.032877762
0000d0 3b 5d cd bc 71 40 8c 3d f5 90 25 3d e1 6b 68 bd
       -0.02506887 0.06848229 0.040421445 -0.056743506
0000e0 99 2e b9 3c 4f df 78 bd 30 3a 27 bd 54 cc 3c 3d
       0.022605227 -0.06075984 -0.040826976 0.0460933
0000f0 15 5c 87 3d bd de 88 3d 33 c9 c9 3c 31 75 5b bd
       0.0660936 0.06683109 0.024632072 -0.05357856
000100 e3 1c 9e 3c 52 ba 17 bc 9d 0b 86 3c b2 4d 0e bd
       0.019300884 -0.009260731 0.01636296 -0.034742065
000110 9c 89 5a 3d a6 5a 2c bd e7 7a 7d bc 74 6a ca bb
       0.05335389 -0.042078637 -0.015471197 -0.006177241
000120 89 59 c3 bb 5a ce b3 3c 2f 9c 44 3d 28 8a 86 bd
       -0.005961601 0.021948982 0.04800051 -0.0656932
000130 27 a1 0d 3c 1d 81 a2 3c 36 15 73 bd 33 a9 7b bd
       0.008644379 0.019836957 -0.0593464 -0.061440658
000140 7f 1f 09 bb 48 ee 34 bd a7 db 4a 3d a4 12 10 3d
       -0.0020923314 -0.044172555 0.049525883 0.035174027
000150 c4 c6 3d 3d af f9 9a bd fa 56 1a bd de 9e 83 3d
       0.046332136 -0.075671546 -0.037680604 0.06426786
000160 1a 97 90 3d 5f 9b 93 bd b1 fe 01 3d 08 95 b6 3c
       0.0706007 -0.07207369 0.031737033 0.02228786
000170 ad cc a0 bd 6a 29 be bc cf 66 de bb 02 dc 7b 3d
       -0.07851539 -0.023213107 -0.006787158 0.061489113
000180 e5 06 1e bd 83 6b 90 3d f6 1b 85 bd 89 98 8e bd
       -0.038580794 0.07051756 -0.06499474 -0.069626875
000190 c4 63 55 3d 2d da 24 3c ec c4 a6 bd ef b5 8f bd
       0.052097097 0.010061783 -0.081430286 -0.07017123
0001a0 9d 4f 2a bc 1d 7e 6a 3d a7 df 7c 3d 23 9f 3e bd
       -0.010394958 0.057249177 0.06173673 -0.046538483
0001b0 bb 67 95 3d 28 87 90 3d 47 0a 53 bc 54 46 a1 bd
       0.07295176 0.07057029 -0.012880868 -0.07874742
0001c0 3e 9b 9f bd 83 78 86 bd dc 27 0a bb d0 c8 7a 3b
       -0.07793282 -0.065659545 -0.0021080887 0.0038266666
0001d0 b8 93 74 bd 14 15 1a bd cd 08 3b 3d a3 1d 55 3d
       -0.059711188 -0.037617758 0.04566269 0.052030217
0001e0 22 4e 92 bd d9 20 3e 3d af c9 b9 3b ce d6 33 bd
       -0.07143809 0.046418045 0.0056697945 -0.043906026
0001f0 81 8c 28 bc 25 9c 91 bd
       -0.010287405 -0.0710986
