cde/model/checkpoints/6.ckpt (torch, 390543 bytes, 8 tensors)

func.linear1.weight f4 [128, 150]
00000000: 528f a1bc 171a 79bd 0755 e4bc 4918 063c
00000010: 8714 1bbd edd3 9cbc 4d32 edbc 1b7a 2dbd
00000020: 9cae 6e3a 96d9 7a3d 3781 91bb b7bb 0abd
00000030: db22 4b3d a03e 89bd c47e 90bd 187c d43c
00000040: caca c2bc 5573 543d 7155 61bb 1b41 293d
00000050: 9b57 5dbd 4719 143d 8d35 47bd 86f5 63bc
00000060: 3323 463d f8e8 6ebd cef7 953d 6da1 023d
00000070: f174 473c cb56 ca3b 4bab 85bd 1984 653c
00000080: 836a 3f3d 1200 dbbc d4b2 6dbd 876a b2bc
00000090: 47b0 a7bd 9966 413d 59cc 133c 9f98 8dbd
000000a0: 902c 5f3d a08a 863d 849c 953d 8192 36bb
000000b0: 7f24 32bd 6d64 583d d8f4 a73d 0829 1fbd
000000c0: 5c55 1dbd 89ce 5bbc 6f44 be3c 101e 923d
000000d0: bf51 63bd e85e 11bc 3ef9 0bbd 8ede 3f3c
000000e0: 0867 3bbc f973 02bd 13b1 3f3d 5eba 8d3d
000000f0: ddd3 93bc 1e30 9a3d 07f5 003c db3f 1cbd
00000100: f452 a23c 75c2 20bc b111 883d 7bf6 143d
00000110: 18d0 4cbc 31f0 d539 ac2c 633c af2f 993d
00000120: cf19 533c dac0 4abc 8eed 35bd e9de 12bc
00000130: fd5e 2a3d a841 933d 25cd a63c e561 153d
00000140: 3a6b c33c 5119 de3b 793b d7bc c9cb 393d
00000150: 1890 783d 0868 9e3d ccae 913a 7719 8f3c
00000160: 73d8 aabc 01d8 09bd 04a2 b23c 1ba3 68bd
00000170: 3e0a 873d 1200 813d 5c10 2c3d 7db7 53bd
00000180: 50f5 653d 3cc7 62bd 0386 abbc 2ae0 c8bc
00000190: 6e70 bbbc b150 1bbd 272d 4e3d 3ba8 6bbc
000001a0: 4a1b 2f3a 68b6 b8bc cbf5 773d 4cba 2d3c
000001b0: f289 473d 3816 823d 82d7 aaba a980 b4bb
000001c0: c3b0 273d bd4e 86bd 7e54 933d e170 753d
000001d0: 0154 51bd a683 8abc 7663 9dbd 0e47 773d
000001e0: e38f 043d 019f 11bc ea9b 813d 0617 54bd
000001f0: 7632 39bd 86ed 8e3d d133 f3bc 640e d23b
00000200: cf4f 62bd ecee e33c 20d1 8cbd 62e1 2a3d
00000210: b0ae 9bbd 3ac9 68bd f6df 92bd 2419 243d
00000220: cd2e 683d 2f45 3bbd b68c 553c 6ef9 12bb
00000230: 0292 dbbc be04 15bd 42ea 2bbd bbbd 89bd
00000240: c5bd 593d 579c a8bd 6211 07bb 7d83 d53c
00000250: 25a7 73bc 810e 7b3d 29dc 893d ef3f 213d
00000260: 7921 073c 34f5 a0bc c16d 86bd c73b 503d
00000270: 1a64 be3a 125b a4bd 9332 373d 55ec 303c
00000280: 095c e9bc dc5e ac3d 2426 b0bc 778d 0b3c
00000290: d1d8 383b 14e1 4c3d 97ab 62bd 16cd f33c
000002a0: c92d 263d 27c7 58bd 63e8 3dbd 1ae3 103b
000002b0: 9072 a83d 1ce1 ec3c 872c 863d c6a9 5abd
000002c0: 1cef 4dbd bf28 f33c 4b4f 053d 82d5 313d
000002d0: 78aa d1bc 0a6f 95bd f6eb a2bc 5e26 dd3c
000002e0: 414b 36bd 29f4 b03c ec6e cdbc 79a9 333b
000002f0: 895f 853d b7c6 6bbd b374 a5bd 37c0 8bbd
00000300: 5796 403d 260d cbbc fd9f 223c 8787 6c3d
00000310: 251e 35bc 94f7 eabb 3401 57bd 8409 02bd
00000320: ec6b d2bc 001f 123c b974 a43c b830 4dbc
00000330: 8f7a 27bc ae8f 67bc 8952 d93c 5ac5 9cbd
00000340: 656e e23c 0539 803b 38db 373b 411a dd3b
00000350: ec88 323d e912 373d 5d5e eebc a945 03bc
00000360: 89d6 403d cac6 b23b e375 f6bc 2520 71bd
00000370: 03aa 7b3c 545b d336 b12c 9b3d 047d 863c
00000380: 5cb8 08bd 797a d03c 1e96 80bd e635 8fbd
00000390: 4ce5 efbc beb2 a1bd 1154 893d 672f c33c
000003a0: 7676 47bd 2261 82bd 96a6 49bd acc5 c6bb
000003b0: c77a 273d eb2b cc3c 2b73 3bbd 3ade 5f3d
000003c0: bcb4 82bd 1444 8f3d 75a9 96bc 3a02 1ebd
000003d0: d1e6 113c b032 49bd 6d02 b4bc f4e5 a7bc
000003e0: 9b0e 0e3c 0634 553d a0d9 d3bc 84ad 933d
000003f0: 3c43 0e3c d20b cdbb 9f08 8b3d 1cf1 06bd
-0.01972166 -0.060815897 -0.027872575 0.008184501 -0.037861373 -0.019144023 -0.02895465 -0.042352777
0.00091049983 0.061242662 -0.0044404524 -0.033870425 0.049593788 -0.06701398 -0.070554286 0.025938079
-0.023778338 0.0518678 -0.0034383202 0.041321855 -0.054038625 0.03615692 -0.048635054 -0.013913518
0.048373412 -0.058327645 0.073226556 0.03189223 0.012173877 0.0061748973 -0.06526812 0.014008545
0.046732437 -0.026733432 -0.058031872 -0.021779312 -0.08187919 0.047216985 0.009020888 -0.06913876
0.054485857 0.06569409 0.073052436 -0.002785832 -0.043491837 0.05283015 0.08200997 -0.03885749
-0.038411483 -0.013415941 0.023225991 0.0713464 -0.05549788 -0.008872725 -0.034173243 0.011710776
-0.011438139 -0.03184888 0.04679973 0.06920312 -0.01804536 0.07528709 0.007870919 -0.038146835
0.019814946 -0.009811987 0.06643999 0.036367875 -0.012500785 0.00040805482 0.013865631 0.07479798
0.012884571 -0.012375081 -0.044416003 -0.008964279 0.041594494 0.07190257 0.020361492 0.036470313
0.02385484 0.0067779203 -0.026273476 0.04536036 0.060684294 0.07734686 0.0011114716 0.017468197
-0.020855164 -0.033653263 0.02180577 -0.056796174 0.065937504 0.062988415 0.04200779 -0.05168866
0.05614215 -0.055365786 -0.020937925 -0.024520952 -0.02288076 -0.03791875 0.05033603 -0.014383371
0.00066797866 -0.022547916 0.06053714 0.010603499 0.04871554 0.06351894 -0.0013034197 -0.0055085015
0.040940057 -0.06557987 0.0719385 0.059922103 -0.051105503 -0.016908478 -0.07684986 0.060370497
0.032363784 -0.008888007 0.06328566 -0.05177977 -0.04521414 0.06978898 -0.029687794 0.006410407
-0.055251893 0.027823888 -0.06875825 0.041718848 -0.07601678 -0.05683253 -0.071716234 0.04006304
0.056685258 -0.045720275 0.013034036 -0.0022426504 -0.02680302 -0.036381476 -0.041971453 -0.06725641
0.053159494 -0.082329445 -0.0020609726 0.026063675 -0.014871393 0.06129313 0.06731445 0.039367612
0.008247727 -0.019648172 -0.06563903 0.050838258 0.0014525682 -0.08025183 0.044725966 0.010798533
-0.028486269 0.084165305 -0.021502562 0.008517615 0.0028205405 0.05001934 -0.055339422 0.029760879
0.040571008 -0.0529243 -0.0463642 0.002210802 0.08224976 0.028915934 0.06551462 -0.053384565
-0.05027686 0.029682515 0.032546323 0.043416508 -0.025593981 -0.0729657 -0.019887906 0.026995834
-0.04450536 0.0216008 -0.025077306 0.0027414246 0.065123625 -0.057562556 -0.08078899 -0.068237714
0.047018375 -0.024786543 0.0099258395 0.057746436 -0.01105455 -0.007170627 -0.05249138 -0.031747356
-0.025686227 0.008918524 0.020075189 -0.0125238225 -0.010222091 -0.014133377 0.026528614 -0.07654829
0.02764053 0.0039130473 0.0028054249 0.0067475145 0.04358761 0.04469577 -0.02909773 -0.008012214
0.047079597 0.0054558264 -0.03008551 -0.058868546 0.015360358 6.298922e-06 0.075768836 0.016417034
-0.033378944 0.025449025 -0.062786326 -0.06992702 -0.029284142 -0.078954205 0.067054875 0.023826314
-0.048696958 -0.06366183 -0.049231134 -0.006066045 0.040888574 0.024923285 -0.04576413 0.05465529
-0.063821286 0.06995407 -0.01839135 -0.038576342 0.008905129 -0.049120605 -0.021973813 -0.020495392
0.008670474 0.052051567 -0.025860608 0.0721083 0.008683022 -0.0062575126 0.06788754 -0.032944784

func.linear1.bias f4 [128]
00000000: 2513 07bd 4d55 64bd 51b0 3ebd 5ccd 803d
00000010: f2f2 fc3c f56a 763b 2a47 00bd 210e ab3d
00000020: 90c6 993d 1c6c 6abd 7229 7fba 0405 81bb
00000030: a5fa 4b3d d203 913a e5a4 a4bd 9f2d 783c
00000040: dcf0 7abd e3d8 60bd 348f 503d e4ac 00bc
00000050: 1f2d d3bc 8baa 093c 105b 8a3d aacd 8f3d
00000060: 0c50 0b3c 7110 34bc 8856 323d 7c70 7d3d
00000070: c461 a53d f7f0 40bd 7c01 a7bc 0596 5abc
00000080: fc5a 1b3d e442 abbb 16fe 58bd 6d02 8bbd
00000090: 960c 45bd f51e fdbc a99a ec3a 076a f23b
000000a0: 4757 923d 49d7 423c e992 12bd b006 f4bb
000000b0: 52af adbd d0c2 60bd d852 22b9 81f1 ab3c
000000c0: d144 5b3d 09b4 90bd 7be4 063d 989e cd3b
000000d0: 9fd6 e63c ece1 b2bb df53 963d 6399 543d
000000e0: 075b 393b bbc7 c33c 01e3 a2bc 7812 bfbc
000000f0: 303e 8b3d 4c8b 9d3d d567 893d ad0c 9bbd
00000100: 52a7 98bd 0460 a63c a8fe 87bd 4654 4a3c
00000110: e84d 013d eeea af3c 17f9 723d 018a 0cbd
00000120: d081 2abd 4807 acbd 734b 45bc 8966 08bd
00000130: 8f49 793c ca94 8f3c 904c 9e3d 2fb1 83bd
00000140: 21f5 11bd bf3e bcbc d041 30bd c8a2 523c
00000150: f3a0 213d 2d97 92bd dc7b 7ebd a89e 7fbd
00000160: babc 843d ae34 d1bc c9be 393d 8ffd 2abd
00000170: 60d6 5a3d 2f5e e23c c03e 993d 099f 723d
00000180: e9ee a7bc f728 463d b442 30bd b653 853d
00000190: a39a babc 7173 8abd 5077 7c3d e9aa 6a3d
000001a0: 5d91 44bd 1032 e2bc 8be5 233d de33 883d
000001b0: 81a2 81bd c88d 3cbd e6b0 5b3c f3d8 763d
000001c0: f6aa 98bd 33f5 88bc 5be6 24bc c4a5 9a3d
000001d0: 69c7 0c3c f875 283d 309f db3c 3c60 e23b
000001e0: 33cc a6bd 2de1 c53b 5a8a 823c 1e3c 603b
000001f0: 08d2 163c 68ff 2a3d 9e0d 973c a9c8 a5bc
-0.032977242 -0.05574541 -0.046554867 0.06289169 0.030877564 0.0037600372 -0.031317867 0.08352304
0.07508576 -0.057232007 -0.0009733654 -0.0039373655 0.04979958 0.0011063761 -0.08039264 0.015147596
-0.061264858 -0.05489434 0.05091782 -0.00785372 -0.025778351 0.008402477 0.0675565 0.07021649
0.008502971 -0.010990248 0.043539554 0.06187485 0.08075288 -0.047104802 -0.02038645 -0.0133414315
0.037928566 -0.00522648 -0.05297669 -0.06787572 -0.048107706 -0.03089855 0.0018051463 0.0073978934
0.07145553 0.011892148 -0.035784636 -0.0074470863 -0.08480705 -0.054873288 -0.00015480386 0.020989181
0.053532425 -0.07065589 0.03293274 0.0062750094 0.028178511 -0.005459061 0.07340216 0.051904093
0.0028283016 0.02389895 -0.019883635 -0.023324236 0.06798971 0.076925844 0.067092575 -0.07570777
-0.07453789 0.020309456 -0.06640369 0.012349194 0.031568438 0.021474328 0.05931958 -0.0343113
-0.041627705 -0.08399826 -0.012041914 -0.03330091 0.015215292 0.017527003 0.07729447 -0.064302795
-0.035634164 -0.022979138 -0.043031514 0.012856193 0.039460134 -0.07157741 -0.06212984 -0.062407166
0.06481309 -0.025537815 0.045347963 -0.04174572 0.0534271 0.0276328 0.07482672 0.0592337
-0.020499663 0.04837891 -0.043032363 0.06510107 -0.022778815 -0.067603 0.061637223 0.0572919
-0.04799019 -0.027611762 0.04001383 0.06650518 -0.06329823 -0.04603365 0.013408875 0.060265493
-0.07454483 -0.016718483 -0.010064687 0.075511485 0.008592465 0.04112813 0.026809305 0.0069084447
-0.08144417 0.006038806 0.015935112 0.003421552 0.009205349 0.04174748 0.01843911 -0.020237284

func.linear2.weight f4 [450, 128]
00000000: 1185 f9bb 4532 a93d fd5d 913d 11e0 b43d
00000010: dfff 45bd 5965 8b3d ecc9 ebbc f749 c23c
00000020: 4c5d 9e3d 52d2 5bbd f2d2 693d 6279 903d
00000030: 9666 7abd 6f93 8b3d 36c3 8f3d a5be 2cbd
00000040: 4963 90bd 8a24 c33c ccce 1e3b ef67 6bbc
00000050: 640e 123d 160b aabd bcab 7cbd 24f4 46bd
00000060: 9aeb 4ebc 464f 123b 8cbf 76bc 5042 7c3d
00000070: 4abc 68bd f7b3 1b3d 8216 5d3d 73d1 ecbb
00000080: bc3d 523d 0d28 ba3d 6c04 5e3c 2d6c 83bd
00000090: e756 963d 0365 893d 38d7 de3c f2bd 90bc
000000a0: 9bbc 973d defd dcba 0b9c 3fbd 1b03 7d3d
000000b0: 2327 bc3d 699c a93d a5b7 0b3d 712f 043c
000000c0: 1080 96bc ec01 8cbd 2aba a0bb 85ed 323c
000000d0: 2650 823a 9b0f 493d 3d2a 663c d7d6 08bd
000000e0: f111 21bd d234 a2bd 74b8 f93c 5aba 97bd
000000f0: 56a6 76bd 8866 14bd 012d 6a3d 8949 ac3d
00000100: 4d1d 6cbd c78d e33c 021b 6d3d af61 97bd
00000110: 7a82 57bd 97e1 a3bd 82b0 e7bc 55ea a43d
00000120: 06cc b1bb b80b 813d d046 f33c c101 6b3d
00000130: 42ba 8c3d 3eda 82bd a6b9 693d db04 75bd
00000140: 97c4 a93b f4b6 e7bc afd6 be3c d338 5bbd
00000150: 7d8d 303c a541 603d 3437 e5bc 952b 423d
00000160: 50ee 87bd 6e8a b6ba d814 a73d 10b2 89bd
00000170: 88f0 603d f1b2 13bd ba27 643c 268a 713d
00000180: 0208 08bd 0473 76bc 3769 8abc 92a9 be3c
00000190: 3e28 383c edb8 2dbd 6510 d13c 27bd 32bd
000001a0: 37eb cfbc 2872 493d 0209 5abd caaf 153d
000001b0: 043c 7abd 0e7b 6cbc 3870 c8bb 05f5 80bd
000001c0: 162b 85bd c680 323c 449f 9fbd 5db9 973d
000001d0: e77f 623a 5fee a3bd 7fc8 a4bd 8454 883d
000001e0: 1413 583b 14a9 c63c 1ced 1c3d 2ef7 94bc
000001f0: 963f bd3d ab02 a7bc a85a f83c e84c 743d
00000200: 1f15 f0bc 249f 71bb ff38 b4bc e64c 27bc
00000210: 349d c5bc bcfb b3bd 412c a53d 77eb 523d
00000220: 2d03 90bd 973e 47bd 76ab 6b3d 9c31 263d
00000230: 5fd0 0f3c 0207 293d 92df 88bd 70a8 873d
00000240: c4eb 9d3d 30d7 e83c 83f2 69bd edad 543d
00000250: 920a b73c 3e77 9d3d 021e 5b3c d129 8cbd
00000260: 6a28 25bd 7fb5 a43d d3e5 8a3d aff1 60bd
00000270: ee93 edbc e8dd 63bd 9fc9 97bc 4633 9bbd
00000280: 7670 083d f67e 4bbd ae95 703d 0f27 adbd
00000290: 61ff 16bd e4be 21bd 6ea5 83bd 7a37 753c
000002a0: 6550 f83c 167b 85bd b1b6 893d 7cdb 633d
000002b0: 7cdb d93c 32b4 a6bd f2ee 75bd ec83 8e3d
000002c0: cb48 3dbd d543 de3c f3a2 a83d 4b9a 923c
000002d0: eeb6 abbb 90de 943d b595 533c e8f8 d43c
000002e0: ebc4 c33b 2a5b 1cbd 7537 dcbc e874 8e3d
000002f0: ee66 b93b 224e 823c f992 86bb 7ea4 79bd
00000300: d058 08bd 9b3b 183d 7cb8 053d e039 6cbd
00000310: 3c57 8d3d a219 a33c 11ea 50bc 0e81 53bd
00000320: e6ab 943d 2dc8 39bd 6b07 a8bd 90ce 613d
00000330: 61b6 c6bb f776 c8bc ba68 90bc e615 82bc
00000340: 5888 e7bc d07e f03c 00c8 62bd 5a92 d63c
00000350: 0a10 e23b a671 aabc 3632 0d3c a341 78bc
00000360: 81e8 03bd 954f 0d3d 713a b03d 3c6b 0e3d
00000370: bb99 603c 4b6f 783d 3191 453d 40c9 d13a
00000380: c921 72bd 837c 6f3c 22cc 8c3d 6fcf 9fbd
00000390: af9d 7f3d 4bb0 5abd 343f a53d 0076 883d
000003a0: 8a7d 523d 5671 50bd abeb ffbb 19f3 7a3d
000003b0: 6574 75bd a544 00bd e229 5dbc d2b0 8cbd
000003c0: c78c ed3b 4fe1 aa3d 1582 5ebd 3c82 073d
000003d0: 7c2e 89bc 85c2 9ebc 2e5d d93b 04ad c03c
000003e0: abb7 613d 2f84 b5bd f511 5ebd c914 033c
000003f0: e443 24bd 3cb8 433d 57bf 6fbd 7c40 853c
-0.0076147397 0.08261541 0.07098005 0.088318 -0.04833972 0.0680644 -0.028782807 0.02371691
0.07732639 -0.053667374 0.05708594 0.07054402 -0.06113299 0.0681523 0.070196554 -0.042174
-0.07050187 0.023821134 0.0024232147 -0.014368041 0.035658255 -0.08302896 -0.061687216 -0.048572674
-0.012629414 0.0022325083 -0.015060317 0.061586678 -0.05682019 0.038013425 0.053976543 -0.0072271167
0.051328406 0.0908967 0.013550859 -0.06417117 0.07340794 0.067087196 0.027202234 -0.017668698
0.074090205 -0.0016860326 -0.046779674 0.06177054 0.09187152 0.08281786 0.034110684 0.008067952
-0.018371612 -0.06836304 -0.004905005 0.010920887 0.0009942099 0.04908715 0.014048156 -0.033408012
-0.03932375 -0.07920231 0.030483462 -0.074085906 -0.060217224 -0.036230594 0.057171825 0.08412463
-0.05764513 0.027777566 0.057887085 -0.073916785 -0.052614667 -0.08002012 -0.028282408 0.08052508
-0.005425933 0.06301063 0.029696852 0.05737472 0.06871463 -0.06389283 0.057061814 -0.059819084
0.005180906 -0.028285481 0.023295728 -0.05352099 0.010775921 0.054750104 -0.027980424 0.047404844
-0.066372514 -0.0013926753 0.081582725 -0.06723416 0.05491689 -0.036059324 0.013925487 0.05896964
-0.03321076 -0.01504207 -0.016895873 0.023274217 0.011240063 -0.042412687 0.025520513 -0.04363742
-0.025380714 0.049181134 -0.053231247 0.0365446 -0.06109239 -0.014433635 -0.006116893 -0.06296734
-0.065023586 0.01089496 -0.077940494 0.07408402 0.0008640275 -0.0800445 -0.08046054 0.06656745
0.0032970356 0.024250545 0.038312063 -0.01818427 0.09240644 -0.020387014 0.030316666 0.059643656
-0.029306946 -0.0036868537 -0.021999834 -0.010211205 -0.024122812 -0.08788249 0.080650814 0.051494088
-0.07031856 -0.048643675 0.057536565 0.040574655 0.008777707 0.04126645 -0.06683268 0.06623924
0.07710984 0.028422922 -0.057116043 0.05192368 0.022343908 0.07688759 0.013373854 -0.06843913
-0.040321745 0.0804243 0.06782117 -0.054917987 -0.029001202 -0.05563155 -0.018528758 -0.07578139
0.033310376 -0.049681626 0.058736496 -0.084547155 -0.036864642 -0.039488688 -0.064280376 0.01496684
0.030311773 -0.065176174 0.06724299 0.05562924 0.026593916 -0.08139838 -0.06004233 0.06958756
-0.046212 0.027131954 0.08234205 0.017895838 -0.005240313 0.07269013 0.012914111 0.025997594
0.005974402 -0.03817288 -0.026881913 0.06955892 0.005658022 0.015906397 -0.004106876 -0.060947888
-0.033287823 0.03716622 0.03264664 -0.05767238 0.06901404 0.019909684 -0.012751118 -0.051636748
0.072593495 -0.045356918 -0.0820454 0.055128634 -0.0060642217 -0.02447079 -0.017628063 -0.015879583
-0.028263256 0.029357344 -0.055366516 0.026192833 0.0068988847 -0.020806145 0.008617928 -0.015152368
-0.032204155 0.034499723 0.08604897 0.034770235 0.013708527 0.060653012 0.04823417 0.0016005412
-0.05911425 0.014617088 0.06874873 -0.07803237 0.06240624 -0.053390782 0.08068696 0.06663132
0.051389255 -0.050889336 -0.0078100762 0.061266992 -0.059925456 -0.031315465 -0.013498755 -0.06869663
0.007249448 0.083437555 -0.054323275 0.033083186 -0.016745798 -0.019379864 0.0066334223 0.02352
0.0551068 -0.08863103 -0.054216344 0.008000561 -0.040103808 0.04778312 -0.058532085 0.0162661

func.linear2.bias f4 [450]
00000000: 5b23 333d f471 b83d 7ed5 7ebd fbe5 1ebd
00000010: 1fd0 3d3d 93c7 afbc a110 adbd 0093 453d
00000020: b321 b9bd 571b 77bd e71c 3f3d 6d31 60bc
00000030: 1516 d5bc 244b b8bc 655c f33c 8622 5b3d
00000040: 2da9 03bc c2b2 fe3c 959a 873d ffa7 283d
00000050: a055 863d 09e1 19bd 15d9 15bd f385 53bd
00000060: a723 223d 6392 15bd 865d 5f3d a3df 75bd
00000070: 743c 20bd cd02 9b3c f9c6 b5bd 94fd c03c
00000080: b34b 553b f21c a6bd 32e8 3fbd 0a55 553d
00000090: 9752 163d f7d3 233c 0449 853c 4009 3bbd
000000a0: 6a42 2abd 88d7 9f3d efa1 833d 228d 9a3d
000000b0: d024 323d 59a8 55bd 4a9a 783d 4ee3 cf3c
000000c0: 508b 8c3d dd85 273d 0249 2fbd d1ec 9bbd
000000d0: 41d1 4bbd 6981 79bc 81f3 7dbd 5a26 a1bd
000000e0: 68c0 f0bc b4c3 163d 729c 913c 256d a3bd
000000f0: d2e5 1dbd 0676 f4bc 0ff2 833d a7c4 12bd
00000100: a6fc 133d 14f9 9dbd 553e b53d beca 9f3c
00000110: 3591 b73c 6574 fa3b 29da 073d c110 aabb
00000120: 6643 69bd 9180 3ebd e8a4 673c 471e 8b3d
00000130: 63be a83d 75b9 543d 38ef 52bd a1d9 98bd
00000140: dbf3 b2bd 5591 41bd f20c 963d c2f4 5a3d
00000150: 429a bc3d 20a7 253d 070d 2c3d 11d6 dc3c
00000160: 2f1f 963d cf6d 2a3d 24a6 f83c 5b8a ca3c
00000170: b129 8dbd ca17 b7bc 3f3a 1ebd e3b1 27bd
00000180: 752a 943d 783c 6dbd 3db2 e83c da00 c13b
00000190: 7eb5 653d 6a52 923c 4cc6 9cbc fe7d 7b3c
000001a0: 9f37 c6bc 9047 1cbd 3afa 6b3d c686 893c
000001b0: 0221 a9bc d52f a33d d6ee e4bc 73d7 3bbd
000001c0: 27ca 76bb 695f 3b3b aace 20bc 2001 ab3d
000001d0: 3c55 9dbd 52c7 99bc 78c6 9bbd 1bec 6a3d
000001e0: 4dc3 84bd bb2d 923c 6bbf 8ebd 8326 6d3d
000001f0: 77d1 2e3c 721c a63d 77c2 9f3d 543a 9c3d
00000200: 9d63 67bd c4d7 b8bc af00 713d b865 9c3d
00000210: 22fc a53d 2370 453c bdbb d83b 524a d1bc
00000220: a46b 39bc e27a 6d3d 0ca3 bdbd e837 cc3c
00000230: 5361 8a3d d96e 4dbd b2ae b3bd 4ef5 7bbd
00000240: 5d89 5cbc 1a95 5d3d b417 abbd fb70 a33d
00000250: 0c60 16bd a86c a13d 5eef 313d d7cf 633b
00000260: 01a2 f7bc f7f6 28bd d20c debb f94d 3cbc
00000270: 0dc4 7f3d c878 583d 8747 babc f269 873d
00000280: 44cd 8b3c 31a6 7ebb 24d5 8bbd 99f5 b03c
00000290: b173 c1bc 1c22 b8bc 840a 0c3d 5ff7 6c3d
000002a0: 66e7 86bd 5d9f 70bd d439 503d 7a24 793c
000002b0: 4064 92bd 7b36 023c 6c19 fd3c 6da9 043d
000002c0: 88f0 51bd 0524 0d3d 9a9f 603d 1d87 8d3d
000002d0: 5d86 623c d8ea 02bd 5182 1d3c 22d8 883d
000002e0: 8016 793b 8382 e23c 7a9d d6bc 0c34 453c
000002f0: 5844 53bd 9c23 b3bd 3b87 163d dfad 28bd
00000300: e8f2 97bd 184f 5a3d 6d7f 863d 783f 3a3d
00000310: 3afa 9f3d 1ddf a83d b35b 3e3d 2e96 483d
00000320: 3059 993a 70b5 08bd 5967 473d b601 17bd
00000330: adfe 8dbd 9aaf a93d f9a4 8c3d 9803 26bd
00000340: 355c 6fba dc80 da3c d8ec aebd 1269 46bc
00000350: 1fc7 533d c836 893d 7c4f 23bb dcfa aabd
00000360: ac9f 8fbd 6620 b4bd 5bc1 83bd 0acd 93bd
00000370: 5dfe 063d 054c 86bd 070a fe3b ea3d 09bd
00000380: 3f5b 0a3d 4156 93bd 09f7 663c a8fb e0bc
00000390: 487d e23c ae99 473d a7a3 7abd 97ff 78bd
000003a0: 3c38 34bd a4ae cd3c 5078 a3bd 7d31 05bd
000003b0: bb16 9c3d 4673 3bbc decb 823d 6ffb 5ebd
000003c0: 8d2c a83d 2ba0 e23c 4f84 7fbd d907 f83b
000003d0: efe1 6e3b ce29 01bd 9f05 84bd ae75 893d
000003e0: e39e 05bb 2d48 0bbc 076e a43d 6eab 9bbd
000003f0: 6e8e 14bc 7158 903d 9503 94bd 5dfa bb3c
0.04373489 0.0900611 -0.06221532 -0.038793545 0.046341058 -0.02145747 -0.08450437 0.048235893
-0.09039631 -0.060328808 0.046658423 -0.013683659 -0.026011506 -0.022496767 0.029707143 0.05349972
-0.00803594 0.031091098 0.06621281 0.04117584 0.065593004 -0.037568126 -0.03658398 -0.051641416
0.039584782 -0.03651656 0.05453255 -0.06002773 -0.039120153 0.018922234 -0.08875842 0.023558415
0.003254634 -0.0811099 -0.046852298 0.052083053 0.036699858 0.009999267 0.016270168 -0.04566312
-0.041567244 0.07804781 0.06427371 0.0754645 0.04349214 -0.052162502 0.060694017 0.025376942
0.06862509 0.040899146 -0.042794235 -0.076135285 -0.049760107 -0.015228608 -0.0619998 -0.07868643
-0.029388621 0.03680773 0.017774794 -0.07979802 -0.03854925 -0.029841434 0.064426534 -0.035832074
0.036129616 -0.077135235 0.088497795 0.019505855 0.022408107 0.00764327 0.033167038 -0.0051899855
-0.05694904 -0.04650933 0.014138438 0.06792884 0.082394384 0.051934678 -0.051497668 -0.074633844
-0.08737918 -0.04725774 0.07326688 0.053456075 0.0920911 0.040442586 0.04200461 0.026957544
0.073301665 0.041608628 0.03035266 0.024724176 -0.06892718 -0.02235021 -0.038629767 -0.04094113
0.072346605 -0.057918996 0.028405303 0.005889994 0.056081288 0.017861564 -0.019137524 0.015349863
-0.024196444 -0.038154185 0.05761168 0.016787898 -0.020645622 0.079681076 -0.027945917 -0.045859765
-0.0037657113 0.0028590804 -0.009814898 0.08349824 -0.07682273 -0.018771801 -0.07606214 0.057354074
-0.06482563 0.017844072 -0.06970104 0.057898056 0.0106700575 0.08110894 0.07800763 0.07628313
-0.056491483 -0.022563823 0.058838543 0.07636589 0.08104731 0.012050661 0.006614177 -0.025548134
-0.011317167 0.05797852 -0.09259614 0.024929002 0.06756844 -0.05015454 -0.08773555 -0.061513238
-0.013460484 0.054097272 -0.083541304 0.07980534 -0.03671269 0.07882053 0.04344117 0.0034761333
-0.030228617 -0.04125115 -0.0067764306 -0.0114931995 0.062442828 0.05284956 -0.022739185 0.06612004
0.017065652 -0.0038856382 -0.06827763 0.021601485 -0.023614736 -0.022477202 0.034189716 0.0578531
-0.065871045 -0.05874573 0.0508364 0.015206451 -0.071480274 0.0079475595 0.030895911 0.03238814
-0.05125478 0.03445818 0.054839708 0.069105364 0.01382598 -0.031962246 0.009613589 0.06681849
0.0038007796 0.027650123 -0.026198138 0.012036335 -0.05157885 -0.08747026 0.03675006 -0.04118144
-0.074193776 0.053298086 0.06567273 0.045470685 0.07811399 0.082456805 0.04647417 0.048971348
0.0011699554 -0.033376157 0.048682544 -0.036866866 -0.06933341 0.082854465 0.068674035 -0.04053077
-0.00091308664 0.026672773 -0.08541268 -0.012110012 0.05170357 0.06699902 -0.0024919203 -0.08348629
-0.07012877 -0.08795242 -0.06433364 -0.072168425 0.032957423 -0.06557468 0.00775266 -0.03350631
0.033778425 -0.07194186 0.014096984 -0.027463749 0.02764763 0.048730545 -0.061191227 -0.060790624
-0.04399894 0.02510769 -0.07981932 -0.0325179 0.07621523 -0.011441058 0.06386541 -0.054439005
0.082116224 0.027664265 -0.06238204 0.007569295 0.0036450585 -0.03153401 -0.06446385 0.06711899
-0.0020388893 -0.008501095 0.080287986 -0.07601057 -0.009067161 0.07048119 -0.07227246 0.022946531

initial.weight f4 [150, 3]
00000000: fe56 0e3f b3d4 713e bf02 b1be 55a1 1b3e
00000010: 4c27 b6bd 113a 81be 0fb5 a63e cc1c 1d3e
00000020: a834 f3be ef29 01bf feba c23e b027 04bf
00000030: 6b5b 3ebe a0c5 72bd bf46 903e b4e5 f33e
00000040: 5418 323e e937 12be 0456 9a3e fb9f 2abe
00000050: 35b5 a8be 92b8 a93e be0b da3e 569c 8bbe
00000060: 33bf 783d be62 96be c0da a1be 8306 14bf
00000070: 8aea 96be f112 40bb 5b64 3ebc 6139 d83e
00000080: b6bc 0c3f b13f b1bd 2eda f3be ea05 07be
00000090: 5fb3 2a3e fb18 a9be a05c 86be a544 a2be
000000a0: 124f e53e 72c4 ecbe 9d8e 75be ddf3 6bbe
000000b0: a316 cabe 36b9 d73e fbbd 6fbe fa68 58be
000000c0: 1a9c 9fbe b4ed 113e 143c 10bf 9aae 523e
000000d0: 975e 0abe f83a 6a3d 5503 58be fa39 3e3d
000000e0: 250f a13e 28c1 b53d dacf 5fbd 39c8 fcbe
000000f0: 7ba2 9e3e 7c65 a53e 9d07 eb3e d08a 6c3e
00000100: 2d57 043e 54e9 d43d dc03 603d cbf0 debe
00000110: 084a 113e 8c84 f1bb 8656 41bb 6480 7bbe
00000120: 3408 5ebe b98e e73e 12cf 72bb 1d9e 203e
00000130: b409 053f 8371 e13e 6b57 bf3c 8a7a bdbe
00000140: 6e82 c43e 898b b3be 9ed8 0abf 0ed5 6f3e
00000150: eb64 9b3c 1e7e 873d 2714 b33e c89a f1be
00000160: 5be8 9ebe 6cdb 073f f688 e63e 6728 c2be
00000170: bed3 d3be 1e3e 233e c0e8 923d 9038 ed3e
00000180: 16cc 3abe 2d60 af3e 7510 913d 5c3b eb3e
00000190: e9a0 cebe 4353 bebd 5aa9 8a3e 2a89 52be
000001a0: 69af 0f3f 4445 573e f368 d53c 8824 fbbe
000001b0: ad6c a0be fb72 fcbe 2a5d 19be 258f ef3e
000001c0: 838d 0bbf 98b7 893e 2b37 a6bd f3b2 eb3e
000001d0: b745 49be b170 703e 8916 10bf 0d1c 933e
000001e0: 2251 dabe debb 11be edd0 6e3e 2eac 813e
000001f0: 1cff e9bd 50f5 02bf 5430 683e ae0c f93e
00000200: a7ad 583c efcc 8ebe a91d 9cbe 5adc c03e
00000210: 054b a2be daa0 eebe db6c a93e 4765 26be
00000220: a391 aabd 65df 10bf 9c35 bd3e 8f13 b3bd
00000230: 5018 a43e 8328 c63e d279 87bd 0ab1 0abe
00000240: c23b 193e 4ed5 15bd 43b3 c3be e213 c4be
00000250: 5c77 3ebe d722 0a3d 1f9d f8bd 5c81 10bf
00000260: b9fc 163e 7500 973e ed10 e83d b7f6 0f3f
00000270: 219a f53d 159a 85be e671 0fbf 5757 aabc
00000280: 75a4 ff3d eeca c1be 8e25 123e 6f95 b3be
00000290: 2226 61be db2e 0e3f 0d24 3cbe 2a2b 573e
000002a0: bc62 fc3e db47 63bd 83da db3e cbbb b5be
000002b0: b3fa a73e 002c ddbd ce5e 1e3b ffce d3bd
000002c0: 4d75 9c3e c1d0 93bd 525d 08bf 4e39 11bf
000002d0: 4896 b1be 6094 85be 28e6 d8be 1cd1 d8be
000002e0: 3835 97bd e38b ddbe 7aa0 c73e 604e d43e
000002f0: 66c3 4d3e e2cb fc3e 1828 db3d 5292 e43d
00000300: 8d18 03bf 0526 903e e6bd ebbe 859a dd3e
00000310: 5c7a 8ebe 45a4 07be 8426 02bf d23d 753e
00000320: ada5 78be 513b 5b3e c770 25bd a2b9 a3be
00000330: c968 023e 1ec9 d9bd 14f0 003e 0050 3e3e
00000340: 73e1 973e e8ee c7be 0ee9 ea3e 2588 573e
00000350: edb0 1abe 5b6b ac3e c112 af3c 0202 ccbe
00000360: d620 1ebd 14b5 31be 7ae6 bfbc b620 013f
00000370: e01e 10bf e4c6 76be 92d9 533e 1706 ebbe
00000380: b64a ddbe 0f6c 813e b3f4 c7be e8b6 a33e
00000390: f4bb 0abf 3d36 9c3e 3f61 a33e 5929 0dbf
000003a0: 08c4 ce3e b65b 42be 1a01 063e 9ef4 893e
000003b0: 9845 a33e 2d42 f03e 20b7 e03e 716f cbbc
000003c0: fabd 60be 5c78 9e3e 8be3 793e 771b 503e
000003d0: 5365 323e 1ffe 0cbf d172 433e 7c33 463e
000003e0: c6c9 843e 8f16 c2be 6e6e 98be b3f3 5cbe
000003f0: 40b1 143f 7014 e13e f70c 88be 2336 dabe
0.5560149 0.23616295 -0.34572408 0.15198262 -0.08894214 -0.25239614 0.32560012 0.15343016
-0.4750111 -0.5045461 0.3803329 -0.5162306 -0.1858956 -0.0592705 0.28178975 0.47636187
0.17392093 -0.1427914 0.3014375 -0.1666259 -0.3295075 0.33148628 0.42587084 -0.27267712
0.060729217 -0.2937221 -0.31612206 -0.57822436 -0.29475814 -0.0029308165 -0.011620606 0.42231277
0.5497545 -0.08654726 -0.47627395 -0.1318585 0.16669987 -0.3302687 -0.26242542 -0.31692997
0.44786888 -0.46243626 -0.23980184 -0.23042245 -0.39470395 0.42133492 -0.23412316 -0.21133795
-0.31173784 0.14250833 -0.5634167 0.20574418 -0.13512646 0.057185143 -0.21095021 0.04644201
0.31456867 0.08874732 -0.054641582 -0.49371508 0.30983338 0.3230399 0.45904246 0.23099828
0.1292388 0.10396066 0.05469118 -0.43543085 0.14188397 -0.007370537 -0.0029501035 -0.24560696
-0.21682817 0.45226076 -0.0037049693 0.15685315 0.5196793 0.44031915 0.023357114 -0.37007552
0.3838076 -0.35067394 -0.5423678 0.23421118 0.01896902 0.06615852 0.34976313 -0.471884
-0.31036648 0.53069186 0.45026368 -0.3792145 -0.41372484 0.15941665 0.071733 0.46332216
-0.18241915 0.34253064 0.07083217 0.45943725 -0.4035714 -0.09293225 0.2708233 -0.20560136
0.5612703 0.21022516 0.02605102 -0.4905131 -0.31332913 -0.49306473 -0.14976946 0.46788898
-0.54512805 0.26897883 -0.08115991 0.46034965 -0.196555 0.23480488 -0.56284386 0.2873234
-0.42640024 -0.14231822 0.23321886 0.25326675 -0.114256114 -0.5115557 0.22674686 0.48642486
0.013224996 -0.27890727 -0.3049138 0.37668115 -0.3169786 -0.46607095 0.33090863 -0.16249572
-0.08328559 -0.56590873 0.36954963 -0.08743965 0.320498 0.38702783 -0.06615032 -0.13544098
0.14964202 -0.036580376 -0.38222703 -0.3829642 -0.1860022 0.033724632 -0.121393435 -0.56447387
0.14744844 0.29492536 0.11331353 0.5623583 0.119922884 -0.26094118 -0.5603317 -0.0207936
0.124825396 -0.37850136 0.14272138 -0.35074946 -0.21987203 0.55540246 -0.18373127 0.2101256
0.49294078 -0.05548845 0.4294015 -0.35494837 0.32808456 -0.10799408 0.0024165395 -0.10342216
0.30558243 -0.07217551 -0.53267395 -0.56728065 -0.34684968 -0.26089764 -0.42363095 -0.42347038
-0.073831975 -0.43270788 0.3898962 0.41466045 0.2009407 0.493743 0.10701007 0.11160721
-0.51209337 0.28154007 -0.4604332 0.43281952 -0.27827728 -0.13246258 -0.5084002 0.23949364
-0.2428195 0.21409346 -0.040390756 -0.31977564 0.12735285 -0.10634063 0.12591583 0.18585205
0.29664192 -0.39049459 0.45880932 0.21048029 -0.15106554 0.33675656 0.021371247 -0.39845282
-0.038605534 -0.17354232 -0.02342533 0.5044054 -0.5629711 -0.24099308 0.20688465 -0.45903084
-0.43221062 0.25277755 -0.39053878 0.31975484 -0.54193044 0.3051013 0.3191013 -0.55141217
0.40383935 -0.18980297 0.13086358 0.2694444 0.31889033 0.46925488 0.43889713 -0.024833413
-0.2194747 0.30951202 0.24403207 0.20322977 0.17421465 -0.5507526 0.19086768 0.19355577
0.2593519 -0.37907836 -0.2977175 -0.21577339 0.5808296 0.43960905 -0.2657239 -0.42619428

initial.bias f4 [150]
00000000: 9a5d 48be 7319 cd3e a1f2 0abf 3cc2 58be
00000010: 264f 5e3e 8279 bebe ba60 063e 2b5d 83be
00000020: 2f0b f3be 12e5 06bf 9cff a8be b466 0a3f
00000030: 954f 38be 8100 413e 5dc7 f93e fc7a 0c3e
00000040: 7b6d 0ebf 997d 37be 8dae 7abe 5e1d 783d
00000050: a0f1 efbd 3b00 5fbd 92a8 dbbd f22b dc3d
00000060: b719 8fbe de7a b23e a0af 9e3e a1ae 11bf
00000070: 30f7 5f3e c093 8b3e c6de 5e3d 28c1 2cbe
00000080: 5af5 e63e dfa2 d9be e159 fe3e cff7 9dbe
00000090: c912 f6be c046 bfbc f881 b83e 6c37 a7bd
000000a0: 63ac f6be 797b 00bf 1484 093f 7c00 103f
000000b0: 3cb3 0ebf e851 e8be ed75 063e b6a8 84be
000000c0: 182a ccbe eb42 01bf 1fe1 32be 1e6e 813e
000000d0: ef07 a5be 12c8 fabc 4a31 65be 3c72 19be
000000e0: 1b99 f0be 5d3b 0cbf 223c a73e 08c4 32be
000000f0: 90ca 31be fb93 dcbe 83d7 ad3e 29cc a8bd
00000100: 73c1 363d 2c29 a0be 73e7 efbe 5227 14be
00000110: 6ce5 37be 1510 833e 70fb 1d3e 91b7 c6be
00000120: dda6 59be af6d 0e3d 3ada b33e f9a0 3b3d
00000130: 7a89 3e3e 1891 3cbe 22a3 a8be a177 9d3c
00000140: 1641 153f 8bcd aa3d 4ab1 a33c d0ca 0fbf
00000150: 8ffb a2be ec45 ce3e 679c c8bd 5eae 05bf
00000160: 91c5 733d dfed b1be 76d2 b5be 85d5 7a3e
00000170: ef21 ad3e 47a2 b6be 3aa2 ac3e c465 bc3e
00000180: 86e1 853e a50a f53e 5b02 c3be 0ba2 5d3c
00000190: b39e 35be 870b dfbd 0af2 14be f534 b73e
000001a0: c11d 0dbf b448 2abc d42e 59be 2251 f93e
000001b0: c47f 503e f335 023d f655 dabe 733b b6be
000001c0: 8afd fb3e c00f b8be 3c53 7abb 7f8f b63e
000001d0: 5b6f eabe 8ca6 af3e b411 a4bc 910e 993d
000001e0: 0647 013f 410d 11bc f684 cfbe ccaf cabe
000001f0: 0c43 ae3e c1f9 bf3e f04e 04bf 5309 c2be
00000200: 0859 8cbe 1e77 4b3e 5825 f93e 15d6 15be
00000210: 423f 113d a88b 793c c13c 54be 0d90 aebe
00000220: cb81 183e 31c4 09bf b551 00bf 3499 123f
00000230: 5c0c 92be 59ec ffbb 43a5 923e 2638 0f3f
00000240: 2fdf cbbe a9e0 cebe 0de2 d33c 66aa ab3e
00000250: 0c34 ea3e 38b4 94bd
-0.19566956 0.4005848 -0.5427647 -0.21167845 0.2170988 -0.37202078 0.13122836 -0.2565702
-0.4746947 -0.52693284 -0.33007514 0.5406296 -0.17999108 0.18847848 0.48784915 0.1371879
-0.55635804 -0.17919005 -0.24480648 0.06057488 -0.11716008 -0.05444358 -0.107255116 0.107505694
-0.27949306 0.34859365 0.30993366 -0.5690709 0.21871638 0.27261162 0.054411672 -0.16870558
0.45109063 -0.42507073 0.49677947 -0.30853125 -0.48061207 -0.023349166 0.36036658 -0.08164868
-0.48178396 -0.50188404 0.5371716 0.5625074 -0.5574224 -0.4537499 0.13130923 -0.25909966
-0.39875865 -0.50492734 -0.1746869 0.25279325 -0.32232615 -0.03061298 -0.22382084 -0.14984983
-0.4699181 -0.5477808 0.32663065 -0.17457592 -0.17362428 -0.4308165 0.33953485 -0.082420655
0.04461808 -0.31281412 -0.4685627 -0.14468125 -0.17958611 0.25598207 0.15427947 -0.38811925
-0.2125506 0.03477257 0.3512743 0.045807812 0.1860713 -0.18414724 -0.3293696 0.019222083
0.5830244 0.083399855 0.019981999 -0.5616884 -0.3183255 0.4028772 -0.097954564 -0.5221919
0.059514586 -0.34751794 -0.3551213 0.24495514 0.33814952 -0.35670683 0.3371752 0.3679639
0.26148623 0.47859684 -0.38087735 0.013527404 -0.1773632 -0.108908705 -0.14545456 0.3578259
-0.55123526 -0.01039331 -0.2120927 0.48694712 0.20361239 0.03178973 -0.42643708 -0.3559223
0.49216872 -0.35949516 -0.0038196584 0.35656354 -0.45788082 0.34306753 -0.020027973 0.074734814
0.50499 -0.008853258 -0.4053113 -0.39587247 0.34035528 0.37495235 -0.5168295 -0.3789774
-0.27411675 0.19869658 0.48661304 -0.14632447 0.035460718 0.015231051 -0.20726301 -0.34094277
0.14893262 -0.5381499 -0.50124675 0.5726502 -0.28525054 -0.0078101573 0.2864171 0.5594505
-0.39818713 -0.40405777 0.025864625 0.3352844 0.45742834 -0.072609365

readout.weight f4 [126, 150]
00000000: bf73 013d 2679 1b3d b760 8dbd 2480 93bd
00000010: 389b 803d 73bf eebc 73c7 60bc 6737 cb3c
00000020: fba0 3bbd 92ce 7fbd 9cd1 75bd 4ee1 24bd
00000030: 2a36 203d 262e 763d fbea a0bc 05ab 60bd
00000040: cd64 843d 2a8e 66bd 748a 693d c72c 3b3d
00000050: d022 5abd d2c5 063d 8c49 953d 0d7b 74bd
00000060: 8299 943c faec 80bd c71f e3bc 6150 173d
00000070: fa6b 20bd b09a 92bd da9a 4ebd a9c6 0abd
00000080: b2c1 9cbc 78dd 7e3d 4520 35bd 9e78 d93c
00000090: aff4 bcbc 94e1 823d 7fd1 583d f61f 023d
000000a0: c59c 43bd 5a6b 443d 5a35 7c3c 7d59 f3bc
000000b0: 9d7d 10bd e513 10bc ac6a 833c 6bfd be3c
000000c0: e34a 983c 2631 803d c7d9 97bd 9c07 8abc
000000d0: cb13 983c 05e5 333d 81b6 a83b ec61 843d
000000e0: ee67 543d 2f7f ac3c 7f5b 43bd 859f 78bd
000000f0: df67 96bd a7a1 97bc eaf9 75bd 337d 74bd
00000100: 29d0 78bd 4811 803b 7e00 4b3d d2f5 9b3d
00000110: 0edf 803d 7b1c 2ebd 7090 b7bc 3b66 473d
00000120: 7dca 12bd 663b 15bd 10cc 1a3d e21d 2e3d
00000130: 158f 453d 4673 033d f545 88bd 3f4c a0bd
00000140: 231b 1f3d 585b 8ebd d592 ea3c 489a ae3b
00000150: 6899 08bd 1c1f 39bd 1976 c93c 5dda 3cbd
00000160: f7a1 4b3d 1969 863d 18c5 06bd 4444 f63c
00000170: fe9b b4bb 57db 043c 6a4e 28bd ad3d 113d
00000180: 2a8b 703d 6b04 983d 007b 5d3d 9826 8ebd
00000190: 9fd4 a23c 3e06 bebc ea23 73bc a563 253b
000001a0: bd0c 533d 0877 983c c450 a53d dc59 913c
000001b0: 646e 4a3d e6b3 983c e1ce 473d 8cdf 99bb
000001c0: eaf1 1abc 81be df3c d7b6 303b e8ba 5e3d
000001d0: 7862 4f3d effd 2d3d d7c0 943d 12c4 fcbc
000001e0: 8b73 fb3b 598f 6fbd bfb4 92bd d8b5 683c
000001f0: ab1b 223d a725 103c a1e4 933d 5452 623d
00000200: 4839 18bd b156 96bd 16dc f5bc 3db6 fe3b
00000210: 0040 8cbd 0167 31bd 74d9 a43d ba31 7ebc
00000220: f384 243d e3a4 4c3b 82e1 313c b97b 393d
00000230: 11e8 3cba 2de1 423d 2988 12bd 8454 943d
00000240: 126a a43d 9bb4 2b3d 2750 1f3b 2e1e d8bc
00000250: cf92 103d dc39 823d 5a24 873d c79b bbbc
00000260: 89bf a63d d131 ba3c 0647 6b3d bdf2 93bd
00000270: af9c 3abd 81e6 de3c bc8a 943d b919 a03b
00000280: 3691 71bd af2d 273d 2d0f 8dbd 0c60 d3bc
00000290: 93da 823c d079 a83c e465 cabc 2e71 583d
000002a0: d19e 3ebd 4132 7cbd c08b 92bd 952e 2fbb
000002b0: ae3d 55bc ebde 6ebc 6645 2ebc ed08 16bd
000002c0: 67d8 423d 168b 4ebd d41c 82bb a3be 553d
000002d0: 2027 553d 4c95 d13c d6fc 82bd 54a6 8abd
000002e0: 11c0 453d 023f 9abd 8569 8bbd 35b2 813d
000002f0: 8fdf 67bd f578 efbc 28c0 9b3c 6e88 083c
00000300: 98c8 c2bc 7793 11bc 52c3 89bd 85b9 10bc
00000310: 8bf1 b0bc 3997 49bc 0a41 08bb 1a49 a33b
00000320: 1b97 75bc 595f cc3c c6a4 fc3c 5651 9a3d
00000330: a520 91bd 5d19 89bd 2c79 883b 9af5 653c
00000340: 4162 5b3d e1c0 8abc 5554 ff3b e64f 4abd
00000350: f732 463d 5856 d43c 1d70 903d bbb7 423d
00000360: e56c 9b3c 5d7c 573d 7eeb eb3b e935 53bd
00000370: 3b42 cebc 1597 8d3d 0c57 cabc e9f0 7fbd
00000380: d409 e03c a0da d23c a505 49bd 5878 a83c
00000390: e8dd 883d 472a 883d 828f aebd 1098 703d
000003a0: e61e 503d b555 8dbd 94d4 583d 8656 183d
000003b0: 30f4 1abc 290b a8bd e4a3 afbc a50b 2f3d
000003c0: e7a2 9b3d 80df 233d 1d6a 8d3d c823 fd3c
000003d0: 265f 53bd aa3e 60bc 3f69 943d e434 93bd
000003e0: 1a04 2c3d 7d34 ca3b b72b 1239 f8ff 633d
000003f0: 3a6f 9b3c fe17 41bd 623a a73c dc8b cf3c
0.031604525 0.037957333 -0.069032125 -0.07202175 0.062796056 -0.029144024 -0.013719427 0.024806691
-0.04580782 -0.06245286 -0.060014352 -0.04025393 0.039114155 0.060102604 -0.019643297 -0.054850597
0.06464539 -0.056287922 0.057016805 0.045697 -0.053255856 0.0329035 0.072894186 -0.059687663
0.018139604 -0.062952 -0.027725114 0.03694189 -0.039165474 -0.071584105 -0.050440647 -0.033880863
-0.01913533 0.062222928 -0.044220228 0.026546773 -0.023065893 0.06390682 0.052934166 0.03176876
-0.04775693 0.04795394 0.015393579 -0.029705757 -0.035276044 -0.008793806 0.016042076 0.023314198
0.018590396 0.06259374 -0.074145846 -0.016849332 0.018564126 0.043919582 0.0051487093 0.064639896
0.051856928 0.02105674 -0.04769468 -0.060699005 -0.073440306 -0.018509699 -0.06005279 -0.05968971
-0.060745392 0.00390831 0.049561016 0.07615246 0.06292544 -0.04250763 -0.02240774 0.04868148
-0.03583764 -0.0364336 0.037792265 0.042508967 0.048232157 0.032092355 -0.06653968 -0.07827043
0.03884424 -0.06951016 0.028634468 0.0053284504 -0.033349425 -0.045195684 0.024592446 -0.046106685
0.04971501 0.065630145 -0.032902807 0.030061848 -0.00551176 0.008108935 -0.041090406 0.03545921
0.058726467 0.07422718 0.05407238 -0.06940955 0.019876776 -0.023196336 -0.014840106 0.0025236395
0.05152582 0.018611446 0.080720454 0.017743044 0.049421683 0.01864047 0.04878128 -0.0046958383
-0.009457091 0.027312519 0.002696445 0.054377466 0.050631016 0.042478498 0.07263344 -0.030855212
0.007673686 -0.058486316 -0.07163381 0.014203511 0.039577167 0.0087980395 0.07221342 0.055254295
-0.037164003 -0.07340754 -0.030012172 0.0077731893 -0.068481445 -0.043311123 0.080492884 -0.015514785
0.040165853 0.003122621 0.010856988 0.045284007 -0.00072062114 0.047578026 -0.035774384 0.072426826
0.08028044 0.041920286 0.002430925 -0.026381578 0.035296258 0.06358692 0.065987304 -0.022901429
0.08142001 0.022728832 0.05744078 -0.07224033 -0.04555958 0.027209522 0.07253024 0.004885879
-0.058976375 0.04081505 -0.0688766 -0.025802635 0.015973365 0.020565897 -0.024706788 0.05284231
-0.046538178 -0.061571363 -0.071555614 -0.0026730646 -0.013015194 -0.014579515 -0.010636663 -0.036629606
0.04756966 -0.05042561 -0.0039707217 0.05218376 0.052039266 0.025583886 -0.06395881 -0.06770006
0.048278872 -0.07531549 -0.06807236 0.063328184 -0.056609686 -0.029232481 0.019012526 0.008333309
-0.023777291 -0.008885256 -0.067267075 -0.008833294 -0.021599552 -0.012304121 -0.002079072 0.0049830796
-0.01498964 0.024947809 0.030840289 0.07535045 -0.070863046 -0.06694291 0.0041648354 0.014035607
0.0535605 -0.016937675 0.0077920356 -0.049392603 0.048388448 0.025920078 0.07052634 0.0475385
0.018972823 0.052608836 0.0071997037 -0.051565085 -0.025178066 0.06913582 -0.02469971 -0.06248561
0.027348436 0.025739014 -0.04907765 0.020565197 0.0668295 0.06648689 -0.08523466 0.058738768
0.050810717 -0.06901113 0.052937105 0.03719189 -0.009457633 -0.08205254 -0.021440454 0.042735714
0.075994305 0.040008068 0.06905005 0.03090085 -0.051604412 -0.013686815 0.072466366 -0.071878225
0.0419961 0.006170808 0.0001393993 0.055664033 0.018973935 -0.04714202 0.020413581 0.025335245

readout.bias f4 [126]
00000000: 2e83 293d 3105 b7bb 5bbb 7d3d f7e2 3dbb
00000010: 5058 38bd 55dd 07bc 9012 943c 26d3 703d
00000020: 4db7 903d e90d 3ebd 54fb 95bc b65e 3bbd
00000030: 0e48 563b bec9 70bd 43c2 a2bc 2569 d73c
00000040: f248 163d 09df 5bbd 751f 91bd 35af 663d
00000050: 0e85 5b3d 08ae 983d bd67 dcbc aeac fdbc
00000060: 8662 a7bd d073 963c f7a5 10bc 2591 143d
00000070: cd7e 723d 3222 a5bd 4b04 043d 7b3e 853d
00000080: 36af 65bc 7b79 56bd 8da0 9dbd f49b 283d
00000090: bce2 a4bd 729c d43c be44 3a3c 1082 a43c
000000a0: 0712 f03c 67f7 3fbd 2233 45bc 52e8 9cbc
000000b0: d0f5 3e3d d825 923d ec19 b0bc b825 b3bc
000000c0: d289 07bd 90ea 393d e294 413a e729 0abd
000000d0: 6f57 d4bc 1791 8a3d b1c6 223d da04 6cbd
000000e0: 3654 ba3c 504f 7cbd 59d6 2abd 7b8b 393d
000000f0: e9a1 853d 84fb 863d 2bc0 c43c 255a 5fbd
00000100: 8202 963c 7907 24bc d202 803c fc31 10bd
00000110: 13be 563d 28ec 28bd 78b2 86bc 3065 e5bb
00000120: 53a0 dcbb 067a ad3c cb6e 413d 8c24 88bd
00000130: ec93 ff3b a2fe 9a3c 8d72 76bd 641e 7ebd
00000140: e6ce 41bb 91e7 37bd 9a46 473d 9e37 0d3d
00000150: b4e3 393d 0da2 9cbd 4948 1dbd 0b19 833d
00000160: e97d 8f3d 2234 95bd eb58 ff3c a28d b03c
00000170: 3373 a2bd 7c5b c5bc 42e0 febb 4641 7e3d
00000180: 4ebc 1fbd 29b1 8f3d 273e 86bd 929e 90bd
00000190: 4da4 533d 719d 1d3c f99a a8bd f929 91bd
000001a0: bd57 37bc 5b8a 663d e310 7a3d c2d1 41bd
000001b0: 9aba 933d 2d89 8e3d 0588 61bc 3ed6 a2bd
000001c0: 2784 a1bd 29f8 87bd 7a70 41bb 22ae 453b
000001d0: ca2d 78bd c304 1ebd 8b01 373d bd2d 513d
000001e0: 548c 90bd 3858 3b3d a36a 9f3b 992e 34bd
000001f0: 5a42 35bc 0c0f 92bd
0.04138487 -0.0055853357 0.061946254 -0.0028974393 -0.045006096 -0.008292516 0.018075258 0.058795117
0.07066212 -0.046399985 -0.01830832 -0.04574462 0.0032696757 -0.058786146 -0.019868022 0.026295254
0.03669066 -0.0536795 -0.07086078 0.056319434 0.053593688 0.07455069 -0.026904935 -0.03096613
-0.08173089 0.01836577 -0.008828632 0.036271233 0.059202958 -0.08063163 0.032230657 0.06506058
-0.014018824 -0.052361947 -0.07696638 0.041164353 -0.08051059 0.025953505 0.0113689285 0.02008155
0.029305471 -0.0468668 -0.012036117 -0.019153748 0.046621144 0.07136124 -0.021496736 -0.021868572
-0.03309042 0.04538971 0.0007384551 -0.033731367 -0.025920598 0.06765955 0.03974027 -0.057621814
0.022745233 -0.061599076 -0.041708324 0.045299035 0.065250225 0.065909415 0.024017414 -0.054529328
0.018311743 -0.010011547 0.015626345 -0.03520392 0.052427363 -0.04124084 -0.016442522 -0.007000588
-0.0067329793 0.02117635 0.0472248 -0.06647596 0.007799616 0.018920247 -0.060167838 -0.0620407
-0.0029572784 -0.044898573 0.048651315 0.03447687 0.04538317 -0.07648096 -0.038399015 0.06401261
0.07006437 -0.07285334 0.03117033 0.02155191 -0.07932129 -0.024091475 -0.0077781985 0.06207397
-0.03899794 0.070162125 -0.06554823 -0.07061495 0.05167036 0.0096200565 -0.08232684 -0.07088084
-0.011190352 0.05628429 0.06105126 -0.04731918 0.07213326 0.06959758 -0.01376534 -0.0795102
-0.07886534 -0.0663913 -0.0029516504 0.0030163606 -0.060590543 -0.03857876 0.044679206 0.05106901
-0.070580155 0.04573843 0.004865007 -0.04398975 -0.011063183 -0.07131776
