cde/model/checkpoints/7.ckpt (torch, 390543 bytes, 8 tensors)

func.linear1.weight f4 [128, 150]
0	0xbca54be1	-0.020177783
1	0xbd7b25a8	-0.06131521
2	0xbce8801d	-0.028381402
3	0x3bfafaf0	0.0076593086
4	0xbd190bf0	-0.0373649
5	0xbc98677b	-0.01860403
6	0xbcf177c7	-0.02947606
7	0xbd2b450d	-0.0418139
8	0x39d0b430	0.00039807102
9	0x3d78b164	0.060716048
10	0xbb80a887	-0.00392634
11	0xbd0cd95e	-0.034386985
12	0x3d490095	0.04907282
13	0xbd88fa18	-0.066883266
14	0xbd918a74	-0.07106486
15	0x3cd04041	0.025421264
16	0xbcc6fdca	-0.024290938
17	0x3d525831	0.051353637
18	0xbb3f0a22	-0.0029150327
19	0x3d272d17	0.040814485
20	0xbd5b3a02	-0.053522117
21	0x3d164283	0.036684524
22	0xbd494cce	-0.049145512
23	0xbc6c9736	-0.014440348
24	0x3d484a39	0.04889891
25	0xbd6cc6ee	-0.0578069
26	0x3d9700d9	0.073732086
27	0x3d007cc7	0.031368997
28	0x3c4fdfb4	0.012687612
29	0x3bdb67ea	0.006695737
30	0xbd86bacf	-0.065786
31	0x3c6dbd06	0.014510399
32	0x3d418d1f	0.047253724
33	0xbcdf4b1b	-0.027257493
34	0xbd6ba114	-0.057526663
35	0xbcb69f05	-0.022292623
36	0xbda8bfed	-0.08239732
37	0x3d3f403c	0.046692118
38	0x3c1c4e63	0.009540173
39	0xbd8eae66	-0.069668576
40	0x3d5e671b	0.054297548
41	0x3d857c23	0.06517818
42	0x3d96ae2a	0.07357438
43	0xbb1766a5	-0.0023101952
44	0xbd3456c1	-0.044028047
45	0x3d56468a	0.052313365
46	0x3da902ee	0.08252512
47	0xbd214903	-0.03937627
48	0xbd1f7019	-0.038925264
49	0xbc647a16	-0.013945123
50	0x3cb9f7a2	0.022701088
51	0x3d932b09	0.07185943
52	0xbd656f76	-0.0560145
53	0xbc19a0d9	-0.009376728
54	0xbd0e1430	-0.03468722
55	0x3c37e8fe	0.011224983
56	0xbc332e17	-0.010936282
57	0xbd005f40	-0.031340837
58	0x3d41cf72	0.047316976
59	0x3d8cab41	0.068686016
60	0xbc981aad	-0.018567408
61	0x3d991f52	0.07476677
62	0x3c098a78	0.00839483
63	0xbd1a2c64	-0.03763999
64	0x3c9e2649	0.019305365
65	0xbc295326	-0.010334766
66	0x3d872392	0.065985814
67	0x3d12da7c	0.035852894
68	0xbc44b4ab	-0.012005965
69	0x399ad8cd	0.00029534698
70	0x3c6c6e36	0.014430573
71	0x3d981ff6	0.07427971
72	0x3c4a9467	0.012364483
73	0xbc533166	-0.0128901955
74	0xbd3807c3	-0.044929277
75	0xbc1bbf7a	-0.009506101
76	0x3d2c843d	0.0421183
77	0x3d94494e	0.07240544
78	0x3cab04d9	0.020876335
79	0x3d177c65	0.036983866
80	0x3cc7b4a6	0.024378132
81	0x3bcd45dc	0.0062644314
82	0xbcd305f2	-0.02575967
83	0x3d37a5f2	0.044835992
84	0x3d7a9b27	0.06118312
85	0x3d9f771f	0.077863924
86	0x3a1c1368	0.00059538195
87	0x3c934963	0.01797933
88	0xbcaf1717	-0.021373315
89	0xbd0bf3b9	-0.03416798
90	0x3cae64ac	0.021288238
91	0xbd6ac645	-0.05731799
92	0x3d860530	0.06543958
93	0x3d820e5e	0.063503966
94	0x3d2e0a84	0.042490497
95	0xbd55c5dc	-0.052190647
96	0x3d6813eb	0.05665962
97	0xbd64e0f8	-0.05587861
98	0xbcafcc9c	-0.02145987
99	0xbcc43136	-0.023949247
100	0xbcb7c27f	-0.02243161
101	0xbd1d786d	-0.038444925
102	0x3d4c113f	0.049821135
103	0xbc7429ce	-0.014902545
104	0x3a9b5078	0.0011849543
105	0xbcb482fa	-0.02203511
106	0x3d75dfaf	0.060027774
107	0x3c363333	0.011120605
108	0x3d45668b	0.048193496
109	0x3d81111e	0.06302093
110	0xbaeea2e4	-0.0018206504
111	0xbbc82688	-0.006108109
112	0x3d29d555	0.041463215
113	0xbd875fc2	-0.06610061
114	0x3d946380	0.072455406
115	0x3d778e7e	0.060438626
116	0xbd50fa5a	-0.051020004
117	0xbc8ec61e	-0.017428454
118	0xbd9c8f2c	-0.07644495
119	0x3d751d64	0.059842482
120	0x3d02787b	0.03185318
121	0xbc09c84f	-0.008409574
122	0x3d82a875	0.06379787
123	0xbd5203fb	-0.051273327
124	0xbd3b30cd	-0.045700837
125	0x3d8dde20	0.069271326
126	0xbcf7b5b9	-0.03023802
127	0x3be2390d	0.0069037736
128	0xbd6474dd	-0.055775512
129	0x3ce1000b	0.02746584
130	0xbd8bc011	-0.06823743
131	0x3d2cf065	0.042221446
132	0xbd9aaac5	-0.07552103
133	0xbd6af806	-0.05736544
134	0xbd93ebf7	-0.07222741
135	0x3d21fe6c	0.039549276
136	0x3d661bbc	0.056178793
137	0xbd3927ec	-0.045204088
138	0x3c4d0fa3	0.012515935
139	0xbae1fc7c	-0.0017241384
140	0xbcd73db6	-0.026274543
141	0xbd12e64e	-0.035864167
142	0xbd29d155	-0.0414594
143	0xbd88b15d	-0.06674454
144	0x3d57e144	0.052705064
145	0xbda9af8a	-0.082854345
146	0xbb28d172	-0.0025759605
147	0x3cd158b9	0.025555002
148	0xbc6aa6df	-0.014322012
149	0x3d795665	0.060873408
150	0x3d8ac5d2	0.067760125
151	0x3d23e33c	0.04001163
152	0x3c14b6fd	0.009076831
153	0xbc99d66d	-0.018779004
154	0xbd87ca84	-0.06630424
155	0x3d4cfdbe	0.050046675
156	0x3b16009c	0.0022888547
157	0xbda59396	-0.080847904
158	0x3d3a2b1a	0.04545126
159	0x3c3e2c86	0.011607295
160	0xbcef9efc	-0.029250614
161	0x3dade060	0.08490062
162	0xbca96340	-0.020677209
163	0x3c0088b0	0.007845089
164	0x3b6ab66d	0.00358143
165	0x3d4fcdc0	0.050733328
166	0xbd5f5daa	-0.054532684
167	0x3cfbade1	0.03072256
168	0x3d22ecf5	0.03977676
169	0xbd55d753	-0.052207302
170	0xbd41460d	-0.047185946
171	0x3ab8c8be	0.0014097912
172	0x3da9b7c7	0.08287006
173	0x3cf33e23	0.029692715
174	0x3d849b44	0.06474927
175	0xbd5debe5	-0.054180045
176	0xbd508c0d	-0.050914813
177	0x3cf91c4a	0.030408997
178	0x3d01fe91	0.031736914
179	0x3d2e380e	0.042533927
180	0xbccb5239	-0.02481948
181	0xbd96f555	-0.07371012
182	0xbca91786	-0.0206411
183	0x3ce358f6	0.02775238
184	0xbd393c2f	-0.04522341
185	0x3cb7162b	0.022349438
186	0xbcc74878	-0.024326548
187	0x3b5fcc20	0.0034148768
188	0x3d83f0c9	0.064424105
189	0xbd68a5f6	-0.056798898
190	0xbda485db	-0.080333434
191	0xbd8a3661	-0.06748653
192	0x3d3d9b77	0.04629084
193	0xbccf91c4	-0.025338061
194	0x3c2e7e3d	0.010650215
195	0x3d6fb6ff	0.058524128
196	0xbc40b0b7	-0.011760882
197	0xbbcdc6d3	-0.006279805
198	0xbd53c8a8	-0.051705033
199	0xbcfd18a0	-0.030895531
200	0xbccba409	-0.024858491
201	0x3c05b36f	0.008160456
202	0x3caaca31	0.020848366
203	0xbc4027ba	-0.011728222
204	0xbc1b78dd	-0.009489265
205	0xbc580ba9	-0.013186374
206	0x3cd2774a	0.025691647
207	0xbd9e24b2	-0.07721843
208	0x3cdbc74d	0.026828432
209	0x3b98d0e3	0.004663573
210	0x3b6d85db	0.0036243114
211	0x3bf61052	0.0075092698
212	0x3d2f72fd	0.04283427
213	0x3d341315	0.04396351
214	0xbce75190	-0.028237134
215	0xbbec574a	-0.007212554
216	0x3d445ed1	0.047941986
217	0x3bcba756	0.0062150164
218	0xbcf9515d	-0.030434305
219	0xbd6fd9c3	-0.058557283
220	0x3c6ec0bf	0.014572321
221	0x3a62118b	0.000862383
222	0x3d9cc1d3	0.076541565
223	0x3c8c85e5	0.01715369
224	0xbd05acdf	-0.032635566
225	0x3cd7dcc3	0.026350385
226	0xbd823b8c	-0.06359014
227	0xbd905a6d	-0.07048497
228	0xbcf64eb0	-0.030066818
229	0xbda32c94	-0.07967487
230	0x3d87aa1d	0.066242434
231	0x3cc9746e	0.02459165
232	0xbd4a7ae0	-0.04943359
233	0xbd80c577	-0.062876634
234	0xbd4c142d	-0.04982393
235	0xbbdefc70	-0.0068049952
236	0x3d2aaec0	0.04167056
237	0x3cc61fd4	0.024185099
238	0xbd386659	-0.04501948
239	0x3d632072	0.055450864
240	0xbd8123a2	-0.063056245
241	0x3d9102b7	0.07080596
242	0xbc90104b	-0.017585894
243	0xbd213305	-0.039355297
244	0x3c029fb7	0.007972649
245	0xbd468ff4	-0.04847713
246	0xbcba9d41	-0.022780063
247	0xbca1dc98	-0.019758508
248	0x3c1a16e8	0.009404875
249	0x3d525802	0.051353462
250	0xbcdb791d	-0.02679115
251	0x3d9555af	0.072917335
252	0x3c1aa067	0.009437657
253	0xbbb1edda	-0.0054299654
254	0x3d897083	0.06710913
255	0xbd09f63a	-0.033682086

func.linear1.bias f4 [128]
0	0xbd04d9d7	-0.03243431
1	0xbd67c779	-0.056586716
2	0xbd3cda22	-0.046106465
3	0x3d81caf9	0.06337542
4	0x3cfb899a	0.030705262
5	0x3b837255	0.004011432
6	0xbcfb0646	-0.03064264
7	0x3dacff6f	0.084471576
8	0x3d9b81e9	0.07593138
9	0xbd6c457a	-0.057683446
10	0xba18e86d	-0.0005832974
11	0xbb745c97	-0.0037286633
12	0x3d4b56a9	0.049643192
13	0x3afa4ca5	0.0019096328
14	0xbda4db2f	-0.080496185
15	0x3c80ded0	0.015731245
16	0xbd77cd17	-0.060498323
17	0xbd61dc76	-0.05514189
18	0x3d4f5f1b	0.05062781
19	0xbc0bb2be	-0.008526502
20	0xbcd94920	-0.026524127
21	0x3c138dc5	0.009005968
22	0x3d89f233	0.06735649
23	0x3d8f3520	0.06992555
24	0x3c0ea7c5	0.008706992
25	0xbc38de7c	-0.011283513
26	0x3d35dac6	0.04439809
27	0x3d805fb5	0.06268255
28	0x3da4ca82	0.08046438
29	0xbd435cf4	-0.04769607
30	0xbcab83a9	-0.020936804
31	0xbc53ebae	-0.012934608
32	0x3d1bc9e8	0.03803435
33	0xbbb25ab2	-0.0054429406
34	0xbd57d4c8	-0.05269316
35	0xbd8b02b7	-0.06787627
36	0xbd438561	-0.047734622
37	0xbcfa22f0	-0.030534238
38	0x3ac45288	0.001497821
39	0x3c00f29d	0.0078703435
40	0x3d943204	0.07236102
41	0x3c3ee2f1	0.011650787
42	0xbd0f7f07	-0.035033252
43	0xbbd5fe4e	-0.0065305596
44	0xbdade2d9	-0.084905334
45	0xbd627560	-0.05528772
46	0x39a891b0	0.00032152003
47	0x3ca81774	0.020518996
48	0x3d5f2e6a	0.054487623
49	0xbd90dd1a	-0.07073422
50	0x3d09412c	0.03350942
51	0x3bafa89b	0.0053606755
52	0x3cee2157	0.029068632
53	0xbbb37d73	-0.005477601
54	0x3d95818b	0.07300099
55	0x3d58378d	0.052787352
56	0x3b66b8bf	0.0035205332
57	0x3cc4ce33	0.024024105
58	0xbca5f3b2	-0.020257805
59	0xbcc01055	-0.023445288
60	0x3d8b7f45	0.06811384
61	0x3d9dbd17	0.07702082
62	0x3d8b327b	0.06796738
63	0xbd9b5391	-0.075842984
64	0xbd99e450	-0.0751425
65	0x3ca13931	0.019680591
66	0xbd8907f7	-0.06690972
67	0x3c526c20	0.012843162
68	0x3d048cc7	0.03236082
69	0x3cb0f032	0.021598909
70	0x3d70ee6a	0.05882112
71	0xbd0bb653	-0.034109425
72	0xbd26a93c	-0.04068874
73	0xbdaca839	-0.084305234
74	0xbc4afc97	-0.012389324
75	0xbd0c0282	-0.03418208
76	0x3c8498fb	0.016186228
77	0x3c915282	0.017739538
78	0x3d9e05e3	0.077159666
79	0xbd84727e	-0.0646715
80	0xbd0e4640	-0.034734964
81	0xbcbed8ee	-0.0232968
82	0xbd30abfd	-0.04313277
83	0x3c499da5	0.012305652
84	0x3d2028ad	0.03910129
85	0xbd93704c	-0.07199153
86	0xbd7be512	-0.061497755
87	0xbd80704e	-0.062714204
88	0x3d8405d4	0.06446424
89	0xbcd18116	-0.025574248
90	0x3d3c9ced	0.046048094
91	0xbd278911	-0.0409022
92	0x3d590f86	0.05299332
93	0x3ce49086	0.027900945
94	0x3d9b185f	0.07573008
95	0x3d73f208	0.05955699
96	0xbca95dee	-0.020674672
97	0x3d448416	0.04797753
98	0xbd2d0782	-0.042243488
99	0x3d8438c0	0.06456137
100	0xbcbd03df	-0.023073135
101	0xbd8b496e	-0.06801115
102	0x3d80249d	0.062569834
103	0x3d695a5f	0.05697095
104	0xbd43453d	-0.047673453
105	0xbce5dcaf	-0.028059332
106	0x3d222431	0.039585296
107	0x3d878b60	0.066183805
108	0xbd828b3c	-0.06374213
109	0xbd3e5565	-0.046468157
110	0x3c54acd2	0.012980657
111	0x3d74cc7d	0.059765328
112	0xbd989a7b	-0.0745134
113	0xbc8b2076	-0.016983252
114	0xbc15a09d	-0.0091325315
115	0x3d9982b9	0.074956365
116	0x3bfa0be6	0.007630813
117	0x3d27cf0e	0.040968947
118	0x3ce011d5	0.027352253
119	0x3bd492a4	0.0064872075
120	0xbda71b19	-0.08159465
121	0x3be2d463	0.006922291
122	0x3c7f54d9	0.015584194
123	0x3b4c5b33	0.0031182289
124	0x3c0f65df	0.008752315
125	0x3d2b052e	0.041752987
126	0x3c937c9b	0.018003752
127	0xbca73ddb	-0.020415237

func.linear2.weight f4 [450, 128]
0	0xbbd9f87b	-0.0066519356
1	0x3daaa194	0.083316
2	0x3d935274	0.07193461
3	0x3db678d0	0.08909762
4	0xbd42f972	-0.04760117
5	0x3d8cf934	0.06883469
6	0xbce3f099	-0.027824687
7	0x3cca0418	0.024660155
8	0x3da04e22	0.07827403
9	0xbd59558b	-0.053060096
10	0x3d6c9f74	0.057769254
11	0x3d926178	0.07147497
12	0xbd7743d8	-0.060367435
13	0x3d8d781a	0.06907673
14	0x3d906bea	0.07051833
15	0xbd28e278	-0.041231602
16	0xbd8e70fe	-0.06955145
17	0x3cc5b570	0.024134368
18	0x3b39255e	0.0028251032
19	0xbc6723b7	-0.014107636
20	0x3d14d147	0.036332395
21	0xbda8c295	-0.082402386
22	0xbd7a366a	-0.06108705
23	0xbd45b812	-0.048271246
24	0xbc43a9e0	-0.011942357
25	0x3b25cd3c	0.0025299331
26	0xbc66fe00	-0.014098644
27	0x3d7f784d	0.062370587
28	0xbd67034d	-0.056399632
29	0x3d1e4b76	0.038646184
30	0x3d604b92	0.05475957
31	0xbbdd1cbb	-0.0067478097
32	0x3d54ff7a	0.052001454
33	0x3dbb5f12	0.091489926
34	0x3c696505	0.014245276
35	0xbd81bc7c	-0.06334779
36	0x3d981cbe	0.07427357
37	0x3d8b0579	0.06788153
38	0x3ce5c341	0.028047206
39	0xbc8957ae	-0.016765442
40	0x3d99aaeb	0.07503303
41	0xbab84378	-0.0014058193
42	0xbd3b9e8f	-0.04580551
43	0x3d806fe6	0.06271343
44	0x3dbdc81c	0.092666835
45	0x3dab6c41	0.08370257
46	0x3d0e1329	0.03468624
47	0x3c0bdbf7	0.00853633
48	0xbc8ebdb4	-0.017424442
49	0xbd8b5dce	-0.06805001
50	0xbb846f03	-0.004041554
51	0x3c4034f5	0.011731376
52	0x3aff242f	0.001946574
53	0x3d4af03f	0.049545523
54	0x3c6d0ac6	0.014467901
55	0xbd04e2cb	-0.03244285
56	0xbd1d7063	-0.03843726
57	0xbda03c1f	-0.07823967
58	0x3cfc90c6	0.030830752
59	0xbd9703ee	-0.073737964
60	0xbd72d6a7	-0.05928674
61	0xbd1361dc	-0.035981998
62	0x3d6e3a56	0.058161102
63	0x3dad38a9	0.08458073
64	0xbd69e087	-0.05709889
65	0x3ce8a296	0.02839784
66	0x3d6f1d09	0.0583773
67	0xbd96938c	-0.07352361
68	0xbd53c73a	-0.05170367
69	0xbda287f6	-0.07936089
70	0xbceaae3a	-0.02864753
71	0x3da6d665	0.08146361
72	0xbb93239f	-0.0044903303
73	0x3d828e1f	0.06374764
74	0x3cfabb6d	0.03060695
75	0x3d6e4f74	0.05818124
76	0x3d8eb4a8	0.06968051
77	0xbd80f739	-0.06297154
78	0x3d6bcace	0.057566456
79	0xbd73467d	-0.059393395
80	0x3bc98a04	0.006150486
81	0xbce52c6c	-0.027975284
82	0x3cc479b3	0.023983812
83	0xbd5aaa1a	-0.053384878
84	0x3c3fcee3	0.0117070405
85	0x3d619cea	0.055081286
86	0xbcdd8e6a	-0.027045447
87	0x3d436fe9	0.047714148
88	0xbd86f667	-0.06589966
89	0xba00d8e7	-0.00049151335
90	0x3da8dc89	0.08245189
91	0xbd87c222	-0.06628825
92	0x3d62e451	0.05539352
93	0xbd1075bf	-0.03526854
94	0x3c73ccd9	0.014880382
95	0x3d75696c	0.05991499
96	0xbd055781	-0.032554153
97	0xbc6e68d2	-0.014551358
98	0xbc827ea9	-0.015929537
99	0x3cc28a70	0.023747653
100	0x3c3cf410	0.011532798
101	0xbd2a8e95	-0.041639883
102	0x3cd91391	0.026498588
103	0xbd30e7d4	-0.04318984
104	0xbccc69ee	-0.024952855
105	0x3d4b3d63	0.04961909
106	0xbd589257	-0.052873936
107	0x3d180867	0.037117388
108	0xbd788264	-0.060671225
109	0xbc6508cd	-0.013979149
110	0xbbbb68c0	-0.0057192743
111	0xbd7e3ddb	-0.06207071
112	0xbd834032	-0.06408729
113	0x3c36f26a	0.011166194
114	0xbd9da7ff	-0.07698058
115	0x3d98e6a5	0.07465867
116	0x3ad8dbce	0.0016544999
117	0xbda29e5f	-0.07940363
118	0xbda2e2fd	-0.07953451
119	0x3d89bea8	0.06725818
120	0x3b72d90d	0.0037055642
121	0x3cce1314	0.025155582
122	0x3d1e5acd	0.038660813
123	0xbc91ed01	-0.017813208
124	0x3dbf0cfa	0.09328647
125	0xbc9f68db	-0.019459179
126	0x3cfdd743	0.030986434
127	0x3d770a62	0.060312636
128	0xbcea57ca	-0.028606314
129	0xbb4f877d	-0.003166645
130	0xbcaf1c17	-0.021375699
131	0xbc309df4	-0.010779846
132	0xbcca7e96	-0.024718564
133	0xbdb5454c	-0.08851108
134	0x3da679b5	0.081286825
135	0x3d50976f	0.05092567
136	0xbd8eb172	-0.06967439
137	0xbd45103f	-0.048111197
138	0x3d6d625d	0.057955135
139	0x3d28beb1	0.041197482
140	0x3c187d93	0.009307283
141	0x3d2b290f	0.041787203
142	0xbd8989e3	-0.06715753
143	0x3d88f4ee	0.06687342
144	0x3d9f3872	0.07774438
145	0x3ceb4e0c	0.02872374
146	0xbd685825	-0.056724686
147	0x3d53b6b0	0.051687896
148	0x3cbb6f96	0.022880357
149	0x3d9c4687	0.076306395
150	0x3c62e8de	0.013849465
151	0xbd8cb129	-0.06869728
152	0xbd26c771	-0.040717546
153	0x3da52775	0.080641665
154	0x3d8c3e2b	0.06847795
155	0xbd6228b0	-0.055214584
156	0xbcf0a6a6	-0.02937634
157	0xbd61c2f6	-0.05511757
158	0xbc9b31ac	-0.018944584
159	0xbd9b0768	-0.07569772
160	0x3d06e377	0.03293177
161	0xbd499c48	-0.049221307
162	0x3d6f0d8e	0.058362536
163	0xbdae3269	-0.08505709
164	0xbd14b1e3	-0.03630246
165	0xbd1f8821	-0.038948182
166	0xbd84fa61	-0.064930685
167	0x3c7f4456	0.015580257
168	0x3cfd8505	0.030947218
169	0xbd84ff58	-0.064940155
170	0x3d8b1349	0.06790788
171	0x3d666fbb	0.0562589
172	0x3cde7490	0.02715519
173	0xbda5797e	-0.080798134
174	0xbd76f3ac	-0.060290977
175	0x3d8f6f72	0.070036784
176	0xbd3b81cd	-0.045778085
177	0x3ce0b850	0.027431637
178	0x3da9ca47	0.082905345
179	0x3c974fcb	0.018470665
180	0xbb95ccea	-0.004571547
181	0x3d95a2ea	0.07306464
182	0x3c4ba380	0.012429118
183	0x3cda56df	0.026652751
184	0x3bdb00aa	0.006683429
185	0xbd19d683	-0.03755809
186	0xbcd95110	-0.026527911
187	0x3d8f0e75	0.06985179
188	0x3bcf38cb	0.006323909
189	0x3c7eb2bb	0.015545542
190	0xbb62ea1e	-0.0034624408
191	0xbd7b5545	-0.061360616
192	0xbd0ad00a	-0.033889808
193	0x3d19c771	0.037543718
194	0x3d03a662	0.032141097
195	0xbd6e5a0b	-0.05819134
196	0x3d8e5087	0.06948953
197	0x3ca750f0	0.020424336
198	0xbc4f86b3	-0.012666392
199	0xbd50edf1	-0.05100817
200	0x3d95f1c1	0.073215015
201	0xbd378dcf	-0.044812974
202	0xbda6c383	-0.0814276
203	0x3d6428cb	0.055702966
204	0xbbb13d8a	-0.0054089474
205	0xbcc361aa	-0.02385028
206	0xbc948960	-0.018131912
207	0xbc803ef0	-0.015655011
208	0xbcea1cd5	-0.028578201
209	0x3cf2e0bb	0.029648175
210	0xbd655b4d	-0.055995274
211	0x3cd19139	0.025581943
212	0x3bf687c5	0.007523509
213	0xbca77b9b	-0.020444682
214	0x3c176618	0.00924065
215	0xbc73d1ea	-0.01488159
216	0xbd06f8f6	-0.03295227
217	0x3d0fdb53	0.035121273
218	0x3db165cb	0.086619936
219	0x3d110670	0.03540653
220	0x3c5ad25f	0.01335582
221	0x3d7ab514	0.061207846
222	0x3d4840a4	0.04888977
223	0x3b12a252	0.0022374582
224	0xbd73eb32	-0.05955047
225	0x3c76a2a4	0.015053425
226	0x3d8e28c0	0.06941366
227	0xbd9ee756	-0.077589676
228	0x3d804e6c	0.06264958
229	0xbd58776f	-0.052848276
230	0x3da6aece	0.0813881
231	0x3d87c8c9	0.066300936
232	0x3d515958	0.051110595
233	0xbd4ea9b7	-0.05045482
234	0xbbf1b60c	-0.007376438
235	0x3d7d176b	0.06178991
236	0xbd73f414	-0.059558943
237	0xbcfd1a92	-0.030896459
238	0xbc6047e2	-0.013689013
239	0xbd8b6baf	-0.068076484
240	0x3c0130d9	0.007885181
241	0x3dab6f6c	0.083708614
242	0xbd5c09a6	-0.05372014
243	0x3d061e35	0.03274365
244	0xbc8488fa	-0.016178597
245	0xbc9a4e36	-0.018836122
246	0x3bee0bae	0.007264576
247	0x3cc50944	0.02405227
248	0x3d631c38	0.055446833
249	0xbdb6bfcb	-0.089233
250	0xbd5cedff	-0.05393791
251	0x3c014fda	0.007892573
252	0xbd21c522	-0.03949464
253	0x3d46389e	0.048393838
254	0xbd6db034	-0.05802937
255	0x3c81e083	0.015854126

func.linear2.bias f4 [450]
0	0x3d36acf6	0.044598542
1	0x3db9ab5f	0.090658896
2	0xbd7c67d5	-0.06162246
3	0xbd1d0a5d	-0.03833996
4	0x3d3f35a3	0.04668201
5	0xbcaecf69	-0.021339135
6	0xbdaeff73	-0.08544817
7	0x3d420ac3	0.047373544
8	0xbdbb0567	-0.0913189
9	0xbd745450	-0.05965072
10	0x3d40fe06	0.047117256
11	0xbc57354f	-0.013135268
12	0xbcd89d4a	-0.026442189
13	0xbcbc5387	-0.022989048
14	0x3cee3e6d	0.029082501
15	0x3d5b15a4	0.053487435
16	0xbc04974e	-0.0080927145
17	0x3cff7fc1	0.031188847
18	0x3d8642ae	0.06555687
19	0x3d262645	0.04056384
20	0x3d854e18	0.06509036
21	0xbd1d8f58	-0.03846678
22	0xbd199e75	-0.037504632
23	0xbd56898a	-0.05237726
24	0x3d246b7e	0.040141575
25	0xbd13440f	-0.035953578
26	0x3d6250bc	0.055252776
27	0xbd78a4d9	-0.060704086
28	0xbd23d8c4	-0.040001646
29	0x3c9315df	0.017954765
30	0xbdb660c3	-0.089051746
31	0x3cbea0f1	0.023270102
32	0x3b42268e	0.0029625031
33	0xbda45d91	-0.08025659
34	0xbd3cc99c	-0.046090707
35	0x3d5841bd	0.052797068
36	0x3d127bed	0.035762716
37	0x3c1e7f0a	0.009673843
38	0x3c85f991	0.016354354
39	0xbd37f1d5	-0.044908363
40	0xbd275e64	-0.040861502
41	0x3da0f827	0.07859831
42	0x3d81acac	0.06331763
43	0x3d98a809	0.07453925
44	0x3d2e57cb	0.042564195
45	0xbd53974b	-0.051657956
46	0x3d7b0b9d	0.061290372
47	0x3cd5490c	0.026035808
48	0x3d8aaebc	0.06771609
49	0x3d2380fa	0.039917924
50	0xbd33596b	-0.043786447
51	0xbd9de5be	-0.077098355
52	0xbd4ee037	-0.050506797
53	0xbc821fad	-0.015884245
54	0xbd80f269	-0.06296236
55	0xbda2f6fd	-0.079572655
56	0xbcf77e58	-0.030211613
57	0x3d1974e5	0.037464995
58	0x3c96b754	0.018397965
59	0xbda259c7	-0.0792728
60	0xbd19e935	-0.03757592
61	0xbcee68a9	-0.02910264
62	0x3d85ae19	0.06527347
63	0xbd1517cc	-0.036399648
64	0x3d13019f	0.035890218
65	0xbd9d2eac	-0.076749176
66	0x3db62d2f	0.08895337
67	0x3ca4fb11	0.020139249
68	0x3cbdb1ec	0.023156129
69	0x3c06bff9	0.008224481
70	0x3d0b1bb9	0.033961985
71	0xbb963ec0	-0.004585117
72	0xbd6b9ed3	-0.057524513
73	0xbd40419b	-0.046937566
74	0x3c5dc845	0.0135365175
75	0x3d8d2ab4	0.068929106
76	0x3daaa5c2	0.08332397
77	0x3d583162	0.05278147
78	0xbd56962c	-0.05238931
79	0xbd9aae26	-0.075527474
80	0xbdb4ee14	-0.08834472
81	0xbd3dc1de	-0.046327464
82	0x3d9783d9	0.07398195
83	0x3d5e9fc5	0.054351587
84	0x3dbde47e	0.09272097
85	0x3d29a6e4	0.041418925
86	0x3d302237	0.04300138
87	0x3cde8411	0.027162584
88	0x3d96d2cb	0.07364424
89	0x3d29aaf9	0.041422818
90	0x3cfe0182	0.031006578
91	0x3cd27319	0.025689648
92	0xbd8b91a8	-0.06814891
93	0xbcb1ff3b	-0.021728149
94	0xbd1bc93d	-0.038033713
95	0xbd2796c9	-0.040915284
96	0x3d92d663	0.07169797
97	0xbd6f8805	-0.058479328
98	0x3ce3b29f	0.027795134
99	0x3bd578b2	0.006514632
100	0x3d687fd9	0.05676255
101	0x3c974863	0.018467134
102	0xbc9fa67e	-0.01948857
103	0x3c7de0be	0.015495477
104	0xbcc8d0d8	-0.024513647
105	0xbd1bbbed	-0.038021017
106	0x3d69fcc1	0.05712581
107	0x3c85463a	0.016268838
108	0xbca49d83	-0.020094639
109	0x3da44527	0.08021002
110	0xbcde1058	-0.027107403
111	0xbd389bfe	-0.04507064
112	0xbb57efee	-0.0032949406
113	0x3b70eb9c	0.0036761528
114	0xbc24d045	-0.010059421
115	0x3dac29a5	0.084063806
116	0xbd9cbe2d	-0.07653461
117	0xbc944d81	-0.018103363
118	0xbd99c6dd	-0.07508633
119	0x3d6dcb75	0.05805536
120	0xbd8576b5	-0.06516782
121	0x3c927876	0.017879706
122	0xbd8e2d62	-0.0694225
123	0x3d6f9c10	0.058498442
124	0x3c379ac4	0.011206333
125	0x3da7b894	0.08189502
126	0x3d9edbe2	0.07756783
127	0x3d9b0255	0.07568804
128	0xbd6906b7	-0.05689117
129	0xbcbdc44b	-0.023164889
130	0x3d6e5919	0.05819044
131	0x3d9b2547	0.075754695
132	0x3da76f32	0.08175506
133	0x3c5571ab	0.013027589
134	0x3bea3425	0.0071473294
135	0xbccef330	-0.025262445
136	0xbc3332f5	-0.010937442
137	0x3d6d8031	0.05798358
138	0xbdbfaf9e	-0.09359668
139	0x3cc7d815	0.024395028
140	0x3d88c78a	0.06678684
141	0xbd5015dc	-0.050802097
142	0xbdb5719c	-0.0885956
143	0xbd7eff75	-0.06225534
144	0xbc6b62d9	-0.014366829
145	0x3d5a6ea0	0.053328156
146	0xbdac7e56	-0.08422534
147	0x3da1684c	0.07881221
148	0xbd19fccf	-0.037594613
149	0x3d9f831a	0.077886775
150	0x3d2e4bf4	0.042552903
151	0x3b341ade	0.0027481834
152	0xbcfdfb15	-0.031003514
153	0xbd2b8a0b	-0.041879695
154	0xbbef5ebc	-0.0073049944
155	0xbc457fb7	-0.012054375
156	0x3d8076a9	0.06272633
157	0x3d59a05e	0.053131454
158	0xbcbfb976	-0.023403864
159	0x3d859065	0.06521682
160	0x3c841c41	0.016126754
161	0xbb988710	-0.0046547726
162	0xbd8a4f59	-0.067534156
163	0x3cb64a16	0.022252124
164	0xbcbc0c30	-0.02295503
165	0xbcbf918a	-0.023384828
166	0x3d09adb5	0.033612926
167	0x3d6afa10	0.057367384
168	0xbd84f0aa	-0.064912155
169	0xbd6d8cde	-0.05799567
170	0x3d540a30	0.051767528
171	0x3c81a9cc	0.015828036
172	0xbd91b016	-0.07113664
173	0x3beb6c92	0.0071845734
174	0x3d015d98	0.0315834
175	0x3d08641c	0.033298597
176	0xbd4ec8e4	-0.050484553
177	0x3d0fb016	0.035080038
178	0x3d62f03c	0.055404887
179	0x3d8efb38	0.0698151
180	0x3c52b73f	0.012861072
181	0xbd06050e	-0.032719664
182	0x3c10ad4a	0.008830378
183	0x3d89ebfb	0.06734463
184	0x3b945eeb	0.0045279167
185	0x3ce7d389	0.02829911
186	0xbcdef0e3	-0.027214473
187	0x3c35af22	0.011089118
188	0xbd56f1c8	-0.052476674
189	0xbdb242df	-0.08704161
190	0x3d17d5d6	0.037069164
191	0xbd269674	-0.040670827
192	0xbd9930ef	-0.074800365
193	0x3d5a8ac0	0.05335498
194	0x3d851421	0.0649798
195	0x3d3c3c83	0.045956146
196	0x3da15c3d	0.07878921
197	0x3daa2def	0.083095424
198	0x3d3dfd91	0.046384398
199	0x3d47fb0a	0.048823394
200	0x3ab81cc5	0.001404666
201	0xbd0b9f99	-0.03408775
202	0x3d438889	0.047737632
203	0xbd19b527	-0.037526276
204	0xbd8ebb8d	-0.06969366
205	0x3da864b2	0.08222331
206	0x3d8b6235	0.06805841
207	0xbd2996f4	-0.041403726
208	0xbaf9f9e2	-0.0019071663
209	0x3cd541cf	0.026032357
210	0xbdaf0bf1	-0.085471995
211	0xbc3e12b6	-0.011601141
212	0x3d54815b	0.051881175
213	0x3d876278	0.06610578
214	0xbb536c6d	-0.0032260672
215	0xbdac7a61	-0.084217794
216	0xbd9100ef	-0.07080256
217	0xbdb61f1e	-0.08892654
218	0xbd8526fc	-0.06501576
219	0xbd925c66	-0.0714653
220	0x3d09c85b	0.03363834
221	0xbd854c17	-0.065086536
222	0x3c08abef	0.008341773
223	0xbd06c7ac	-0.032905266
224	0x3d0ce882	0.034401424
225	0xbd9540c9	-0.072877474
226	0x3c598480	0.013276219
227	0xbce72892	-0.028217588
228	0x3cdcc60d	0.026949907
229	0x3d453729	0.048148308
230	0xbd7dff25	-0.062010903
231	0xbd7a212e	-0.0610668
232	0xbd33f3b9	-0.043933604
233	0x3ccd61d0	0.025071055
234	0xbda38a6c	-0.07985386
235	0xbd03c37b	-0.032168847
236	0x3d9b9f2c	0.07598719
237	0xbc329336	-0.010899356
238	0x3d849212	0.06473173
239	0xbd5dcdea	-0.054151453
240	0x3da9d7df	0.08293127
241	0x3cea165f	0.02857512
242	0xbd7c86cd	-0.061651994
243	0x3c080180	0.008301139
244	0x3b8cd727	0.004298109
245	0xbcfd4522	-0.030916754
246	0xbd84e9b4	-0.06489888
247	0x3d882ecc	0.06649551
248	0xbb24c390	-0.0025140978
249	0xbc1a6406	-0.0094232615
250	0x3da32dd6	0.07967727
251	0xbd9cd120	-0.07657075
252	0xbc04f4a8	-0.008114971
253	0x3d9248b8	0.07142776
254	0xbd92073e	-0.071302876
255	0x3cb74285	0.022370586

initial.weight f4 [150, 3]
0	0x3f0e89f3	0.55679244
1	0x3e72a2d4	0.23694927
2	0xbeb09b2d	-0.3449339
3	0x3e1c178f	0.15243362
4	0xbdb53b09	-0.08849151
5	0xbe8100ac	-0.25195825
6	0x3ea63b27	0.32467005
7	0x3e1c2b0d	0.15250798
8	0xbef3adca	-0.47593528
9	0xbf00fd18	-0.5038619
10	0x3ec315f5	0.3810269
11	0xbf03fa14	-0.51553464
12	0xbe3f1613	-0.18660764
13	0xbd75e931	-0.06003684
14	0x3e8fe1f7	0.28102085
15	0x3ef3f8a1	0.47650626
16	0x3e32963a	0.1744012
17	0xbe11b4ca	-0.14229122
18	0x3e9a008b	0.3007854
19	0xbe2b59c5	-0.16733463
20	0xbea911bd	-0.33021346
21	0x3ea940eb	0.3305734
22	0x3ed99258	0.42494464
23	0xbe8c15fc	-0.27360523
24	0x3d7c434d	0.06158762
25	0xbe95f14b	-0.29285654
26	0xbea16965	-0.31525722
27	0xbf1447fa	-0.5792233
28	0xbe976f80	-0.29577255
29	0xbb814b5f	-0.0039457525
30	0xbc43aaa8	-0.011942543
31	0x3ed8154f	0.42203757
32	0x3f0caaa0	0.54947853
33	0xbdafacd1	-0.08577884
34	0xbef3754d	-0.4755043
35	0xbe063ca1	-0.13109066
36	0x3e2a0cf2	0.166065
37	0xbea98d99	-0.33115843
38	0xbe86cfe3	-0.2633048
39	0xbea1da0f	-0.31611678
40	0x3ee5b963	0.44868
41	0xbeec5a08	-0.46162438
42	0xbe766eff	-0.24065779
43	0xbe6cd15e	-0.23126742
44	0xbeca8428	-0.39553952
45	0x3ed81336	0.42202157
46	0xbe6eee84	-0.23333174
47	0xbe579852	-0.210542
48	0xbea01e36	-0.3127305
49	0x3e10e241	0.14148809
50	0xbf107ee5	-0.56443626
51	0x3e51d209	0.20490278
52	0xbe0b369b	-0.13595049
53	0x3d66da5a	0.05636058
54	0xbe58e0ef	-0.21179555
55	0x3d3ad396	0.04561194
56	0x3ea0a1c5	0.3137342
57	0x3db788c6	0.08961634
58	0xbd5c3ca6	-0.053768776
59	0xbefc55bc	-0.4928416
60	0x3e9f19fc	0.31074512
61	0x3ea5d917	0.3239219
62	0x3eeb7ac5	0.45992103
63	0x3e6c2c72	0.2306383
64	0x3e0372bf	0.12836741
65	0x3dd32729	0.103102036
66	0x3d63378e	0.055472903
67	0xbede899b	-0.4346436
68	0x3e1217d9	0.1426691
69	0xbbdfbab1	-0.0068276753
70	0xbb2377dd	-0.002494327
71	0xbe7b06f1	-0.24514367
72	0xbe5e8913	-0.21731977
73	0x3ee74b7f	0.45174786
74	0xbb8a0b06	-0.00421274
75	0x3e212f6e	0.15740749
76	0x3f051a02	0.5199281
77	0x3ee183e4	0.44045937
78	0x3cb76540	0.022387147
79	0xbebdfc68	-0.37106633
80	0x3ec40080	0.3828163
81	0xbeb30e72	-0.34971958
82	0xbf0a9a8b	-0.54142064
83	0x3e70cdbf	0.23515986
84	0x3ca31bb8	0.019910678
85	0x3d897535	0.067118086
86	0x3eb3921b	0.35072407
87	0xbef19d60	-0.4719038
88	0xbe9edfcf	-0.31030127
89	0x3f07de98	0.53074026
90	0x3ee6f84d	0.45111313
91	0xbec1b928	-0.37836576
92	0xbed36449	-0.4128745
93	0x3e23f792	0.1601241
94	0x3d94552e	0.07242809
95	0x3eed93d4	0.46401846
96	0xbe3b914f	-0.1831715
97	0x3eaefadc	0.34175766
98	0x3d8f7dee	0.07006441
99	0x3eeb927d	0.460102
100	0xbece4cb3	-0.40292892
101	0xbdbd0382	-0.09229185
102	0x3e8aa259	0.27076986
103	0xbe52bbac	-0.20579404
104	0x3f0fa21e	0.56106746
105	0x3e567b9d	0.20945592
106	0x3cd3a5a5	0.025835821
107	0xbefb44d0	-0.49075937
108	0xbea00a5e	-0.3125791
109	0xbefc0c30	-0.49228048
110	0xbe188f73	-0.14898472
111	0x3eeff814	0.46868956
112	0xbf0b55bd	-0.544277
113	0x3e8a272f	0.2698302
114	0xbda64de7	-0.081203274
115	0x3eeb72c5	0.45986
116	0xbe49c176	-0.19702706
117	0x3e713751	0.23556258
118	0xbf0fe547	-0.56209224
119	0x3e937e6b	0.28807387
120	0xbeda08aa	-0.42584735
121	0xbe11a124	-0.14221627
122	0x3e6ee220	0.23328447
123	0x3e8216ac	0.25407922
124	0xbde8476b	-0.11341747
125	0xbf02be42	-0.5107156
126	0x3e679db9	0.2261876
127	0x3ef8ef7b	0.4862021
128	0x3c54a55a	0.012978876
129	0xbe8f3774	-0.27971995
130	0xbe9c867e	-0.3057136
131	0x3ec07384	0.3758813
132	0xbea1e32d	-0.31618634
133	0xbeee3643	-0.46525773
134	0x3ea9d7af	0.33172366
135	0xbe260e93	-0.16216497
136	0xbdaa07c7	-0.08302265
137	0xbf10cd1d	-0.5656298
138	0x3ebcb548	0.36857057
139	0xbdb508bb	-0.08839556
140	0x3ea39ae9	0.31954125
141	0x3ec5c0cb	0.38623652
142	0xbd8911b5	-0.066928305
143	0xbe0b7c57	-0.1362165
144	0x3e1837aa	0.14864984
145	0xbd19cc9e	-0.037548654
146	0xbec4322b	-0.38319525
147	0xbec493bc	-0.38393962
148	0xbe3f7b8c	-0.18699473
149	0x3d0612bc	0.03273271
150	0xbdfa73da	-0.12229128
151	0xbf10bf55	-0.5654195
152	0x3e16055b	0.1465048
153	0x3e96a2da	0.2942112
154	0x3de67a69	0.11253817
155	0x3f0fc3e8	0.56158304
156	0x3df509ae	0.11964737
157	0xbe8598a8	-0.2609303
158	0xbf0f6e9f	-0.5602817
159	0xbcb1d4ba	-0.021707881
160	0x3dfdf203	0.12399676
161	0xbec23791	-0.3793302
162	0x3e130197	0.14356075
163	0xbeb32474	-0.3498875
164	0xbe6043dd	-0.21900888
165	0x3f0e0537	0.5547671
166	0xbe3d18a7	-0.18466435
167	0x3e563636	0.20919117
168	0x3efccc4b	0.49374613
169	0xbd5f9ad0	-0.054591
170	0x3edc4fdb	0.43029675
171	0xbeb5d98f	-0.35517547
172	0x3ea80a37	0.32820293
173	0xbddcdcc2	-0.10784294
174	0x3b577f3c	0.0032882234
175	0xbdd2123a	-0.10257383
176	0x3e9ce3e6	0.30642623
177	0xbd923df0	-0.0714072
178	0xbf082863	-0.53186625
179	0xbf1103db	-0.5664651
180	0xbeb20a25	-0.34773365
181	0xbe85f814	-0.2616583
182	0xbed948c7	-0.42438337
183	0xbed88155	-0.42286173
184	0xbd95eae4	-0.073201925
185	0xbedd38c8	-0.43207383
186	0x3ec72d42	0.38901716
187	0x3ed3d6a3	0.41374692
188	0x3e4cd392	0.20002583
189	0x3efcef2c	0.49401224
190	0x3ddb24d2	0.10700382
191	0x3de48514	0.11158195
192	0xbf032655	-0.51230365
193	0x3e8fddec	0.28099
194	0xbeec0071	-0.46094087
195	0x3eddf54f	0.43351218
196	0xbe8e20c9	-0.27759388
197	0xbe06f249	-0.13178362
198	0xbf021307	-0.50810283
199	0x3e75ac00	0.23991394
200	0xbe7837e9	-0.24240078
201	0x3e5a5361	0.21320869
202	0xbd287d91	-0.041135374
203	0xbea419b9	-0.32050875
204	0x3e018153	0.1264699
205	0xbddb4471	-0.107064135
206	0x3e0034bd	0.12520118
207	0x3e3d5c6d	0.18492289
208	0x3e976314	0.29567778
209	0xbec86da0	-0.39146137
210	0x3eeb2bf5	0.45931974
211	0x3e57a4b1	0.21058919
212	0xbe1a8aab	-0.1509196
213	0x3eabf29d	0.33583537
214	0x3ca797ab	0.020458063
215	0xbecc79b7	-0.3993661
216	0xbd2216cf	-0.039572533
217	0xbe32b5c9	-0.17452158
218	0xbcc7ef69	-0.024406152
219	0x3f0158f6	0.5052637
220	0xbf0fe715	-0.5621198
221	0xbe75e7e9	-0.24014248
222	0x3e54ae6c	0.20769662
223	0xbeea9463	-0.45816335
224	0xbedcd8bf	-0.43134114
225	0x3e80f214	0.2518469
226	0xbec85bb0	-0.39132452
227	0x3ea34f8c	0.31896627
228	0xbf0af1a8	-0.5427499
229	0x3e9bc8c8	0.3042662
230	0x3ea2f38a	0.3182643
231	0xbf0d1fb6	-0.5512651
232	0x3ece881e	0.40338224
233	0xbe42cdb8	-0.19023788
234	0x3e064447	0.13111983
235	0x3e8a07f7	0.26959202
236	0x3ea35a7b	0.3190497
237	0x3ef0baf4	0.47017634
238	0x3ee124d3	0.43973407
239	0xbcc470e8	-0.02397962
240	0xbe5fd9f7	-0.2186049
241	0x3e9ed476	0.3102147
242	0x3e7a97fd	0.24472041
243	0x3e50cc09	0.20390333
244	0x3e332e99	0.17498244
245	0xbf0ccbb5	-0.5499833
246	0x3e42b709	0.19015135
247	0x3e4554ec	0.19270676
248	0x3e845995	0.25849596
249	0xbec23ce8	-0.37937093
250	0xbe987176	-0.29774064
251	0xbe5cd702	-0.21566394
252	0x3f14ee18	0.581758
253	0x3ee18e25	0.4405376
254	0xbe8793a6	-0.26479834
255	0xbeda8b38	-0.4268434

initial.bias f4 [150]
0	0xbe479240	-0.19489384
1	0x3ecd55dc	0.40104568
2	0xbf0b2f78	-0.54369307
3	0xbe58124f	-0.21100734
4	0x3e5d8b0b	0.21635072
5	0xbebe3dc7	-0.37156507
6	0x3e05a469	0.13050999
7	0xbe83d55d	-0.2574872
8	0xbef29a1d	-0.47383204
9	0xbf072789	-0.527947
10	0xbea92359	-0.3303478
11	0x3f0a98bb	0.541393
12	0xbe3936c7	-0.18087302
13	0x3e41d3f2	0.18928507
14	0x3ef953cf	0.48696753
15	0x3e0d428a	0.13794914
16	0xbf0eb05a	-0.5573784
17	0xbe38576e	-0.18002102
18	0xbe7b8704	-0.24563223
19	0x3d7ba8c1	0.061440233
20	0xbdee1a4e	-0.11626111
21	0xbd62624e	-0.055269532
22	0xbdda0bef	-0.106468074
23	0x3ddd2b8b	0.10799321
24	0xbe8f5d3e	-0.28000826
25	0x3eb2cc8b	0.3492168
26	0x3e9e2e23	0.30894575
27	0xbf1170b0	-0.5681257
28	0x3e60f1ef	0.2196729
29	0x3e8ba2b5	0.27272573
30	0x3d625602	0.055257805
31	0xbe2c08e8	-0.16800272
32	0x3ee68fac	0.45031488
33	0xbed94d99	-0.42442015
34	0x3efe4a52	0.49666077
35	0xbe9e2628	-0.30888486
36	0xbef5ad2c	-0.47983682
37	0xbcb866e4	-0.02251
38	0x3eb8525a	0.3600033
39	0xbda5ac02	-0.080894485
40	0xbef687d2	-0.48150498
41	0xbf004560	-0.5010586
42	0x3f097167	0.53688663
43	0x3f0fcbdd	0.56170446
44	0xbf0e7eb1	-0.55662066
45	0xbee83189	-0.45350292
46	0x3e057c23	0.13035636
47	0xbe851053	-0.25989017
48	0xbecca946	-0.39972895
49	0xbf018412	-0.5059215
50	0xbe33da58	-0.1756376
51	0x3e810b2b	0.25203833
52	0xbea514c2	-0.322424
53	0xbd00e7d7	-0.0314711
54	0xbe64512a	-0.22296587
55	0xbe1a6989	-0.15079321
56	0xbef02173	-0.4690052
57	0xbf0c2d0a	-0.54756224
58	0x3ea7acd2	0.3274904
59	0xbe31f81e	-0.17379805
60	0xbe32a29f	-0.17444848
61	0xbedc4017	-0.43017647
62	0x3ead61f0	0.33863783
63	0xbda8a95c	-0.08235428
64	0x3d34b57c	0.04411839
65	0xbe9fcf1c	-0.312127
66	0xbeefbbea	-0.46823055
67	0xbe14f886	-0.14547929
68	0xbe388239	-0.18018426
69	0x3e829339	0.25502947
70	0x3e1e37f7	0.15451036
71	0xbec72f9c	-0.3890351
72	0xbe5aa7cd	-0.21353073
73	0x3d11e1d9	0.035615776
74	0x3eb44926	0.35212058
75	0x3d3816c5	0.04494359
76	0x3e3db231	0.18525006
77	0xbe3cf7ec	-0.1845395
78	0xbea89288	-0.32924294
79	0x3ca44e4d	0.020056868
80	0x3f1574d6	0.583814
81	0x3dac5427	0.08414488
82	0x3c9d19f3	0.019177413
83	0xbf0fe65b	-0.5621087
84	0xbea27ff1	-0.31738237
85	0x3ecde6cb	0.40215144
86	0xbdca6901	-0.09883309
87	0xbf058385	-0.5215381
88	0x3d77035c	0.060305938
89	0xbeb26f8f	-0.34850737
90	0xbeb59a21	-0.35469154
91	0x3e79f785	0.24410827
92	0x3eac9fd7	0.33715698
93	0xbeb63f7e	-0.35595316
94	0x3eace56e	0.3376879
95	0x3ebcd4c3	0.36881074
96	0x3e8666a3	0.2625018
97	0x3ef57e93	0.4794813
98	0xbec27f0a	-0.37987548
99	0x3c5cba53	0.0134721575
100	0xbe34d9ae	-0.17661163
101	0xbde1138b	-0.10990056
102	0xbe14079f	-0.14456032
103	0x3eb6b4dd	0.35684863
104	0xbf0d43c0	-0.55181503
105	0xbc35f1b7	-0.011104993
106	0xbe58f955	-0.21188863
107	0x3ef8ea83	0.48616418
108	0x3e4f9146	0.20270261
109	0x3cfc77b6	0.030818801
110	0xbedad5b1	-0.4274116
111	0xbeb69af4	-0.35665095
112	0x3efc5ce8	0.49289632
113	0xbeb7946b	-0.3585542
114	0xbb3fda20	-0.00292743
115	0x3eb6252a	0.3557523
116	0xbeeaec22	-0.4588328
117	0x3eaf2867	0.34210512
118	0xbca2170c	-0.01978638
119	0x3d99fa06	0.07518391
120	0x3f01096c	0.50405
121	0xbc01b36d	-0.007916314
122	0xbecfa3e2	-0.4055472
123	0xbecadb7e	-0.39620584
124	0x3eaea236	0.34108132
125	0x3ec04b1a	0.37557298
126	0xbf0489d6	-0.5177282
127	0xbec259df	-0.3795919
128	0xbe8bf6fe	-0.27336878
129	0x3e4c5b53	0.19956712
130	0x3ef9a705	0.48760238
131	0xbe162e5f	-0.14666127
132	0x3d0ddc96	0.034634195
133	0x3c838398	0.01605396
134	0xbe537a76	-0.20652184
135	0xbeae258a	-0.34013015
136	0x3e183dda	0.14867344
137	0xbf09f477	-0.5388865
138	0xbf002a40	-0.5006447
139	0x3f12cf70	0.57347775
140	0xbe919e24	-0.28440964
141	0xbc0618f7	-0.008184663
142	0x3e922fe3	0.2855216
143	0x3f0f4ef2	0.55979836
144	0xbecbf9b8	-0.39838958
145	0xbecf56b3	-0.40495834
146	0x3ccbc5b6	0.02487455
147	0x3eab2716	0.33428258
148	0x3eeab77c	0.45843112
149	0xbd932508	-0.071847975

readout.weight f4 [126, 150]
0	0x3d012221	0.03152669
1	0x3d1dbd32	0.03851051
2	0xbd8bc4d4	-0.06824651
3	0xbd91fdee	-0.07128511
4	0x3d7f4263	0.06231917
5	0xbcf502da	-0.029908586
6	0xbc539453	-0.012913781
7	0x3cc663c2	0.02421749
8	0xbd38e8a4	-0.04514374
9	0xbd7ca200	-0.061677933
10	0xbd78cac2	-0.06074024
11	0xbd21f322	-0.03953851
12	0x3d236f5f	0.039901134
13	0x3d742d42	0.059613474
14	0xbc9b0137	-0.018921478
15	0xbd5df7b2	-0.0541913
16	0x3d85ffa7	0.065429024
17	0xbd62c7d6	-0.05536636
18	0x3d669297	0.056292143
19	0x3d3dea14	0.046365812
20	0xbd5d6436	-0.054050647
21	0x3d03c3fb	0.032169323
22	0x3d9661d1	0.07342876
23	0xbd718e89	-0.058973823
24	0x3c8eb9f2	0.01742265
25	0xbd827ac3	-0.06371071
26	0xbcdd6915	-0.027027646
27	0x3d1a2b0c	0.03763871
28	0xbd239e72	-0.039946027
29	0xbd943666	-0.07236938
30	0xbd4bb00c	-0.04972844
31	0xbd0db156	-0.03459295
32	0xbca2661b	-0.019824078
33	0x3d80e342	0.06293346
34	0xbd37b06f	-0.044845995
35	0x3cdeedd1	0.02721301
36	0xbcb749af	-0.022374002
37	0x3d842fd9	0.06454439
38	0x3d55fb87	0.05224183
39	0x3d04e62e	0.03244608
40	0xbd40d7ac	-0.04708068
41	0x3d474b5a	0.048655845
42	0x3c70a902	0.014688732
43	0xbcf50a73	-0.02991221
44	0xbd0dd327	-0.0346252
45	0xbc044ce7	-0.008074976
46	0x3c7bca09	0.015367993
47	0x3cc66cbe	0.024221774
48	0x3c9e6346	0.019334447
49	0x3d81c6e2	0.06336762
50	0xbd962f0e	-0.07333194
51	0xbc8fae27	-0.017539097
52	0x3c9df075	0.019279698
53	0x3d36f255	0.0446647
54	0x3bbfd625	0.0058543854
55	0x3d85fb2b	0.06542047
56	0x3d510815	0.0510331
57	0x3ca69157	0.020332975
58	0xbd46a8e1	-0.0485009
59	0xbd75b731	-0.059989158
60	0xbd94d0d2	-0.07266392
61	0xbc91d425	-0.017801354
62	0xbd78ed66	-0.060773276
63	0xbd775bed	-0.0603904
64	0xbd75c895	-0.060005743
65	0x3b9885e8	0.0046546347
66	0x3d4e8821	0.05042279
67	0x3d9d79a4	0.07689217
68	0x3d7fadea	0.062421717
69	0xbd2ef206	-0.04271128
70	0xbcbe4375	-0.023225525
71	0x3d4ab3b4	0.049487785
72	0xbd0f96ba	-0.035055853
73	0xbd1270be	-0.03575205
74	0x3d1dad12	0.03849513
75	0x3d317e43	0.043333303
76	0x3d428059	0.047485683
77	0x3d0214d3	0.03175814
78	0xbd89c16c	-0.067263454
79	0xbda1ac4d	-0.07894192
80	0x3d1bf32e	0.03807371
81	0xbd8cef7f	-0.06881618
82	0x3ce4e670	0.027941912
83	0x3bc79e26	0.006091851
84	0xbd0b6a3f	-0.03403687
85	0xbd3bf3fa	-0.04588697
86	0x3ccfeb03	0.025380617
87	0xbd3fe10f	-0.046845492
88	0x3d4e9bef	0.05044168
89	0x3d87fcae	0.06639992
90	0xbd03d34f	-0.03218394
91	0x3cfd0587	0.030886425
92	0xbb99afcf	-0.0046901475
93	0x3bf23b30	0.0073923096
94	0xbd2b821f	-0.04187214
95	0x3d138d92	0.036023684
96	0x3d6d7314	0.057971075
97	0x3d997a3b	0.07494017
98	0x3d605972	0.0547728
99	0xbd8fb0b0	-0.07016122
100	0x3c9bb4bd	0.019007081
101	0xbcb7724d	-0.02239337
102	0xbc674e1c	-0.014117744
103	0x3b58b5a4	0.003306725
104	0x3d500d8e	0.050794177
105	0x3c92ce37	0.017920597
106	0x3da6b606	0.08140187
107	0x3c8b4fb9	0.017005788
108	0x3d4db220	0.0502187
109	0x3c9d710b	0.019218942
110	0x3d4b2b19	0.049601648
111	0xbb7b667b	-0.0038360644
112	0xbc267633	-0.010160017
113	0x3ce5c6d8	0.028048918
114	0x3afce2ed	0.0019293703
115	0x3d5be028	0.05368057
116	0x3d53042e	0.051517658
117	0x3d311d2b	0.043240707
118	0x3d93748f	0.07199966
119	0xbcf7dbaf	-0.03025612
120	0x3c0a91f2	0.008457648
121	0xbd72670b	-0.0591803
122	0xbd941df6	-0.07232277
123	0x3c5ee67e	0.013604758
124	0x3d2453bb	0.040118914
125	0x3c1c1cda	0.009528363
126	0x3d95986b	0.07304462
127	0x3d603bce	0.054744534
128	0xbd1561c4	-0.03647019
129	0xbd984d6b	-0.07436641
130	0xbcfc05c3	-0.030764466
131	0x3bec01ab	0.0072023473
132	0xbd8d499a	-0.06898804
133	0xbd33e325	-0.043917794
134	0x3da60914	0.081072
135	0xbc72f15f	-0.014828055
136	0x3d2714b1	0.040791217
137	0x3b1c0b77	0.0023810545
138	0x3c3def9b	0.011592771
139	0x3d364f1f	0.04450905
140	0xbac3a349	-0.0014925982
141	0x3d3fdf56	0.04684385
142	0xbd1576ca	-0.03649024
143	0x3d92d29b	0.07169076
144	0x3da5b2a3	0.08090713
145	0x3d2ee391	0.042697493
146	0x3b529b8e	0.0032136175
147	0xbcd10404	-0.02551461
148	0x3d0d35fa	0.034475304
149	0x3d830bea	0.06398757
150	0x3d8803d6	0.06641357
151	0xbcb463c8	-0.022020236
152	0x3da8b0cc	0.08236846
153	0x3cc11d95	0.023573676
154	0x3d67fac8	0.056635648
155	0xbd95c6ac	-0.07313284
156	0xbd36bb31	-0.044612113
157	0x3cd92859	0.026508497
158	0x3d965613	0.07340636
159	0x3bbe6e65	0.0058115
160	0xbd7551a7	-0.059892323
161	0x3d2adada	0.04171262
162	0xbd8b1f6d	-0.06793103
163	0xbcd9332c	-0.026513658
164	0x3c8a7295	0.01690034
165	0x3caf8b01	0.021428587
166	0xbcc2a901	-0.023762228
167	0x3d5c5634	0.053793147
168	0xbd4233d6	-0.047412716
169	0xbd7891ed	-0.06068604
170	0xbd947ec3	-0.072507404
171	0xbb689850	-0.0035491176
172	0xbc47ddae	-0.012198849
173	0xbc60f724	-0.013730798
174	0xbc3cbbff	-0.011519431
175	0xbd19d46b	-0.037556093
176	0x3d4690c5	0.048477907
177	0xbd4ac6e3	-0.04950608
178	0xbba0f7f0	-0.004912369
179	0x3d52047f	0.05127382
180	0x3d58cd68	0.052930266
181	0x3cc9f86e	0.024654593
182	0xbd84c9ee	-0.064838275
183	0xbd88d31d	-0.06680892
184	0x3d423c4e	0.047420792
185	0xbd987591	-0.07444299
186	0xbd899651	-0.06718124
187	0x3d836eb9	0.06417603
188	0xbd6b7ec5	-0.057493944
189	0xbce8bcf8	-0.02841042
190	0x3ca20f10	0.019782573
191	0x3c1751cf	0.009235813
192	0xbcca2b71	-0.024678918
193	0xbc16e103	-0.00920892
194	0xbd8824e1	-0.06647659
195	0xbc01f05c	-0.007930841
196	0xbcb81f5e	-0.022475895
197	0xbc3966f6	-0.011316052
198	0xba945efb	-0.001131981
199	0x3bc148fb	0.0058985925
200	0xbc65e083	-0.014030579
201	0x3cc52423	0.024065083
202	0x3d01fbe3	0.03173436
203	0x3d9c3983	0.07628157
204	0xbd8f3efe	-0.06994437
205	0xbd874d8e	-0.06606589
206	0x3b50a76b	0.003183807
207	0x3c56d8c4	0.013113204
208	0x3d577919	0.052605722
209	0xbc836344	-0.016038544
210	0x3c0eec8d	0.00872339
211	0xbd46adfd	-0.048505772
212	0x3d428761	0.04749239
213	0x3cccea6c	0.025014125
214	0x3d924110	0.07141316
215	0x3d466cf1	0.04844374
216	0x3ca32099	0.019913005
217	0x3d5b44fe	0.053532593
218	0x3bd63fa8	0.00653835
219	0xbd4fd25e	-0.05073773
220	0xbcd51dbf	-0.02601516
221	0x3d8f8a97	0.07008856
222	0xbcc29337	-0.023751838
223	0xbd7c59f0	-0.06160921
224	0x3ce76fc2	0.028251532
225	0x3cda8e6c	0.02667924
226	0xbd4cbc22	-0.049984105
227	0x3ca21941	0.019787433
228	0x3d86ff91	0.06591714
229	0x3d8658f7	0.065599374
230	0xbdb0770f	-0.086164586
231	0x3d7430d7	0.05961689
232	0x3d4c726a	0.0499138
233	0xbd8b710a	-0.0680867
234	0x3d54f825	0.05199446
235	0x3d14ae8d	0.036299277
236	0xbc0bbe6b	-0.008529286
237	0xbda9f51b	-0.08298703
238	0xbca830c3	-0.020531064
239	0x3d32e732	0.043677516
240	0x3d9d7b54	0.076895386
241	0x3d27c850	0.040962517
242	0x3d8f6775	0.07002155
243	0x3cf5ae83	0.02999044
244	0xbd51ca0c	-0.051218078
245	0xbc53be85	-0.012923841
246	0x3d9284d9	0.07154245
247	0xbd915628	-0.07096511
248	0x3d2fa079	0.042877648
249	0x3bae9325	0.0053275996
250	0xba535777	-0.00080620445
251	0x3d67e486	0.05661442
252	0x3ca2f147	0.01989044
253	0xbd3d3c8e	-0.046200328
254	0x3c9fc422	0.019502703
255	0x3cc827e6	0.024433088

readout.bias f4 [126]
0	0x3d2657f5	0.040611226
1	0xbbd50d4b	-0.006501829
2	0x3d79f03c	0.06102012
3	0xbb7c0920	-0.0038457587
4	0xbd39f1d7	-0.045396652
5	0xbc15e475	-0.009148707
6	0x3c98d71d	0.018657262
7	0x3d6de4c4	0.058079496
8	0x3d8f0ca9	0.069848366
9	0xbd41bafa	-0.047297455
10	0xbc9ac599	-0.01889305
11	0xbd3f19db	-0.046655517
12	0x3b2ac7be	0.0026058997
13	0xbd71de9f	-0.0590502
14	0xbca98efb	-0.020698061
15	0x3cd2fff9	0.025756823
16	0x3d138bbf	0.036021944
17	0xbd5f56ee	-0.054526262
18	0xbd92d072	-0.07168664
19	0x3d63dca5	0.055630345
20	0x3d5ab948	0.053399354
21	0x3d96feba	0.07372804
22	0xbce2cac7	-0.027684582
23	0xbd01fdf9	-0.031736348
24	0xbda8cfec	-0.08242783
25	0x3c9015ee	0.017588582
26	0xbc1c7f07	-0.00955177
27	0x3d11bec0	0.035582304
28	0x3d6f9b0e	0.05849748
29	0xbda6bb6f	-0.08141219
30	0x3d016b79	0.031596635
31	0x3d83963b	0.064251386
32	0xbc716a0b	-0.014734755
33	0xbd5a5924	-0.053307667
34	0xbd9f2fc2	-0.07772781
35	0x3d25e169	0.04049817
36	0xbda6b558	-0.08140057
37	0x3cd01d2f	0.02540454
38	0x3c2dd864	0.010610674
39	0x3c9e8e7c	0.019355051
40	0x3ce8612b	0.028366646
41	0xbd432c24	-0.047649518
42	0xbc4f103a	-0.012638146
43	0xbca385ff	-0.019961355
44	0x3d3b621e	0.04574787
45	0x3d902dd5	0.07039992
46	0xbcb7497e	-0.022373911
47	0xbcb978e0	-0.022640646
48	0xbd0a93cd	-0.03383236
49	0x3d35e0de	0.044403903
50	0xb28384e7	-1.5310844e-08
51	0xbd0d77bc	-0.034538016
52	0xbcdad946	-0.026714932
53	0x3d88fe95	0.06689183
54	0x3d20461e	0.03912937
55	0xbd6f4ee2	-0.058424838
56	0x3cbb9502	0.0228982
57	0xbd7f81e9	-0.06237975
58	0xbd2e434c	-0.042544648
59	0x3d3687cb	0.044563096
60	0x3d83fe35	0.064449705
61	0x3d852ac5	0.06502298
62	0x3cc04d6c	0.023474418
63	0xbd6315d6	-0.055440746
64	0x3c8df7a6	0.017330002
65	0xbc2f74e8	-0.010709025
66	0x3c74d0e7	0.014942384
67	0xbd110f28	-0.035414845
68	0x3d531d83	0.051541816
69	0xbd264a77	-0.04059836
70	0xbc8e6d59	-0.017386125
71	0xbbfe64f1	-0.007763498
72	0xbbf4254e	-0.007450736
73	0x3ca790fe	0.02045488
74	0x3d3eae93	0.046553206
75	0xbd89a23c	-0.06720397
76	0x3be67315	0.007032762
77	0x3c93d238	0.018044576
78	0xbd798ad6	-0.06092342
79	0xbd8049dc	-0.062640876
80	0xbb774471	-0.0037730003
81	0xbd3a9b3d	-0.045558203
82	0x3d43e55c	0.047826156
83	0x3d0ab9ae	0.033868484
84	0x3d36214d	0.04446535
85	0xbd9e322d	-0.07724414
86	0xbd1fe3cc	-0.039035603
87	0x3d82e536	0.06391375
88	0x3d8eba11	0.06969083
89	0xbd96acfb	-0.07357212
90	0x3cfb8c13	0.030706441
91	0x3cab3b9c	0.020902447
92	0xbda40143	-0.08008053
93	0xbccc22d3	-0.02491895
94	0xbc0f9686	-0.008763915
95	0x3d801fc6	0.0625606
96	0xbd20cdac	-0.039258644
97	0x3d8f3adf	0.06993651
98	0xbd871e45	-0.0659757
99	0xbd929c33	-0.07158699
100	0x3d52877d	0.051398743
101	0x3c18e868	0.009332754
102	0xbdaa5242	-0.08316471
103	0xbd9279e2	-0.071521536
104	0xbc437f84	-0.011932258
105	0x3d62b2b5	0.05534621
106	0x3d773033	0.0603487
107	0xbd44b184	-0.048020855
108	0x3d91f349	0.07126481
109	0x3d8c93d3	0.06864133
110	0xbc6f0b6c	-0.0145901255
111	0xbda443e6	-0.08020763
112	0xbda35475	-0.07975093
113	0xbd894f68	-0.06704599
114	0xbb74af17	-0.0037335807
115	0x3b1495ef	0.0022672375
116	0xbd7b8e41	-0.06141496
117	0xbd21a683	-0.03946544
118	0x3d3307e5	0.0437087
119	0x3d4d5dc5	0.050138254
120	0xbd8efd9e	-0.069819674
121	0x3d38f969	0.04515973
122	0x3b886274	0.004162127
123	0xbd34b884	-0.04412128
124	0xbc40f28b	-0.011776577
125	0xbd922b10	-0.0713712
